Goodminton/Assets/results/Badminton1/Badminton/Badminton-55869.pt (torch, 439098 bytes, 36 tensors)

network_body._body_endoder.seq_layers.0.weight f4 [128, 5]
000000 43 1f 1f 3f f2 ac a0 3e e6 00 27 bf 19 bf 95 bd
       0.62157077 0.31381947 -0.65235746 -0.073118396
000010 c5 74 99 be be c8 c3 3d 37 27 d2 3e 10 94 b0 3e
       -0.299719 0.09559773 0.41045544 0.34487963
000020 2b 25 fe be 99 97 dc 3e 34 2f 95 3d 40 84 74 bf
       -0.49637732 0.4308441 0.07284394 -0.955143
000030 1b be 8b be 76 8b 38 bf d1 ed 28 be 0c 06 82 be
       -0.27293476 -0.720878 -0.1649697 -0.25395238
000040 28 3a 90 be d2 47 72 be 69 18 e2 be 38 d7 a9 3e
       -0.2816937 -0.2366021 -0.44159248 0.3317201
000050 1d 5f ba be 06 5f 2b bf e9 1c 82 be 29 80 e6 3d
       -0.3640069 -0.6694187 -0.25412682 0.11254913
000060 37 41 33 bf 25 49 1f bf eb 07 80 bc b2 d4 e5 3e
       -0.70021385 -0.62220985 -0.015628776 0.44888836
000070 a1 15 8f 3d 87 6d 9e be ef da ee be a0 03 f5 be
       0.06986547 -0.30942938 -0.46651408 -0.47854328
000080 41 57 d2 3e ac 4d d6 3e 7e e5 1b bf e2 85 89 3e
       0.41082194 0.41856134 -0.6089705 0.26859957
000090 20 53 f5 be 8b ff 10 3d 69 3d b2 be f6 77 e3 3e
       -0.47914982 0.035399955 -0.34812477 0.4442746
0000a0 bc d7 a5 3e 5e b7 a1 3e 87 bc c1 be c4 b6 5a 3e
       0.32391155 0.3158521 -0.37839147 0.21358782
0000b0 67 64 2a 3f 1e 8a c3 3d 16 57 30 bf 45 20 53 3e
       0.6655945 0.09547828 -0.6888288 0.20617779
0000c0 9d c5 30 bf 34 a2 c4 3e b9 fa de bc 56 2e a6 3d
       -0.69051534 0.38405 -0.027219163 0.08114307
0000d0 b2 6e 14 bd 3d dc 25 be b3 a1 1a bf 7a e1 4c 3e
       -0.03623838 -0.16197295 -0.60402983 0.20007887
0000e0 2b 94 29 3e 91 8a 8d bd 1a 5c f3 3e 9e 82 96 3e
       0.16560428 -0.06911195 0.47531205 0.29396528
0000f0 2d 4f fd bd 65 79 02 be 10 25 8a be e3 4f 10 bf
       -0.12368617 -0.12741621 -0.269814 -0.563719
000100 51 86 db be f2 85 f0 3e 4a d1 46 be 32 52 33 3f
       -0.42875913 0.46977192 -0.19415775 0.70047295
000110 05 cc 3b bf 2f 3e 2d be a0 da 68 bf a0 0b 57 be
       -0.73358184 -0.16918252 -0.90958595 -0.21000528
000120 cd 5b c7 3d 72 64 ba 3e 09 67 9b 3e 7c c6 3e 3f
       0.097343065 0.3640476 0.30352047 0.74521613
000130 82 09 c5 3e 2b 9f d3 bd 23 ee 15 3f 6b 0a d2 3e
       0.38483816 -0.10333093 0.5856649 0.41023573
000140 65 b9 1d bf d5 5a 86 3f 2e b8 38 be e1 cc 52 3f
       -0.61611015 1.049647 -0.18039009 0.8234387
000150 26 9a 88 3f 63 b1 a6 3e 65 76 92 3e df 3c 0a 3e
       1.0672042 0.3255721 0.28605953 0.13499783
000160 5d 57 6f 3f 2e 39 f3 be 29 46 af bd 41 45 20 3f
       0.9349268 -0.47504562 -0.08558304 0.62605673
000170 04 bc ec 3e 0f 90 4c bf 66 a5 1d bd b9 af 38 3f
       0.46237195 -0.79907316 -0.038487814 0.7214313
000180 0c 9c 94 3f 1f 87 1e 3f 2c a3 2f bf 1d 8a 08 bf
       1.1610122 0.6192493 -0.68608356 -0.53335744
000190 4d 88 27 3f 16 9c e2 3c 78 ca a8 be 37 29 08 be
       0.65442353 0.027662318 -0.3296697 -0.13296972
0001a0 d2 e3 89 3d 83 b9 3b bf ac 45 6a 3e 57 f4 f2 bd
       0.067329064 -0.73329943 0.2287814 -0.118630104
0001b0 de 63 81 be 7b fa 5f bb 49 7e f4 bd 51 e1 f3 3e
       -0.25271505 -0.0034176398 -0.119381495 0.4763284
0001c0 df bd 54 3e 38 80 6d 3d 01 2e 06 3e bd fc d9 be
       0.20775555 0.057983607 0.13103487 -0.42575637
0001d0 c6 b2 d2 3e e0 6f 7d be 75 06 11 bf e1 e1 7f bd
       0.41152018 -0.24749708 -0.5665048 -0.062471274
0001e0 db 8e bc be 8a fc b1 be 3a 2d 1c bf 11 b1 af be
       -0.3682774 -0.34762985 -0.6100651 -0.34314778
0001f0 f1 9f b8 be e6 cd a4 3e 75 e7 28 be 05 6e 35 be
       -0.36059526 0.32188338 -0.16494544 -0.1771775
000200 89 6f de be 4e 0e 01 bf 6b 35 a1 3e 68 c1 d8 be
       -0.4344447 -0.5041245 0.31486067 -0.42335057
000210 14 a9 2b bf 8e 7a e7 bc db cd 19 3e 38 dc 4a be
       -0.6705487 -0.02825668 0.15019934 -0.1981057
000220 53 fa 8b be b7 20 73 be 3c 90 fb 3e 71 ee 24 3f
       -0.2733942 -0.23742948 0.4913348 0.6442633
000230 ab 28 b8 bd a7 7f 34 bf f5 fc 97 3f c1 08 e0 3e
       -0.08992132 -0.7050728 1.1874071 0.4375668
000240 2c d5 6a bd f8 fa b8 3d 35 4e 96 3e 99 62 f2 bd
       -0.057332203 0.090322435 0.29356542 -0.11835212
000250 42 a0 e3 be 7a db 85 3e 03 03 e1 be c3 c0 87 bf
       -0.44458205 0.2614401 -0.4394761 -1.0605701
000260 8e 1f 2f 3f 4c ce 65 3e ae 77 4e bf 93 e4 25 be
       0.68407524 0.22441977 -0.80651367 -0.16200475
000270 e0 2a 2a be 7f a8 80 3d 6b fb ec 3e 8a c9 bb 3e
       -0.16617918 0.06282138 0.46285567 0.366772
000280 6b ad e9 bc f2 ce 5a bd a2 73 62 3f 87 1a 6d be
       -0.028525075 -0.053420015 0.8845769 -0.2315465
000290 4f 15 3e 3f 7e 7a e7 3e dc b9 39 be 79 2f 1e be
       0.74251264 0.45210642 -0.18137306 -0.15447797
0002a0 c4 88 cb be 00 83 1a bf 5a fa f8 3e bb 40 1f be
       -0.3975278 -0.6035614 0.48628503 -0.15552036
0002b0 88 ef c6 be 43 63 30 be 36 9d 8d bf d0 d6 23 be
       -0.38854623 -0.17225365 -1.1063602 -0.15999913
0002c0 55 44 19 bf 16 b8 96 be 4a d5 06 3f da 11 82 be
       -0.5986989 -0.2943732 0.52669203 -0.25404245
0002d0 f4 4e c7 3e 51 0b f5 3e 81 c6 e1 be 7d 58 7d 3e
       0.38927424 0.47860196 -0.4409676 0.24740787
0002e0 4d bf 1c bf 37 85 9f be e7 14 48 3e 15 a4 a3 3e
       -0.612294 -0.31156322 0.19539224 0.31961122
0002f0 37 a7 17 3e fa 65 73 bf 38 7e 99 be 91 cf 50 3d
       0.14809881 -0.9507748 -0.2997911 0.0509792
000300 a1 74 27 3f 37 db df b9 6c 9f 7c 3e 0d 95 bf bc
       0.65412337 -0.00042697202 0.2467019 -0.023386503
000310 a9 c4 2e be da 80 a9 3e ce 53 a9 3d d6 ab 8b be
       -0.17067207 0.33106118 0.082679376 -0.27279538
000320 5f ee 00 be 4f 93 d7 bd 7a 81 5d be 1a 5f 28 bf
       -0.12590931 -0.10526144 -0.21631423 -0.65770113
000330 a5 e2 63 bd aa 08 32 bf a7 85 a9 be bd 66 a9 3e
       -0.055636067 -0.6954447 -0.3310978 0.33086196
000340 52 81 96 be 5a 84 48 bd 59 82 be 3e fd 50 2c 3e
       -0.2939554 -0.048954345 0.37208822 0.1682777
000350 d1 3f 8c be 59 e1 a9 3e 9e d8 d2 be de 25 8f 3e
       -0.27392438 0.3317974 -0.4118089 0.27958578
000360 ef dc 12 bf 34 75 ce be 63 ec 38 3f 52 15 b5 bd
       -0.5736837 -0.40323794 0.722357 -0.08841957
000370 29 a3 f3 be d0 24 7a bf b8 67 44 bf 1b a7 9c 3d
       -0.4758542 -0.9771242 -0.7672076 0.0764906
000380 f6 07 d7 3e 17 d6 30 be 1d 18 e3 bd 2f 57 35 3e
       0.4199826 -0.17269169 -0.110885836 0.17709039
000390 9e 88 3c 3d 81 60 44 3d 8a 43 35 3d 93 c4 1d 3f
       0.046028726 0.047943596 0.044253863 0.61628073
0003a0 12 21 bf 3d fc b6 40 3f b1 f3 1e be 9e 5b 16 3f
       0.093324795 0.7527921 -0.15522648 0.58733547
0003b0 a7 63 18 bf 91 b4 a1 be ac 7f a8 be cf aa 42 3e
       -0.5952706 -0.31583074 -0.32909906 0.19010471
0003c0 be 3a 4d bf 54 7e 95 be 13 d3 ab 3e 70 b9 39 be
       -0.8016776 -0.29197943 0.33559474 -0.18137145
0003d0 48 c1 8f 3d 85 46 84 be b8 c0 08 3f 30 39 05 bf
       0.07019287 -0.25835052 0.53419065 -0.52040386
0003e0 bb 96 88 be 27 f7 29 3c 1d b5 2d bf 9d 92 18 3e
       -0.26677498 0.010373867 -0.6785448 0.14899679
0003f0 bf e4 28 3e 1e cc f4 3e 6e de 29 bf 18 15 42 3f
       0.1649351 0.4781198 -0.66355026 0.75813437

network_body._body_endoder.seq_layers.0.bias f4 [128]
000000 04 16 ed 3c f6 a7 14 bd e1 5b 57 bd 23 da c5 3c
       0.028941162 -0.036292993 -0.052577857 0.024151867
000010 a6 d2 7b bd 55 e6 9b bb 30 4f 0e bc d2 8f cf bc
       -0.061480187 -0.0047576823 -0.008685872 -0.025337134
000020 7e af 2e bd 44 c7 d7 bc 54 00 02 bd 1a 26 3d bb
       -0.04264783 -0.026340134 -0.031738594 -0.0028861822
000030 52 0d 02 bd 20 0d 89 3c 2a c5 4b 3c 32 4b 46 bd
       -0.031750984 0.016729891 0.012437144 -0.048411556
000040 70 f9 da bc cc 20 dc bc c1 09 ad bc 6d 29 8a bd
       -0.02673027 -0.026871108 -0.021122815 -0.067461826
000050 c2 5e 9b bd f6 29 9e bc c1 d2 02 bd 0f 40 05 bd
       -0.07586433 -0.019307118 -0.03193927 -0.032531794
000060 fc b5 8c 3c 4f a6 f6 bc 46 b9 59 bc d8 a5 9f 3d
       0.01717662 -0.030108599 -0.013288802 0.07795304
000070 55 d9 83 3c bb 0d aa 3c e2 25 50 bc 73 75 9c bc
       0.016094843 0.0207585 -0.0127043445 -0.019098973
000080 87 f1 f0 3b 41 c2 67 bd aa ed 39 3c 2e 21 84 3d
       0.007353011 -0.05658174 0.011348167 0.06451641
000090 7d 44 0b ba 6a fa 18 bc d3 72 27 bd b7 2f 14 bc
       -0.0005312635 -0.009337047 -0.04088099 -0.009044579
0000a0 e3 08 7a 3d e3 d1 1d bd 27 79 3d bd 67 ae 85 3d
       0.06104363 -0.03853024 -0.046258118 0.06527405
0000b0 2f c0 0c bc 04 f0 b2 bc 1c 9d f8 bb 33 fb 6c bd
       -0.008590742 -0.021842964 -0.0075870883 -0.05785675
0000c0 e1 27 07 bb b7 e0 7e 3c b5 36 a0 3c 84 ba cb 3d
       -0.0020623135 0.015556506 0.019557336 0.099476844
0000d0 1a 9d 2d bd fe 8a d2 bc db 42 bf bc 7a ee d0 bc
       -0.04238615 -0.025701042 -0.023347309 -0.02550434
0000e0 0c 75 e4 bc 78 99 f2 bc e0 75 df bc dd cd 91 bb
       -0.027887844 -0.029614195 -0.027277887 -0.0044495896
0000f0 c4 f5 7f bc 5e c0 98 bc 23 07 ba bc 3c c2 89 3c
       -0.01562256 -0.018646415 -0.022708481 0.016816251
000100 80 c5 e9 3d dc aa 6a 3d 9b 7d fa bc 9f da 6e bd
       0.11414623 0.05729185 -0.030577471 -0.058313962
000110 a4 5b 50 bd 3a d2 01 bd b0 d8 8c 3d 5b 81 0f 3d
       -0.050868645 -0.03169463 0.06877267 0.035035472
000120 3c fa 21 bc 21 dd f0 3c 0f d1 6d 3d 52 e4 df 3d
       -0.009886321 0.029402317 0.058060702 0.109322205
000130 c4 f2 e0 3c da 01 87 3d cd 3e 02 bd 30 ae 4c 3d
       0.02745951 0.0659215 -0.031798173 0.049970806
000140 86 91 f8 bc 96 c0 08 bd 95 78 43 3d d0 7e a5 bb
       -0.030342828 -0.03338679 0.047722418 -0.0050505176
000150 21 b3 60 3d e5 2f fb bc 6f a4 c8 bd 40 fb 8c 3d
       0.05485833 -0.030662486 -0.09796988 0.0688386
000160 25 c4 d2 bb 1c eb ad bd 8e 1c 0a bb 0c 07 b7 3c
       -0.0064320737 -0.08492109 -0.0021074149 0.022342227
000170 55 c5 c1 bc 40 06 b6 3a 96 4c 0e 3c ad 49 7a 3d
       -0.023653666 0.0013887361 0.008685252 0.06110542
000180 dd 86 86 3c 7b c4 af 3c 37 91 ef 3b e9 d5 b7 bc
       0.01642173 0.021455994 0.007311012 -0.022440867
000190 14 44 9c bc b8 b6 ac bc 14 ba 72 bb 72 fb 61 ba
       -0.01907543 -0.02108322 -0.003703718 -0.0008620537
0001a0 41 0a 07 bd 26 da b2 3c d6 98 11 3c c7 a3 d5 3a
       -0.032968763 0.021832537 0.008886537 0.001629942
0001b0 02 61 40 bd 34 ce 05 bd 74 01 df 3c 09 3e 11 bd
       -0.046967514 -0.032667354 0.027222373 -0.035459552
0001c0 eb 9a 1b 3c 59 92 ba bc 74 c8 5a bb 63 37 a5 bc
       0.009497385 -0.022774862 -0.003338364 -0.020168012
0001d0 a4 3a 01 3e 07 15 38 bd 60 0d f2 bb 71 da 65 3d
       0.12620026 -0.04494193 -0.0073868483 0.056116525
0001e0 8f 9f fb bb ff a8 7a bc 2b 7b bb 3b 5b e6 92 bb
       -0.007678933 -0.015299081 0.00572147 -0.004483027
0001f0 67 98 d8 bc 79 a0 cf 3b 94 1f 33 bb a8 9e 97 3d
       -0.026439859 0.0063362685 -0.0027332054 0.07403308

network_body._body_endoder.seq_layers.2.weight f4 [128, 128]
000000 da 51 10 bc 0f 98 3d 3e 51 42 d2 bd ce 7b b1 bc
       -0.008808577 0.18515037 -0.10266555 -0.02166548
000010 d6 a4 18 3e 30 00 7a bd d3 26 6b 3d 19 c0 1b be
       0.1490663 -0.061035335 0.057410073 -0.15209998
000020 e8 f2 7e be da 57 e9 bd d7 64 8e 3c 73 62 a2 3b
       -0.24897349 -0.113937095 0.017382069 0.0049555837
000030 1e 0a 46 bd 57 55 13 bc 13 5b a9 3d ec 2c b4 bd
       -0.048349492 -0.008992515 0.08269324 -0.08797631
000040 58 f3 b8 3c b7 4b b3 3d 52 f1 30 bd af f5 9d 3d
       0.022576973 0.08754676 -0.04319889 0.07712876
000050 46 fd 92 bd d5 15 12 3e 7a 56 82 bd e1 c9 4a bd
       -0.07177214 0.14266141 -0.0636415 -0.049508933
000060 55 f3 bb bd 2b 41 57 bd b5 e7 30 3e 75 a0 0a be
       -0.09177271 -0.052552383 0.17275889 -0.13537772
000070 ec 41 82 bd 07 40 5e bd 14 d4 ce bc b1 00 5e bc
       -0.0636023 -0.05426028 -0.025247611 -0.0135499695
000080 dd e6 65 bd 8a 55 b7 ba 09 57 ce 3d 99 d7 ea bd
       -0.05612837 -0.0013987285 0.100751944 -0.11466903
000090 8d cb d6 3d a5 88 11 be a7 89 7a bd 43 5a 08 3d
       0.10488043 -0.14212282 -0.06116643 0.033289205
0000a0 df 3d 64 bd 2c b0 27 3d 17 8d 11 3c 9a 47 df bd
       -0.055723067 0.040939495 0.008883736 -0.10902329
0000b0 f2 4d 6c bb 80 e4 aa 3c c9 03 4e bd 7f 05 68 bc
       -0.0036057201 0.02086091 -0.05029658 -0.014161467
0000c0 8a 43 13 3e 16 e2 56 bc 49 88 05 3e a3 6f 62 bd
       0.14381233 -0.0131154265 0.1304027 -0.055282246
0000d0 7e 41 49 bd 9a 4c ec bd e4 02 42 be 2e 96 e8 bc
       -0.049134724 -0.11538048 -0.18946415 -0.028391924
0000e0 13 6f 1d bd ff 42 fb bd 80 12 c6 bc b2 12 33 be
       -0.038436007 -0.12268638 -0.024178743 -0.174876
0000f0 ba c9 9e 3d a8 aa d5 bc d4 0b f3 3c 87 69 60 be
       0.0775332 -0.026082352 0.029668726 -0.21915255
000100 2c 5b df 3d c8 15 45 bd 09 1c 39 3d 6a 4b 1e 3e
       0.109060615 -0.048116475 0.045192752 0.15458456
000110 bc 31 13 3e 7d 58 87 3d 03 e7 32 3d f7 33 b6 3d
       0.14374441 0.06608675 0.04367734 0.0889663
000120 af ae d7 bc f5 a2 98 3d 07 e9 77 3a 85 78 6b bd
       -0.026328413 0.074529566 0.0009457026 -0.057487983
000130 ee 25 ec 3d 8f 5e 2c 3d 72 c4 8b 3c 63 5f 3d bc
       0.11530672 0.042082366 0.017061446 -0.0115583865
000140 de d1 d7 bc 11 56 d6 bd 32 fe ed bd 5f 1b 2f be
       -0.02634519 -0.104656346 -0.116207495 -0.17100285
000150 b2 d6 3c 3d 59 3a 16 3d 63 98 ea bd 6f ea 6a 3b
       0.046103187 0.03667674 -0.11454847 0.00358453
000160 70 b3 30 bc 8f 31 6f bd 79 91 87 bd 19 dd b6 bb
       -0.010784969 -0.058396872 -0.066195436 -0.005580556
000170 37 fe 0e be 5f dc 39 bd 3a 8f d2 bd 61 ac 53 bd
       -0.13964163 -0.045376178 -0.102812245 -0.051678065
000180 87 f4 0b 3e b8 20 e8 3c 24 99 1b bc 66 c3 f5 bd
       0.13667499 0.028335914 -0.009496961 -0.1200016
000190 6c c0 80 3d 46 e2 08 3d 16 51 47 bc 1e 22 2c be
       0.062867016 0.033418916 -0.0121653285 -0.1680989
0001a0 6b 73 1f 3d 09 8e bb bd 1d ed 3e 3d 7c 6a 52 bd
       0.03892843 -0.091579504 0.046612848 -0.051371083
0001b0 fc 67 d0 3d 10 99 d7 3d 0a e7 47 be 6b 57 0e bd
       0.101760834 0.10527241 -0.19521728 -0.034751337
0001c0 d2 4e 79 3d d0 bd 21 bd ca 97 34 bd 2c 27 ff bb
       0.060866185 -0.03948766 -0.04409007 -0.007786652
0001d0 18 79 84 bc 0e 54 84 bd 94 83 1c 3d ac 25 c4 bc
       -0.016171023 -0.06461345 0.03821142 -0.023943745
0001e0 f4 c6 8d 3c 8a 48 0b 3e e2 21 9b bd 6b e3 dd bc
       0.017306782 0.1360189 -0.07574822 -0.02708598
0001f0 33 f7 f9 bd 1b 6e 26 bd 3e 7e a8 3c 6c 10 aa 3d
       -0.12205353 -0.04063235 0.02056801 0.083039135
000200 e3 56 6d bc c7 6f 65 3d 93 f2 de bd 83 20 7c 3d
       -0.014486047 0.056014802 -0.10886111 0.061554443
000210 2e 15 c1 bd 80 6f a3 3d c2 42 86 3c 7f 81 af 3b
       -0.09427868 0.07980251 0.016389254 0.0053560133
000220 e3 75 71 bd 75 9e 14 3d ec 3c 1b 3d 2a 68 44 be
       -0.058950316 0.03628393 0.037899897 -0.1918036
000230 e7 e9 b6 bd e5 1a 15 3e 5b 6f 96 bd 12 0a 69 3e
       -0.08931332 0.1456104 -0.07345458 0.22757748
000240 53 fa 82 3d 36 35 59 bd 63 ab 82 bc cf e1 49 3d
       0.06395402 -0.05302926 -0.015950864 0.049287613
000250 3f 2c b7 3b b5 38 5d be b7 c9 b7 bd 00 8f b9 3d
       0.0055899913 -0.21603663 -0.08974021 0.09060478
000260 12 94 77 bd b8 ee 29 3c 6c 33 e7 3d 96 df 06 be
       -0.060443945 0.010371856 0.11289105 -0.13171229
000270 bb d7 4b 3c bd 1a 0a 3d a6 92 cb 3d a0 b6 2e be
       0.012441571 0.033716906 0.0994008 -0.17061853
000280 e4 80 f0 bd a5 72 a5 3c a3 f6 f8 bd e6 31 b0 bd
       -0.11743334 0.020196268 -0.12156417 -0.08603267
000290 74 9e 3f be 70 6e 9f 3c 17 42 ac bb 53 74 84 bd
       -0.18712789 0.01946184 -0.005256902 -0.064674996
0002a0 04 8e 96 3c 08 cc d6 bd 3a ee cf bd d3 90 99 bc
       0.018378265 -0.104881346 -0.1015286 -0.018745815
0002b0 84 65 7e be bb 91 95 bc 5c 79 e9 3b 33 79 d7 bd
       -0.24843413 -0.018257966 0.007125063 -0.10521164
0002c0 db e9 96 3c 14 75 f1 3c a0 f5 31 3e 71 54 58 bd
       0.018422058 0.029474773 0.17378855 -0.052814905
0002d0 50 5f cf 3c 30 a6 6b be d6 02 4a 3d ab d5 4b bd
       0.025314003 -0.23012614 0.04931911 -0.049764317
0002e0 c5 01 ab 3c 34 69 d3 3d bf 22 b7 3d 5e b6 eb 3c
       0.020874867 0.103228 0.08942174 0.028773483
0002f0 a5 d8 b4 3d d3 ce 6e bd d6 01 bb bd 0e 22 80 bd
       0.08830384 -0.05830271 -0.091312096 -0.062564954
000300 ca e4 99 be d7 45 42 3d 45 6f ef 3d 79 9a c6 bc
       -0.30057365 0.047429886 0.11691145 -0.02424358
000310 02 56 3e 3d 78 71 61 be 5e 93 34 3c 34 07 4f 3e
       0.046468742 -0.22015941 0.011021463 0.20217592
000320 af fe 21 3d 6d be 08 be 55 d8 17 3e bd 74 84 be
       0.039549526 -0.13353892 0.14828618 -0.25870314
000330 73 4a c1 3d f7 1b 5c b9 16 b3 06 3c 21 d5 98 bd
       0.09438028 -0.00020991253 0.008221408 -0.07462526
000340 3e 2e 3f 3c 33 86 44 3d ac 0b 2b 3e 40 13 b4 3c
       0.01166874 0.047979545 0.16703671 0.021981835
000350 ca a4 1b 3c a5 f0 0c bb cc 0a 51 bd 27 cd 3d be
       0.009499738 -0.002150574 -0.051035687 -0.1853529
000360 9a 83 59 bc 8b 76 5c 3d 24 d5 cc 3d f2 f9 43 bc
       -0.013276005 0.05382399 0.10001591 -0.011961447
000370 eb 97 54 bd be c2 32 3d 95 35 90 3c f2 1c 53 be
       -0.051902693 0.043642752 0.017603675 -0.2061651
000380 3a 7a aa bc 50 6f 3b bd cf 29 26 3e 90 6a 10 bd
       -0.020810235 -0.045760453 0.16226886 -0.035257876
000390 73 30 bc bb fc 30 18 3d 07 3a dc 3d 83 b5 18 bd
       -0.0057430803 0.03715609 0.10753255 -0.037282478
0003a0 c3 21 36 bd 53 b0 72 be 90 9d 80 3d 50 4f 09 be
       -0.04446579 -0.23700075 0.06280053 -0.13409162
0003b0 4f 1c f6 bd d2 39 43 3d 05 76 11 be 6a c4 c5 3d
       -0.12017118 0.047662564 -0.14205177 0.09656604
0003c0 b4 f5 eb bd 27 22 95 3d 06 fb 38 3e ae 0b 45 bc
       -0.115214735 0.07281905 0.18064508 -0.01202671
0003d0 84 47 4a bd 13 43 17 bd e8 3b 03 bd 4a 7b 4a be
       -0.04938461 -0.0369292 -0.032039553 -0.19773594
0003e0 ba 3c 40 3e a6 b9 49 be 64 53 ea ba 99 19 db b9
       0.18773165 -0.19699726 -0.0017877636 -0.00041790007
0003f0 d4 a1 99 bd 38 45 25 be e0 04 6a 3e 37 38 21 be
       -0.075015694 -0.16139686 0.22853422 -0.157441

network_body._body_endoder.seq_layers.2.bias f4 [128]
000000 b2 3c 09 bd 0d e3 1c 3d bd 9d b6 bc ce 10 60 bc
       -0.03350515 0.03830247 -0.022292012 -0.013675882
000010 76 6d cc 3c 68 5e 3a bd ed 24 fc bc 28 0a b8 bc
       0.024954539 -0.04550019 -0.030779326 -0.02246578
000020 7b 2e 10 bd a1 03 85 bb 70 a4 ba 3a 93 ff 97 bc
       -0.035200577 -0.0040592705 0.001423968 -0.018554484
000030 96 c2 88 bc 13 0b b4 bc e8 99 38 bc bc 06 53 bb
       -0.016694348 -0.021977937 -0.011267163 -0.003220006
000040 49 a9 26 3d 18 2d 27 3b 00 86 a1 3c df 4e b0 bc
       0.040688787 0.0025509056 0.019717216 -0.021521984
000050 0c f1 84 3a cb 6e 31 3c 22 36 bd bc 05 99 f9 3b
       0.0010142638 0.010829638 -0.023097102 0.0076171183
000060 65 95 04 bd da 96 21 bd 91 fa 37 bd fc 8f 13 bd
       -0.032369036 -0.039450504 -0.044916693 -0.036025986
000070 b5 b3 00 3d c9 05 de bb e7 64 b2 bc 06 ae 5a bc
       0.031421382 -0.006775592 -0.02177663 -0.0133471545
000080 ad 98 10 bd c6 c1 17 bd 2f 49 23 bb 31 cf 19 bd
       -0.035301853 -0.03705003 -0.0024915447 -0.03755111
000090 f6 cf 80 3a 8b 5a 27 3c 23 31 ac 3c fe 72 88 bb
       0.0009827602 0.010214458 0.021019524 -0.0041640988
0000a0 3f 0c ea bc 23 2c d7 3a d8 a9 59 3b a8 0d 21 3c
       -0.028570293 0.0016416352 0.0033212807 0.009829916
0000b0 01 02 63 3c a1 97 b8 3b 2f c3 e2 bc d2 9b 10 bd
       0.013855458 0.00563331 -0.027680961 -0.03530485
0000c0 0f ff 1e 3b e8 81 e4 3b 15 ef e1 bc 12 5d 14 bc
       0.0024260913 0.006973494 -0.027579824 -0.009055393
0000d0 d3 61 33 bc c0 95 8c 3c 3a fd e2 3b bc 71 ee bc
       -0.010948616 0.01716125 0.0069271596 -0.029106967
0000e0 71 c7 0a bd db cf 91 bb 4a 68 e1 bc 67 16 d5 bc
       -0.03388161 -0.004449827 -0.02751555 -0.026011659
0000f0 fe c7 d4 bb 37 8a 1e 3d 7a f0 cb bc 6d 9f 66 bd
       -0.0064935675 0.03870603 -0.024894942 -0.056304384
000100 be 51 63 bc b0 d0 82 bc da 20 4d 3c 4c 5e 23 bd
       -0.013874469 -0.01596865 0.012520039 -0.03988485
000110 dd ce 35 bc 94 42 a6 bc 14 ce 19 bd 8f 11 40 bb
       -0.011096683 -0.020295419 -0.037550047 -0.002930734
000120 b0 6b f7 bc ea ba 14 3b 4b 78 82 bd 7f 62 f6 bc
       -0.030202717 0.0022694417 -0.063706 -0.030076263
000130 12 30 73 bd 8a 04 d2 3c 98 4c 21 bc 7e 49 01 3d
       -0.059372015 0.02563693 -0.0098449215 0.03156423
000140 fe 9b 73 bc 0c be c1 3c a7 56 e8 bc 14 77 1a bd
       -0.014868734 0.023650192 -0.028361632 -0.037711218
000150 35 7d 04 bd 7a 8c f1 3c a4 0d 4e 3b cf 57 2a bd
       -0.03234597 0.02948593 0.0031441236 -0.041587647
000160 66 f9 e5 bc d9 19 58 3b 8e e6 a7 ba 51 d4 07 bd
       -0.028073024 0.003297439 -0.00128098 -0.033161465
000170 2c b9 ab 3c 06 94 b9 bc 1f 1f a4 3c 62 db 95 bc
       0.02096232 -0.02265359 0.020034371 -0.018293086
000180 8e be 6c 3c 88 91 2a 3d 08 70 2c bd ff 0b be bc
       0.014449729 0.041642696 -0.04209903 -0.02319908
000190 70 34 93 bc 4d ae 4f 3c ad 03 ef bc 94 57 14 3b
       -0.01796934 0.012675834 -0.029176557 0.0022635208
0001a0 84 35 d2 3c 20 e2 8b bd cb e7 5a 3d ea 58 5d bd
       0.025660284 -0.06830239 0.05344371 -0.054039873
0001b0 5c e1 8d bb d3 a6 e0 bc 48 1c 67 bd 2c 2c 8e bc
       -0.0043298434 -0.027423298 -0.056423455 -0.017355047
0001c0 9c 10 a9 bc db 87 23 3c 62 00 be bc 5d e1 0b bd
       -0.020637803 0.009981121 -0.023193542 -0.03415047
0001d0 ac 08 30 3c 10 13 97 bc 01 94 0a bd 0f 54 17 ba
       0.010744255 -0.018441707 -0.033832554 -0.00057727186
0001e0 40 a1 5d bc 40 dd b0 bc 00 8e 7e bd 74 32 1d bd
       -0.0135272145 -0.021589875 -0.06214714 -0.038378194
0001f0 17 51 56 3c 7b 1b 69 bd 90 c6 9b bc 10 21 9e bb
       0.013080857 -0.056910973 -0.01901558 -0.0048257187

action_model._continuous_distribution.log_sigma f4 [1, 2]
000000 de 76 f7 bd 81 98 5f be
       -0.12083219 -0.2183552

action_model._continuous_distribution.mu.weight f4 [2, 128]
000000 1b 28 a9 39 42 0d 84 3d ad 58 d9 3c d1 69 e3 3b
       0.00032264073 0.06447841 0.026531542 0.0069401045
000010 6c 90 19 bc a6 69 a3 b7 fc 32 0e 3b 9f 05 06 3c
       -0.009372812 -1.948031e-05 0.002169787 0.008180051
000020 35 48 8e bc a6 1a 9c 3c e9 be 8a 3d fc 12 13 3b
       -0.017368415 0.019055676 0.067746945 0.0022441735
000030 99 b2 ca bc 2d 2a d7 bc 6b af fc bc 07 45 9b 3c
       -0.024743365 -0.026265228 -0.030845365 0.018953813
000040 ce 15 f2 bc 1e 18 be 3c 80 b1 8e bd ba 73 ca bc
       -0.029551413 0.02320486 -0.06967449 -0.024713386
000050 e8 cc 04 bd 23 25 96 bd 22 00 e2 bb d5 70 d6 bc
       -0.032421976 -0.07331302 -0.0068969885 -0.02617685
000060 e2 10 02 bc a1 21 f4 3c 89 52 b3 bc 8c cf 19 bc
       -0.0079385955 0.029801192 -0.021889942 -0.009387862
000070 e6 41 91 3d 87 14 98 3b cc 8f c2 bc d6 eb 28 3c
       0.07092647 0.004641119 -0.023750208 0.010310134
000080 d7 8c 52 3b a5 76 d8 bb 00 cb 74 bc 87 2b 83 bc
       0.0032127404 -0.0066059404 -0.014940977 -0.016011966
000090 2b 36 21 3d d5 7f 53 3d 8f 6d c9 3b cd 70 af 3d
       0.0393583 0.051635582 0.0061470936 0.08566437
0000a0 85 8d 95 39 bd 0b 15 bc a8 1e 49 3d 17 59 2d 3d
       0.00028524935 -0.009097037 0.0491015 0.04232129
0000b0 5e 48 73 bd f8 02 ff bc 76 f9 e8 3b 91 cc 28 bd
       -0.059395187 -0.031129345 0.007109816 -0.041210715
0000c0 73 df e3 bc 38 4f ee 3c d7 53 19 bd dc 00 b6 3a
       -0.02781651 0.029090509 -0.03743347 0.0013885754
0000d0 0d dd 26 3c 89 ff 92 bd a9 a3 76 bd 8d 5a 6a bb
       0.010184539 -0.07177646 -0.060214672 -0.003575954
0000e0 27 d5 99 bc 95 83 d1 3d f0 58 7b bc d3 c8 ef bc
       -0.018778397 0.102301754 -0.015341029 -0.029270565
0000f0 d8 d0 1f bb ef 66 8a bd 26 23 d8 3b 4a b4 92 bc
       -0.0024385955 -0.06757914 0.006595987 -0.017908234
000100 f2 12 21 3d be fc b7 3c c8 ab 2b 3d b9 c0 af bc
       0.03932471 0.022459384 0.04191187 -0.021454202
000110 bb 53 68 bc 39 98 cd 3a 1a 3b fe bc 52 1d 3b bd
       -0.014180119 0.0015685625 -0.031034041 -0.04568226
000120 ab 9e 68 3a b2 65 c4 3c a2 fb 58 bc bb 59 cf bc
       0.0008873741 0.023974273 -0.013243588 -0.025311342
000130 53 b2 3a bc e0 6f 57 bc 94 c1 59 bb b0 14 af 3d
       -0.011395055 -0.013149232 -0.0033226954 0.08548868
000140 21 b8 4f bd 75 95 af bd 3e a6 67 bc 1b 0d 0c 3b
       -0.05071271 -0.085734285 -0.014138756 0.0021370116
000150 40 0b 26 bc b7 1c 32 bd cc c7 e7 3c 27 cf 08 bd
       -0.010134518 -0.043484416 0.028293513 -0.03340068
000160 26 b7 0d 39 4d 28 3c 3d 8e 30 c1 3c 25 f7 03 bb
       0.00013515036 0.04593687 0.023582723 -0.0020136323
000170 eb 6a 9b 3d db 05 af bc 73 f7 07 bd 33 48 8b bc
       0.07588752 -0.021365097 -0.03319497 -0.0170022
000180 ed 0d 72 3d 7e ad 43 bc 78 55 60 3c 6b 50 8c bc
       0.059095312 -0.011943219 0.013692252 -0.01712819
000190 48 97 19 3c 40 4c 47 3d 92 5e 50 ba af d3 87 bd
       0.009374447 0.048656702 -0.00079486624 -0.06632172
0001a0 9f 7a 91 3d 1e bb eb 3c ed 25 b4 3b 89 a9 4e 39
       0.07103466 0.028775748 0.005497685 0.00019708848
0001b0 80 d7 21 3d e3 e2 b0 bc f5 f9 01 bd 14 27 3f 3d
       0.039512157 -0.021592563 -0.03173252 0.046668127
0001c0 78 d5 5b 3c 1d 15 53 3d 4d d6 09 bc 96 7a 84 3c
       0.013417594 0.051533807 -0.00841291 0.016171735
0001d0 8c bc 0b 3d 14 aa 91 bc 66 8e e3 3b 6f 61 4b 3b
       0.03411536 -0.017781295 0.0069444655 0.0031033417
0001e0 1c e7 e4 bc 5c 6a dc ba 29 e2 4c bc 2b e4 93 bc
       -0.027942233 -0.0016816366 -0.012505093 -0.018053135
0001f0 44 d0 0e 3d 30 1d 16 3c e0 98 32 3b 22 6c ff bc
       0.034866586 0.009162232 0.0027251765 -0.031179491
000200 4b f1 06 bc 1f b3 81 bc 50 ea 89 bb a3 53 6d 3c
       -0.00823624 -0.015832482 -0.0042088404 0.014485273
000210 9b 5d 8e bd 28 9c 4f 3d 3e dd ef 3c 79 2f 76 3b
       -0.069514476 0.05068603 0.029280301 0.0037564917
000220 f1 56 4d 3d 83 89 46 3b 46 26 15 3d e1 80 b2 b9
       0.050131742 0.0030294366 0.036413454 -0.00034046828
000230 28 d7 42 3b 68 75 b9 3c c9 85 94 bc 95 d0 ca bb
       0.0029730294 0.022638991 -0.0181302 -0.0061894157
000240 5a 74 fb bd ed af 42 bc 45 48 91 3d 54 e0 14 3c
       -0.12278052 -0.011882764 0.070938624 0.009086687
000250 0b 08 cf 3c 49 2d e1 3c a7 83 dd 3c 34 0e 2e bd
       0.02527239 0.027487414 0.027040316 -0.042494014
000260 9d b5 a5 3c bc c6 62 3c d9 ab 53 3d 2f 77 34 3d
       0.020228202 0.013841327 0.05167756 0.044058975
000270 f1 1a 52 bc a2 17 c2 bc b5 23 68 3b 11 52 05 bd
       -0.012823806 -0.02369291 0.0035421674 -0.032548968
000280 cb 21 46 3d 77 60 71 3b 65 fc 5d 3d ee 81 3e 3d
       0.04837207 0.003683118 0.05419578 0.04651063
000290 02 72 de bc 54 92 15 bd 81 a3 f2 3c b7 54 7c 3b
       -0.027153973 -0.036516502 0.02961898 0.0038502642
0002a0 4b 55 26 bc f2 6a 83 bd 2e 19 83 bc db 69 ca bc
       -0.010152171 -0.064168826 -0.016003218 -0.024708679
0002b0 5c 21 07 bd 4e 16 92 bd 8c c6 86 3d b8 0b 44 bc
       -0.0329908 -0.071331605 0.065808386 -0.011965685
0002c0 4a 5c 9c bc d7 e7 1b 3d 78 06 94 bc 2c 9c c8 bc
       -0.019086976 0.038062897 -0.01806949 -0.024488531
0002d0 8c 45 17 bd 8c 13 d6 bc 7f f0 63 bc d0 01 eb 3b
       -0.03693156 -0.026132368 -0.013912319 0.007171847
0002e0 18 c3 2f 3d d7 ac 53 3d 2d a1 99 3d e3 f1 14 bc
       0.042910665 0.051678505 0.07501445 -0.009090873
0002f0 b1 7e 08 bd 88 df 74 bd 74 4f ff bb 43 51 4a 3d
       -0.033323947 -0.05978349 -0.007791454 0.049393903
000300 0e 0c 73 3d bc 75 70 3c ba 74 b3 bd 48 5b 03 bd
       0.059337668 0.014676508 -0.08762498 -0.032069474
000310 60 dd e3 3b dd 4a 3b bc 5e e1 06 3d ee 77 29 3d
       0.00695388 -0.011431423 0.03292977 0.04137414
000320 29 f5 c9 3c 8b 73 3d bd 3f 81 9b 3d 81 36 41 3c
       0.024653034 -0.04625277 0.07593011 0.01179278
000330 dc 1a 14 3c 39 a1 bd bd ae eb 7d 3c f7 61 62 bd
       0.009039607 -0.092592664 0.015498085 -0.055269208
000340 5a db 4e 3d 44 58 b7 bb 9c de 85 3d 9a 5d 2a 3c
       0.05050216 -0.005595239 0.065366 0.010398293
000350 8e 41 87 bb 6c 4c 89 3c ae 49 60 bd 03 4e 03 3d
       -0.004127688 0.016760074 -0.054757766 0.03205682
000360 55 e6 24 3d b0 31 94 ba e7 01 f6 bc 48 b0 15 3c
       0.040258724 -0.0011306312 -0.030030204 0.009136267
000370 c5 17 0c 3d d3 6f ec bc a4 bb 76 bd b6 be 54 3d
       0.034202356 -0.028861916 -0.06023754 0.05193969
000380 03 49 00 bd 94 1f d0 bd 72 91 f0 3c 0f bb 28 bc
       -0.03131963 -0.10162273 0.029366229 -0.0102985045
000390 01 4d 3c 3c 44 0c 2e bd 84 49 62 3d 6c 03 f1 3c
       0.011492969 -0.042492166 0.05524589 0.029420577
0003a0 03 08 9d 3c 9d 54 89 3d da 7a 1b bd 5c cc 88 3d
       0.01916886 0.06705592 -0.037958957 0.066796035
0003b0 8a 71 bc bc f9 6b f8 3c 79 fc a3 bb d5 4c 57 3d
       -0.023003358 0.030324923 -0.0050044623 0.052563507
0003c0 81 4a 7c bb 9a 0a b5 bd 3f fd 4c 3d 54 53 85 39
       -0.0038496556 -0.08839913 0.0500462 0.0002542982
0003d0 52 eb 56 bc 78 66 a8 3c 3a 6f 47 3c 6a bf 01 ba
       -0.013117628 0.020556673 0.012172515 -0.00049494824
0003e0 05 a6 14 3d 62 73 3d 3c a7 90 86 3d 5b 18 89 bb
       0.03629114 0.011563154 0.06570559 -0.0041838116
0003f0 dc 83 03 bd f2 00 a6 3b 4e 86 84 3c 57 9c 84 3c
       -0.032108173 0.0050660307 0.016177323 0.01618783

action_model._continuous_distribution.mu.bias f4 [2]
000000 d4 bb d6 3b ca 49 b8 bc
       0.0065531526 -0.022496123

exp_avg f4 [128, 5]
000000 e8 04 c3 38 2f 07 10 b9 3a 14 0b 39 82 c0 33 39
       9.2992384e-05 -0.00013735586 0.00013263608 0.00017142485
000010 c5 a1 19 b9 8f 90 03 3a 67 c3 18 b9 a9 1d 83 ba
       -0.00014651481 0.00050187943 -0.00014568643 -0.0010003346
000020 dc 98 21 b9 99 f4 5e bb c9 91 ca 37 fc 14 81 b6
       -0.00015411101 -0.0034020303 2.4148163e-05 -3.8469425e-06
000030 a1 eb f1 b8 d5 08 8d b8 cb 79 05 ba e9 06 8f 39
       -0.00011535665 -6.725049e-05 -0.0005091696 0.00027280234
000040 6e 6b cf ba 82 f0 ab bb fb 83 09 ba f0 95 4b bb
       -0.0015824863 -0.0052471766 -0.0005245802 -0.0031064712
000050 b8 50 c5 37 97 73 e2 39 77 1d 18 3a 8b 01 94 b9
       2.3521818e-05 0.000431922 0.00058027304 -0.0002822991
000060 c2 55 14 bb ff 2c bd ba 27 b8 c0 3a 30 6a 3e 3a
       -0.0022634123 -0.0014432966 0.0014703319 0.0007263748
000070 56 bb 01 ba e8 6f 32 3b 9e 5e 6b 38 a5 63 7e 39
       -0.00049488747 0.0027227346 5.6116485e-05 0.00024260448
000080 9d d3 cb 3a 41 4c 8c b8 75 4b 8d 3a e1 21 67 3b
       0.0015550737 -6.6899236e-05 0.0010779934 0.0035267996
000090 23 96 fc 3a f9 b6 ac 3c 28 2d 07 3b 86 bb 9e 3b
       0.0019270818 0.021083342 0.002062628 0.004844132
0000a0 4e 16 ad 3a c3 c5 05 bb b1 24 cb ba 5e 89 2d 3a
       0.00132055 -0.0020412065 -0.0015498606 0.00066198956
0000b0 c3 29 30 bb 0d 14 3a ba 70 f2 0f ba 6b f2 ce bb
       -0.002688036 -0.0007098325 -0.0005491143 -0.0063155196
0000c0 bc cc 69 ba b8 17 57 bb 6d 59 23 ba 77 9c 48 ba
       -0.00089187524 -0.0032820534 -0.0006231282 -0.00076527096
0000d0 1f b1 92 bb 06 f7 ab b8 7c 51 cc 3a a7 8e 4e ba
       -0.004476681 -8.199927e-05 0.0015588249 -0.0007879533
0000e0 27 ca cd ba 19 12 0e bc d0 63 69 ba 96 a4 f4 ba
       -0.0015700505 -0.008671307 -0.0008903118 -0.0018664773
0000f0 a9 05 88 38 f7 8e dc 39 66 4c 89 3a ed 0f e9 b8
       6.48604e-05 0.00042068187 0.0010475039 -0.00011113272
000100 49 e8 00 bb f9 ad dc ba e5 5a 93 3b ef 7e ac 3b
       -0.0019669703 -0.0016836516 0.0044969195 0.005264155
000110 44 c2 66 ba a1 b6 c9 3b 5c 56 cf 39 8a 85 19 bb
       -0.00088027515 0.0061558043 0.0003954646 -0.0023425543
000120 01 1f 20 bb 81 b3 d5 39 f1 e9 05 3b 1c 2a cd 3a
       -0.0024432542 0.00040760267 0.002043363 0.0015652808
000130 17 76 d7 b9 58 1c cc 3b e7 64 83 3a 5f a0 fc 3a
       -0.0004109598 0.006228965 0.0010024578 0.0019273869
000140 cd 3a 15 3b 77 52 bb ba 0a 52 b1 3b 30 2b ac 3a
       0.0022770644 -0.0014291544 0.005411391 0.001313543
000150 dd 6a b6 38 dd 3f bd 39 65 83 a1 39 e5 24 45 3b
       8.698341e-05 0.0003609647 0.0003080621 0.0030081805
000160 cd 14 19 3a ed 9b 92 3b c9 49 0d b8 6d a5 1c 3a
       0.00058395864 0.004474154 -3.3685737e-05 0.0005975578
000170 66 34 34 3a 2d 6a 96 38 94 b5 82 3a 7c c4 c6 ba
       0.0006874263 7.172334e-05 0.0009972327 -0.0015164758
000180 5f c9 d8 3a 24 37 b5 ba c8 ef 41 ba a9 7d 91 3a
       0.0016539505 -0.0013825637 -0.0007398096 0.0011100072
000190 f4 c7 f8 38 c1 b7 52 b9 94 e6 cd b8 3c c4 e1 38
       0.00011862806 -0.00020095614 -9.81811e-05 0.000107653876
0001a0 10 5f 43 ba a8 44 3b 3a ed ed 98 ba b6 f9 0a b9
       -0.0007452825 0.00071437145 -0.0011667587 -0.0001325373
0001b0 9b bc 25 3a f6 6d d7 ba 43 0d ba ba 7c bf 97 b9
       0.0006322355 -0.0016435969 -0.0014194626 -0.0002894363
0001c0 e7 b2 e3 bb 5c 74 93 ba 1c 14 c0 bb c5 0c a5 b9
       -0.006948817 -0.0011249888 -0.005861772 -0.00031480766
0001d0 5c 10 5d 3a ac 53 82 3a b4 03 87 b9 76 3b 3e 3b
       0.00084329187 0.0009943149 -0.00025751966 0.002902714
0001e0 73 cd 38 38 26 91 4d 39 36 96 80 39 a3 37 84 b9
       4.4060358e-05 0.00019604395 0.00024525978 -0.00025218455
0001f0 98 f1 be ba e5 6b 27 ba 32 39 43 ba 33 56 87 bb
       -0.001456785 -0.0006386622 -0.00074471824 -0.004130149
000200 da 2b 32 39 a0 f7 89 3a 23 a7 bc 37 bb b0 3c b8
       0.00016991739 0.0010526069 2.2489176e-05 -4.4987286e-05
000210 69 52 20 b9 51 ff be b7 39 e1 e1 b8 64 d1 64 3b
       -0.00015289489 -2.2768656e-05 -0.00010770787 0.0034914846
000220 cf 12 c6 ba 0d 95 3d 3c 27 8a 0d 3b fd 97 80 3b
       -0.0015111807 0.011571181 0.0021597238 0.0039243684
000230 5a 39 07 ba ce 49 f6 3a fd 08 08 3b b2 91 7a ba
       -0.00051583874 0.0018790306 0.002075731 -0.00095584535
000240 9a 28 da ba a8 54 3b 3a 03 26 cb ba 89 15 73 bb
       -0.001664418 0.00071460987 -0.0015498999 -0.0037091693
000250 32 78 a4 35 a5 68 86 bb 08 e4 2d 3a 18 f3 ad b9
       1.2253934e-06 -0.00410183 0.00066334056 -0.0003317825
000260 e8 6c 5f 3b 21 a9 63 3a 6c ef 9b 3b a5 05 84 3a
       0.0034092013 0.0008684565 0.004758766 0.0010072483
000270 3b 26 6c ba e3 77 ed 3a 89 11 d7 38 b3 35 15 3b
       -0.00090083823 0.0018117394 0.00010255265 0.0022767603
000280 d3 2f b8 39 36 84 ac b9 9e bf 0f bb 19 6c 14 ba
       0.00035130847 -0.000329049 -0.002193428 -0.000566186
000290 95 4a a6 bb 1b e5 cb b9 70 d5 a3 b9 3e 52 29 bb
       -0.005074809 -0.00038889874 -0.00031248806 -0.0025836374
0002a0 8b b8 1c b9 52 2a e2 b8 8b d0 4a b9 b5 17 89 b9
       -0.00014946067 -0.000107844025 -0.0001934191 -0.0002614834
0002b0 9c 73 cd ba ae 07 9d b8 1f 10 ff 39 8e 25 c2 b5
       -0.0015674713 -7.487774e-05 0.000486494 -1.4465056e-06
0002c0 41 8e 02 38 f8 01 d9 b8 ca 9b c6 b8 e8 b5 14 ba
       3.11269e-05 -0.00010347733 -9.470394e-05 -0.0005672858
0002d0 e1 c0 9c 37 55 6d aa 39 f6 8a 4b 3a fa cf 8e 38
       1.8686465e-05 0.00032506385 0.0007764542 6.809826e-05
0002e0 a5 e6 be ba c1 75 bf b7 62 0e 37 39 70 71 b1 b9
       -0.0014564587 -2.2823808e-05 0.00017457598 -0.00033844588
0002f0 7d 55 49 b9 7c 93 d7 ba a4 d7 77 ba 70 f5 77 3a
       -0.000192007 -0.0016447152 -0.0009454435 0.0009458875
000300 6e 46 ec ba 60 94 ae ba 6a 69 b5 bb c0 2b 51 b9
       -0.0018026361 -0.0013319366 -0.005536248 -0.00019948091
000310 14 51 99 39 8b c0 7c 3a 93 98 8d 39 c7 a6 c3 3a
       0.00029242842 0.0009641728 0.00027007292 0.0014927023
000320 3e 42 c6 37 34 1f e2 b8 be f3 24 ba ad 34 45 b9
       2.3634286e-05 -0.00010782332 -0.0006292424 -0.00018807007
000330 bf 4e 3f b9 a8 5f ac b9 93 20 08 39 37 14 3c b8
       -0.00018244515 -0.00032877666 0.00012982106 -4.484152e-05
000340 9d 08 ce b8 00 52 1d 3a 9e c6 bb b8 82 a5 1f 39
       -9.82445e-05 0.00060012937 -8.95385e-05 0.00015225078
000350 31 13 87 b9 63 5a 1b b8 01 58 b5 ba d4 c6 1c 37
       -0.00025763505 -3.703906e-05 -0.0013835431 9.344618e-06
000360 d1 20 b0 37 27 c0 63 b8 c1 e5 1c b8 5d 10 aa b8
       2.0996116e-05 -5.4299973e-05 -3.7407273e-05 -8.1092796e-05
000370 12 17 b9 37 2b 86 da b7 af 27 82 b8 00 31 7c b7
       2.2064462e-05 -2.6050102e-05 -6.206275e-05 -1.5031779e-05
000380 37 c4 08 b8 85 71 26 ba 8e 06 fa 39 40 28 bd ba
       -3.2607666e-05 -0.0006349313 0.000476886 -0.0014431551
000390 b0 4d 3b ba 6b 85 f4 ba 34 17 ca ba 27 42 b2 3a
       -0.000714506 -0.0018655484 -0.0015418292 0.0013600037
0003a0 69 46 04 bb 87 5d 84 ba dc 37 fa ba 23 32 75 38
       -0.002018357 -0.0010098674 -0.0019090134 5.8459245e-05
0003b0 e8 c8 5e b7 36 a7 45 39 94 75 27 38 7b e7 ce 37
       -1.3279008e-05 0.00018849675 3.9925406e-05 2.4664905e-05
0003c0 d8 64 be ba 03 a0 87 b9 00 af d1 bb 47 c1 8d ba
       -0.0014525903 -0.00025868425 -0.0063990355 -0.0010815047
0003d0 73 82 6d bb 69 7e 07 3a 05 e7 9a ba d7 ae ae ba
       -0.0036241084 0.0005168678 -0.0011818117 -0.0013327253
0003e0 f0 4f a8 38 06 96 ee ba 57 f5 c7 b9 77 aa 1e b9
       8.025754e-05 -0.001820267 -0.0003813903 -0.00015131557
0003f0 d9 b4 f9 ba 0f 76 ae b7 3b 68 19 b9 df cd 18 3b
       -0.0019051089 -2.0797392e-05 -0.00014630046 0.0023316068

exp_avg_sq f4 [128, 5]
000000 4b 2b f6 35 2b 14 18 37 13 58 87 37 6c 86 92 36
       1.8341028e-06 9.064602e-06 1.6134267e-05 4.366788e-06
000010 83 a1 66 38 e5 8b ed 38 01 37 32 3a 74 a8 b2 3a
       5.4986693e-05 0.00011327098 0.00067983574 0.0013630525
000020 b1 d9 03 39 c8 69 6f 3a bc 9c 7f 35 c7 b3 80 36
       0.0001257423 0.0009132889 9.522298e-07 3.835626e-06
000030 a9 8f e2 36 82 f2 81 36 f4 f0 01 38 b7 b8 4a 39
       6.752049e-06 3.872731e-06 3.09804e-05 0.00019333033
000040 a7 94 0d 3b 64 e9 da 3a 7c ba bb 39 c8 c8 28 3b
       0.0021603496 0.0016701636 0.0003580636 0.002575444
000050 f3 0c 4f 36 48 c3 51 37 24 2c 6a 38 b7 d3 38 37
       3.085294e-06 1.2502838e-05 5.5831057e-05 1.1016548e-05
000060 a5 e5 62 39 99 62 a5 39 99 cc 16 3b 61 24 4e 3b
       0.00021638589 0.00031544713 0.0023010133 0.003145479
000070 ba 44 a1 39 4a c9 44 3b 15 1a f5 37 5f 51 ab 37
       0.00030759518 0.0030027204 2.9218421e-05 2.042268e-05
000080 cb 56 a3 39 5c 5a 9a 37 bc ac 05 39 50 ec e4 38
       0.00031154449 1.8400307e-05 0.00012748217 0.00010915904
000090 37 c6 13 3a 8f 60 bc 3a d8 5a b2 38 57 0c 6a 3a
       0.00056371413 0.0014372038 8.5046224e-05 0.00089282304
0000a0 98 8a c4 38 d4 7d 7a 3a 0f fa 63 3a bd 52 07 39
       9.3718234e-05 0.0009555493 0.00086966244 0.00012905426
0000b0 df a5 92 3a f7 66 92 38 15 00 f7 39 e1 e0 2c 3a
       0.001118835 6.981001e-05 0.00047111572 0.0006594789
0000c0 46 d3 be 38 c3 9b 31 3a 1a 98 51 37 a3 8d 1e 37
       9.099259e-05 0.00067752245 1.2492785e-05 9.450511e-06
0000d0 a1 6b 16 39 b9 26 5d 37 6e 18 8d 38 94 d8 d8 38
       0.0001434521 1.3181642e-05 6.727954e-05 0.000103400234
0000e0 83 87 02 3a 1a 2e a2 3a 40 97 82 38 bc af 4d 3a
       0.0004979299 0.0012373358 6.2270556e-05 0.0007846316
0000f0 a9 5d d2 35 7f 3c 3e 37 6a 42 75 38 cf ce b0 36
       1.5673478e-06 1.1338968e-05 5.8474405e-05 5.2692844e-06
000100 25 7d 00 39 c0 df 0d 3a 44 2b 6a 3b ab 91 cc 3b
       0.00012253651 0.00054120645 0.0035731355 0.006242951
000110 4d f2 08 3a 0f 90 9f 3b 9c 71 9a 39 55 02 0c 3b
       0.0005224094 0.004869468 0.00029457815 0.0021363695
000120 61 f3 5c 3b 1b f6 89 39 1d 99 44 3b 4e d2 cb 37
       0.00337144 0.0002631404 0.002999849 2.4297417e-05
000130 17 b8 3c 39 77 69 8e 39 9b d1 c0 37 0e 66 6d 39
       0.00017997656 0.00027162928 2.2985789e-05 0.000226401
000140 ac d6 ff 38 7b 9b 6f 3a ef 71 8c 3a c8 9e 0d 39
       0.00012199333 0.0009140295 0.0010715107 0.00013505958
000150 86 24 9c 3a ba 9a e4 37 f7 9e 55 37 55 6e 9e 39
       0.001191274 2.7251768e-05 1.2732801e-05 0.00030218312
000160 c7 93 80 37 05 28 8a 38 7a fe aa 38 e6 a1 0b 3a
       1.5327603e-05 6.587807e-05 8.153632e-05 0.0005326554
000170 ad 13 72 3a 55 92 ae 38 f5 1a 4f 3a 86 d1 0c 39
       0.00092344993 8.324223e-05 0.000790044 0.00013429494
000180 73 9d 7a 3a 3a ae 9a 3a 52 f3 43 39 74 bc b0 3a
       0.0009560205 0.0011801191 0.00018687293 0.0013483898
000190 65 55 fb 36 48 fa 2a 37 e6 17 da 37 b7 2e 8e 36
       7.490324e-06 1.0191063e-05 2.5998754e-05 4.237368e-06
0001a0 b7 b0 03 38 55 9e b9 38 be 4a dc 39 58 d6 23 3a
       3.1397412e-05 8.850979e-05 0.00042017357 0.0006249896
0001b0 78 63 9a 38 92 97 19 3a 7c 9f 15 39 a8 b4 eb 39
       7.36182e-05 0.00058590726 0.0001426916 0.00044957292
0001c0 77 19 11 3b 22 19 ba 38 e2 37 47 3a b0 d9 82 38
       0.0022140422 8.8738525e-05 0.0007599575 6.2394305e-05
0001d0 40 a5 24 3a 79 b4 19 3a 60 cd d8 38 ab 16 67 3a
       0.00062807277 0.00058633793 0.00010337937 0.00088153285
0001e0 5a e9 c5 34 b0 ba d0 36 e4 79 1e 37 2c b9 63 36
       3.6863895e-07 6.2206163e-06 9.445914e-06 3.393342e-06
0001f0 cf ad b3 38 0f 3d 90 37 29 f3 1c 38 57 11 b2 39
       8.5677595e-05 1.719457e-05 3.741976e-05 0.00033963725
000200 28 ee cf 37 ab b0 ac 39 c0 f3 be 35 65 ab ee 36
       2.4787223e-05 0.00032938024 1.4227044e-06 7.1129057e-06
000210 90 72 99 36 85 28 ca 35 00 be 4c 37 77 15 7b 39
       4.573092e-06 1.5061966e-06 1.2203585e-05 0.00023945222
000220 b5 2d a7 3a 2b c9 17 3b b1 0d 1f 39 a1 5f 05 3b
       0.0012754711 0.0023160677 0.00015168522 0.0020351189
000230 36 3b 93 38 a7 2e c9 39 45 36 44 3a 75 dc 62 38
       7.020535e-05 0.00038372466 0.00074848934 5.4087915e-05
000240 bb c9 35 3a 11 cf 2d 39 c8 6d b8 3a 50 7d c5 3a
       0.0006934662 0.00016575704 0.0014070803 0.0015067253
000250 d0 de 52 39 a9 1a e8 3a 2e 0f 0d 38 00 e4 03 38
       0.00020110165 0.0017708141 3.3631157e-05 3.1445175e-05
000260 23 25 39 3a c6 d3 37 37 9a 76 00 39 20 d8 ae 38
       0.0007062724 1.0956957e-05 0.00012251214 8.337223e-05
000270 ba 33 91 39 29 3d 82 3a a0 4d 1c 38 ac d7 07 3a
       0.00027695094 0.000993644 3.7265592e-05 0.0005181979
000280 ab 09 fc 38 8d 59 57 3a 2d b5 98 3a b9 c1 27 39
       0.00012018097 0.0008214943 0.0011650674 0.00015998528
000290 90 2e 92 3a ec 5e bc 36 04 ca f0 36 5b 1a c2 38
       0.0011152793 5.613887e-06 7.176075e-06 9.25555e-05
0002a0 ee f7 a8 36 c3 7f 2f 38 c6 3f 05 37 a5 ef 28 37
       5.035653e-06 4.184224e-05 7.942266e-06 1.0069377e-05
0002b0 bc 0f db 38 42 84 4a 37 a0 60 b9 38 a5 8e 79 37
       0.000104456645 1.2070932e-05 8.839485e-05 1.4874769e-05
0002c0 48 f9 fc 36 54 2a 40 38 05 a4 f9 37 bd 56 a6 38
       7.5392054e-06 4.581579e-05 2.975949e-05 7.931653e-05
0002d0 49 85 ca 36 00 e6 93 37 48 9e e7 38 77 a3 75 37
       6.0355856e-06 1.7630868e-05 0.000110444205 1.4641198e-05
0002e0 ff 82 21 39 6b 9f da 37 c7 78 b7 37 d8 19 c7 39
       0.00015402956 2.606186e-05 2.1871541e-05 0.00037975493
0002f0 4a 98 4c 37 a0 2a 9b 38 d6 f7 f7 38 53 67 07 3a
       1.2194805e-05 7.3989155e-05 0.00011824041 0.0005165238
000300 82 ed d9 3a 3f 35 d3 38 3a 8a 5a 3a 32 53 40 38
       0.0016626569 0.00010071182 0.00083366374 4.585385e-05
000310 bf b0 ae 38 7f af 1d 3a 89 c2 9f 37 9b 60 76 39
       8.329888e-05 0.00060152257 1.9044865e-05 0.00023496377
000320 34 08 4f 37 70 82 52 39 dd 03 01 39 87 38 46 38
       1.2340071e-05 0.00020075752 0.00012303838 4.7259524e-05
000330 b8 df 71 39 92 87 d8 37 89 85 06 39 e6 60 91 39
       0.00023066893 2.5812336e-05 0.00012828982 0.0002772875
000340 b6 a4 d6 37 f9 c9 5f 39 d1 b2 92 36 87 22 20 37
       2.5587487e-05 0.00021342178 4.371956e-06 9.544782e-06
000350 d3 81 51 38 e6 53 26 37 ef 79 9a 38 e0 92 fa 34
       4.995039e-05 9.913905e-06 7.366004e-05 4.6672994e-07
000360 58 27 32 36 78 c5 23 36 7b 8c d4 35 cf d0 c1 36
       2.6546968e-06 2.4403835e-06 1.5836116e-06 5.7761567e-06
000370 52 ce 56 35 f7 e8 6a 36 c5 be 14 36 56 71 75 35
       8.002145e-07 3.500432e-06 2.216476e-06 9.143454e-07
000380 cb 15 b5 36 81 d8 c8 37 8c 50 e1 38 3a 6f c9 39
       5.3967574e-06 2.3942675e-05 0.00010743839 0.00038420578
000390 90 b5 9a 37 3c 59 3d 39 db e9 ac 39 bd 41 21 3b
       1.8442777e-05 0.00018057687 0.00032980632 0.0024605833
0003a0 b7 bf 7f 3b a9 3b a3 39 cd 1b 4e 3b bf e2 45 36
       0.0039024183 0.00031134233 0.0031449676 2.9487271e-06
0003b0 a0 04 ee 35 e3 fd 20 37 3d 5a 22 36 a2 22 1f 37
       1.7733728e-06 9.595856e-06 2.4192407e-06 9.485202e-06
0003c0 78 89 9a 38 c3 8c e8 39 40 44 8d 3a d9 0d 90 38
       7.368898e-05 0.00044355364 0.0010777786 6.8690344e-05
0003d0 13 d5 24 3a 70 c5 81 38 a2 66 55 3a e7 33 05 3a
       0.0006287854 6.187975e-05 0.00081405987 0.00050812814
0003e0 52 b6 00 39 59 7d 5f 3a 01 f5 be 37 2e e5 00 38
       0.00012274951 0.0008525453 2.2763854e-05 3.073102e-05
0003f0 f8 bd e6 39 a7 5f 52 37 8c 7d 08 39 eb a8 aa 38
       0.00044010556 1.2539246e-05 0.0001301674 8.137695e-05

exp_avg f4 [128]
000000 56 b4 ac b8 c9 c8 c1 b9 c6 33 9f 37 b2 76 03 ba
       -8.235189e-05 -0.00036961425 1.8978386e-05 -0.00050149404
000010 f5 f2 a1 39 4f 68 07 3a 67 7d 7e 39 ab e3 d9 3a
       0.0003088933 0.00051653845 0.00024270044 0.0016623636
000020 67 77 dc b9 00 61 25 ba 0f 9a e6 b9 17 6e 20 ba
       -0.00042050632 -0.00063087046 -0.000439838 -0.000611992
000030 08 ef 65 39 78 3d ed 39 91 64 f3 38 25 e0 db 39
       0.00021928188 0.0004524996 0.00011605875 0.00041937936
000040 a4 e6 8c 39 ad a0 ba 39 df 6d 5b b9 18 5b 3a b9
       0.00026874722 0.00035596397 -0.00020926398 -0.00017772277
000050 fc 8b cb b8 71 94 3a b9 17 ef 04 ba a1 a6 66 38
       -9.7058684e-05 -0.00017793641 -0.00050710276 5.499146e-05
000060 fe 10 4a 39 a0 0b df b9 c0 68 8a b7 96 4c 89 3a
       0.00019270551 -0.00042542536 -1.649966e-05 0.0010475095
000070 bf e6 12 3a 6d 75 1e ba 54 ce e2 38 18 7b a9 39
       0.0005603842 -0.00060447195 0.000108149514 0.00032325904
000080 d5 07 a4 b9 5a e6 1b b9 51 5c 9a b8 35 91 9a 38
       -0.00031286353 -0.00014867765 -7.3604875e-05 7.370339e-05
000090 25 b1 05 39 c2 83 f0 b8 b8 aa e2 38 cd 3b 99 b5
       0.0001274986 -0.000114686336 0.000108083186 -1.1416793e-06
0000a0 29 51 74 37 cf b6 b9 38 f3 9d 98 38 28 ec a0 35
       1.456243e-05 8.855538e-05 7.277345e-05 1.198966e-06
0000b0 89 39 96 35 b7 34 80 b7 b0 e2 15 39 1f b4 0d 36
       1.1192616e-06 -1.5283336e-05 0.00014294195 2.1115482e-06
0000c0 94 a2 d7 b9 3b 69 01 b9 fe aa 43 b9 6b 5e 77 3a
       -0.00041129126 -0.000123416 -0.00018660349 0.00094363716
0000d0 d2 b3 86 39 88 fb 75 b9 a9 b9 2c b9 97 69 51 38
       0.00025692448 -0.00023458723 -0.00016472362 4.992782e-05
0000e0 e3 0c e0 39 ae 4f 1c 3a f5 65 a3 38 33 23 44 38
       0.0004273421 0.0005962801 7.791437e-05 4.6762823e-05
0000f0 73 04 a3 36 53 07 41 b9 f6 80 c9 b9 32 6a 74 3a
       4.8582965e-06 -0.00018408643 -0.0003843379 0.00093236857
000100 de c8 d0 39 bc eb 20 3a 21 56 a0 39 28 a4 b7 37
       0.0003982251 0.0006138643 0.0003058175 2.1891741e-05
000110 ae a4 b5 b8 f4 78 71 39 67 fa c6 ba eb c1 52 b8
       -8.6614265e-05 0.0002302861 -0.0015180827 -5.02485e-05
000120 1c f0 5d 3a c9 52 80 3a 0d fb b0 38 c8 7b 5e 37
       0.000846626 0.0009790297 8.439096e-05 1.3261051e-05
000130 f9 ca 54 37 94 b3 ba b8 ad 08 16 b8 dc 4c 31 3a
       1.2683443e-05 -8.90262e-05 -3.5770867e-05 0.0006763467
000140 ee 87 53 ba c8 3e 2e 37 a5 84 76 3a 25 09 81 b9
       -0.00080692663 1.0385826e-05 0.0009403921 -0.0002461161
000150 d0 d6 01 3a 4b 4a 41 3a 4f 1d 20 3a c5 d6 8a 37
       0.0004952969 0.0007373436 0.0006107883 1.6550892e-05
000160 65 56 8b 3a e7 58 e0 39 57 25 4e 3a a2 61 69 3a
       0.0010630606 0.00042790847 0.00078638404 0.0008902793
000170 16 38 67 b8 68 ea 1c ba 63 72 f5 b9 e8 d8 59 39
       -5.5126926e-05 -0.0005985857 -0.00046815266 0.00020775537
000180 ee 00 63 b7 fa ec 2c 3a 7c 47 da b9 a0 6b 71 b9
       -1.3530471e-05 0.00065965916 -0.0004163346 -0.00023023644
000190 c7 8f 2c 39 08 12 2a ba 9f a1 bf 38 cd e0 8b 39
       0.0001645676 -0.0006487672 9.137694e-05 0.00026679636
0001a0 a0 89 91 b9 50 54 c3 39 dc fe a9 b8 cb fc b0 38
       -0.00027759094 0.00037256116 -8.106019e-05 8.43942e-05
0001b0 16 61 c5 38 bd ce 4a b9 d6 b9 36 3a 1d 97 05 3a
       9.411776e-05 -0.00019341237 0.0006970441 0.0005096065
0001c0 6d b2 df b9 de 2e 1b 3a de 58 57 39 c1 7d 71 b9
       -0.00042666812 0.00059197645 0.00020537103 -0.00023030398
0001d0 f1 a1 ed b8 b5 60 32 3a 30 d3 b8 37 b6 a3 b7 3a
       -0.000113312046 0.00068045716 2.2032851e-05 0.0014010582
0001e0 4c 31 58 ba d7 6c 88 b7 3b 0f a8 b9 d9 2f 2e 3a
       -0.0008247092 -1.6263146e-05 -0.00032054805 0.0006644703
0001f0 8a be 9a 38 5e 13 86 39 1e bf 14 ba a2 61 85 39
       7.378783e-05 0.000255729 -0.00056742306 0.0002544048
