Goodminton/Assets/Scripts/TrainedNetworks/Badminton_1gamma3Layers.onnx (onnx, 141575 bytes, 9 tensors)

network_body._body_endoder.seq_layers.0.weight f4 [128, 5]
-0.30905578 -0.18594682 0.18820845 -0.5453662 -0.83366215 0.35591567 0.053891845 0.98106265
0.25969717 -0.22775866 0.37793317 -0.7806079 0.24229302 0.20759222 0.6174879 0.39250854
-0.28111565 0.5103036 -0.14313108 -0.3125128 0.16019301 0.47296306 -1.1249936 -0.59468937
0.44657826 -0.14368503 0.038783465 -1.098254 0.5998861 0.03630607 0.18741257 0.18820953
-0.3317891 -0.5668842 0.67606425 0.16990559 0.32111192 -0.73076665 0.8276192 -0.29665604
0.022522887 -0.3264047 -0.2736112 -0.36334342 -0.03472738 0.35933185 0.23496702 -0.7433317
-0.2708962 -0.90694237 0.7462898 -0.12435324 -0.71956587 0.3413564 -0.14320903 0.18100566
0.07682 0.018201675 0.5860188 -0.28130957 0.4289873 -0.024721486 0.680192 0.5664829
0.04096601 -0.14519162 0.3205054 -0.16095698 -0.09087592 0.42382902 -0.77317274 0.08054273
-0.2497312 -0.4558469 1.0339061 -0.0016527389 -0.0013000608 0.1620738 0.058156103 0.029623691
0.95340955 0.11135792 -0.07993664 -0.2979227 0.2803837 0.12451506 0.23192082 -0.6468063
-0.09926174 -0.2174068 -0.8464293 -0.5071286 0.3577753 -0.054003052 0.45486253 0.65423405
-0.90228516 -0.31721762 0.056789048 -0.38732547 0.33515948 -0.02836481 -0.35020086 0.47520125
-0.5206791 -1.0206004 -1.0570847 -0.540783 -0.0610522 0.12072358 -0.023849508 0.86605936
0.56734884 1.180279 -0.8370042 0.8009706 0.71446186 -0.34347755 0.048118617 0.14972723
-0.3521288 -0.7585084 -0.35182112 0.34343275 0.21084864 -0.10579103 0.18409263 -0.716348
0.37738234 0.3087374 -0.51923144 -0.25097892 -0.54258025 0.1376691 -0.029524334 -0.07401639
-0.11792213 -0.13257611 0.14544709 -0.4938048 0.027866323 -0.066503294 -0.4088237 0.573954
-0.61490375 0.48716405 -0.0031741948 0.033160616 0.25856912 -0.7085436 -0.27708307 -0.7089751
0.17533419 -0.5516492 0.043247737 0.1652014 -0.06542812 -0.5070429 -0.30868748 -0.030700209
-0.9866348 0.59554946 -0.47195852 -0.04959721 0.17761593 -0.18285479 -0.41322052 -0.60638815
-0.7452873 0.27583906 0.64844644 0.3349033 -0.2665828 -0.1925856 0.26344877 0.5724178
-0.2509776 0.30231684 -0.45565775 0.15381618 -0.361609 -0.036774572 0.38886476 0.27791613
-0.036932435 0.38549647 0.42164877 1.0205227 0.24954422 0.53863466 0.0023095415 -0.39234027
-0.32206643 -0.03367986 -0.07284835 0.27409425 -0.100225136 -0.60128987 0.8295883 -1.0069821
-0.43603706 -0.10927016 -0.08409827 -0.41797262 -0.6270416 -0.05925316 0.15788962 0.054587036
-0.024415078 -0.01462079 0.2548853 -0.43582764 -0.45070353 -0.27986816 -0.9257985 -0.3962087
0.7794787 0.016384194 0.3583368 0.034537688 -0.43385097 -0.44323862 -0.40786064 1.0214187
-0.10449187 0.11305225 -0.99120235 -0.291215 0.1770302 0.39165765 -0.2676847 -0.71927994
0.0073453016 -0.39154488 0.37638482 -0.17863359 -0.7148663 0.19935685 0.27634048 0.8772051
-0.14989854 0.29168576 -0.049708012 -0.27082992 -0.007824284 -0.47858566 0.16187984 -0.15595445
1.1434305 0.36211067 -0.11389098 -0.12483781 -0.050871756 0.33011356 -0.34154055 0.02311321
00000000: 8f3c 9ebe d868 3ebe b7b9 403e 1f9d 0bbf
00000010: e26a 55bf 943a b63e b2bd 5c3d ec26 7b3f
00000020: 07f7 843e 9139 69be 7580 c13e ebd5 47bf
00000030: a91b 783e 0e93 543e b013 1e3f e1f6 c83e
00000040: 64ee 8fbe 42a3 023f f490 12be ad01 a0be
00000050: a309 243e 3728 f23e caff 8fbf 903d 18bf
00000060: e8a5 e43e 2b22 13be 69db 1e3d 9693 8cbf
00000070: 2392 193f acb5 143d 15e9 3f3e 00ba 403e
00000080: 43e0 a9be 531f 11bf 8c12 2d3f bbfb 2d3e
00000090: c868 a43e 8613 3bbf dade 533f 4de3 97be
000000a0: eb81 b83c 841e a7be c416 8cbe 2608 babe
000000b0: 4c3e 0ebd 58fa b73e 329b 703e fc4a 3ebf
000000c0: e8b2 8abe 602d 68bf d90c 3f3f e9ac febd
000000d0: 7835 38bf 44c6 ae3e 63a5 12be 8c59 393e
000000e0: ce53 9d3d ae1b 953c 5405 163f cf07 90be
000000f0: 39a4 db3e b784 cabc 1021 2e3f 0605 113f
00000100: facb 273d 1dad 14be 4919 a43e e8d1 24be
00000110: 281d babd 1e00 d93e a6ee 45bf 96f3 a43d
00000120: 89b9 7fbe c464 e9be 0957 843f b7a0 d8ba
00000130: cd66 aaba adf6 253e 1835 6e3d 62ad f23c
00000140: a612 743f 9f0f e43d d2b5 a3bd 5389 98be
00000150: 748e 8f3e c001 ff3d a77c 6d3e 1995 25bf
00000160: bd49 cbbd e39f 5ebe 97af 58bf 2ed3 01bf
00000170: 532e b73e 4e32 5dbd bee3 e83e e27b 273f
00000180: 29fc 66bf 596a a2be a29b 683d 864f c6be
00000190: 069a ab3e 515d e8bc 874d b3be 944d f33e
000001a0: 3a4b 05bf 09a3 82bf 8d4e 87bf c170 0abf
000001b0: df11 7abd ed3d f73d 0b60 c3bc 11b6 5d3f
000001c0: c63d 113f 6213 973f e845 56bf 690c 4d3f
000001d0: f9e6 363f 4adc afbe 0718 453d 1852 193e
000001e0: 3a4a b4be 9b2d 42bf e621 b4be 6bd6 af3e
000001f0: b5e8 573e f8a8 d8bd c782 3c3e 9562 37bf
00000200: 4238 c13e d412 9e3e 5aec 04bf 4f80 80be
00000210: 8ae6 0abf 21f9 0c3e 04dd f1bc e895 97bd
00000220: 2881 f1bd 08c2 07be 15f0 143e fcd3 fcbe
00000230: ea47 e43c e132 88bd 5751 d1be a6ee 123f
00000240: 556a 1dbf 916d f93e 2706 50bb 6dd3 073d
00000250: 2c63 843e 1d63 35bf d5dd 8dbe 647f 35bf
00000260: ce8a 333e e238 0dbf 8a24 313d 8e2a 293e
00000270: 2eff 85bd 90cd 01bf 490c 9ebe 017f fbbc
00000280: 1994 7cbf ee75 183f 8ca4 f1be 7226 4bbd
00000290: f3e0 353e 493e 3bbe a491 d3be 413c 1bbf
000002a0: 26cb 3ebf c73a 8d3e 9600 263f 7278 ab3e
000002b0: 8a7d 88be 2935 45be c2e2 863e f989 123f
000002c0: 2380 80be 46c9 9a3e f94b e9be fd81 1d3e
000002d0: d124 b9be efa0 16bd 4819 c73e 064b 8e3e
000002e0: 7746 17bd cb5f c53e 59e2 d73e 7da0 823f
000002f0: 8588 7f3e f6e3 093f ad5b 173b d3e0 c8be
00000300: e4e5 a4be e5f3 09bd 8431 95bd 1556 8c3e
00000310: d642 cdbd 22ee 19bf e65f 543f cae4 80bf
00000320: 4040 dfbe 09c9 dfbd b73b acbd 8200 d6be
00000330: cc85 20bf 71b3 72bd d1ad 213e a896 5f3d
00000340: 2102 c8bc 0a8c 6fbc 5380 823e cd24 dfbe
00000350: 9dc2 e6be e14a 8fbe 2101 6dbf dedb cabe
00000360: eb8b 473f 2538 863c ec77 b73e 6477 0d3d
00000370: b721 debe 2cf0 e2be 1cd3 d0be d9bd 823f
00000380: d5ff d5bd f087 e73d 70bf 7dbf 221a 95be
00000390: 6847 353e 5a87 c83e f80d 89be bb22 38bf
000003a0: dbb0 f03b 9278 c8be 83b5 c03e b9eb 36be
000003b0: 7a01 37bf 3424 4c3e 807c 8d3e 8390 603f
000003c0: 017f 19be d657 953e a19a 4bbd 38aa 8abe
000003d0: 6d31 00bc 2e09 f5be d4c3 253e 86b2 1fbe
000003e0: ee5b 923f 9266 b93e ad3f e9bd f7aa ffbd
000003f0: e75e 50bd a504 a93e 67de aebe ea57 bd3c

network_body._body_endoder.seq_layers.0.bias f4 [128]
-0.16000876 -0.025124699 -0.081631005 -0.0024079082 0.14273047 -0.012528106 0.0012123927 -0.22236682
-0.124484695 -0.14091314 -0.13320255 -0.24979106 -0.04641791 -0.018637767 -0.0763202 -0.16814257
0.071336865 -0.046687983 0.035032164 -0.026940713 -0.17068878 0.04954728 -0.117874734 -0.020308036
0.054285605 0.1131235 0.02357677 -0.1514859 -0.18492974 -0.10144139 0.0005845386 -0.066668436
0.091613956 -0.017534088 -0.05853045 -0.014185301 -0.007449378 -0.025750812 0.027644357 -0.16362369
-0.23741382 -0.08916867 -0.09102934 0.02673519 -0.08278428 -0.019433625 -0.0622346 -0.17242758
0.00048536545 0.03284095 -0.1271425 -0.027886821 -0.124771334 -0.08069318 -0.08332386 0.018404296
-0.04957022 -0.19555417 0.03321437 -0.03813811 0.03514425 -0.03409883 0.032479238 0.040824257
-0.042810984 0.120058805 -0.009794914 0.0048850225 -0.014545837 0.022387756 0.025833804 -0.081487596
-0.102877975 -0.071562715 0.04852387 -0.07229977 -0.08479142 0.035955522 0.006187446 0.03863235
0.0010385339 -0.08876412 -0.0890921 -0.088314585 -0.09755777 -0.006509694 -0.085775696 0.109604985
0.03658192 0.04878757 -0.061837856 0.018716522 -0.054761596 -0.044611245 0.010885311 -0.13748053
-0.07197976 -0.029630521 -0.06168118 -0.08379652 -0.13437562 0.012360177 -0.115452304 -0.048283856
0.026570905 -0.0058300467 -0.13407978 -0.089224614 -0.1541744 -0.08962881 -0.041612055 -0.17300843
0.08814783 -0.060240258 -0.09409996 -0.006278074 -0.065239236 0.0031257805 -0.05335838 -0.15368639
-0.17426988 -0.09472137 -0.008952174 -0.1199897 -0.040544607 -0.036071382 -0.04157217 -0.09559581
00000000: 56d9 23be 50d2 cdbc 282e a7bd ffcd 1dbb
00000010: f027 123e af42 4dbc 26e9 9e3a 21b4 63be
00000020: d5f1 febd 894b 10be 4066 08be 3ac9 7fbe
00000030: b520 3ebd 3bae 98bc c44d 9cbd 912d 2cbe
00000040: 1019 923d e63b 3fbd e37d 0f3d c5b2 dcbc
00000050: 0ac9 2ebe 17f2 4a3d 4f68 f1bd 0a5d a6bc
00000060: 955a 5e3d 4bad e73d 1224 c13c 1f1f 1bbe
00000070: 395e 3dbe 81c0 cfbd b93b 193a 7689 88bd
00000080: 19a0 bb3d a6a3 8fbc a0bd 6fbd 7769 68bc
00000090: e919 f4bb 5ef3 d2bc 6b76 e23c f88c 27be
000000a0: 9c1c 73be 109e b6bd 976d babd c203 db3c
000000b0: ce8a a9bd 4433 9fbc b5e9 7ebd db90 30be
000000c0: a678 fe39 3b84 063d a531 02be e772 e4bc
000000d0: 1d88 ffbd 7742 a5bd b3a5 aabd 9bc4 963c
000000e0: 250a 4bbd 5a3f 48be cb0b 083d b536 1cbd
000000f0: 6bf3 0f3d 37ab 0bbd f308 053d 5637 273d
00000100: 925a 2fbd 64e1 f53d d97a 20bc 8a12 a03b
00000110: aa51 6ebc 8766 b73c 6aa1 d33c f8e2 a6bd
00000120: b0b1 d2bd 798f 92bd f7c0 463d e711 94bd
00000130: 20a7 adbd 1946 133d 0fc0 ca3b f43c 1e3d
00000140: 6a1f 883a f7c9 b5bd eb75 b6bd 47de b4bd
00000150: 5ecc c7bd 454f d5bb 2bab afbd 9478 e03d
00000160: ecd6 153d 7ad5 473d b149 7dbd 6453 993c
00000170: b24d 60bd 48ba 36bd 4e58 323c b2c7 0cbe
00000180: 206a 93bd b5bb f2bc 68a5 7cbd 839d abbd
00000190: c399 09be 5782 4a3c 4272 ecbd 4bc5 45bd
000001a0: 3aab d93c fa09 bfbb 364c 09be 65bb b6bd
000001b0: e5df 1dbe 4f8f b7bd 6771 2abd 1f29 31be
000001c0: d986 b43d 7dbe 76bd 7bb7 c0bd 4db8 cdbb
000001d0: 269c 85bd e5d9 4c3b 518e 5abd f75f 1dbe
000001e0: ce73 32be 47fd c1bd 24ac 12bc 29bd f5bd
000001f0: 1a12 26bd 96bf 13bd 9447 2abd bcc7 c3bd

network_body._body_endoder.seq_layers.2.weight f4 [128, 128]
-0.04015231 -0.012103426 0.14008524 -0.08973346 0.04368722 0.032447644 -0.08315805 -0.127526
0.1771021 -0.0813154 -0.047845915 -0.04222343 0.012482098 -0.22515187 -0.009369343 -0.114528954
-0.09173011 0.055904243 -0.15736203 -0.17667912 -0.12001536 -0.025819004 -0.1713594 -0.07662171
-0.04601052 -0.1818233 0.031985484 0.05135864 0.077911176 0.030656438 0.07307271 0.014696306
-0.2821987 0.057120904 -0.061504956 -0.14704157 -0.057220314 -0.03962015 -0.09049116 -0.023792332
0.10499883 0.09742283 0.040558387 -0.034718674 -0.04194273 -0.017341776 -0.037703265 -0.06057185
-0.051613744 -0.1426859 -0.16301396 -0.018216401 0.053188216 -0.009471358 0.0026883539 0.009102872
-0.062247574 -0.006376916 -0.22566903 0.09129279 -0.0003567761 -0.045687173 -0.0027143708 -0.10052358
0.029245226 0.051418092 -0.11546842 -0.054304827 0.0625811 0.13232045 -0.06700302 -0.068388216
-0.06856255 0.07625827 -0.1177185 -0.16014072 -0.148237 -0.14583614 -0.1813794 -0.024768306
-0.35772604 -0.030118495 0.13905354 0.019815447 0.03520486 -0.09294009 -0.057758786 0.00037620752
-0.0051004104 -0.18225224 -0.09245672 -0.11887231 -0.05066999 -0.055003695 -0.05093098 -0.11828344
0.06368127 -0.039228056 -0.18962356 0.20543876 -0.09899018 -0.023691237 0.11347153 -0.077890314
0.16605248 0.06873146 -0.1540754 -0.02278488 -0.16870289 0.066927426 -0.15609463 -0.12218723
0.017349103 -0.1561128 -0.17367782 0.03791151 0.03643432 0.048480403 0.07035317 0.028474828
-0.1045439 0.035117224 -0.010218726 0.025526354 0.041662738 -0.07977494 0.006850095 -0.07573233
0.055535935 -0.14816476 -0.06481145 -0.1941272 0.028563678 0.06420642 0.03216829 -0.24323143
0.0022354661 0.067324534 0.09815795 0.02731578 -0.23305014 -0.052477956 -0.05480621 -0.10057358
-0.22617145 -0.026423527 0.013142679 -0.25446755 -0.11136444 0.09696469 0.017714215 -0.09227126
0.24105786 0.007256764 0.2538036 -0.021886943 -0.04108268 -0.033424612 -0.17830057 -0.11461571
0.1276091 -0.123242065 -0.111845635 -0.050030496 -0.08159063 -0.086777896 -0.05753286 -0.15081535
-0.061697897 -0.07293784 -0.012972268 -0.06839222 -0.11830606 -0.1326762 0.12920755 -0.055374086
-0.04730671 -0.059200235 -0.06753639 -0.106817774 -0.20885158 -0.03345902 0.044563953 0.06314529
-0.00759906 0.00029441944 0.063508175 0.04741616 -0.09533562 0.11962404 0.033402413 0.07499495
-0.2538276 -0.0043724086 -0.17279728 -0.0852372 -0.023355534 -0.06268117 -0.024140969 -0.1381442
-0.11308459 -0.016279139 0.014009451 0.13705504 0.15762424 -0.03686519 0.041555587 0.09777882
-0.037899483 -0.023608102 -0.0038958688 -0.05808584 -0.12514995 -0.0011214023 -0.043654557 -0.03857907
0.013513726 -0.02083757 0.046823718 0.0462467 0.06698445 -0.043698736 -0.11711126 0.1206999
-0.009178362 -0.06711388 0.09239421 0.009009597 -0.21656153 -0.08795407 0.082670905 -0.21260129
0.09645472 0.07917623 0.18998837 0.022785941 0.06530016 -0.20535725 -0.0010780458 -0.2249712
0.25837028 0.034416605 0.059242476 0.16141768 -0.05958454 0.06786965 -0.09636464 -0.0018292503
-0.14457728 0.10371521 0.029673303 -0.2733302 -0.037307393 0.15374465 -0.05024213 -0.029754523
00000000: c076 24bd 734d 46bc 8172 0f3e 2dc6 b7bd
00000010: 5ff1 323d d2e7 043d c54e aabd 2d96 02be
00000020: 415a 353e b088 a6bd 14fa 43bd 7af2 2cbd
00000030: b781 4c3c 368e 66be df81 19bc 288e eabd
00000040: ffdc bbbd d9fb 643d 8323 21be 5feb 34be
00000050: 9dca f5bd 6082 d3bc d778 2fbe d8eb 9cbd
00000060: 8775 3cbd e32f 3abe 3603 033d 705d 523d
00000070: e58f 9f3d 3623 fb3c 25a7 953d c6c8 703c
00000080: 597c 90be 9cf7 693d 9fec 7bbd 1192 16be
00000090: d95f 6abd bd48 22bd 6e53 b9bd 23e8 c2bc
000000a0: a009 d73d 9f85 c73d 8d20 263d 2b35 0ebd
000000b0: 24cc 2bbd 5710 8ebc bd6e 1abd 301a 78bd
000000c0: ef68 53bd 411c 12be 22ed 26be 903a 95bc
000000d0: e3db 593d c12d 1bbc 182f 303b 3624 153c
000000e0: 50f7 7ebd 73f5 d0bb c815 67be b7f7 ba3d
000000f0: ad0d bbb9 7922 3bbd 96e3 31bb 4fdf cdbd
00000100: af93 ef3c c79b 523d b57a ecbd bd6e 5ebd
00000110: 852a 803d 037f 073e e138 89bd 1f0f 8cbd
00000120: 866a 8cbd 4c2d 9c3d 6616 f1bd eefb 23be
00000130: 71cb 17be 1256 15be 85bb 39be e7e6 cabc
00000140: de27 b7be 10bb f6bc 0d64 0e3e 0154 a23c
00000150: f932 103d 6057 bebd 7a94 6cbd b83d c539
00000160: 5821 a7bb 55a0 3abe f359 bdbd 5373 f3bd
00000170: 568b 4fbd 8e4b 61bd 019d 50bd 973e f2bd
00000180: 536b 823d 99ad 20bd ae2c 42be 8a5e 523e
00000190: 5dbb cabd 2014 c2bc c363 e83d f584 9fbd
000001a0: a909 2a3e 14c3 8c3d f1c5 1dbe 5ba7 babc
000001b0: 73c0 2cbe 3f11 893d 45d7 1fbe 4c3d fabd
000001c0: b51f 8e3c 09dc 1fbe 99d8 31be 1949 1b3d
000001d0: 273c 153d 6393 463d 5315 903d 0b44 e93c
000001e0: 1d1b d6bd 14d7 0f3d 716c 27bc a51c d13c
000001f0: 8ca6 2a3d 0b61 a3bd c376 e03b 8d19 9bbd
00000200: a679 633d 81b8 17be debb 84bd 48c9 46be
00000210: 60fe e93c a87e 833d e6c2 033d a911 79be
00000220: e680 123b 72e1 893d 0907 c93d 58c5 df3c
00000230: b2a4 6ebe 20f3 56bd 7a7c 60bd 85f9 cdbd
00000240: 7d99 67be 2776 d8bc 6454 573c 9249 82be
00000250: 0a13 e4bd 6c95 c63d 671d 913c b7f8 bcbd
00000260: dfd7 763e 26ca ed3b 8cf2 813e 3f4c b3bc
00000270: 5046 28bd 3fe8 08bd 6d94 36be a4bb eabd
00000280: f6ab 023e 5666 fcbd 530f e5bd c7ec 4cbd
00000290: fd18 a7bd 9cb8 b1bd 94a7 6bbd 576f 1abe
000002a0: efb6 7cbd 6f60 95bd a389 54bc 3811 8cbd
000002b0: 734a f2bd 45dc 07be fc4e 043e f0cf 62bd
000002c0: aec4 41bd f27b 72bd 8550 8abd 47c3 dabd
000002d0: 30dd 55be 530c 09bd b188 363d 5152 813d
000002e0: 8901 f9bb 4f5c 9a39 9310 823d 7337 423d
000002f0: 523f c3bd 73fd f43d f8d0 083d f496 993d
00000300: b1f5 81be 6c46 8fbb c5f1 30be d790 aebd
00000310: 1b54 bfbc fc5e 80bd 48c3 c5bc ac75 0dbe
00000320: e598 e7bd d45b 85bc e587 653c 2858 0c3e
00000330: 4068 213e f4ff 16bd 3136 2a3d 4340 c83d
00000340: 7d3c 1bbd c765 c1bc d551 7fbb 6beb 6dbd
00000350: 4f27 00be 04fc 92ba 1fcf 32bd 1605 1ebd
00000360: ad68 5d3c 8db3 aabc 3aca 3f3d 2e6d 3d3d
00000370: 252f 893d 72fd 32bd 07d8 efbd 8231 f73d
00000380: d760 16bc 0073 89bd 2d39 bd3d fd9c 133c
00000390: 4ec2 5dbe 4321 b4bd 5d4f a93d 27b4 59be
000003a0: 0d8a c53d 2627 a23d 508c 423e 95a9 ba3c
000003b0: 17bc 853d 2c49 52be 374d 8dba da5e 66be
000003c0: 1c49 843e 6df8 0c3d 3da8 723d ad4a 253e
000003d0: eb0e 74bd 3eff 8a3d d35a c5bd 74c3 efba
000003e0: 110c 14be a468 d43d 6d15 f33c f0f1 8bbe
000003f0: a3cf 18bd 3d6f 1d3e b1ca 4dbd c2bf f3bc

network_body._body_endoder.seq_layers.2.bias f4 [128]
-0.0106577175 -0.023755267 -0.036865816 -0.057399083 -0.09909832 -0.040847305 0.015107613 -0.043326393
-0.047056593 0.011556404 -0.08038839 -0.037566416 -0.008580832 -0.052092306 0.027058765 -0.024883825
-0.012358361 0.0350813 0.008162655 -0.013929518 -0.009438413 -0.027939094 0.018903712 -0.10133474
0.024444949 -0.07063791 -0.041714262 0.036286917 0.0027890508 -0.040828977 -0.019263316 0.0014804599
0.033991996 0.0053744316 0.033879157 -0.028016958 -0.03883991 -0.058309574 0.027529046 0.03450979
-0.098747715 0.0601768 0.00094425364 -0.025269521 0.029872824 -0.05710916 -0.0011987413 -0.012501457
0.001477489 -0.09806574 -0.04467296 -0.021670667 0.12030523 -0.031414386 0.058441024 0.04365226
0.07574914 0.0015623136 0.04059047 -0.08766103 -0.0034064895 -0.003961795 0.004023599 0.01087236
0.0045583844 -0.027567158 -0.00058241136 -0.029349988 -0.05890806 -0.062241737 0.01848019 0.020164995
-0.037750475 -0.008887227 -0.04786086 0.10731114 -0.10953005 0.029264262 -0.07193319 -0.04814999
0.010619751 0.057445735 -0.02054192 -0.009419385 0.08028602 0.029584702 0.049602862 0.034665532
-0.04751851 0.057861082 0.060629014 -0.0008193592 0.055921786 -0.1302879 -0.005149626 -0.006122684
-0.088330835 0.008808854 -0.031621635 -0.0807221 -0.020185702 -0.034532093 0.06197144 -0.04186091
0.038760703 -0.014330646 -0.00577977 0.04859668 -0.0025012789 -0.0457492 -0.052412964 -0.020038947
0.03005357 0.037434984 -0.12383765 0.004172891 0.010121477 -0.015213465 0.0408245 0.049097467
-0.04179565 -0.06615381 -0.02417087 -0.030950796 0.008132786 0.043661 -0.008217572 0.05354347
00000000: b59d 2ebc 689a c2bc 9c00 17bd 4d1b 6bbd
00000010: 0ff4 cabd 814f 27bd ec85 773c 0477 31bd
00000020: 6abe 40bd 1257 3d3c aba2 a4bd 3edf 19bd
00000030: 9e96 0cbc be5e 55bd 58aa dd3c 2ad9 cbbc
00000040: b97a 4abc 69b1 0f3d a8bc 053c a238 64bc
00000050: 93a3 1abc 87e0 e4bc f5db 9a3c 9788 cfbd
00000060: c640 c83c 9caa 90bd 93dc 2abd 97a1 143d
00000070: 82c8 363b 493c 27bd 1ace 9dbc fe0b c23a
00000080: 313b 0b3d 001c b03b dfc4 0a3d d283 e5bc
00000090: 9916 1fbd 05d6 6ebd 9884 e13c 235a 0d3d
000000a0: 3e3c cabd f37b 763d ca87 773a 0702 cfbc
000000b0: dab7 f43c 4beb 69bd 151f 9dba e9d2 4cbc
000000c0: 4ea8 c13a b1d6 c8bd fefa 36bd af86 b1bc
000000d0: 9762 f63d 5fac 00bd db5f 6f3d b6cc 323d
000000e0: 5d22 9b3d 8cc6 cc3a 3142 263d a087 b3bd
000000f0: 693f 5fbb f2d1 81bb 65d8 833b fc21 323c
00000100: 805e 953b 85d4 e1bc f7ac 18ba 636f f0bc
00000110: 9449 71bd 31f1 7ebd c463 973c 0f31 a53c
00000120: 3ea0 1abd bb9b 11bc c009 44bd f1c5 db3d
00000130: 4a51 e0bd 9bbb ef3c b551 93bd ed38 45bd
00000140: 77fe 2d3c 384c 6b3d 8747 a8bc c453 1abc
00000150: ff6c a43d 9e5b f23c 5f2c 4b3d 72fd 0d3d
00000160: c5a2 42bd beff 6c3d 2156 783d 44ca 56ba
00000170: 3e0e 653d 316a 05be 32be a8bb cca0 c8bb
00000180: cce6 b4bd 0353 103c b085 01bd a151 a5bd
00000190: 7c5c a5bc 8671 0dbd c4d5 7d3d 5876 2bbd
000001a0: 8bc3 1e3d 16cb 6abc 3a64 bdbb 500d 473d
000001b0: 7fec 23bb 8363 3bbd faae 56bd b828 a4bc
000001c0: e832 f63c 6d55 193d 989e fdbd bfbc 883b
000001d0: 8dd4 253c e641 79bc 9737 273d 6d1a 493d
000001e0: ea31 2bbd a67b 87bd fd01 c6bc 868c fdbc
000001f0: 603f 053c e0d5 323d ffa2 06bc 6650 5b3d

network_body._body_endoder.seq_layers.4.weight f4 [128, 128]
0.04369084 -0.1276384 -0.1511244 0.063705884 -0.019108271 0.047755636 0.021467336 -0.105232365
-0.14474563 -0.27276343 0.013028994 -0.099239245 -0.07272726 0.024665136 -0.10388978 -0.10641523
0.13848595 0.024726123 -0.035654537 -0.097803645 0.036810856 -0.09575139 -0.09609069 -0.21018034
0.08178915 -0.019302918 -0.11662183 0.022122592 -0.009823603 -0.029697709 -0.101684004 0.10414627
-0.22906008 0.060344733 0.2797256 -0.21179684 0.011777629 0.19199216 0.052936334 -0.12734486
0.02706163 -0.03768134 -0.26520976 -0.068098806 -0.0416929 0.021600334 0.008799326 -0.0532882
-0.049610388 -0.09746859 0.022249982 0.02134557 -0.08976043 -0.021848012 -0.21225101 -0.023499636
0.08768341 0.061976295 0.033542413 -0.114431135 0.09411748 -0.015822364 -0.024377096 0.053010162
0.052783143 -0.35866377 -0.20433722 -0.13192932 0.15543239 -0.24217646 -0.040352285 -0.2577866
-0.029010171 -0.116988376 -0.06374334 -0.122140676 -0.009723718 -0.04448089 -0.039714675 -0.23339917
-0.06023985 -0.003898441 -0.2037251 -0.24790508 -0.005714321 0.0058567617 -0.16248922 -0.02832823
-0.0607812 0.010028568 0.15300216 -0.18386388 0.07734673 -0.087530114 0.113538116 -0.06579428
-0.002453797 0.033880714 0.023546413 -0.046956424 0.13040014 0.06965601 0.13126008 -0.2838196
0.27171186 -0.033399176 0.08825988 0.08653902 0.12063542 0.080792524 -0.15470286 -0.15483016
-0.26360494 0.11632056 -0.25140202 -0.081528716 0.011946733 -0.116500825 0.10902665 0.021784838
-0.09315559 -0.05665818 -0.1603278 -0.22559132 -0.022803124 -0.033745542 -0.111864366 0.060788002
-0.17578638 -0.020962782 0.035572574 0.029226715 0.017978368 -0.0021494576 0.088344745 -0.22649248
0.06549157 0.12405783 -0.028420683 0.009700259 -0.17427309 0.06975426 0.12727413 -0.13252787
0.036501527 0.12545791 -0.04707644 0.037758097 0.11038238 0.048370894 -0.0060556484 -0.11359137
-0.21379834 -0.12402823 -0.008520264 0.06964266 0.15129891 -0.08307815 -0.19743632 -0.12688264
-0.2342047 -0.072735325 0.011476141 0.2272068 -0.017435765 -0.062687695 -0.15682402 0.045196086
-0.115302205 0.14284618 0.14462468 -0.26512694 -0.09157302 -0.24707285 0.056801904 -0.1293189
-0.04500548 -0.006521888 -0.0006088845 0.0762782 0.09533471 -0.1159329 0.104872085 -0.081413135
0.048733845 -0.15920389 -0.110298604 0.11390221 0.15085216 -0.075498044 0.002707424 -0.11636129
0.04112093 0.0347899 -0.03451441 0.2482706 0.031538755 -0.053718925 0.035754647 0.09509968
-0.21543771 0.06860055 0.09734966 0.11120369 0.11566201 0.011330867 0.016087802 -0.030743483
0.109244704 -0.11661111 -0.1802879 -0.20795293 -0.13359195 0.1175884 -0.06977354 0.10930868
-0.12798236 -0.07533969 -0.22095631 -0.21563512 0.08981826 -0.04814905 -0.07086018 -0.10319531
-0.09910403 0.16373761 -0.2506628 0.116543144 -0.27616012 -0.15878522 -0.1372563 0.11786558
0.13736993 -0.011123962 0.03735628 -0.0026812835 -0.01694298 0.057273515 -0.23446716 0.26655838
-0.042154215 -0.12788922 0.027623465 -0.07917888 0.22405481 -0.043255433 0.04896987 -0.18914185
0.199565 0.025002396 -0.010537804 0.12545118 0.043169912 -0.10426556 0.057920456 0.088570416
00000000: 2bf5 323d a4b3 02be 5bc0 1abe 3b78 823d
00000010: f388 9cbc 6a9b 433d 44dc af3c 1184 d7bd
00000020: 3338 14be a6a7 8bbe 9077 553c f23d cbbd
00000030: 08f2 94bd 8a0e ca3c 2ac4 d4bd 3af0 d9bd
00000040: 43cf 0d3e 708e ca3c 7e0a 12bd 474d c8bd
00000050: fbc6 163d 4e19 c4bd 32cb c4bd 8439 57be
00000060: 1281 a73d 2721 9ebc 6dd7 eebd 703a b53c
00000070: 2df3 20bc 9c48 f3bc b43f d0bd a44a d53d
00000080: ba8e 6abe 0a2c 773d 3238 8f3e 45e1 58be
00000090: f5f6 403c 9899 443e c5d3 583d b166 02be
000000a0: 5ab0 dd3c c057 1abd 93c9 87be 6377 8bbd
000000b0: 2dc6 2abd 2ff3 b03c 0c2b 103c ba44 5abd
000000c0: 4334 4bbd 9d9d c7bd 9845 b63c e8dc ae3c
000000d0: 51d4 b7bd 9afa b2bc 5458 59be 4f82 c0bc
000000e0: 5c93 b33d dbda 7d3d c563 093d df5a eabd
000000f0: aac0 c03d e79d 81bc 7ab2 c7bc 2f21 593d
00000100: 2333 583d c7a2 b7be c73d 51be 7b18 07be
00000110: ab29 1f3e 1bfd 77be 7048 25bd 9bfc 83be
00000120: bda6 edbc 9a97 efbd de8b 82bd e424 fabd
00000130: 3b50 1fbc 9831 36bd dbab 22bd 3100 6fbe
00000140: 10be 76bd fd7c 7fbb 509d 50be d4da 7dbe
00000150: 333f bbbb 14ea bf3b 9363 26be 9b10 e8bc
00000160: b5f5 78bd dd4e 243c 99ac 1c3e d046 3cbe
00000170: f667 9e3d fd42 b3bd ac86 e83d 27bf 86bd
00000180: e2cf 20bb 81c6 0a3d 68e4 c03c 6155 40bd
00000190: 9d87 053e cfa7 8e3d 0b69 063e cd50 91be
000001a0: d11d 8b3e 93cd 08bd 99c1 b43d 5f3b b13d
000001b0: b40f f73d 8d76 a53d 6d6a 1ebe cc8b 1ebe
000001c0: 3af7 86be 7939 ee3d c4b7 80be 87f8 a6bd
000001d0: 3bbc 433c fc97 eebd 5d49 df3d 1e76 b23c
000001e0: 5cc8 bebd 6812 68bd f92c 24be 6901 67be
000001f0: 9ecd babc c438 0abd 2519 e5bd d7fc 783d
00000200: 5801 34be 24ba abbc 8cb4 113d dd6c ef3c
00000210: 5f47 933c eadd 0cbb 17ee b43d a5ed 67be
00000220: 7220 863d 0812 fe3d 7ed2 e8bc d6ed 1e3c
00000230: a574 32be 52db 8e3d 2654 023e 63b5 07be
00000240: a082 153d 0a78 003e 3ad3 40bd 3ca8 1a3d
00000250: 2810 e23d 8f20 463d 766e c6bb 98a2 e8bd
00000260: f4ed 5abe 8302 febd 9498 0bbc d0a0 8e3d
00000270: 1aee 1a3e e124 aabd bf2c 4abe 86ed 01be
00000280: 5bd3 6fbe 42f6 94bd 6d06 3c3c e6a8 683e
00000290: 73d5 8ebc 6862 80bd 7a96 20be 881f 393d
000002a0: 9023 ecbd 4546 123e 7e18 143e b8be 87be
000002b0: a38a bbbd aa00 7dbe 1da9 683d 2c6c 04be
000002c0: ab57 38bd 90b5 d5bb 8c9d 1fba bf37 9c3d
000002d0: d83e c33d 3a6e edbd 2dc7 d63d eebb a6bd
000002e0: 249d 473d 5806 23be 3ce4 e1bd 9045 e93d
000002f0: fd78 1a3e b89e 9abd 0a6f 313b d44e eebd
00000300: 6c6e 283d db7f 0e3d fb5e 0dbd a63a 7e3e
00000310: c82e 013d 6008 5cbd 7773 123d 9fc3 c23d
00000320: b49b 5cbe 727e 8c3d 425f c73d c3be e33d
00000330: 34e0 ec3d 1aa5 393c 91ca 833c c2d9 fbbc
00000340: b0bb df3d ced1 eebd 649d 38be 9df1 54be
00000350: 54cc 08be 30d2 f03d 6ee5 8ebd 3bdd df3d
00000360: cf0d 03be b24b 9abd 5f42 62be 74cf 5cbe
00000370: a3f2 b73d f037 45bd 241f 91bd 1058 d3bd
00000380: 0ef7 cabd d5aa 273e e056 80be 2cae ee3d
00000390: dc64 8dbe 9898 22be ea8c 0cbe 8263 f13d
000003a0: b4aa 0c3e 4741 36bc e602 193d 79b8 2fbb
000003b0: 01cc 8abc a297 6a3d 2918 70be 577a 883e
000003c0: e6a9 2cbd 64f5 02be 9b4a e23c 8928 a2bd
000003d0: a06e 653e 9c2c 31bd a194 483d 67ae 41be
000003e0: c45a 4c3e d3d1 cc3c c1a6 2cbc 4676 003e
000003f0: efd2 303d 2f89 d5bd 003e 6d3d 6864 b53d

network_body._body_endoder.seq_layers.4.bias f4 [128]
0.043283418 0.09800955 0.010415665 -0.036681253 -0.030766245 -0.08758084 -0.039894473 -0.10639739
-0.029322749 -0.041167803 -0.071546644 0.09901571 -0.0153674055 0.036683965 0.09239411 -0.080306895
0.06267604 0.0797522 -0.1088111 -0.022774424 0.069439776 -0.008286739 -0.014145123 -0.018549614
-0.0536877 -0.030033434 0.09160373 0.0026616596 -0.047666036 -0.03100595 0.06886542 -0.112227306
-0.13804291 0.019614836 -0.076953925 -0.004279478 0.010430212 -0.0047844583 -0.0047422033 0.018505035
0.018936686 -0.009412345 -0.044395782 0.010786522 0.019637635 -0.028231805 0.020770468 -0.024568956
-0.034933046 0.034618407 0.07383299 -0.012651165 0.029331291 0.09204919 0.021778295 0.047254898
0.05193674 0.018169122 0.026209874 -0.015241191 0.022359833 -0.063309275 -0.08852377 0.07175095
-0.07191972 -0.0602918 -0.037424617 0.11339305 0.04270271 0.08294058 0.03833284 0.025601462
-0.05560401 -0.056307647 -0.054488238 0.023677645 -0.04439951 -0.0005377133 0.04305063 -0.014791448
0.05705693 0.10027747 -0.031437542 -0.09266728 0.10907537 0.015853796 -0.060600232 -0.07646935
-0.066276684 -0.049432263 0.035877723 0.05863605 0.02657036 -0.030945357 -0.055277552 -0.03786707
-0.101716846 -0.033681665 -0.073547594 0.128302 -0.018625923 -0.015320224 -0.047198873 -0.1643605
-0.03455632 -0.01461033 -0.025172323 -0.100181915 0.047813274 0.0321548 -0.028258475 0.010461881
-0.0111784935 0.026442738 0.09374777 0.009069012 0.059244968 0.06519983 0.07548861 -0.06352136
-0.04428105 -0.09254148 0.03686368 -0.074950665 0.09030241 0.033236098 -0.043859273 -0.01789059
00000000: f449 313d 3bb9 c83d 77a6 2a3c 153f 16bd
00000010: 7e09 fcbc 955d b3bd 6368 23bd e0e6 d9bd
00000020: 4336 f0bc 929f 28bd 0c87 92bd c0c8 ca3d
00000030: 92c7 7bbc ed41 163d 2039 bd3d f177 a4bd
00000040: 4c5c 803d 1f55 a33d 5bd8 debd 6e91 babc
00000050: 7136 8e3d 1ac5 07bc f2c0 67bc 5cf5 97bc
00000060: a2e7 5bbd ad08 f6bc bd9a bb3d 3d6f 2e3b
00000070: 763d 43bd 3100 febc 5009 8d3d 6ed7 e5bd
00000080: 1f5b 0dbe 4baf a03c 059a 9dbd dd3a 8cbb
00000090: 7be3 2a3c f2c6 9cbb 7c64 9bbb df97 973c
000000a0: 1c21 9b3c 3c36 1abc 5ad8 35bd f4b9 303c
000000b0: 1bdf a03c 6346 e7bc d426 aa3c d644 c9bc
000000c0: f415 0fbd 08cc 0d3d c035 973d d546 4fbc
000000d0: 2d48 f03c 4984 bc3d 6568 b23c 5a8e 413d
000000e0: 9ebb 543d 69d7 943c 17b6 d63c 30b6 79bc
000000f0: f82b b73c 4ba8 81bd f34b b5bd 29f2 923d
00000100: a54a 93bd 89f4 76bd 8e4a 19bd 9e3a e83d
00000110: 09e9 2e3d c0dc a93d e502 1d3d 28ba d13c
00000120: 08c1 63bd d9a2 66bd 0f2f 5fbd 9ff7 c13c
00000130: 43dc 35bd 54f5 0cba db55 303d d457 72bc
00000140: 87b4 693d 465e cd3d a7c4 00bd 58c8 bdbd
00000150: e862 df3d d2df 813c f337 78bd f69b 9cbd
00000160: 12bc 87bd 7c79 4abd 85f4 123d 5b2c 703d
00000170: 15aa d93c 1e81 fdbc b76a 62bd 801a 1bbd
00000180: ec50 d0bd c9f5 09bd 1fa0 96bd 9961 033e
00000190: 6495 98bc ad01 7bbc 9b53 41bd 1e4e 28be
000001a0: ee8a 0dbd 2a60 6fbc 3036 cebc 2d2c cdbd
000001b0: dad7 433d c0b4 033d 517e e7bc 4f68 2b3c
000001c0: 0026 37bc 719e d83c d5fe bf3d 3196 143c
000001d0: daaa 723d 7d87 853d c699 9a3d 7d17 82bd
000001e0: 0c60 35bd 6386 bdbd 5ffe 163d bc7f 99bd
000001f0: 78f0 b83d 9322 083d c8a5 33bd 498f 92bc

action_model._continuous_distribution.log_sigma f4 [1, 2]
-0.34988767 -0.49605322
00000000: 7a24 b3be b0fa fdbe

action_model._continuous_distribution.mu.weight f4 [2, 128]
-0.05486185 0.09411046 0.00082000816 -0.047671806 0.07680209 0.010535813 0.04179276 0.0926314
0.0066726976 0.09246953 0.06113277 0.020174839 -0.054359894 0.051024396 0.091974005 0.01461355
0.08278206 -0.008762585 -0.02824835 -0.06808856 -0.09032277 0.021986049 0.057664692 0.030806981
-0.028210714 -0.020583453 -0.023823954 -0.06650102 0.043311108 0.041637808 -0.10245454 0.03469124
0.058919176 0.014384883 0.052476846 0.026440531 0.006950765 -0.028152244 0.018379439 -0.040642224
-0.01679785 0.10798887 -0.0104602575 0.11763043 -0.013776568 0.019472593 0.05380192 -0.0008635534
0.09828972 -0.06770218 -0.0959511 0.003778755 0.018624509 -0.107756294 -0.0058324686 0.04350607
0.011030211 0.059212912 -0.047275428 -0.01442577 0.05339259 0.034029707 0.031092811 -0.04557433
0.028034639 0.03839066 0.10453603 -0.17004628 0.083852604 0.07481946 -0.010583601 0.022109937
-0.0028980712 0.06290562 0.059047807 0.023167292 0.06577138 0.018537452 -0.012959039 -0.0059644217
-0.16561095 -0.11397102 0.030018345 0.051710356 -0.12920243 0.030817697 0.08617141 -0.044496447
0.021187754 0.04478815 -0.028612647 -0.07206361 0.01372978 -0.0075489525 0.0316895 -0.0026267895
0.034574546 -0.008762133 0.07421795 -0.030518262 -0.059118714 0.08188536 0.07925652 0.001264414
0.0586425 -0.0020459793 -0.0013362413 0.014745317 -0.046426658 0.02800234 0.0561358 0.12849618
-0.036329493 0.020610768 -0.13280068 -0.010793772 0.0398834 -0.031289045 0.13643497 0.041659236
0.09256346 0.08749928 -0.060929976 -0.03326528 0.07075394 0.030077977 -0.07764979 0.024271086
-0.06080261 -0.015733777 -0.0777973 -0.05163266 -0.0087404745 -0.032201987 -0.015114226 -0.00638668
-0.033661652 0.039637234 0.06924819 0.034026235 0.079993345 0.027971508 0.099353254 0.006459272
0.06161201 -0.06458659 -0.017126024 -0.019231029 -0.09062431 0.008612051 -0.050600365 0.0125264125
0.055618465 -0.05013206 0.05680578 0.030871283 -0.054714553 -0.003162832 0.075090304 0.007600079
-0.026256636 -0.087033406 -0.024034997 -0.03722415 -0.049038783 0.05597759 -0.049596414 -0.039726503
-0.06753586 0.015729535 -0.01829027 0.06711444 -0.043910075 -0.035432894 -0.03335269 -0.01701621
0.017927708 0.0102253035 0.003280853 -0.015427749 -0.047035277 0.035264954 -0.031171149 -0.009140381
-0.066550344 -0.070458874 -0.05649509 -0.024899606 0.0050094444 0.014194774 -0.04321413 0.10168355
-0.039775122 -0.004014736 -0.009339301 0.012758517 -0.0960954 -0.044491943 0.048736088 -0.014533844
-0.0019765536 -0.019216161 -0.032074094 -0.038543783 -0.0756253 -0.020520693 -0.019484913 -0.00845135
-0.075644985 -0.046556357 -0.00078639947 -0.03516657 0.0019071342 1.4642047e-05 0.019858437 0.018547319
-0.04300513 -0.009912586 -0.048680738 -0.017863082 -0.02692214 -0.016930146 -0.0053854687 -0.023858882
0.069431186 0.01932437 0.061280802 0.09242096 -0.041058708 -0.010248713 -0.02812975 -0.025621561
0.009205657 0.034836795 -0.017913012 -0.02053676 -0.056755852 -0.016389064 0.024823647 0.022569947
0.023810964 -0.045111794 -0.012265004 -0.045061722 0.07435153 -0.040629424 0.05154667 -0.05172145
-0.05090246 -0.050242696 -0.037090395 -0.045526423 0.09254491 0.020654343 -0.011212417 -0.015552729
00000000: d2b6 60bd fcbc c03d d1f5 563a 8343 43bd
00000010: 6a4a 9d3d 679e 2c3c e32e 2b3d 88b5 bd3d
00000020: a5a6 da3b aa60 bd3d 5b66 7a3d b445 a53c
00000030: 7ba8 5ebd f5fe 503d de5c bc3d ac6d 6f3c
00000040: a489 a93d f290 0fbc 1569 e7bc 0472 8bbd
00000050: 25fb b8bd 161c b43c d031 6c3d ec5e fc3c
00000060: 281a e7bc a19e a8bc 742a c3bc b031 88bd
00000070: fd66 313d 688c 2a3d b0d3 d1bd 6718 0e3d
00000080: 3c55 713d 93ae 6b3c f6f1 563d d099 d83c
00000090: 3ec3 e33b 899f e6bc 7a90 963c 7678 26bd
000000a0: a59b 89bc 4529 dd3d 8061 2bbc 39e8 f03d
000000b0: 1db7 61bc fd84 9f3c 675f 5c3d 1660 62ba
000000c0: 1f4c c93d 71a7 8abd 0382 c4bd fda4 773b
000000d0: 6d92 983c 55af dcbd 4b1e bfbb 6c33 323d
000000e0: 0fb8 343c 3d89 723d e1a3 41bd 115a 6cbc
000000f0: 30b2 5a3d bc62 0b3d 5ab6 fe3c 26ac 3abd
00000100: e6a8 e53c 863f 1d3d fc16 d63d 9d20 2ebe
00000110: eaba ab3d f23a 993d d766 2dbc e61f b53c
00000120: 91ed 3dbb a9d4 803d 1ddc 713d 55c9 bd3c
00000130: 25b3 863d dbdb 973c 2652 54bc 3271 c3bb
00000140: eb95 29be a369 e9bd 08e9 f53c 3dce 533d
00000150: a44d 04be 6575 fc3c a37a b03d e841 36bd
00000160: f191 ad3c c773 373d 1265 eabc 1696 93bd
00000170: dff2 603c 345d f7bb d9cc 013d 3726 2cbb
00000180: 0a9e 0d3d 0d8f 0fbc 95ff 973d 6f01 fabc
00000190: 7726 72bd 83b3 a73d 3e51 a23d b2ba a53a
000001a0: 1e33 703d d615 06bb d124 afba 5896 713c
000001b0: e129 3ebd 2a65 e53c a7ee 653d 8194 033e
000001c0: 3cce 14bd ead7 a83c e7fc 07be 5cd8 30bc
000001d0: c75c 233d f128 00bd 9cb5 0b3e e0a2 2a3d
000001e0: e991 bd3d d332 b33d b691 79bd 2d41 08bd
000001f0: 71e7 903d 1766 f63c da06 9fbd 28d4 c63c
00000200: 280c 79bd 1fe4 80bc 3154 9fbd c57c 53bd
00000210: 3534 0fbc 3be6 03bd a9a1 77bc 5b47 d1bb
00000220: cde0 09bd a75a 223d ffd1 8d3d 185f 0b3d
00000230: 8dd3 a33d 8124 e53c b879 cb3d 4da8 d33b
00000240: e05c 7c3d f945 84bd e04b 8cbc 648a 9dbc
00000250: 3d99 b9bd 8f19 0d3c 5442 4fbd 953b 4d3c
00000260: 30d0 633d 4657 4dbd 2dad 683d c6e5 fc3c
00000270: 5e1c 60bd 8447 4fbb f2c8 993d 150a f93b
00000280: 2818 d7bc 923e b2bd 0be5 c4bc 5a78 18bd
00000290: e4dc 48bd c248 653d 9c25 4bbd 42b8 22bd
000002a0: 3e50 8abd 3adb 803c 7ad5 95bc 4c73 893d
000002b0: 0ddb 33bd 1522 11bd d59c 08bd 9465 8bbc
000002c0: 21dd 923c 0888 273c 9403 573b abc4 7cbc
000002d0: 10a8 40bd fc71 103d a35a ffbc 89c1 15bc
000002e0: 8c4b 88bd be4c 90bd 6567 67bd 42fa cbbc
000002f0: 4426 a43b 3391 683c 4d01 31bd 773f d03d
00000300: 3deb 22bd 0c8e 83bb de03 19bc 1909 513c
00000310: aacd c4bd 2f3d 36bd 7e9f 473d 5c1f 6ebc
00000320: 1189 01bb 366b 9dbc 2060 03bd 16e0 1dbd
00000330: 70e1 9abd 031b a8bc d39e 9fbc 8877 0abc
00000340: c2eb 9abd e1b1 3ebd 6026 4eba d20a 10bd
00000350: cef8 f93a 1da7 7537 29ae a23c 8cf0 973c
00000360: 2626 30bd 6668 22bc 7465 47bd 9955 92bc
00000370: d28b dcbc 17b1 8abc 9678 b0bb b473 c3bc
00000380: f031 8e3d 244e 9e3c 9401 7b3d 3347 bd3d
00000390: 2d2d 28bd 38ea 27bc 5d70 e6bc 4fe4 d1bc
000003a0: 53d3 163c 07b1 0e3d 4fbe 92bc b53c a8bc
000003b0: d378 68bd 5c42 86bc f65a cb3c 9ce4 b83c
000003c0: 360f c33c 25c7 38bd 28f3 48bc a492 38bd
000003d0: 9d45 983d 0a6b 26bd 9a22 533d dfd9 53bd
000003e0: 197f 50bd 49cb 4dbd 19ec 17bd ea79 3abd
000003f0: 3088 bd3d 4c33 a93c 49b4 37bc e0d0 7ebc

action_model._continuous_distribution.mu.bias f4 [2]
-0.0055590393 0.010828897
00000000: 9a28 b6bb b06b 313c
