Goodminton/Assets/Scripts/TrainedNetworks/BadmintonThreeLayers.onnx (onnx, 141575 bytes, 9 tensors)

network_body._body_endoder.seq_layers.0.weight f4 [128, 5]
00000000: 7c02 873d a2e0 903e c100 2c3f bb9f 7a3e
00000010: 7a9c 06bf 0c6c 3b3f ee3a babe 31c2 50bf
00000020: 78cc f5be 63d1 b5bd 8da3 9e3c 5130 92bf
00000030: 2e15 28bf 4b56 a0bf bee5 033f fd79 c0be
00000040: dcdf 8fbe c1d3 20bf 91e9 5fbe 34ca 93bf
00000050: 9837 a5be ffea 90be a03f 47bf 4881 8c3d
00000060: 6b55 09bc 767d 94be 248d bfbe 6e52 94be
00000070: 52e6 693e 5e76 5abd e196 fa3e 70b2 543c
00000080: dc39 023e b177 a8be 6f74 9b3e c5b0 9ebe
00000090: 1cbb 4dbe 4b50 7a3d 583c 223f d638 06be
000000a0: 89d6 81be 716e f1bd fb2c 0bbe f55a 83be
000000b0: ecb6 eabe 3adc 7b3e b613 763d 2325 363f
000000c0: a7e0 f43c e387 4abe 1f4a 7dbe 76a1 753e
000000d0: 1fdc 2abf ef95 063c 411b 903f 372b 4abf
000000e0: 31c4 853f 8445 00be 886c 363f 6ea3 babe
000000f0: e025 b03e 15fd 823f 9931 cabe adfe 6dbe
00000100: 29f1 04bf 5a20 ebbe 4731 11bf 5746 bd3e
00000110: a536 ae3e 850b bf3e a370 ffbe fb57 643e
00000120: 2f3a 3dbe 6c2e 01bf 4566 903d c027 d43e
00000130: dbcd 84be c134 41bf 33c5 8ebd f4d3 c8be
00000140: 491b bc3d 6cc0 993d 6a13 aa3f 43ff 5cbe
00000150: e611 993d 9d53 e1be e5eb 56bf 844f dfbe
00000160: 7539 3f3e e5f3 86bd 498a 53be bfcc 893e
00000170: 8558 1c3f 9304 313f 7eeb 703c c761 2fbf
00000180: 7950 f33e b416 923e b8a5 e63e b5cb 903e
00000190: 2be5 e5be 582e bf3e e15c eabe e06c a1bd
000001a0: 1fbe 0abe 3c9f a0be 9ade 0d3c 3737 333f
000001b0: eb9b d43e 16dd 44be 718d 0f3f 378c 7dbe
000001c0: a044 7a3f d420 fdbe 80c2 ef38 e690 21bf
000001d0: 3d25 943e b853 de3d 1dca 43be d874 80bd
000001e0: 5fe9 d83e 113b 13be 299e f73d d116 613e
000001f0: e17f a7bd f60a ec3e edcc c83e ff2d 29be
00000200: 0ac1 183f a8b5 143f b872 843f 9351 52be
00000210: 854d 253f 6ec4 d93e 7f63 15bf b94b 4fbf
00000220: 2072 66bd 0c1c ec3d 5dc2 8d3e f3c1 8ebe
00000230: 27f7 713f 38e6 023e cd9e 8dbe 42b3 89be
00000240: 8be7 713e f2d3 493f 5313 bc3e 46f6 9fbe
00000250: 124a 97be bf1b 043f 4659 e1be faad ad3d
00000260: 983c c73d 8e48 9bb9 6379 90be 4ca8 66bf
00000270: 98fe 753e d4cc b23d 3e97 cb3e dd83 43be
00000280: 0007 243f f4d7 b6bd 8439 fdbe 9ba1 1cbf
00000290: ca05 d5be 6b1b a2bf 7f3c 91bd 3c1b 1abe
000002a0: 72c8 a93e 50d6 473e cf69 c53e db89 2ebd
000002b0: 0c99 a4be d89e b53e d8d3 24bf 1462 60be
000002c0: 048f e53c e94b 5b3f 8000 353f 9f91 b3be
000002d0: 0bad 1b3f e677 b63d 0e6c 8a3e da45 d53e
000002e0: a6aa 92be 06a3 8f3f 2af3 8bbd 4d9b 03bf
000002f0: d830 b93e 6750 5e3e 8959 663e a307 28be
00000300: c48b 93be a414 cbbd f7c3 8cbe 0fd6 79bf
00000310: e299 fcbb bbbc 033e bb42 513f 00b4 00bf
00000320: 558d f83d 7398 41bf 790d bb3e 73f9 d13e
00000330: 3f3c 103f 9ef8 1a3e 7bad f8be 8b13 13be
00000340: 46e8 85be 9250 e23e 446d 713f ea9d f83e
00000350: ba0f 6bbf 35a9 d73e 86b8 60bc a98a 203e
00000360: d973 1b3c 3b38 823f 7d6b bebe 5d25 4cbe
00000370: 67b4 afbd 20de 66be 9082 1cbf b0b6 e83e
00000380: 198e 93be 6f77 28bf 4a33 0fbe 4c14 15be
00000390: a325 0ebf 85c5 07be 0f18 8a3f 28af bf3d
000003a0: 54de b2be 2606 0cbe a456 063f 3096 4abf
000003b0: 36a3 7bbc 302e 723e c768 94bd 6ac1 4dbe
000003c0: 80e8 2abd 6dd8 b53e e95f 70bc a9c4 913e
000003d0: 29c4 b9be 9d88 5cbf 4eb2 19be a669 823e
000003e0: 4f7a cb3d bbc4 493f 3807 af3e c2e7 8f3d
000003f0: 4f31 50be 25aa 27bd 4044 0c3d a143 853d
0.06592271 0.2829638 0.6718865 0.24474995 -0.52582514 0.7321174 -0.36373085 -0.8154631
-0.4800756 -0.08877828 0.019365096 -1.1420995 -0.6565732 -1.2526335 0.51522434 -0.3759307
-0.2810048 -0.6282311 -0.21866442 -1.1546082 -0.32268977 -0.28304288 -0.7783146 0.06860596
-0.008382182 -0.2900197 -0.3741237 -0.2896914 0.22841766 -0.05333554 0.48943236 0.012981996
0.12717384 -0.32903817 0.3036227 -0.3099424 -0.20090908 0.06111173 0.6337333 -0.13107619
-0.2535899 -0.11788643 -0.13591377 -0.25655332 -0.45842683 0.24595729 0.06007739 0.71150416
0.029892279 -0.19778399 -0.24735306 0.23987374 -0.6674213 0.008214458 1.1258317 -0.7897219
1.0450498 -0.12526518 0.71259356 -0.36452812 0.34403896 1.0233485 -0.39490965 -0.23241682
-0.5193048 -0.4592312 -0.56715816 0.36967728 0.34026065 0.37313476 -0.49890622 0.22299187
-0.18479227 -0.5046146 0.07050756 0.41436577 -0.25938305 -0.7547112 -0.069712065 -0.39224207
0.09184892 0.07507405 1.3287175 -0.2158175 0.07474117 -0.44009104 -0.83953696 -0.43615353
0.18674262 -0.06589488 -0.2065822 0.2691402 0.6107257 0.69147605 0.014704583 -0.6850857
0.47522333 0.28532946 0.45048308 0.28280416 -0.44901404 0.37340045 -0.45773986 -0.078820944
-0.13549088 -0.31371486 0.008659029 0.70006126 0.41525206 -0.19224963 0.560752 -0.24760519
0.97760963 -0.49439108 0.000114326365 -0.6311172 0.2893466 0.10855812 -0.19120069 -0.06272286
0.42365548 -0.14378001 0.120907135 0.2198136 -0.08178688 0.46102113 0.39218846 -0.16521452
0.59669554 0.58089685 1.0347509 -0.2053893 0.6457141 0.42532676 -0.58354944 -0.8097492
-0.05626118 0.11528787 0.2768735 -0.27882347 0.9451775 0.12783134 -0.27660218 -0.26894575
0.23623483 0.7883903 0.36733493 -0.3124258 -0.295487 0.5160484 -0.44013423 0.08480449
0.09728354 -0.0002961796 -0.2821761 -0.9010055 0.24022901 0.08730474 0.39763826 -0.1909327
0.6407318 -0.089279085 -0.49457943 -0.6118409 -0.4160598 -1.2664617 -0.07091617 -0.15049452
0.3316074 0.19515347 0.38557288 -0.042611938 -0.32148015 0.3547275 -0.6438575 -0.21912414
0.028022297 0.85662705 0.7070389 -0.35072038 0.6081092 0.089095876 0.27035564 0.41654855
-0.2864582 1.1221626 -0.06833489 -0.51408845 0.36170077 0.21710359 0.22495092 -0.16409163
-0.2881757 -0.09916046 -0.2749326 -0.9759225 -0.007708774 0.12864964 0.8174245 -0.5027466
0.12136332 -0.75623244 0.36533716 0.41010627 0.5634193 0.15133902 -0.48569855 -0.14362924
-0.26153773 0.44202095 0.9430735 0.4855798 -0.9182087 0.42121282 -0.013715869 0.15677895
0.009488069 1.017341 -0.37191382 -0.19936128 -0.08579331 -0.22545671 -0.6113672 0.4545188
-0.2881935 -0.6580724 -0.13984409 -0.14558524 -0.5552618 -0.13258941 1.0788592 0.0935958
-0.34935248 -0.1367422 0.52475953 -0.7913542 -0.015358737 0.23650432 -0.07246547 -0.20093313
-0.041725636 0.35516682 -0.014671304 0.28470352 -0.3628247 -0.86145955 -0.15009424 0.25471228
0.09935438 0.7881581 0.34185195 0.07026626 -0.2033131 -0.040933747 0.034244776 0.0650704

network_body._body_endoder.seq_layers.0.bias f4 [128]
00000000: 4a54 87bd d3dd 043c 2b83 a9bd 52f0 a3bc
00000010: 3d9e 2cbd 0972 2e3d 6158 e9bc 2fd9 61bd
00000020: 8091 f2bd 9ba7 26bd ba36 34bc 06bd 3c3b
00000030: 9d9c 66bd da09 be3c 0589 1abe 9c0a 53bb
00000040: 65fc b1ba eccf 3c3d 8a6a 33bd 90b6 58bd
00000050: 63e6 8a3d 18ff 3f38 6c62 963c 7bf9 34bd
00000060: 42e4 5cbd acbe adbd 761b c5bc 0645 123e
00000070: 8e91 003e 8683 99bd a99f 1dbb ca54 c13d
00000080: 6956 adbd 607e 753e 0f99 70bd 018d c4bc
00000090: 0656 b8bd a115 813d a29d 47bd 6e59 633d
000000a0: 987f 49bd e130 bdbd 849c cd3d 10b8 23bc
000000b0: 9381 b9bc 113a 6fbd 91b9 72ba bcc4 bf3d
000000c0: 5c41 e5bd 6fbe d7bb 207d 443d fc94 abbd
000000d0: d556 1dbd 6d78 adbd de77 223c 1424 e2bd
000000e0: 24e1 0cbd 3745 943b 712a 9f3c 5a5e 87bd
000000f0: 2ea0 afbc ffed a9bd 0f0f 39be dd02 413d
00000100: 109f 80bc 6f66 363c 27ac 80bd 855a 75bb
00000110: b790 9f3d b949 01be 2b51 fc3d a74d 82bd
00000120: a01e 23bd ca5d c9bc 69ec 4ebe 5d3a 043c
00000130: 8fce 7ebd de68 1a3c 12a3 a7bc e82b 0bbe
00000140: 67d9 e13c 8b12 9bbd 9307 95bd 5f83 e6bc
00000150: 117c a9bd 299c 523b 21c3 d1bd e402 e9bb
00000160: dc83 99bd d6e2 c2bb d111 cebd 09e2 08be
00000170: 026b 1cbe e73e 9c3d d2af debd 1ad5 81bd
00000180: 08a3 8cbd 70d9 e83c 5f9a 5e3d fece 71bc
00000190: 5e9d 193d 1fa6 07be 1b0e 2bbd 778a 84bd
000001a0: d348 0ebd 1b27 813d 065e 8fbd 6251 90bd
000001b0: e0f9 56bd 9d3e ac3c 69f9 4ebe 0fc9 d23c
000001c0: bfc9 e5bd d84c b2bd f082 44bd 1332 05be
000001d0: 4074 95bd 3749 f2bd 13b1 9fbd 9503 183d
000001e0: 197a 27bd 3003 72be 9700 e0bd 20d5 903d
000001f0: 8afc ca3d bc7e 993d a73d 6abd 1a11 4abd
-0.06607874 0.008109528 -0.082769714 -0.020012055 -0.042143095 0.04258922 -0.028484525 -0.055138763
-0.11844158 -0.040687185 -0.010999376 0.002879919 -0.0563017 0.023198057 -0.15091331 -0.0032202369
-0.0013579248 0.046096727 -0.043802775 -0.05290848 0.06782224 4.5775523e-05 0.018357478 -0.044183236
-0.05392862 -0.084836334 -0.024060946 0.14284143 0.12555525 -0.07495789 -0.0024051464 0.0944
-0.08463747 0.2397399 -0.058739718 -0.023993017 -0.09000783 0.063029535 -0.048734315 0.05550521
-0.04919395 -0.092378385 0.100396186 -0.009992614 -0.022644794 -0.058404986 -0.0009259219 0.09363696
-0.11194107 -0.0065839808 0.04797089 -0.08378026 -0.038412888 -0.08470235 0.009916274 -0.110420376
-0.0343944 0.0045248526 0.019429417 -0.06609793 -0.021438684 -0.08297347 -0.1807215 0.04712187
-0.015700847 0.0111328205 -0.062828355 -0.0037437987 0.07791274 -0.12625779 0.12320169 -0.06362467
-0.03982413 -0.024580855 -0.20207371 0.0080705555 -0.06220871 0.009424416 -0.0204635 -0.13590968
0.027569486 -0.07571896 -0.07276835 -0.028138814 -0.08275617 0.0032136536 -0.10242296 -0.0071109403
-0.07495853 -0.005947451 -0.10061992 -0.13367476 -0.15275195 0.07629185 -0.10873379 -0.06339474
-0.06867033 0.028423995 0.05434644 -0.014758823 0.037503593 -0.13246964 -0.0417615 -0.064717226
-0.03473742 0.06306287 -0.070003554 -0.070467725 -0.052484393 0.02102595 -0.2021233 0.025730638
-0.11220121 -0.08706063 -0.047976434 -0.13007383 -0.072975636 -0.11830371 -0.07797446 0.03711279
-0.040887926 -0.23634028 -0.109376125 0.070719 0.09911449 0.07494876 -0.057187703 -0.049332716

network_body._body_endoder.seq_layers.2.weight f4 [128, 128]
00000000: 1a23 67bd 024a 7c3c a5e0 9c3d 1d28 b6bd
00000010: e245 ec3d aaed 963d ddf8 a03d 807f 87bd
00000020: ca2b 393e db7e 35be 21d8 253c 98ec 03be
00000030: 951b f4bd 1af1 29bc f08e 653d 8ae1 89bc
00000040: b9fd b1bd f337 273e 6367 04be 455e cebc
00000050: be52 3ebe 7d59 9ebe 4f6d c6bb bd49 7bbe
00000060: 0c3e 58bd 450c a13d 2ab7 4b3d 7710 43be
00000070: 9ebd ca3b cb23 153e a0fe 103e 3801 443d
00000080: 0ada 0f3e c459 b6bc 9e66 533d ba63 e0bd
00000090: e69c 0abe 6eca d53b e810 16be 0c0d 16be
000000a0: 9fac 813c 681d 4d3e ef7a dfbd 7940 ccbc
000000b0: 5e99 babd 6afd 18bc 7740 cf3d c6db babd
000000c0: 3b06 0b3c f722 c23d 352f 693d 5788 203e
000000d0: d662 89b9 1124 023e 1ad9 a7bc f823 9e3d
000000e0: 494c 0d3d 7433 9abc d306 0a3e 952a 14be
000000f0: e676 02be 20ce 923d 7532 e93d a3fc b63d
00000100: a580 52bd 2562 f2bd c656 98bd da1e 883d
00000110: 4807 233e 47e4 fe3b fc95 963d 879a 4fbe
00000120: c4c5 e53a fe48 913d 4314 74bc ef75 87bd
00000130: 537d 5e3d bd36 7dbd 7ba4 3f3d b8dc 983c
00000140: da9c 043e 1ca5 d23c 40c9 7c3d 6c84 4abd
00000150: cf53 2abe 856a 1f3e 9552 d83d b892 d93c
00000160: 0c20 3cbd 5133 10bc 9ad0 833d b1de ba3d
00000170: 998b 1f3e 0107 7cbe 1718 9bbc a1fa e2bc
00000180: 2c05 2fbe 191e 393e 8aae 383e 9053 cbbd
00000190: 3ba3 89be c369 a03d 12d6 14be 1c4c 7ebc
000001a0: 7dad 963e 9b3e c6bd 992e c8bd 9a76 acbc
000001b0: 3467 05be 3a1a d23d 05f8 b03b f56c 0d3e
000001c0: 16f8 143d da1d 4dbd cfad f03c be28 fd3d
000001d0: b50b 02bd f538 f53d 9c8e 44be 65c1 1e3e
000001e0: 2dc2 d9bd 6b16 07be 38e3 6d3d 98a9 cdbc
000001f0: ec08 d5bd a8e5 db3c a17e cbbd 7b39 1e3d
00000200: 64d7 1ebe 60ae 2abe 2e2e c6bd bb40 e3bd
00000210: 549b b53d 9c9a d73c 7e81 bc3d e1c7 99bd
00000220: e1a8 29bb ee95 f03c 66da 19be 2a75 55be
00000230: ad39 eb3b 8fe8 75bd 4704 adbc 9c49 f0bd
00000240: bc43 223d f8b4 233d 4544 60be d4f9 2ebe
00000250: 9e7e 97be dad4 bcbc 2abb e3bc 8e7c 243e
00000260: 51c7 5ebb c601 16bb 12b0 9c3d b6b1 03bd
00000270: 94fa 2e3d eee3 723d 19da eabd 6269 1abd
00000280: 223e ffbd 866e 543d 184d c33a 1328 cf3d
00000290: b2dc 17be 429c bbbc a7b2 f1bd 21ea b93c
000002a0: 71f7 b0bd 0f11 1abd 6f08 f93c d2f7 84bd
000002b0: 9c5f 4abd 1957 fc3d 1af9 193d 2d71 1d3d
000002c0: 864c f7bd 9f3b a3bd 6069 bf3d d9d2 9d3d
000002d0: 3332 863c 96a7 b23c 35da 61be 5fd4 d3bc
000002e0: 12c2 00be be4f 05be 9b05 8abd f3c2 c03d
000002f0: a265 213d 56e4 423e 28fc 57bd 7ebf d83d
00000300: f9bf 92bd 941d 4fbe 7880 5bbe 56e8 fcbd
00000310: a9de 8fbc 76c2 b03c a7ba 40be 6432 bc3d
00000320: 70dc d1bb f091 1ebc 29e8 e9bd 0f5b 13bd
00000330: 2a09 ba3b 002e 62be 5a49 0d3d 33ce 29be
00000340: f05f e4bd 517e 53bd 96aa 3dbd ea5c a33d
00000350: 54f3 7cbc 817e 43bd ba35 12bd 3894 a2bd
00000360: 7a4a 573c 25f6 22be 881a 1c3e dca6 0f3e
00000370: 9e91 ca3d 5edf f83d a785 08be ad56 20be
00000380: 18eb 09bd 4e66 5bbc be70 6b3e 076d 5abd
00000390: dfcd 79be 519f 04bd 8f09 99bd 26c1 18bd
000003a0: dd4b 923d 792b 12bc 4e54 c03d 2133 15be
000003b0: 0ed1 913d 540b 21bd 8fdf 7b3c 0194 8fbd
000003c0: 1ba3 5f3c 19e4 c5bd 556f 05be 6cf5 88bd
000003d0: 0e53 fbbd 1057 f53d 8d96 b8bd 901e f03c
000003e0: 34e4 9d3d 54b5 60be 53d0 80bd 474b 07bd
000003f0: 8eae 8bba 18c1 173e 3f2a 3ebd b095 54be
-0.05642996 0.015398504 0.07660035 -0.0889437 0.115367666 0.073695496 0.07859967 -0.066161156
0.1808311 -0.17724173 0.01012233 -0.12883222 -0.11919323 -0.0103724245 0.05604452 -0.016831178
-0.08690972 0.16329937 -0.12930064 -0.025191436 -0.18586251 -0.3092765 -0.006055511 -0.24539848
-0.052793548 0.07863668 0.049735226 -0.1904925 0.006187155 0.14564435 0.14159632 0.047852725
0.14048019 -0.0222596 0.051611535 -0.10956521 -0.13536415 0.0065243756 -0.14654887 -0.14653414
0.015829382 0.20030749 -0.109121196 -0.024933087 -0.09111284 -0.009337762 0.101197176 -0.0912395
0.008485372 0.09479325 0.056929786 0.1567701 -0.00026204315 0.1270907 -0.020489264 0.07721704
0.03449658 -0.018823363 0.13479166 -0.14469369 -0.12740669 0.071682215 0.11386577 0.089349054
-0.051392216 -0.11835126 -0.07438426 0.066465095 0.15920746 0.0077786776 0.07352826 -0.20273791
0.0017530252 0.07094 -0.014897409 -0.06614291 0.054318737 -0.06181978 0.04678772 0.018659934
0.12950459 0.025713496 0.061715364 -0.049442694 -0.16633533 0.15567978 0.10562626 0.026559219
-0.045929 -0.008801297 0.06436272 0.09124506 0.15580596 -0.24612047 -0.018932385 -0.0277074
-0.17091817 0.18077888 0.18035331 -0.09928048 -0.26882347 0.078326724 -0.14534786 -0.015521076
0.29429236 -0.0967991 -0.09774513 -0.021052647 -0.1302765 0.102589086 0.00540066 0.13811095
0.036369406 -0.050077297 0.029379753 0.123612866 -0.031749446 0.11973754 -0.19195026 0.15503462
-0.10632739 -0.13192146 0.05807802 -0.025105283 -0.10402092 0.026842907 -0.09936262 0.038629036
-0.15511853 -0.16668081 -0.09676777 -0.11096331 0.08867517 0.02631884 0.09204386 -0.07508827
-0.0025888013 0.029368367 -0.15024719 -0.20845476 0.0071785063 -0.06003624 -0.021120204 -0.1173279
0.039615378 0.039967507 -0.21901043 -0.1708749 -0.2958879 -0.023050714 -0.027799208 0.16063139
-0.0033993314 -0.002288924 0.0765077 -0.0321519 0.04271944 0.059299402 -0.1146738 -0.037698157
-0.12463023 0.051863216 0.0014900295 0.101150654 -0.14830282 -0.022901658 -0.11801653 0.02269465
-0.08640946 -0.037613925 0.03039953 -0.064925805 -0.049407586 0.123213 0.037591077 0.03843801
-0.120751426 -0.07970356 0.093462706 0.077062316 0.016381359 0.021808427 -0.22055896 -0.025858102
-0.12574032 -0.130187 -0.067393504 0.094121836 0.039403565 0.19032416 -0.05273071 0.10583399
-0.07165522 -0.20226127 -0.21435726 -0.12349002 -0.017562227 0.021577101 -0.18821202 0.09189299
-0.006404452 -0.009678349 -0.11421234 -0.035975512 0.005677362 -0.2208786 0.03449378 -0.16582565
-0.11151111 -0.051634137 -0.04630526 0.07976706 -0.015438873 -0.047728065 -0.03569577 -0.07938427
0.013140315 -0.15914209 0.15244496 0.14028496 0.098910555 0.12151979 -0.13332234 -0.15658064
-0.03367147 -0.013391091 0.22992226 -0.053326633 -0.2439494 -0.0323785 -0.07472526 -0.037293576
0.07143376 -0.0089214975 0.0939108 -0.14570285 0.07119952 -0.039317444 0.015373125 -0.070106514
0.013649727 -0.09662647 -0.13030751 -0.066874355 -0.12271701 0.119794965 -0.0901309 0.029311448
0.07709542 -0.21944171 -0.06289735 -0.033030774 -0.001065688 0.14819753 -0.046427008 -0.20760226

network_body._body_endoder.seq_layers.2.bias f4 [128]
00000000: 2488 c3bd 8fd3 54bd 3c49 90bd aaf5 373c
00000010: 852d 9a3c f0d7 333d 2a88 cebd a5d8 a7bd
00000020: 3499 a3bd e153 21bb e7f3 64bd 0e90 b33a
00000030: 69eb 9dbc d4b4 483d dea0 adbc dd14 c7bc
00000040: 625d c6bc a431 443d 9944 f0bc 2b7d b9bd
00000050: 5818 72ba 8290 8cbd 1b8d 5bbb a81b a6bd
00000060: 7d68 ea3c 842f a3bd 0dca a93b bdef 213d
00000070: 5e93 adbd 078e fcbc 0f09 613d 8f62 213d
00000080: 8972 9fbd 899d d9bb 154f 49bc 06f7 d7bb
00000090: 4699 57bc 3352 2c3d bbf5 8cbd 4048 a9bd
000000a0: 1ac8 4b3c 18d5 f63c 9ec2 f7bd 609b df3a
000000b0: 200e a63d 8425 10bd e44f c5bc 2abb 043d
000000c0: 87a5 89bc 7fd5 c53c 4ece a0bd 9486 73bd
000000d0: 058b 14bd 9fbb a13c 0e95 95bd 5481 0ebd
000000e0: 5f60 86bc dc3f 92bd a62d 10bd 16ee 0a3d
000000f0: f763 0abd 784a cabc 75c9 933b 2c8c 4c3c
00000100: d4fe 3ebd 087f fd3c 91a0 a9bc 6666 8fbc
00000110: c770 01bd bf86 5a3d 1b31 323d 2b46 11bd
00000120: 900b 85bd 8705 5abc 523c 483d acab 86bb
00000130: 5cd0 ab3c a2cf a0bd e55f 29bd 2f57 69bd
00000140: 8619 d63c d1d2 323d 9c0d 883d cdea 2abb
00000150: 7866 863c d202 593d 882b 983d b67b eebd
00000160: 4570 c0bd 1c02 8b3c ce65 173d e1ec c43b
00000170: 4bf1 b7bb 98f8 a9bc 75e4 5a3d ec53 123c
00000180: 8a2c 36bd ec49 253d dab3 343d 3ff6 91bd
00000190: bf5e fb3b 3c78 43bd 419b f4bc 0014 5bbd
000001a0: 4102 7cbd 79e0 b43c dd03 54bc 8c16 fc3a
000001b0: 4727 e2bc 491e 5abd c476 543c 6655 dbbc
000001c0: 0481 b3bc 0a86 24bd 8864 dcbd 38ec 1dbd
000001d0: ab81 d93c 3a10 4dbd 6508 43bd 8c75 cf3a
000001e0: 2210 50bc 0f31 9fbb 70a0 8ebd dcc4 aebd
000001f0: d093 67bd a5ee 31bd 93c2 1bbd 08aa 2a3b
-0.09547451 -0.05195957 -0.07045218 0.0112280045 0.018820534 0.043907106 -0.10084565 -0.081956185
-0.079882056 -0.0024616646 -0.055896666 0.0013699548 -0.019277291 0.049000576 -0.021194872 -0.02430194
-0.02421445 0.047898903 -0.029329585 -0.09057077 -0.0009235195 -0.068635 -0.0033500853 -0.08110744
0.028614277 -0.07968047 0.005181557 0.039535273 -0.08475374 -0.030829443 0.05494028 0.039400633
-0.07785518 -0.006641094 -0.012286921 -0.006590727 -0.013159102 0.04207058 -0.06882807 -0.08265734
0.012437845 0.030130908 -0.12097667 0.0017059855 0.08108163 -0.035192028 -0.024085946 0.032405056
-0.016802562 0.024149654 -0.078518495 -0.059454516 -0.03626539 0.019742785 -0.073038206 -0.034791306
-0.016403375 -0.071410865 -0.035199784 0.033918463 -0.03378674 -0.024693713 0.0045100995 0.012484591
-0.04662974 0.030944362 -0.020706447 -0.017504882 -0.031601693 0.05335116 0.043503862 -0.035467308
-0.06496346 -0.013306982 0.04888565 -0.0041098204 0.020973377 -0.07852103 -0.041351218 -0.05696791
0.026135217 0.04365808 0.06643221 -0.0026079894 0.016406283 0.052981205 0.07430178 -0.1164469
-0.09396414 0.01696878 0.036962323 0.0060096835 -0.005613481 -0.020748422 0.05344053 0.008931141
-0.04447607 0.0403537 0.044116832 -0.07127046 0.0076712067 -0.047722086 -0.029859187 -0.05348587
-0.061525587 0.022079693 -0.012940374 0.0019232794 -0.02760662 -0.05325154 0.012967769 -0.02677412
-0.021912105 -0.040166892 -0.10761362 -0.038555354 0.026551088 -0.050064303 -0.047615428 0.0015827878
-0.012699159 -0.004858143 -0.06964195 -0.08533642 -0.05653745 -0.04344048 -0.038027357 0.0026041288

network_body._body_endoder.seq_layers.4.weight f4 [128, 128]
00000000: c94a 60bd 1443 f63c d7f0 803d d83e 953e
00000010: fb3e a43c 600d fd3c af59 5bbe 3477 e53d
00000020: b7ad 313c 23ea 35be 529d 32be 1f10 2fbe
00000030: 453d 893d 4174 ac3d ec41 9bbe 14fd 043c
00000040: 4746 11be 9675 0ebe 616a 6b3e 4928 b8bb
00000050: 7140 a6bc c2ff dd3b 6f8e 31be acd4 c13d
00000060: d393 18be c8ef 48be f030 333e 5340 b1bc
00000070: e67a ecbd 82cd 11bd 1232 7e3e af33 adbd
00000080: f21d 6ebe 5bd0 a63d c1a2 7d3c 64e5 c2bc
00000090: 151b 9abd cae9 cb3d 2d66 0d3d 85c5 29bd
000000a0: 9001 0c3d 96da c73d 7a85 ffbd 8aeb dd3c
000000b0: dd6e a3bc 45a6 a33d 0a41 8ebd 874a b9bc
000000c0: c077 e3bd 2ba8 813d 0959 65bd 64f2 273e
000000d0: 99cc ffbc 80a4 d5bd 3e82 d8bd 2589 2bbd
000000e0: 8bca a5bd 2a2f 50be 5f4c 02bd 3a26 a5bd
000000f0: 8422 5a3d c33d a83d 0fda 553e 2c99 85bb
00000100: 8395 15be 4cde 0dbd c1a5 55bd 9dd6 4c3d
00000110: f344 d83c d92b debc cebd a53d 159e 14bd
00000120: deac d6bd 6235 c4bc 2d33 2ebe 8a55 72be
00000130: 93a4 22bd b47a a73d fc36 633d 8570 573d
00000140: 1f7b 1bbd 3110 33bd b7dd 643e efbc 37be
00000150: e707 a9bd a8aa afbd 4ec3 3dbb 920b 8f3d
00000160: 4721 af3d d534 4ebd 75f0 a6bd e4d5 88bc
00000170: e671 703e 2af5 cb3d 88b8 b43d ff0f 1fbb
00000180: 8315 21be 3c24 483c 6e71 c73c c46b 47bc
00000190: 1b98 0bbe 6384 2dbd 58ac 01be 9748 2a3e
000001a0: 6c75 033e b751 56bd 89e1 393e 1635 65bd
000001b0: a7d7 c7bd 64a1 553e 97bc cf3d 0299 6ebd
000001c0: 990f 00bd 049b 0abd ec43 cd3d 94f7 51be
000001d0: 46f5 6dbe d24b f8bc d842 83bd 5277 8fbe
000001e0: 26e5 143e e394 06bd 3b41 0c3d 093f 5c3c
000001f0: 84ea c43d 8794 e4bc 9505 a6bc 801b 3d3c
00000200: 0ea6 0e3c e7e3 f0bd 38dc e53d a123 38be
00000210: fa01 243e 7ed3 e5bd 6306 0b3e 54ad 143e
00000220: d874 723d 7715 cbbd dc8b b2bd 3741 1dbe
00000230: ce47 103e 4454 ffbd 59c3 b13b 406a 443d
00000240: 90c8 a43d 87e5 cebe ebb2 33be 3c59 25be
00000250: 2f19 30bd ad6b 5b3e 8002 17bd ca43 163c
00000260: e468 723b 77db 0fbd 6e83 413c 074f 15bd
00000270: 5247 00bd bd2a d43d 3aad cbbd 3aff 19bc
00000280: ac7b 33bc ded2 893d 03fe 55be 55c4 bfbd
00000290: 9983 b0bd 53cc 39bd 1928 893d d5cf 62bd
000002a0: 414f aa3d 5605 6b3e 7a82 853d 97fc 66be
000002b0: 2ebf 2cbe 05b4 d63d 03ca dc3d c164 e33c
000002c0: c506 dcbc 4461 313b 826d d9bd 180e ae3d
000002d0: b5c9 8dbd 3ff2 103e f2ca 3ebc f4ec b4bc
000002e0: 502f e4bd 8fdc a1bd f15d 1bbe 263e 0d3e
000002f0: 35e4 283e 808a adbc 9a68 0abc 860c 2cbe
00000300: 645e 46be 6fac 92bd b150 943d 4a27 59bd
00000310: 4760 833e f5ec dcbd d254 7e3b 9b3a 0e3d
00000320: 3cf7 1dbd fb45 8abc a49c 33bc 8045 17be
00000330: 3b5c 81bc 4c2c 0fbc 7186 f5bd aca8 2c3e
00000340: 9117 44bb e99b ac3d cf5c abbe 4fa9 f8bd
00000350: 3b7a c23d 880f 9e3d b8eb 1fbe 7ee1 143d
00000360: 8a13 313e 2859 4b3e c54b 19bc 2d6c 64bd
00000370: 4764 3bbd ae38 9ebc b073 15be 7086 68bd
00000380: f964 853d 379f 74be 63ef f43d 214f e0bd
00000390: 2246 01be 828d a7be 7288 dbbb 342e ae3b
000003a0: 4580 e5bd fab1 09be 0042 2cbd 6295 e23d
000003b0: 1e3c f1bd 53cd 23bd 1e2b 33be 0459 a23d
000003c0: 4ad6 c63c b09f c03d 816b 15bc 1642 723e
000003d0: 57c0 72bc 6597 3f3e 1959 dc3d c028 cfbc
000003e0: 98b5 6b3d 04d1 4a3e 297c 5b3e 7669 22bd
000003f0: e113 78bd 60bd 91bd 353c 8abc dce4 bfbd
-0.05475882 0.030061282 0.062959366 0.29149508 0.020049563 0.030890167 -0.2142093 0.11204377
0.0108446395 -0.17765097 -0.17442825 -0.17095993 0.06701139 0.08420611 -0.30323732 0.008116979
-0.14186965 -0.13912043 0.22989799 -0.0056200367 -0.0202944 0.0067748735 -0.1733949 0.09464392
-0.1490014 -0.1962272 0.17499137 -0.021637117 -0.115468785 -0.03559638 0.24823788 -0.084571235
-0.2325361 0.081452094 0.015480698 -0.023791023 -0.07524697 0.09956701 0.03452127 -0.041448135
0.034181178 0.09758489 -0.124766305 0.027089853 -0.019950325 0.07990698 -0.06945999 -0.022618545
-0.11106825 0.063309036 -0.055993114 0.16401058 -0.03122549 -0.104317665 -0.10571717 -0.041878838
-0.08095273 -0.20330492 -0.031811114 -0.08063932 0.053255573 0.08214905 0.20883964 -0.0040770974
-0.14607815 -0.034635827 -0.05216003 0.05000936 0.026400065 -0.027120518 0.08092843 -0.03628357
-0.104821905 -0.023951236 -0.1701171 -0.23665443 -0.03970773 0.08177701 0.05547236 0.05259754
-0.037959214 -0.043716613 0.22350203 -0.17943166 -0.082534604 -0.08577472 -0.0028955522 0.06984629
0.08551269 -0.050343353 -0.08151332 -0.016703553 0.23480949 0.09958871 0.08824259 -0.002427101
-0.15730862 0.01221567 0.02434608 -0.012171689 -0.13632242 -0.042362582 -0.126634 0.16629253
0.12837762 -0.052324023 0.18152441 -0.05595883 -0.09757929 0.20862347 0.101433925 -0.05825139
-0.031264875 -0.03383924 0.10022721 -0.205046 -0.23238096 -0.030309591 -0.06409234 -0.28020722
0.14540538 -0.032856833 0.034241896 0.013442763 0.09615043 -0.027902855 -0.020266334 0.011542201
0.008706583 -0.11762219 0.11223644 -0.17982341 0.16016379 -0.112219796 0.13576655 0.14519244
0.059193462 -0.099162035 -0.08718082 -0.15356909 0.14089891 -0.12467244 0.0054248986 0.04795289
0.08046067 -0.4040949 -0.1754872 -0.16147321 -0.042992767 0.21427794 -0.03686762 0.009171436
0.003698879 -0.035121407 0.01181112 -0.03645232 -0.031318016 0.10359714 -0.0994515 -0.00939923
-0.010954779 0.06729673 -0.20897679 -0.09363619 -0.0861885 -0.045360874 0.06697101 -0.055373985
0.08315898 0.22951254 0.06519027 -0.22557293 -0.16869804 0.10483555 0.10780718 0.027758004
-0.026858697 0.0027066031 -0.1061659 0.08498782 -0.06923238 0.1415491 -0.011645066 -0.022085644
-0.11141837 -0.07903396 -0.15172555 0.13793239 0.16493304 -0.021184206 -0.0084477905 -0.16801652
-0.19371945 -0.07161795 0.07241953 -0.053015985 0.2565939 -0.107873835 0.003880788 0.03472386
-0.03856586 -0.016879072 -0.010962639 -0.14772606 -0.01579105 -0.008738589 -0.11988533 0.16861218
-0.0029921273 0.08428175 -0.33469245 -0.12141668 0.0949597 0.07717806 -0.15617263 0.03634786
0.1729261 0.19858229 -0.009356444 -0.055767227 -0.04574993 -0.019314136 -0.14594913 -0.056768835
0.065134 -0.2388886 0.11959722 -0.10952593 -0.1262441 -0.3272515 -0.006699615 0.0053155664
-0.11206106 -0.13446799 -0.04205513 0.11063649 -0.117790446 -0.039990734 -0.17496917 0.07927135
0.024272103 0.09405458 -0.009119869 0.23658022 -0.014816365 0.18710096 0.107591815 -0.025287986
0.05754623 0.19806296 0.21434082 -0.039651357 -0.060565833 -0.071161985 -0.016874412 -0.09369823

network_body._body_endoder.seq_layers.4.bias f4 [128]
00000000: 8363 75bd 5244 77bd 87e6 873d 5b77 a6bd
00000010: 463d ad3c eb88 2b3b b81e 343c b814 3fbd
00000020: 3ece 83bd ba95 b3bd 2eac 5d3c aa78 88bd
00000030: 7948 3dbd 08d4 493d 5978 b0bd 2b92 13be
00000040: be61 93bd e0a3 f23a a324 b7bd 2f63 f23c
00000050: 65d0 24be 2537 71bc c6ac 70bb 56f2 313c
00000060: 37b5 79bd e6e2 84bd cf32 b83c 6a1d 9bbd
00000070: 4487 a7bd 0aed 43bd 7dcc 7dbd 728b 34bd
00000080: 5326 21bd f4cc 67bd 7a76 dabc afd2 d0bd
00000090: da24 743d d10d 4abd 919a 54bc d7d4 a23d
000000a0: 9250 20be a96b 52bb 5574 1dbd 72fb d03d
000000b0: 867b 533d b4b9 c5bd 06b0 8dbc 4b8d 88bd
000000c0: 3e5f ec3d 44b5 033d 1b30 54bd c4a8 f0bd
000000d0: a081 d1bb d932 8abc f250 913d 1f3f 023c
000000e0: bb77 8f3c f73f e2bc abf6 b03c 8903 fbbd
000000f0: 34ab febd 101d ffba f746 5ebd 5fad 1bbd
00000100: 01cd 73bc 7e9d d73d fe5e 5e3b 3119 803d
00000110: e1e8 b43a 2779 7bbd c36c 0fbd 7e79 25bd
00000120: 50e9 10bc 75a3 edbc 12c0 87bd 6672 30bb
00000130: 4e12 48bc aa37 2d3c f91a c0bc 4384 cf3c
00000140: aea2 ef3c 5ef4 f9bc a8ce 813d cdfa a0bd
00000150: a49a 3d3b 1c18 93bd 204e e3bc 74ad 29be
00000160: 2470 b13d a86c 25bd 2d1c 8d3d 5bc2 c13c
00000170: 0705 1ebd 2faa b93d 74ca 9d3d e228 17bc
00000180: c5c5 aabd ae0c 0c3e 9b02 cc3d b2d4 8cbc
00000190: c8a9 d03a babf 423d 0855 8d3b 5ec9 27bb
000001a0: efc4 1abd e61c a03d 1a8a db3c 9e18 a1bd
000001b0: 291e b6bd 1610 8ebc d80d 1e3c 9006 163d
000001c0: 8625 cdbd 61e5 f43c 5aec af3d fe03 13bd
000001d0: ac57 cebd b680 c13d 4d27 3cbd 7f3a 4bbd
000001e0: 9e33 b43d 411f 033d a4ce 85bd 3d94 d9bc
000001f0: 11c7 0abe 6e32 a63d 535a 0e3d 738e 25bd
-0.059909355 -0.06036789 0.066357665 -0.08128234 0.021147382 0.0026174139 0.010993652 -0.04665062
-0.06435822 -0.087687925 0.01352982 -0.0666364 -0.046211693 0.049274474 -0.086167045 -0.14411227
-0.07196377 0.0018511973 -0.08942535 0.02958831 -0.16095121 -0.01472262 -0.0036724075 0.010861
-0.060963836 -0.0648859 0.022485165 -0.0757397 -0.08180097 -0.04783348 -0.061962593 -0.044078298
-0.03934319 -0.056591943 -0.026667822 -0.10196435 0.059605457 -0.049329583 -0.012976305 0.07950752
-0.15655735 -0.0032107627 -0.03844102 0.102042094 0.051631473 -0.09654561 -0.017295849 -0.066675745
0.115416035 0.03215529 -0.05180369 -0.117509395 -0.0063936263 -0.01686995 0.07095517 0.00794962
0.017513147 -0.027618391 0.021601995 -0.12256534 -0.12434998 -0.0019463617 -0.054266896 -0.038007136
-0.01488042 0.10528086 0.0033931131 0.06254805 0.0013802313 -0.061394837 -0.035015833 -0.040399067
-0.008844689 -0.029008606 -0.066284314 -0.0026923656 -0.012211395 0.010572353 -0.023450362 0.025331622
0.029252376 -0.030512031 0.06338245 -0.078603365 0.0028931284 -0.07182333 -0.027747214 -0.16570073
0.08663967 -0.040386826 0.0689014 0.023652246 -0.038579013 0.09065663 0.077046305 -0.009226056
-0.08338503 0.13676712 0.099614345 -0.017191265 0.0015919739 0.047546126 0.004313115 -0.0025602202
-0.037785467 0.07818012 0.02679925 -0.078660235 -0.08892471 -0.017341655 0.009646855 0.036627352
-0.10016923 0.029894533 0.08590002 -0.03589248 -0.10075316 0.09448378 -0.045935918 -0.049616333
0.08798908 0.032012228 -0.06533554 -0.026559943 -0.135525 0.081150874 0.03475411 -0.040419053

action_model._continuous_distribution.log_sigma f4 [1, 2]
00000000: 603d 00bf 90ba bcbe
-0.5009365 -0.36861086

action_model._continuous_distribution.mu.weight f4 [2, 128]
00000000: 44b6 0139 7f37 96bb be7c 9c3d 5340 a43b
00000010: 679a 42bd 2377 4ebd b069 c23c 4af2 8fbc
00000020: 705e 19bd b767 d23d cc87 43bd 97b0 673d
00000030: d89c 823c 5981 31bd 83e9 99bc b378 5b3c
00000040: beb8 ad3c 10e9 a5bc 9a5d 033d 1198 3cbd
00000050: ab52 fa3d d8eb 94bc 9f3e 6d3d 1b3a 463d
00000060: 5ade 153d 76e7 9c3c 4954 9a3d c46b 7abc
00000070: a95c 9b3c 1792 7e3c 3a6f 6f3c 82e0 f63c
00000080: 8c85 bebc 238f cebc 4f6e 2f3d 9862 f83c
00000090: 956a 8e3d 3152 e1bc 40c4 063d 5cfa babc
000000a0: 1ea4 273d eba8 eb3c d417 ae3d 6b52 20bd
000000b0: 0371 e93d b842 44bd 7371 4b3d 1d85 5e3c
000000c0: d2e4 ab3b 4022 a1bc 8037 abbc 5f01 b73d
000000d0: 6f09 ccbc 735a 6c3d ac4e af3d d658 413d
000000e0: aeea debc fcaf 993d 5a78 093d 5a7c 543d
000000f0: 8877 d3ba 8b13 0bbc 1b60 593c da9c e0bc
00000100: a414 b63c 96af 93bd 3b62 e13a 3cfe 973d
00000110: 6e3a 403d f9e4 7fbd 8f17 86bd 93ba df3c
00000120: 117d 9c3a 15ab 85bc 601b 4b3d c252 edbc
00000130: f9db 493d 6168 58bd 9d26 153d af17 50bd
00000140: ef8a 4bbc d6a5 073d d02d 963d 54eb c2bc
00000150: 97df 8a3d e412 893c b946 9d3c 5732 2f3c
00000160: 75fb 58bd 97ac a1bd 939f 3ebd 3957 8abd
00000170: 05be f33c 5e82 a0bd d92c bc3d b898 d4bc
00000180: 9d89 66bd eae5 d7bd e43d dbbd beb3 453d
00000190: ef42 f23c 1d37 503d 6d61 2e3d 8107 e13c
000001a0: 2b76 04b9 e014 1f3d 2d52 2abd 9bc8 b93c
000001b0: 785b 1fbc aeea 99bc aea4 f83c a1f9 c9bc
000001c0: 5dc5 c13d 331e 13bc 3fa5 2cbd dd90 97bc
000001d0: 57e2 5cbd 657f a9bd 31ce 22bd 85a8 f03c
000001e0: 32e9 853d abb1 923d bf61 dc3c 73a8 3bbc
000001f0: 6295 583c e74d 03be 7ede 24bd f9af 623d
00000200: cde2 4ebd 066e bdbd c546 463c 210e 5ebd
00000210: e707 5fbd 57b9 053a b59c 583c c819 f7bb
00000220: 97fb 43bc 1bfb f9bd e1fd a4bd c8ad 85bb
00000230: c35c 5c3c 44c4 c8bd f2b3 1abc 3a3a a83b
00000240: 81be b2bd 12b6 803d dec2 06bd 4160 88bd
00000250: 89f1 e9bd 16b9 d2bc 9573 b6bd 8e85 113c
00000260: 60aa e0bd d79e 7ebd 22d6 87bd f4f2 f9bd
00000270: 965c 69bd 8f64 0ebe b082 023c ebd7 e03b
00000280: db6b 03bd b18b bcbc 9f4f 5d3c 69d7 9fbb
00000290: 96a8 d6bd 189a 94bd 65a6 3fbd 2a17 213d
000002a0: 6d95 09bd 5e60 e1bd 7bbd dfbd 6cbc 273d
000002b0: 7d95 3abc dc09 9cbd a27d 72bd e3a8 c5bd
000002c0: dd4b 7f3d a268 cd3c 4d06 bcbb 156a d4bd
000002d0: d961 b0bd 2b5d c43c 32e3 463d 1755 22bd
000002e0: 4c5a a5bd 63c2 dd3c 2a91 3fbd f133 8cbd
000002f0: 2628 22bd eac2 82bd b994 48bd c611 c7bd
00000300: 2e5d 7fbd 1f73 f63c ddec 01be 8472 5dbd
00000310: 468c 38bc b8a3 91bd ea9c 26bc c69d ecbd
00000320: 0f4a 15bd d9df d8bc 3efe 4ebc a221 babc
00000330: 27b3 fbbc 2f68 87bd 24ce 3f3a f63c e5bd
00000340: 156e 5d3a 401c 0dbd 4e7d 7c3c 5651 f7bd
00000350: c2cc 96bc 2326 13be 85df 1fbd 4147 b438
00000360: 7702 a83d 2f28 1abd 77bc 03be 185e 58bd
00000370: 3dfa 3a3b b576 0ebc 1ce1 ad3c bbab 1bbd
00000380: 19be abbd 3ea0 113e 535e 7fbc 6ba7 c13c
00000390: e418 303d 367b bfbd e787 c13c dd7e 193c
000003a0: 2f4b cebd 5f53 fb3d 38a7 43bd 7bbb 2ebd
000003b0: 0de0 63bd 71d8 adbd 33c6 25bd e18d fcbc
000003c0: 291c ddbd bd8d 903b 7a97 cb3c 3596 aebd
000003d0: 2a7f 50bd b7fd 6d3d eb3d 76bd 47f0 0abd
000003e0: bcd8 893c 9b71 6abd 517c 24bd 985e 5abc
000003f0: df3f 293c a385 203d d5a2 8cbd 0e91 bc3c
0.00012370298 -0.0045842524 0.0764098 0.005012551 -0.04751053 -0.050406586 0.023732036 -0.017571587
-0.03744358 0.10273688 -0.047736928 0.056564894 0.01594393 -0.043336246 -0.018788105 0.013395476
0.021206256 -0.020252734 0.032071687 -0.04604346 0.12222799 -0.018178865 0.05792105 0.048395257
0.036589004 0.019153338 0.07535607 -0.015284482 0.018965082 0.01553776 0.014613921 0.03013635
-0.02325704 -0.025214737 0.042829808 0.03032045 0.06953923 -0.027505012 0.032902002 -0.022824459
0.040928 0.02876707 0.085006386 -0.0391411 0.113985084 -0.04791519 0.04966874 0.013581541
0.0052457834 -0.019669652 -0.020900488 0.089358084 -0.024906842 0.057703447 0.08559927 0.04720386
-0.027211513 0.075042695 0.03356204 0.051876403 -0.0016133646 -0.008488546 0.013267542 -0.027418543
0.02222664 -0.07211225 0.0017195413 0.07421538 0.046930723 -0.062474225 -0.06547462 0.027310645
0.0011939128 -0.01631693 0.049586654 -0.028970126 0.049282048 -0.05283392 0.036413778 -0.050803836
-0.012423261 0.033117138 0.07332957 -0.023793854 0.06780928 0.01673264 0.019198762 0.010693154
-0.052974183 -0.07894247 -0.0465389 -0.06754918 0.029753694 -0.078373656 0.091882415 -0.025951728
-0.056283582 -0.105418995 -0.10705164 0.04826712 0.029572932 0.05083381 0.04257338 0.027469398
-0.00012632522 0.038838267 -0.041582275 0.022678664 -0.009726398 -0.018788662 0.030351963 -0.024655165
0.09461472 -0.008979368 -0.04214978 -0.018501693 -0.053926792 -0.08276252 -0.03974742 0.029377231
0.06538619 0.07162794 0.026902078 -0.011453736 0.013219209 -0.12822686 -0.040251248 0.0553436
-0.050509263 -0.09249501 0.012101834 -0.054212693 -0.054450896 0.0005101165 0.013220956 -0.007540915
-0.011961839 -0.12206098 -0.08056236 -0.004079554 0.0134498505 -0.0980306 -0.009442316 0.0051338943
-0.08727742 0.06284727 -0.032900684 -0.06658984 -0.11423022 -0.025723021 -0.08908764 0.00888194
-0.109699965 -0.0621632 -0.066326395 -0.12204543 -0.056973062 -0.13905548 0.007965729 0.006861677
-0.03208528 -0.023015829 0.013507753 -0.004877974 -0.10481374 -0.072559536 -0.046789546 0.03932873
-0.03358977 -0.11004709 -0.109248124 0.040951177 -0.01138818 -0.07619068 -0.059201844 -0.09651353
0.06232821 0.025074307 -0.005738056 -0.10371796 -0.08612413 0.023970207 0.048556514 -0.03963193
-0.080738634 0.02707023 -0.0467693 -0.068458445 -0.03958907 -0.06384833 -0.048969958 -0.09720187
-0.062344722 0.03008419 -0.12688012 -0.05406429 -0.011263913 -0.07111305 -0.010169247 -0.115535304
-0.03644758 -0.026473926 -0.012633858 -0.022721115 -0.030725075 -0.06611668 0.0007316789 -0.11193268
0.00084468845 -0.03445077 0.015410734 -0.120760605 -0.018408183 -0.14370017 -0.039031524 8.596341e-05
0.08203595 -0.03763598 -0.12864862 -0.05282411 0.0028530501 -0.008695294 0.021225505 -0.03800557
-0.083858676 0.14221284 -0.0155864535 0.023639401 0.042992488 -0.093496725 0.023624374 0.0093686255
-0.10072934 0.12271761 -0.047766894 -0.042659264 -0.055633593 -0.084885485 -0.04047222 -0.030829372
-0.10796387 0.004411428 0.024852503 -0.085247435 -0.050902523 0.05810329 -0.060117643 -0.033920553
0.01682698 -0.05723725 -0.04015762 -0.013328217 0.010330169 0.039189946 -0.06866995 0.023018386

action_model._continuous_distribution.mu.bias f4 [2]
00000000: 6082 4cbd 4b6c 8f3d
-0.049929023 0.07003077
