Goodminton/Assets/Scripts/TrainedNetworks/BadmintonThreeLayers.onnx (onnx, 141575 bytes, 9 tensors)

network_body._body_endoder.seq_layers.0.weight f4 [128, 5]
00000000: 48ec 9c3d 51c6 923e bd70 2e3f 1ecc 7e3e
00000010: 6fd5 01bf 98dc 3b3f 22f3 b9be 46a5 4cbf
00000020: 5ab7 f9be 657c dfbd dbf5 bf3c b868 91bf
00000030: bf43 28bf 6827 a1bf 4dc6 013f 7cbb c3be
00000040: 7583 90be bb95 24bf 7e03 62be f2b2 91bf
00000050: 80be aabe 9052 89be 6a00 4fbf bc29 943d
00000060: 40ea 82bb a868 a3be 07c1 b9be 2b36 90be
00000070: 4d5a 7c3e 4601 8abd 1049 023f f066 7b3c
00000080: d1f7 0d3e b611 a7be f8d3 983e 7304 acbe
00000090: a2ed 3cbe d0b1 8e3d c174 213f 3546 09be
000000a0: 72dc 87be ad9c d5bd 6d9e 13be d178 80be
000000b0: 0647 ecbe 739e 8d3e 172e 693d 7cef 343f
000000c0: 4837 b63c 5e53 48be ada3 8abe 4584 733e
000000d0: 9faa 2bbf b646 d5bb 3358 903f f747 4cbf
000000e0: 8e06 853f 2e6c 0dbe b8f3 363f 9aec bfbe
000000f0: d59d b63e 9878 813f a4d4 c6be 736b 6cbe
00000100: 3efc 05bf 9660 fbbe 5949 12bf 2a51 b83e
00000110: 1740 a43e 7eb6 b83e 0dd6 06bf cdc8 593e
00000120: 55c2 36be 3f99 02bf 1920 8e3d b92e dc3e
00000130: b5e8 81be 3c70 44bf 1dd0 8abd 2d85 c9be
00000140: 53a9 f93d 57f9 933d 8fa4 a83f 73cb 53be
00000150: 11f7 913d ea31 e6be 0ec6 51bf 2379 e0be
00000160: 69d8 413e f904 75bd e5fa 69be cfa2 873e
00000170: 8408 193f 2aae 333f ab9f 2d3c 3606 34bf
00000180: f61e f73e 65ac 923e cd46 e43e b50b 903e
00000190: bd1c e9be f9fa c03e 5565 e8be 087c 82bd
000001a0: 5e52 f8bd 2398 acbe 2ac6 4c3c f3dd 2f3f
000001b0: 4216 db3e 359f 42be ce17 193f 24a1 73be
000001c0: 90ed 7c3f b727 f4be 03e8 1638 f30d 25bf
000001d0: bf7c 9c3e 0041 de3d 4a06 44be 29ac 7ebd
000001e0: 3908 e03e cc38 19be f67c 083e 49e7 4f3e
000001f0: e964 b3bd c8e2 e83e 0ed1 be3e bd59 38be
00000200: 9a19 133f 2372 133f 9d66 863f a26c 5bbe
00000210: 5be2 283f d935 cd3e 7f38 19bf 8789 51bf
00000220: f1a3 06bd f1f4 f63d f383 8f3e 20b1 8fbe
00000230: 5960 763f b5b4 043e fd55 88be 4704 87be
00000240: 0af7 6c3e 037f 4e3f a09e b93e 1c04 9fbe
00000250: 2eac 97be 814b 023f 60e3 e5be 7c19 b23d
00000260: 7df5 a43d f013 77bb 2424 8abe b788 67bf
00000270: 2a40 7b3e 26dd a23d 04dc d43e 6d99 53be
00000280: 15c9 243f 6018 bebd 8de0 00bf 60ee 17bf
00000290: 71c9 d1be 19d7 a6bf c521 76bd a579 1abe
000002a0: e15d ae3e 8306 423e 4966 ce3e 41d4 47bd
000002b0: 0a8e a0be a03c b63e 7ea4 26bf 8507 6dbe
000002c0: 1201 103d 6ca9 5b3f 9ede 353f ece7 b4be
000002d0: 4fa1 203f aaff a53d 3de5 933e dcae cf3e
000002e0: 5ba5 8cbe 2155 913f c37a 77bd cf30 fcbe
000002f0: b46e b03e dbb0 623e 7d0b 733e 3e01 2dbe
00000300: 4e23 9cbe dbe9 a9bd f4d9 85be 9c84 7bbf
00000310: fc0c d43c d954 183e 964f 523f 3cfa fdbe
00000320: 561a b43d 625c 47bf 50a7 b03e 482d ba3e
00000330: cb93 0f3f 26cf 273e bc04 f5be b691 15be
00000340: ab85 86be cffb e53e 7f80 763f 1004 f13e
00000350: 1e3c 68bf 03e5 d43e 7a69 cbbc cf20 423e
00000360: 1102 893c 7255 823f a571 b3be 3c63 50be
00000370: 4cb6 4cbd 520f 4fbe 0726 1fbf c86d f13e
00000380: d1b3 93be 4696 26bf fdc1 17be cdd9 1bbe
00000390: 5c0e 0fbf 38ad 0fbe ff1c 8c3f 8c57 b03d
000003a0: 299d b2be 26bf 08be b635 053f 7df4 4abf
000003b0: 1ea4 cdbb 3b1d 6c3e d0e3 99bd 8004 4ebe
000003c0: f883 0bbd ec43 ab3e e9ed b1bc 959b 9c3e
000003d0: 368e b2be 0ee1 63bf a62a 10be 39da 873e
000003e0: de47 b43d abc5 473f 981b b83e 73c6 863d
000003f0: 33b5 46be d88b 19bd cf4e ed3c cc75 aa3d
0.076622546 0.28666928 0.68140775 0.24882552 -0.507163 0.73383474 -0.36318308 -0.7993969
-0.487727 -0.10912398 0.023432663 -1.1360083 -0.6572837 -1.2590151 0.5069321 -0.38228977
-0.28225294 -0.6429097 -0.22071645 -1.1382735 -0.33348465 -0.26820803 -0.80860007 0.07234523
-0.00399521 -0.31915784 -0.3628008 -0.28166327 0.24643822 -0.06738524 0.50892735 0.015344366
0.13864066 -0.326307 0.2984922 -0.33597144 -0.18450025 0.06967509 0.6306878 -0.13405688
-0.26535374 -0.10430274 -0.14415903 -0.25092176 -0.46147937 0.2765995 0.05692872 0.70677924
0.022243157 -0.19563052 -0.27078 0.23780926 -0.6705722 -0.0065086735 1.1276916 -0.7979731
1.0392625 -0.13810799 0.71465635 -0.374852 0.3566729 1.0114927 -0.38834107 -0.23087864
-0.52338016 -0.49097127 -0.5714317 0.35999423 0.32080147 0.3607673 -0.52670366 0.21268006
-0.1784757 -0.51015085 0.06939716 0.43004397 -0.25372854 -0.76733756 -0.06777976 -0.39359418
0.12190499 0.07225292 1.3175219 -0.20683078 0.07127202 -0.44959956 -0.8194283 -0.4384242
0.1893021 -0.059819195 -0.22849615 0.264914 0.5977862 0.7018763 0.01059715 -0.7032198
0.4826581 0.28647152 0.44585267 0.28133932 -0.45529738 0.37691477 -0.4538981 -0.06371313
-0.12125085 -0.3370982 0.012498418 0.6869804 0.4279042 -0.19006045 0.5980195 -0.23791939
0.9879999 -0.4768655 3.5978865e-05 -0.6447441 0.30563924 0.108522415 -0.19143024 -0.062175903
0.43756273 -0.14963073 0.13328919 0.20303072 -0.087594815 0.4548552 0.3726887 -0.18002982
0.5746094 0.57596034 1.0500065 -0.21428159 0.6597039 0.40080145 -0.5985183 -0.81850475
-0.03287119 0.120584376 0.28030357 -0.28064823 0.96240765 0.1295956 -0.26628104 -0.2637045
0.23141113 0.80662555 0.36253834 -0.31057823 -0.2962355 0.5089646 -0.44900036 0.08696267
0.08054636 -0.0037701093 -0.26980698 -0.90442985 0.24536195 0.07952337 0.4157411 -0.20663996
0.64369327 -0.09281993 -0.5034264 -0.59348106 -0.40974 -1.3034393 -0.0600908 -0.15085466
0.34056 0.18947797 0.40312412 -0.048786405 -0.31358367 0.35593128 -0.65094745 -0.231474
0.03515727 0.8580539 0.7104281 -0.35333192 0.6274614 0.08105405 0.28885832 0.40563095
-0.27469906 1.1354104 -0.06041981 -0.49255988 0.3445946 0.22137778 0.23734851 -0.16895005
-0.30495685 -0.082965575 -0.26142848 -0.9824922 0.025885098 0.14876117 0.8215269 -0.49604976
0.08794086 -0.7787534 0.3450265 0.36362672 0.5608489 0.16387615 -0.47855175 -0.14606366
-0.26273856 0.44918677 0.9628982 0.47073412 -0.9071673 0.41580972 -0.024830569 0.18957828
0.016724618 1.0182326 -0.3504764 -0.20350355 -0.04997854 -0.20220688 -0.621674 0.4715407
-0.28848127 -0.6507305 -0.14820094 -0.15219803 -0.55881286 -0.14030921 1.0946349 0.08610448
-0.3488553 -0.13354167 0.5203508 -0.7927931 -0.006275668 0.23058026 -0.07514155 -0.20118904
-0.034061402 0.33450258 -0.02171989 0.3058745 -0.34874123 -0.8901528 -0.14078769 0.26533678
0.0880277 0.7803599 0.35958552 0.0658082 -0.1940506 -0.03748688 0.028968243 0.08323249

network_body._body_endoder.seq_layers.0.bias f4 [128]
00000000: 1ae4 86bd 6161 033d 777a a7bd 23b7 abbc
00000010: 9682 dabc d35d 4f3d 436b e0bc 3b1e 30bd
00000020: 5ea6 e2bd 5ee1 4bbd 4f0b 14bc bedc ef3a
00000030: 88ee 94bd 7ae9 cb3b 473b 22be 2e1e f73b
00000040: 6a71 06bc 70a9 983d 8e9a 47bd aa73 44bd
00000050: 2e55 953d 8dbd 7c3a 7ad5 c03c d243 f0bc
00000060: a0ea 57bd 8bdc cfbd 5495 fbbc fa65 293e
00000070: a1f5 023e a965 9fbd 54dd 103b 530f d33d
00000080: e948 c4bd bf9f 783e dcf9 87bd 59d8 80bc
00000090: b10b b7bd 8aff a73d b89e 69bd 0e21 b53d
000000a0: 153a 8bbd 6878 afbd 6ca6 b93d aeea 37bc
000000b0: ab3c 5cbc 6493 82bd 6b47 d8ba 65ed d43d
000000c0: 42f9 00be 249f 863a aa23 373d 8a5d aabd
000000d0: a9bf 50bd 2000 c4bd 6c02 eb3b 3675 edbd
000000e0: 34cb 06bd e335 163c 7d7f 103c bf20 8bbd
000000f0: 78a4 80bc 8636 cfbd eae1 40be 8ebd 133d
00000100: 2047 23bc db84 ab3c 3744 97bd b45b 20ba
00000110: 14f6 0e3e 69b2 0ebe 30c2 f13d 8991 82bd
00000120: 36a4 02bd 6082 05bd 5124 4dbe c758 fd3a
00000130: b7c2 62bd e3ae 6bbb be53 6fbc bd36 0ebe
00000140: d3b5 d83c 008c acbd d909 85bd 188b b8bc
00000150: 43e1 b2bd dbf5 4bbc ed88 e8bd 059f a8bb
00000160: c661 8ebd ed9d c1bc 97c7 9bbd 30e4 08be
00000170: 9da8 11be ff65 b53d 9438 fbbd eb04 94bd
00000180: c60c a6bd 50fb 013d b145 7b3d b563 bdbc
00000190: 80fc 4e3d ca02 0abe c0af 45bd a08d 8abd
000001a0: c820 0fbd 3950 7f3d f6b8 abbd bc4b 87bd
000001b0: 28e1 4dbd bc5d 2f3c 27e7 4fbe 87da b13c
000001c0: ead5 edbd a133 b1bd b7d1 28bd aba9 0abe
000001d0: 5901 90bd d972 dcbd 63db aabd e8a3 043d
000001e0: 865d 28bd 49ab 79be bcbf cdbd 26ba b53d
000001f0: 11a4 d43d d5de 8f3d 0238 77bd 3689 2fbd
-0.06586476 0.03207529 -0.08177655 -0.02096135 -0.026673596 0.050626587 -0.027394896 -0.04299758
-0.11066888 -0.049775474 -0.009035899 0.0018300039 -0.07272059 0.006222901 -0.15842925 0.0075414395
-0.008205751 0.07454193 -0.04873138 -0.04796187 0.07291637 0.00096412824 0.023539294 -0.029329214
-0.05271399 -0.10149487 -0.030710854 0.16542807 0.12789012 -0.07783062 0.0022104578 0.10305657
-0.09584219 0.24279688 -0.06639454 -0.015728163 -0.08937777 0.08203037 -0.05703613 0.08844195
-0.06798188 -0.085678875 0.090649456 -0.011225386 -0.013442199 -0.06375769 -0.0016500776 0.10396842
-0.12595084 0.0010270816 0.044711746 -0.083186224 -0.05096403 -0.09570336 0.0071719196 -0.11594622
-0.032908633 0.009168121 0.008819458 -0.06793355 -0.015703425 -0.101178214 -0.1883618 0.036069445
-0.009965688 0.020937374 -0.07386058 -0.00061171805 0.13961059 -0.13935246 0.118046165 -0.06375415
-0.031894885 -0.03259504 -0.20033385 0.0019328826 -0.055361476 -0.0035962395 -0.014607368 -0.13888068
0.026453888 -0.084251404 -0.06496019 -0.022527263 -0.087343715 -0.012448753 -0.113542415 -0.0051459097
-0.069522426 -0.023634875 -0.07606428 -0.13368297 -0.14224477 0.08857345 -0.12266651 -0.072275005
-0.08107905 0.03173381 0.06134576 -0.023118833 0.05053377 -0.13477626 -0.04826331 -0.06765294
-0.034943372 0.062332366 -0.08384888 -0.06606242 -0.050263554 0.0107035 -0.20303021 0.021710647
-0.116130665 -0.086524256 -0.041215625 -0.13541286 -0.07031507 -0.10764093 -0.08342626 0.032382876
-0.041104816 -0.24381746 -0.10046336 0.088733956 0.10382856 0.07024924 -0.060356148 -0.042855464

network_body._body_endoder.seq_layers.2.weight f4 [128, 128]
00000000: 090d 27bd 3454 c23c c54b 9f3d 58d5 a4bd
00000010: 15e3 e83d 6d7c 9c3d 5e05 983d 4c4c 8dbd
00000020: a6e1 433e 11f5 1fbe aa2a 06ba 073a fabd
00000030: 0d48 ddbd 5f58 66bc ca32 553d 3e82 acbc
00000040: 025d b1bd 6ecf 203e ba2c 04be 0235 13bd
00000050: 372f 4ebe b703 9bbe c921 4d3a 4f73 7fbe
00000060: 550b 4dbd 4cc1 903d 8433 5d3d 7b5d 41be
00000070: 6409 3a3b e2d5 0c3e 41e9 1b3e 9b93 463d
00000080: dd19 1b3e 16de 41bd 48fd 7c3d 9dc6 d8bd
00000090: 0212 09be 9fde 32bb c36a 11be ee79 16be
000000a0: 0422 5e3c 4bce 4a3e 8d97 eebd 747f 7cbc
000000b0: 59e0 bbbd 9be4 31bb 285c c13d 583f a3bd
000000c0: 7f05 b63c b574 ac3d 7a13 4b3d 4ddf 233e
000000d0: 5714 e9bb dc1a 003e 1ff2 00bd 1739 b03d
000000e0: 10a2 2e3d 5c39 f9bb e28a 0e3e 474a 0cbe
000000f0: 294d 17be 8a6c a93d fa9d d93d 4c60 cb3d
00000100: 40eb 6cbd de04 f0bd 2dda 82bd a52d 5f3d
00000110: 646d 193e b5e8 cfba 534b 7f3d 9442 43be
00000120: 8c5d ee3a 1e89 8a3d ab65 ddbc 684b 83bd
00000130: ad23 763d 0dd2 8ebd 89d0 143d 30e7 363c
00000140: 1b6c 0e3e 4e5e 943c 94d2 6b3d a1de 74bd
00000150: a1a4 2bbe 2357 223e fa02 f03d 3c43 0b3d
00000160: b636 37bd 6203 98bc f1c9 773d 43eb ac3d
00000170: b756 2a3e f229 83be 669d 06bd 2661 0dbd
00000180: e980 2fbe 16b3 473e 7b46 333e a21e b2bd
00000190: 264c 97be 4469 b43d bdcd 0abe efd1 70bc
000001a0: 83fa 973e f91e cfbd 2dd7 b5bd 6d98 d6bc
000001b0: 4954 06be ddbb b43d 5214 27b9 9d89 073e
000001c0: a3d0 323d d0b9 68bd f4c5 c13c 9b30 d93d
000001d0: e8b8 2abd 624a f53d 2794 2ebe 2773 223e
000001e0: 954b e3bd a1e9 e2bd bc07 633d 3ef4 debc
000001f0: 6219 abbd c157 c73c bd2c ccbd f657 df3c
00000200: 5590 f1bd 14b3 30be ac36 c3bd d741 c8bd
00000210: 918a ce3d a77a 073d bd30 e73d c511 b9bd
00000220: 88d9 5f3c 0bf7 7f3d 8700 08be 6de8 51be
00000230: 5563 f03c e72f 9dbd 2359 83bc 1609 fdbd
00000240: edf0 843d dadf 763d a44c 53be f15d 29be
00000250: c43f 9abe 4d08 7cbb 91d6 2cba 7f92 2b3e
00000260: 667f a23c 0e45 973c 684e f03d a9b8 babc
00000270: 7e46 883d e971 a03d ab4e d2bd 84c3 ddbc
00000280: bd36 ddbd 929a 633d 58d1 0a3c 0fb0 023e
00000290: 041c e5bd 04c8 d9bc 44c7 00be c379 153d
000002a0: 3ed0 9dbd b3f6 20bd b6ee 003c 2f2e 1abd
000002b0: f7df 1dbd 1f23 013e 3793 6c3d 4f7d 1e3d
000002c0: 5daf eebd 024d 9abd d66c ca3d ffc6 c03d
000002d0: 1e46 0f3d 3ab9 4a3d 288e 51be afcb b43a
000002e0: 7a97 0abe 47d6 c7bd 60d2 b4bd e799 e43d
000002f0: 02af 433d d4a0 6b3e c5da 17bd 3d95 d03d
00000300: d1f7 7dbd 9fdd 59be 4110 43be eafc e8bd
00000310: 0c8c 20bc 3aca 1d3d b2d9 33be 4f28 003e
00000320: 3e83 f7bb 8ce3 4b3c fb14 f0bd 2f52 8bba
00000330: a347 173c ec3e 46be a5ec 033d b7ac 32be
00000340: bf9f cabd 2e1b 9dbd f6bd 37bd 96e9 b33d
00000350: 8a98 8f3b 22c2 56bd 142f 79bc 4fd4 abbd
00000360: 34f4 8b3c 4b81 14be 2951 233e 4ebc 083e
00000370: 1262 053e 6c2f f53d 4250 12be df51 05be
00000380: f17d ae39 f363 893c 2956 7d3e fe19 e2bc
00000390: e657 77be b1d8 13bd 7362 1bbd 788f 39bc
000003a0: b6da 8d3d be38 fabb edf5 053e 5860 10be
000003b0: a0fa a23d eefe 9fbc 9503 ec3c ddf5 a1bd
000003c0: a6dd 0d3d 8128 ebbd f3a5 eebd 1955 9fbd
000003d0: 74b7 dfbd 4969 013e 94c2 58bd 4604 ba3c
000003e0: 2616 cd3d b45b 50be 853b 47bd 5108 a0bc
000003f0: d79b fe3c 6317 363e 67ea 78bd 43f8 45be
-0.040783916 0.023721792 0.07778124 -0.080485046 0.113714375 0.0764092 0.07422899 -0.06899318
0.19129047 -0.15620829 -0.0005118052 -0.12218099 -0.10804758 -0.014059155 0.05205039 -0.021058198
-0.08660318 0.15704128 -0.12907687 -0.035939224 -0.20135199 -0.30276272 0.0007825164 -0.2494633
-0.050059635 0.070681185 0.054004207 -0.18883316 0.0028386945 0.13753465 0.15225698 0.04848061
0.15146585 -0.04733094 0.061764985 -0.105847575 -0.13385776 -0.0027293337 -0.14200883 -0.1469495
0.013557915 0.19805257 -0.1165 -0.015411247 -0.0917365 -0.0027144316 0.094414055 -0.07971066
0.022219418 0.084206976 0.04957912 0.16003151 -0.0071130204 0.12510246 -0.031480905 0.08604639
0.042635024 -0.0076057147 0.13920167 -0.1370021 -0.14775528 0.08272655 0.10625835 0.099304765
-0.05784154 -0.11719678 -0.0638927 0.05448689 0.14983135 -0.0015862199 0.062327694 -0.19068366
0.0018185838 0.06764434 -0.027026018 -0.06410867 0.060092617 -0.06973658 0.036331687 0.011163518
0.13908426 0.018111374 0.05757387 -0.059782628 -0.1676202 0.15853553 0.11719318 0.033999667
-0.04472991 -0.0185563 0.06049532 0.0844331 0.16634642 -0.2561794 -0.03286495 -0.034516476
-0.17139019 0.1950191 0.17507355 -0.08697249 -0.29550284 0.0880914 -0.13555045 -0.01469849
0.29683313 -0.101133294 -0.08878932 -0.02619573 -0.1311809 0.088248946 -0.00015933931 0.13236089
0.043656003 -0.05681783 0.023653962 0.10604974 -0.041680247 0.11977078 -0.17048703 0.1586424
-0.110984005 -0.110797174 0.055427298 -0.027216073 -0.08354451 0.024333837 -0.09969471 0.027263623
-0.11795107 -0.17255813 -0.09531912 -0.09778183 0.10085023 0.033075955 0.11288593 -0.090365924
0.013662703 0.062491458 -0.13281451 -0.2049882 0.02934424 -0.07675152 -0.016033715 -0.12355249
0.064912654 0.060272075 -0.20634705 -0.16539742 -0.30126774 -0.0038457096 -0.0006593252 0.16755103
0.019836139 0.018465545 0.11733705 -0.022793131 0.0665407 0.07834227 -0.10268911 -0.027070768
-0.10801456 0.05556733 0.008472763 0.12762474 -0.11186984 -0.026584633 -0.12576014 0.036493074
-0.07705735 -0.03929777 0.007869413 -0.0376417 -0.038543668 0.12611054 0.057757583 0.038693722
-0.11654542 -0.07534219 0.0988404 0.094129555 0.03497898 0.049493052 -0.20464385 0.0013793613
-0.13534346 -0.09757667 -0.08829188 0.11162167 0.047774322 0.2301057 -0.03707387 0.10184715
-0.062003914 -0.21275948 -0.19049169 -0.113763645 -0.009799015 0.038522936 -0.17563513 0.12515377
-0.007553487 0.012444388 -0.11722752 -0.0010629351 0.009233388 -0.1935994 0.032208104 -0.17448698
-0.098937504 -0.076712 -0.044858895 0.08784787 0.0043821977 -0.052431233 -0.015208978 -0.08390104
0.017084219 -0.14502446 0.15948929 0.13353083 0.13025692 0.11971936 -0.14288428 -0.13019513
0.000332817 0.016771292 0.24739899 -0.027600285 -0.24154624 -0.036095325 -0.037935685 -0.0113257095
0.069264814 -0.0076361587 0.13082094 -0.14099252 0.07957959 -0.01953074 0.028810302 -0.07908223
0.03463521 -0.11482335 -0.11652746 -0.07779903 -0.10923663 0.1263782 -0.05291994 0.022707116
0.1001399 -0.20347482 -0.048640747 -0.019535216 0.03108017 0.17782359 -0.06077042 -0.19332986

network_body._body_endoder.seq_layers.2.bias f4 [128]
00000000: 6c81 c5bd 3ebd 26bd 6ca4 8bbd 454c 983c
00000010: fe65 bd3c c90d 423d 8fff d1bd 2996 b7bd
00000020: 516f 8ebd f7ba a3bb f487 39bd c7ec 9a3b
00000030: 7ff2 04bc 88c9 463d dc43 09bd 22ea cbbb
00000040: 7450 36bd 290b 5c3d e7ff d6bc 45db 8fbd
00000050: 580c 8ebb 2ce7 88bd 01d5 3cbb b9ac 65bd
00000060: c501 023d 6396 a5bd cd19 b1bc af12 073d
00000070: 5412 95bd bdce e9bc 7a38 873d 6d2b 6c3d
00000080: b3ce 7dbd 0f39 c8bb d21b 0dbc 433f a1bc
00000090: 318d c8bb b658 023d 972b 8dbd 059f b2bd
000000a0: 71f1 16bb 5b88 503d 0bc2 dabd b7d4 063c
000000b0: 8e35 9a3d 335e f5bc 858a 01bd 2d6c 523d
000000c0: 2536 9bbb f762 883c 8e56 9cbd 259b 27bd
000000d0: 2228 30bd ac8d 953c 791a 41bd dcf5 90bc
000000e0: 95ef bbbc 6a03 90bd a2e1 5fbd 9974 263d
000000f0: 1e5e c7bc c603 67bc 1a51 5a3b d171 703c
00000100: db8a 81bd c097 e43c 7d4e 2bbc 90b0 83bc
00000110: 5aec 573c 1da6 5d3d f664 463d bfc9 67bd
00000120: 711c 65bd 77a7 16bd e41d 523d 4408 3dbb
00000130: 5f9e 9f3c 6a45 3fbd 1230 46bd d5d5 69bd
00000140: 592a b53c c09d 5e3d f264 623d f2f4 3cbc
00000150: 202a 973b d600 543d 32e0 c03d bd81 babd
00000160: 2703 c2bd 0a14 b63c 2994 433d 5f3a 113c
00000170: 39d8 e93c c0c0 88bc 0e7c 703d e262 63bb
00000180: 0383 b1bc 89cc 2e3d 0735 e73c ab3d 89bd
00000190: 0b85 76bb c8ca 4dbd 40ea b2bc 2a39 55bd
000001a0: 4498 d13b d986 8a3c 2638 65bc 7e84 4c3c
000001b0: ccc9 2dbd 43f3 55bd 7721 cf3b dd4a e0bc
000001c0: 6d2b 6abc 9aba b8bc fe99 b7bd 05ff 11bd
000001d0: 7a41 353d a7ce 59bd 7184 63bd 0ce3 edbb
000001e0: c257 3d3a 52f1 4e3b 119a 8ebd a1dd aebd
000001f0: 3573 c3bc b927 23bd b970 18bd 53d4 1b3b
-0.09643826 -0.04070782 -0.0681847 0.018591056 0.023119923 0.047376428 -0.10253822 -0.08964188
-0.06954826 -0.004996653 -0.04529567 0.004727933 -0.008114456 0.04853204 -0.03351198 -0.006222979
-0.04451032 0.05372158 -0.02624507 -0.07024244 -0.0043349676 -0.066847175 -0.0028813484 -0.056072924
0.03173997 -0.080853246 -0.021618748 0.032976802 -0.072788864 -0.028540963 0.06602569 0.0576586
-0.0619647 -0.0061103175 -0.00861259 -0.019683486 -0.006120347 0.031822883 -0.0689308 -0.08721737
-0.0023032094 0.05091129 -0.10681542 0.008229426 0.07529746 -0.029952144 -0.031626243 0.051372696
-0.004736679 0.016648753 -0.076336965 -0.04091944 -0.043007024 0.018256031 -0.047144387 -0.01769536
-0.02294139 -0.07031901 -0.05465854 0.04063854 -0.02433687 -0.014100021 0.00333125 0.014675573
-0.06325313 0.027904391 -0.010455725 -0.016075402 0.013178909 0.054113496 0.048436128 -0.056588884
-0.055935327 -0.0367808 0.051298037 -0.0028844038 0.019484697 -0.046697058 -0.048385687 -0.05708869
0.02211492 0.05434966 0.05527205 -0.011533009 0.004613176 0.05175861 0.09417762 -0.09106777
-0.094732575 0.022226352 0.04774872 0.008864014 0.028545486 -0.016693473 0.058712058 -0.003469639
-0.021668917 0.04267553 0.028223528 -0.06701215 -0.003761592 -0.050242215 -0.021840215 -0.05205647
0.0063963253 0.016910003 -0.013990438 0.0124827605 -0.042428777 -0.052233946 0.006321128 -0.027379448
-0.01429258 -0.022549916 -0.089649186 -0.035643596 0.044251896 -0.053175595 -0.055546228 -0.007259732
0.0007222855 0.0031576944 -0.069629796 -0.08538366 -0.023858646 -0.039832804 -0.037216876 0.0023777678

network_body._body_endoder.seq_layers.4.weight f4 [128, 128]
00000000: 620a 81bd 9f54 ed3c 335c 423d 0093 923e
00000010: 4e50 683c c22f dc3c 479f 73be 6ba7 dd3d
00000020: 6286 483c 9799 26be 137f 2cbe 35cb 36be
00000030: 8751 653d 0892 823d 9ce0 88be 6608 fe3c
00000040: dd94 0cbe b2e6 18be 6946 673e 6e62 023c
00000050: 9e71 fabc 4746 34bb 4929 33be 8d72 013e
00000060: 331b 10be 9736 33be b490 2c3e cf2c 41bc
00000070: 66f9 ebbd 1603 d5bc 6e54 753e 1a60 85bd
00000080: d045 68be 1988 823d d846 473b 9c63 debc
00000090: f01a 9bbd 0e53 c33d 0c71 213c d5a0 7abd
000000a0: c97e 083d 7352 d03d 120d 09be 1777 3b3d
000000b0: 2600 dabc 0c57 c73d 9d6a 81bd c53e 433c
000000c0: 29e6 e2bd 9ec8 6a3d a3b7 8ebd 28a1 263e
000000d0: 344d 22bd 0085 c5bd 7551 f0bd 108f 6ebc
000000e0: 4638 c0bd f13a 40be 9a44 19bd 501b cbbd
000000f0: 11a0 553d 576c a03d 0e20 5c3e 3f3c 4ebc
00000100: 1eca 1bbe 3be1 5dbd 0a42 10bd aede 3a3d
00000110: 2069 d13c b2bc 0abd 92fd 9f3d 5557 0fbd
00000120: e0fc d8bd 9afa 7cbc e32c 36be 0c67 63be
00000130: 1d41 0dbd 253d e03d b589 853d c801 6e3d
00000140: 4e3e 45bd ae38 14bd 9638 5d3e fa82 39be
00000150: 308c aebd 3541 91bd b082 cbbb 1b6c 9a3d
00000160: 3c86 b13d 9bda 24bd 1f64 b9bd 110b dabc
00000170: 0643 8a3e 287a da3d ac43 b03d 7bce 9d3c
00000180: 7594 08be e063 c63c a5ca ff3b c266 2ebc
00000190: 13c1 02be 975f 09bd 0845 03be 83e0 293e
000001a0: e938 2e3e 28fd 8dbd ca79 2e3e ba4e a0bd
000001b0: 034b bbbd a8c6 423e f413 a53d 7271 2bbd
000001c0: 6647 ecbc 8f40 1cbd a284 bc3d f0bf 74be
000001d0: 4768 64be ed93 d2bc 51ea e5bc af49 90be
000001e0: 9bdf 3b3e 7797 3cbd c5c1 e73c b304 313c
000001f0: e83b e53d d84d 11bd afef 93bc 4634 ab3b
00000200: 4cce 223d 130f 09be ea05 1b3e 23ea 48be
00000210: a102 f93d 6441 f4bd 2d72 2c3e 7a5f 2d3e
00000220: fd82 9a3d 8178 c7bd cd92 a6bd b6c4 14be
00000230: 64bc 1d3e bf94 b2bd da7b bebb 8f79 d63b
00000240: b5be 443d 2408 c1be 932d 18be 35e9 2abe
00000250: 0b3f 14bd ed39 823e 1e5b bd3b 68f1 de3b
00000260: 4dba f23c 403f 43bd a8fd e83c 4eed edbc
00000270: 9a7b 623c 63ae fa3d d8b5 a4bd 8044 243c
00000280: ee2e fabb afea f03d dc9a 5abe 90e6 55bd
00000290: 04c5 eabd ad19 b1bc ba43 713d b655 6abd
000002a0: 9e06 ae3d 4735 593e 6f9a b33d 9056 5abe
000002b0: 3727 57be b9e7 d73d ffaa c13d fece 30bb
000002c0: 108d 52bd 326f 22bd ad14 b0bd b51b be3d
000002d0: 77d0 a3bd c547 eb3d 30c9 acbc 3dc3 cfbc
000002e0: 1c64 e1bd b13d d1bd e774 15be 3aad 1e3e
000002f0: 2443 373e 090b efbc c235 3cbd 1153 25be
00000300: d5a4 2ebe b6cf 1dbd 1336 8b3c 2f34 aebd
00000310: b074 5e3e 3911 b9bd fa8c fdbc dc05 c33c
00000320: b004 1bbd b4bd 82bb b96c 21bd 9b71 0cbe
00000330: e6ad 8cbc 93a4 b13b 0825 e6bd bdd2 473e
00000340: 1ea9 873c 8813 c83d 7ccc b3be 326c d5bd
00000350: d52b 903d c150 223d bbfc 3abe aa7d 4c3d
00000360: c01e 4a3e 600e 603e 3bde 1abd 9129 56bd
00000370: 104a f4bc 252d 82bd 6a17 3fbe 6235 89bd
00000380: 02b6 473d 46fa 91be 45c5 983d 437b b5bd
00000390: 1551 f5bd 0da3 a3be 0297 ef3c e8cc 1b3d
000003a0: 19ee d2bd f03a e1bd 3883 c0bc e667 0f3e
000003b0: f16f f9bd bf33 c4bc 9e38 33be 8118 803d
000003c0: 89b7 883c 9d04 eb3d eaa5 443d 464d 853e
000003d0: ecb4 64bd df67 223e 9912 963d 02f5 0bbd
000003e0: 099f 223d c4b8 303e 8cde 643e 7ecf f8bc
000003f0: 7916 ecbc e56c 9abd 4f3b 90bc 2937 edbd
-0.063008085 0.028971015 0.04745121 0.28627777 0.014179302 0.026878241 -0.23791228 0.10822948
0.012239071 -0.16269527 -0.1684535 -0.17850955 0.055985954 0.063755095 -0.26733863 0.031009864
-0.13728662 -0.14931753 0.22585453 0.007958038 -0.030571755 -0.002750771 -0.17496218 0.12641354
-0.14072876 -0.17501293 0.16852075 -0.011790468 -0.11522178 -0.026002448 0.23957989 -0.065124705
-0.22682881 0.06373615 0.0030407216 -0.027147107 -0.07573497 0.09537326 0.009853613 -0.061188538
0.033324037 0.10171976 -0.13383892 0.04576787 -0.026611399 0.097334 -0.06319163 0.011916821
-0.11079056 0.05732023 -0.0696862 0.16272414 -0.039624408 -0.09644508 -0.11734287 -0.014560476
-0.09385733 -0.18772484 -0.03741894 -0.09917319 0.052154604 0.07833164 0.21496603 -0.012587606
-0.1521382 -0.054169875 -0.03521923 0.04562252 0.025562823 -0.03387136 0.078120366 -0.034995396
-0.10595107 -0.015440607 -0.1779056 -0.22207278 -0.034485925 0.109491624 0.06520406 0.058107167
-0.04815512 -0.036186866 0.21603617 -0.1811637 -0.085228324 -0.070925154 -0.0062106475 0.07540151
0.08668181 -0.04024754 -0.090523 -0.026616605 0.2700426 0.10667831 0.086066574 0.019263497
-0.13337882 0.024217546 0.0078061395 -0.010644617 -0.12768964 -0.033538427 -0.12819302 0.1658955
0.17013897 -0.06933051 0.17038646 -0.07827516 -0.09145167 0.19021094 0.080604464 -0.041856237
-0.02884264 -0.038147505 0.09204985 -0.23901343 -0.22305404 -0.025705302 -0.028065832 -0.28181216
0.18347017 -0.046042886 0.028290639 0.010804343 0.11193067 -0.03547463 -0.018058626 0.0052247373
0.03974752 -0.13384657 0.15138975 -0.19620566 0.121587045 -0.11926535 0.1684043 0.16930953
0.07544515 -0.09739781 -0.08133469 -0.14528164 0.15403897 -0.08719777 -0.005813104 0.0065452526
0.048033435 -0.37701523 -0.14861135 -0.16690524 -0.036192935 0.2543482 0.0057786843 0.00680368
0.02962985 -0.04766774 0.028441265 -0.02904382 0.013823414 0.12240293 -0.080424964 0.010026097
-0.007634989 0.11763512 -0.21348137 -0.052221835 -0.11463359 -0.021618688 0.05890248 -0.057210647
0.08497356 0.2121173 0.0876969 -0.21322083 -0.21011053 0.105422445 0.09456443 -0.0026978846
-0.05140406 -0.039656825 -0.085976936 0.092826284 -0.07998746 0.11488298 -0.021092027 -0.025361652
-0.110054225 -0.10216845 -0.14595376 0.15495768 0.17896706 -0.029180067 -0.045949705 -0.16144969
-0.17055066 -0.038528167 0.016993558 -0.08506047 0.217242 -0.09036488 -0.030951012 0.023806505
-0.037846267 -0.0039898995 -0.039410327 -0.13715212 -0.017172765 0.00542123 -0.11237532 0.19513984
0.016560134 0.0976935 -0.35116947 -0.10421027 0.0703961 0.039627794 -0.18260472 0.04992453
0.19738293 0.21880484 -0.03780959 -0.052285735 -0.029820472 -0.06356267 -0.18661276 -0.06699635
0.04875756 -0.28511256 0.07459501 -0.08861401 -0.11978356 -0.31960335 0.02924681 0.03803721
-0.1029932 -0.109975696 -0.02350007 0.14004478 -0.12179554 -0.023950456 -0.17502066 0.06254674
0.016689079 0.11475489 0.04800979 0.26035517 -0.055836603 0.15859936 0.07327766 -0.034169205
0.03970245 0.17257982 0.2235052 -0.030372377 -0.02881931 -0.07540301 -0.017606406 -0.115827866

network_body._body_endoder.seq_layers.4.bias f4 [128]
00000000: f243 88bd e7e6 a0bd a130 9e3d d8d3 bdbd
00000010: 4d28 233d 0b67 b1bb b83a 563c dedb 5ebd
00000020: c0f7 96bd ea75 cdbd 551c cb3b f245 94bd
00000030: b64a 2dbd 3096 523d b34d c6bd 0ba2 16be
00000040: 7f72 96bd 3384 923c 5d68 29bd 0d47 023d
00000050: 4451 fabd 85f4 da3a 121c 293c ec47 573c
00000060: 8a7e 8ebd cdc1 8ebd 7a4c 883c fefd a9bd
00000070: 5162 a2bd dd64 3bbd 7d32 8abd bcd9 49bd
00000080: b596 e3bc 76cf a1bd 5df1 89bc 7e9a e4bd
00000090: 3b43 763d a365 6fbd f59a ddbc e207 b93d
000000a0: c388 23be 794e be3a 2899 1abd d0b2 ea3d
000000b0: 2f92 ff3c 980b c1bd 1d77 99bc a65f 99bd
000000c0: 0439 0f3e cb96 393d 4657 76bd 2611 cebd
000000d0: 12b7 dbbb 684e cbbc 56d0 973d 5bd2 47bb
000000e0: be19 50bc 2cb4 f4bc 1993 dfbb ecde 98bd
000000f0: ca6b dfbd 68a9 e4bc da54 87bd 3b82 37bd
00000100: c6f0 e6bc aad1 db3d 8837 b63a 699f 9e3d
00000110: ffb6 fabb 69dd 53bd 1f85 05bd 28ce 50bd
00000120: 3dd4 04bd 8526 89bc 3f83 89bd 4aa1 83bc
00000130: e5e8 23bd 7c7b e63c ea69 ccbc 7af2 f43c
00000140: 22b5 0b3d b385 49bd 8754 6f3d 16db b7bd
00000150: 60e8 663c 4cba b8bd ca1d 57bc 3614 20be
00000160: 4856 ab3d 32b8 28bd 9494 803d deae 063d
00000170: e8c8 4cbd 4c5d bc3d d47c a13d f59b 7f3c
00000180: c75f babd 6b53 ff3d 349a c53d be71 cfbc
00000190: 2a4f c13c 207c 0e3d 9ad8 943c 71e2 27bb
000001a0: 801a 42bd 6f05 bf3d 3683 fc3c 34f7 ccbd
000001b0: c78c b0bd d1e0 1dbd 4812 b3bc 3cfa 1b3d
000001c0: 814a a2bd 54fc 8a3d 7ba4 c03d d658 2dbd
000001d0: 51e7 b3bd 56a0 e33d c5f3 54bd 4bf8 34bd
000001e0: 846b a93d aba5 533d 258f b4bd 8453 653c
000001f0: d5b6 febd b931 8b3d b647 db3c 3e6e 0cbd
-0.066535845 -0.07856541 0.07724119 -0.092689216 0.039833356 -0.005413895 0.013075523 -0.0544089
-0.07371473 -0.10032256 0.006198446 -0.072399035 -0.042307578 0.05141276 -0.09682789 -0.14710252
-0.07346057 0.017885303 -0.041359294 0.03180604 -0.122225314 0.0016704953 0.010321634 0.013139706
-0.06957729 -0.06970558 0.01663803 -0.08300398 -0.079289086 -0.045750488 -0.06747911 -0.049279913
-0.027781824 -0.07900898 -0.016838724 -0.111622795 0.06012271 -0.058446538 -0.027051428 0.09034707
-0.15970139 0.0014519236 -0.037743717 0.11459887 0.031197635 -0.094260395 -0.018733555 -0.074889466
0.13986593 0.045309823 -0.060141824 -0.100618646 -0.0067051733 -0.02481766 0.07412784 -0.0030490372
-0.01270145 -0.029871069 -0.0068229553 -0.07464394 -0.10909231 -0.02791281 -0.06607981 -0.04480193
-0.028190982 0.107333496 0.0013902048 0.07745249 -0.0076512094 -0.051724825 -0.032597657 -0.050977856
-0.03242897 -0.016742 -0.06714486 -0.01606812 -0.040017027 0.028135054 -0.024952848 0.029900778
0.03410829 -0.04919977 0.05843022 -0.08977334 0.014093488 -0.09019908 -0.013129661 -0.1563271
0.08366066 -0.041191287 0.06278339 0.03288161 -0.049996287 0.091974825 0.07885137 0.015601148
-0.09100299 0.124670826 0.096485525 -0.025322791 0.023597319 0.034786344 0.01816969 -0.0025617147
-0.047388554 0.09327208 0.030824285 -0.10008088 -0.08620601 -0.03854448 -0.021859303 0.03808044
-0.07924367 0.06786409 0.09406372 -0.04232105 -0.087843545 0.11114566 -0.05199029 -0.044182103
0.0827246 0.051671665 -0.08816365 0.013996962 -0.12437216 0.06796593 0.026767593 -0.034284823

action_model._continuous_distribution.log_sigma f4 [1, 2]
00000000: eca9 fdbe de70 d3be
-0.49543703 -0.41297048

action_model._continuous_distribution.mu.weight f4 [2, 128]
00000000: 264a e83b a956 963c 8e0d af3d 01b4 6c3b
00000010: 9c53 2dbd 8640 28bd d4f0 dd3c 488c 57bc
00000020: f5e6 ffbc adc4 ca3d 142b 0fbd 1d15 9e3d
00000030: 114e bb3c d743 22bd 7693 e2bb 16ef 863b
00000040: 2167 ec3b 7656 31bc 774d 0e3d 2ecd 43bd
00000050: b32f f63d f694 8cbc 2c2d 343d c7b1 5f3d
00000060: 35e7 f23c 781e 543c 8940 8b3d 592e a1bc
00000070: 2dae 973c 6ad5 5c3d b961 e53c ecb9 393d
00000080: 3ee0 c5bc acae 18bd 3e18 263d eef7 123d
00000090: 4e1f 9e3d daea dfbc 0f3c b33c 32d6 19bd
000000a0: ccdf 333d 6818 773d 780c c03d b748 30bd
000000b0: 9200 f83d a859 1cbd bd60 8f3d 831d 433b
000000c0: 680f 853c ba33 01bd 3657 e1bb 7e8b 013e
000000d0: de7f 18bc b2fd 6b3d a9c1 b73d 6755 7c3d
000000e0: 76c6 99bc fc1c a93d 7f4f 1a3d ccbb 913d
000000f0: 3667 38ba 4244 993b b93c 3e3b dc7f 3dbd
00000100: 475b 733c c672 a5bd 3026 ccbc ea2e b13d
00000110: 3426 533d 7e4a 3bbd e399 a8bd 4cca a83c
00000120: a1e2 b53a 54a8 1dbb 9447 783d ca38 e1bc
00000130: b2e0 613d 151f 3dbd cc16 303d 3ae9 6ebd
00000140: b1e6 7f3c fee5 103d 76d7 a13d fbd5 dbbb
00000150: 4e43 9d3d 8acb 113b 8b43 fc3c 6aa9 443c
00000160: 0caf 36bd 409e a9bd 4ba8 7fbc 81d8 81bd
00000170: 8d5b d13c b020 91bd 19d8 c73d 9eb7 853b
00000180: ce24 47bd 8816 a3bd c84e f0bd 6153 8a3d
00000190: 25c5 0b3d 0f2d 823d 7c0f 5a3d d417 2d3d
000001a0: 492b 3cbb bd01 dd3c 2fbc 16bd e845 fa3c
000001b0: 44e1 8ebb 292f f2bc 1001 303d 5e21 f9bc
000001c0: 473c b53d b188 69bc 5e0b 45bd 5aec 2ebc
000001d0: 7e66 2bbd 4e91 d2bd 0877 91bd 51ae f83c
000001e0: ee23 943d a961 a53d 33d9 cc3c 7258 093a
000001f0: 7224 8a3c 5066 0bbe 7c04 9cbc 289d 6f3d
00000200: 66be 5fbd 4b00 c7bd b627 b03c 4ded 93bd
00000210: 803a e9bd 4023 9ebc 6bdf 093d a058 e7bc
00000220: 5c06 12bd 95e6 06be 3052 9abd 68f9 243c
00000230: 7d4b 1f3d 058d edbd 2f1f 07bb 77c7 09bc
00000240: e294 e0bd a41d aa3d 7bbc 67bd 18cc 74bd
00000250: d28e 0fbe 1b99 7cbd 2fbb bbbd 097d a23c
00000260: a142 febd 3a2f a6bd 70a9 4cbd 3edc 0bbe
00000270: 6ed8 98bd 7aa9 f8bd 3eba 7a3c 1635 483c
00000280: 48ba 83bd 95fc 0dbd 61e6 023d 4d14 2f3a
00000290: 5b85 dbbd ee1e 76bd 33cc 28bd 774c 563d
000002a0: 1fa6 3fbd 4a37 debd fac3 ddbd 25df 3f3d
000002b0: 833e 1e3b 7821 b8bd b9b1 0dbd 066b ebbd
000002c0: fbbd 983d 5ec0 e83c e32e 5ebc 46c4 b2bd
000002d0: 8aee afbd 18ad 063d d83a 6b3d 533a 1ebc
000002e0: 5aee a7bd 8e50 1d3d bc84 40bd e92c ebbd
000002f0: da1d 79bd 4743 84bd cf5b 4bbd 4a13 e7bd
00000300: c4fd 9fbd 0c5a 973c c64c fbbd 8469 4abd
00000310: d35f 18bc 35b1 b7bd 5a38 c5bc a544 cebd
00000320: ad97 e4bc 66fa 3cbd 5fd1 cbbb 2611 09bd
00000330: 7773 9ebc 26bc c9bd c86f 533c ccf8 d8bd
00000340: 0bac 9abc bc60 eebc 2b6d b23c d212 0ebe
00000350: fa89 9dbc 208a 17be 720e 9bbd 8c09 d7bb
00000360: 25e2 a53d c59e 79bd fa6a 05be f874 acbd
00000370: 9674 b4bb 9b14 eebb 1207 f83c be18 a7bd
00000380: 7ec7 c6bd cd41 133e c825 85bb 9adf 0d3d
00000390: 9a15 7f3d 9c4a 8cbd 7603 ef3c b45d 8b3c
000003a0: f8a2 e4bd 723f 0f3e e4de 80bd bb81 e9bc
000003b0: e551 9ebd 28d3 b1bd 38e1 84bc 9f54 34bd
000003c0: 3141 05be b7cb 4d3d 6c7b 003d 83c6 c5bd
000003d0: b1a6 78bd 418a 8a3d ca51 7bbd c617 19bd
000003e0: 0a05 ca3c 8e64 7ebd b815 74bd d840 5bbd
000003f0: a767 a1bb 3d50 b83c 6ac4 90bd 10da 213d
0.0070889173 0.01835187 0.08547507 0.0036118033 -0.042316064 -0.04107716 0.027092375 -0.013156004
-0.031238059 0.09900794 -0.034953192 0.07718871 0.022864373 -0.03961548 -0.0069145514 0.0041178567
0.0072144424 -0.010823837 0.034741845 -0.047803096 0.12020817 -0.017160874 0.04398839 0.0546129
0.029651264 0.012946717 0.067994185 -0.01967542 0.01851567 0.053914465 0.0280007 0.045343325
-0.024154779 -0.037275955 0.040550463 0.035880975 0.07720815 -0.027333666 0.021879224 -0.03755779
0.0439146 0.06032601 0.09377378 -0.043038096 0.12109484 -0.03817144 0.07000873 0.002977223
0.016242698 -0.03154347 -0.0068768514 0.12650868 -0.00930783 0.05761499 0.089724846 0.061604884
-0.018771391 0.082574815 0.03767347 0.071158975 -0.00070344226 0.0046773264 0.0029027893 -0.046264514
0.014853305 -0.08078532 -0.024920553 0.08651526 0.051550105 -0.04572534 -0.082324766 0.020604275
0.0013876745 -0.002405663 0.060615137 -0.0274929 0.055145927 -0.04617222 0.04299049 -0.05832789
0.015618966 0.035375588 0.07902424 -0.006708858 0.07678853 0.0022246563 0.030793926 0.012003282
-0.04460053 -0.08282137 -0.015604089 -0.06340123 0.02555635 -0.07086313 0.09758014 0.0040807268
-0.048619084 -0.07963282 -0.11733776 0.067541845 0.03412356 0.063562505 0.053237423 0.042259052
-0.0028712323 0.026978368 -0.03680056 0.030550912 -0.00436035 -0.029563503 0.042969763 -0.030411419
0.088493876 -0.014253781 -0.048106544 -0.010676468 -0.04184579 -0.10281621 -0.071027815 0.030356558
0.072334155 0.08075268 0.025005912 0.00052393146 0.016863082 -0.13613248 -0.019045107 0.058499485
-0.054624937 -0.09716853 0.02150331 -0.07222996 -0.11388111 -0.019303918 0.033660334 -0.028240502
-0.035650596 -0.13173898 -0.07535207 0.010069229 0.03889035 -0.11599163 -0.0020617952 -0.0084093725
-0.10965897 0.08306435 -0.056576233 -0.05976495 -0.14019325 -0.06166945 -0.09166562 0.019835012
-0.12415052 -0.081144765 -0.049966276 -0.13658234 -0.07463156 -0.121417 0.015303193 0.012219688
-0.06432015 -0.03466471 0.031957988 0.0006678745 -0.10718795 -0.06008809 -0.041210365 0.052319016
-0.046789285 -0.10850389 -0.10828395 0.046843667 0.0024146147 -0.08990759 -0.034593318 -0.114950225
0.07458111 0.02841204 -0.013560983 -0.087288424 -0.085904196 0.03287992 0.057429165 -0.00965746
-0.08199759 0.0384069 -0.047001585 -0.11483175 -0.060819484 -0.06458145 -0.049648102 -0.11282976
-0.07812074 0.018475555 -0.12270503 -0.049417034 -0.00930019 -0.089693464 -0.024074722 -0.10071687
-0.027904356 -0.046137236 -0.0062200273 -0.03346362 -0.019342167 -0.098503396 0.012905069 -0.10594329
-0.018880865 -0.02909886 0.021780571 -0.13874367 -0.019230831 -0.14798784 -0.075711146 -0.0065624174
0.08099774 -0.06094243 -0.1302909 -0.084207475 -0.005507062 -0.00726564 0.030276809 -0.08159016
-0.09706019 0.1438057 -0.0040633418 0.03463707 0.06227646 -0.06850168 0.029176455 0.017012455
-0.11163896 0.13989046 -0.06292513 -0.028504243 -0.07730464 -0.08682853 -0.016220674 -0.044026013
-0.1301315 0.050243106 0.031367704 -0.09657004 -0.060705844 0.06764651 -0.061357297 -0.037376188
0.024660606 -0.062107615 -0.059591025 -0.053528637 -0.0049256864 0.022499198 -0.07068713 0.0395146

action_model._continuous_distribution.mu.bias f4 [2]
00000000: afee 3dbd 0f0d ac3d
-0.046370205 0.08400928
