Goodminton/Assets/Scripts/TrainedNetworks/Badminton.onnx (onnx, 74586 bytes, 7 tensors)

network_body._body_endoder.seq_layers.0.weight f4 [128, 5]
0	0x3f151a79	0.5824352
1	0x3eb1fcf4	0.347633
2	0xbe529f94	-0.20568687
3	0x3d59df96	0.053191744
4	0x3d8f9772	0.07011308
5	0x3e00e853	0.12588625
6	0xbe7fe196	-0.24988398
7	0xbf2434a2	-0.6414281
8	0xbce93875	-0.028469304
9	0x3d919f1e	0.07110427
10	0xbda72f90	-0.08163369
11	0x3ef1df14	0.47240508
12	0x3e860da5	0.26182285
13	0x3ef349ee	0.4751734
14	0xbf4e32e8	-0.80546427
15	0x3eca8ce0	0.39560604
16	0xbe5f7232	-0.21820906
17	0x3f421f77	0.7582926
18	0x3eae5afe	0.34053797
19	0xbea94e00	-0.33067322
20	0x3f800ff3	1.0004867
21	0xbe28a0b3	-0.16467552
22	0xbdeb87e0	-0.115005255
23	0x3e9583be	0.29202074
24	0x3e6f5513	0.23372297
25	0xbefac542	-0.4897862
26	0xbf17b40d	-0.5925911
27	0xbe8d53a8	-0.27602887
28	0x3f8bbd09	1.0917064
29	0x3efe4241	0.49659923
30	0xbe4b4a9a	-0.19852677
31	0xbf07fc06	-0.5311893
32	0x3e5b9a2d	0.21445532
33	0xbf1c18ec	-0.6097553
34	0xbcf486c3	-0.029849416
35	0x3d843a8e	0.06456481
36	0xbe7c0ee0	-0.2461505
37	0xbe2d72c7	-0.16938315
38	0x3ef0edba	0.4705637
39	0xbe6bcf2c	-0.23028249
40	0xbf564967	-0.83705753
41	0x3f0ca5cf	0.54940504
42	0xbf65cab6	-0.8976244
43	0xbeaee1ed	-0.34156743
44	0xbf73f2a0	-0.9529209
45	0x3f285518	0.6575484
46	0x3f9e1c1b	1.2352327
47	0xbf2568d5	-0.64613086
48	0xbe461409	-0.1934358
49	0x3e9a3984	0.30122006
50	0xbf11472b	-0.5674922
51	0xbe987bed	-0.29782048
52	0xbeaf04c7	-0.34183332
53	0xbef27e68	-0.47362065
54	0xbe9fbb72	-0.31197697
55	0xbef90381	-0.48635486
56	0xbed02248	-0.40651155
57	0x3e4f6de8	0.2025677
58	0x3d9e303f	0.07724046
59	0x3ec3750a	0.3817523
60	0x3e9ffe37	0.31248638
61	0x3eef2c9c	0.46713722
62	0x3ef6923a	0.48158437
63	0xbd07cfb1	-0.033157054
64	0x3e91248c	0.28348196
65	0x3da3617a	0.079775766
66	0xbf4a7f8e	-0.79100883
67	0xbeaf3cf7	-0.342262
68	0x3ea51352	0.32241303
69	0xbf49c288	-0.78812456
70	0x3f49cb7f	0.78826135
71	0xbf4f3d03	-0.8095247
72	0x3e8fbe9d	0.28075114
73	0xbf0103cf	-0.50396436
74	0x3dd90d91	0.10598291
75	0xbdc438c5	-0.095811404
76	0xbe2f559b	-0.171225
77	0xbef9aa08	-0.48762536
78	0x3ebbd605	0.3668672
79	0xbe0be01f	-0.13659714
80	0xbf4e1b9c	-0.8051088
81	0x3e30808f	0.17236541
82	0xbd461c0c	-0.04836659
83	0x3ded3eae	0.11584221
84	0x3dd5f50b	0.10447129
85	0x3d9b62f8	0.07587236
86	0xbf034f45	-0.5129283
87	0x3e3617d2	0.17782524
88	0xbee17fd7	-0.44042847
89	0xbf3b8c31	-0.7326079
90	0xbf012479	-0.5044628
91	0xbf56939c	-0.83818984
92	0xbe925a9b	-0.2858475
93	0x3e32e9d6	0.17472014
94	0x3e5a6c00	0.21330261
95	0x3f0d6752	0.5523578
96	0x3ebe6ac9	0.37190846
97	0x3e9b0ac1	0.30281642
98	0xbd4966d4	-0.04917033
99	0xbe8ff320	-0.28115177
100	0xbeae3497	-0.34024498
101	0x3edfb9b9	0.43696383
102	0xbc386bb4	-0.011256147
103	0x3eca3289	0.3949168
104	0xbd08646a	-0.033298887
105	0xbec81a75	-0.39082685
106	0xbf49911f	-0.7873706
107	0x3cda0a65	0.026616285
108	0xbead02eb	-0.3379129
109	0xbead0b67	-0.33797762
110	0x3eae2103	0.3400956
111	0xbeb7e305	-0.3591539
112	0x3e27ef34	0.16399843
113	0x3e32e90e	0.17471716
114	0xbc9ac37f	-0.018892048
115	0xbf836f06	-1.0268257
116	0x3eb42392	0.35183388
117	0xbebab0cd	-0.36463013
118	0x3e0b3272	0.13593462
119	0x3f087df5	0.53317195
120	0x3efc9b70	0.4933734
121	0xbedab4c2	-0.42716032
122	0x3c960591	0.018313201
123	0x3f0d4c45	0.55194503
124	0xbeb88ecf	-0.36046454
125	0xbecaf4cd	-0.39639893
126	0x3ed728b4	0.42023242
127	0xbedbbedb	-0.4291905
128	0xbe18468a	-0.14870659
129	0x3c0fb53d	0.008771238
130	0x3cf1ad89	0.029501693
131	0x3f50297c	0.813133
132	0xbcc81d62	-0.024428073
133	0x3e0a78af	0.135226
134	0x3e93ed65	0.28892055
135	0xbdaa701d	-0.08322165
136	0x3e137672	0.14400652
137	0x3eefc7a4	0.46832
138	0x3e4f6946	0.20255002
139	0xbd2b6801	-0.041847233
140	0xbe92301b	-0.28552327
141	0x3eb3fd85	0.35154358
142	0x3d83331f	0.06406235
143	0x3e148a75	0.14505942
144	0xbd95fb88	-0.073233664
145	0x3f0144bf	0.50495523
146	0xbe1788d3	-0.14798288
147	0xbda56827	-0.08076506
148	0x3ec2e731	0.3806701
149	0x3f3b9255	0.7327016
150	0xbd277f09	-0.040892635
151	0x3d5c10e9	0.053727064
152	0x3f72d267	0.948523
153	0xbed6de21	-0.41966346
154	0xbf0aec8a	-0.5426718
155	0x3f55a1ed	0.83450204
156	0x3d403b85	0.046931762
157	0xbece43fd	-0.40286246
158	0x3e00ec31	0.125901
159	0x3ee01251	0.43763974
160	0x3e9e41ca	0.30909568
161	0xbe8f9edd	-0.2805089
162	0x3e7003eb	0.23438995
163	0x3e64dab2	0.2234905
164	0x3de1b440	0.11020708
165	0xbdfabe52	-0.12243332
166	0x3ea287ce	0.31744236
167	0xbe81b159	-0.25330618
168	0xbf506065	-0.81397086
169	0xbf3ef8e4	-0.74598527
170	0x3e8c601c	0.27417076
171	0xbec6f180	-0.38856125
172	0xbe4c96b3	-0.19979362
173	0xbecb815c	-0.3974713
174	0x3d98b5f0	0.07456577
175	0xbeb12a56	-0.34602612
176	0xbe00a7c6	-0.12564
177	0xbebb5de7	-0.3659508
178	0xbe9971be	-0.2996959
179	0xbe433bb3	-0.19065742
180	0xbf00bf2d	-0.5029171
181	0x3f348c74	0.70526814
182	0xbf637f23	-0.8886587
183	0xbdaab8c0	-0.083360195
184	0xbe7ca795	-0.24673302
185	0xbefe65b6	-0.49686974
186	0x3f68230f	0.90678495
187	0x3ee000bf	0.4375057
188	0x3df7bbf3	0.12096395
189	0xbec60581	-0.38676074
190	0xbf3029d3	-0.6881382
191	0xbe635ed0	-0.22204137
192	0xbf40d118	-0.7531905
193	0xbe098ca5	-0.13432558
194	0xbeff25f4	-0.49833643
195	0xbea77652	-0.3270746
196	0xbe86acb0	-0.26303625
197	0x3ce52c1d	0.027975136
198	0xbf63a9b0	-0.889308
199	0x3e94f6b5	0.29094473
200	0x3e8c6cd8	0.2742679
201	0xbddd1356	-0.10794704
202	0xbe3b0179	-0.1826228
203	0xbe093915	-0.13400681
204	0xbec30c21	-0.3809519
205	0xbed81891	-0.42206243
206	0x3eac6a9f	0.33675095
207	0x3e08b2bd	0.13349433
208	0x3f393185	0.72341186
209	0x3f2e9c47	0.6820721
210	0xbee8adaa	-0.45444995
211	0xbf1b102d	-0.6057156
212	0x3ee66b02	0.45003515
213	0x3de385d4	0.1110951
214	0xbda8306d	-0.082123615
215	0x3f7c99f5	0.9867242
216	0xbe79aa32	-0.2438133
217	0x3ed107df	0.40826318
218	0x3e81b820	0.2533579
219	0x3eef5fca	0.4675277
220	0x3f889691	1.0670949
221	0x3e4378fd	0.19089122
222	0xbe0d8b7b	-0.13822739
223	0x3f203947	0.625874
224	0x3e05a55f	0.13051365
225	0xbef1cab3	-0.4722496
226	0xbf0bfad1	-0.5467959
227	0x3dcdab17	0.100423984
228	0xbd77f590	-0.06053692
229	0xbf037372	-0.5134803
230	0xbe90c9bb	-0.28278908
231	0x3e9a28f8	0.30109382
232	0x3f125264	0.5715697
233	0xbe8bc005	-0.27294937
234	0x3e972e13	0.2952734
235	0x3e57bb6d	0.21067591
236	0xbe4d4060	-0.20044088
237	0x3e088f1c	0.13335842
238	0xbe0a0801	-0.13479616
239	0xbe54fdc6	-0.20799932
240	0xbeba67eb	-0.36407408
241	0x3de1cfea	0.110259846
242	0xbeae244a	-0.3401206
243	0x3edce76b	0.43145308
244	0xbebd3a87	-0.36958715
245	0xbefb477b	-0.49077973
246	0x3f25f123	0.6482107
247	0xbc9a81b3	-0.018860674
248	0xbddbdfd7	-0.107360534
249	0x3ed8c7f9	0.42340067
250	0xbeca0cf2	-0.39463
251	0x3d36e375	0.044650514
252	0x3e51b386	0.20478639
253	0x3c9a81b5	0.018860677
254	0xbf129f1d	-0.5727404
255	0x3e110f44	0.1416598

network_body._body_endoder.seq_layers.0.bias f4 [128]
0	0x3d834708	0.064100325
1	0xbd9aad06	-0.07552533
2	0xbe04e6b6	-0.12978634
3	0xbdad1025	-0.08450345
4	0x3e5e8d8f	0.21733688
5	0xbd0c9544	-0.03432204
6	0x3d191b29	0.037379418
7	0xbde70cb7	-0.11281722
8	0xbdc9bfd0	-0.098510385
9	0xbd837637	-0.06419032
10	0x3d0a5eb1	0.03378171
11	0x3d000f58	0.031264633
12	0x3d164505	0.036686916
13	0xbd518e2e	-0.051160984
14	0x3d8b2914	0.067949444
15	0x3d65a86a	0.056068815
16	0x3d3edea0	0.04659903
17	0xbd7895da	-0.060689785
18	0xbdc9089b	-0.098160945
19	0xbc83390e	-0.016018417
20	0xbba75d06	-0.005107525
21	0x3d0c79fb	0.034296017
22	0x3bb36f1d	0.005475892
23	0xbdc228d6	-0.09480445
24	0x3bd7e66a	0.006588747
25	0xbd4e5b43	-0.050380003
26	0xbd596245	-0.053072233
27	0xbdeb0765	-0.1147602
28	0xbda24112	-0.079225674
29	0xbe2430d4	-0.16034251
30	0xbc4dfad8	-0.012572013
31	0x3e232030	0.15930247
32	0x3cfaa543	0.030596381
33	0xbc8756fc	-0.01652097
34	0x3de2cfc3	0.11074784
35	0xbd17cdcd	-0.0370615
36	0x3d61c90b	0.05512337
37	0xbd94ed05	-0.072717704
38	0xbcd283a7	-0.025697542
39	0x3bd5da89	0.0065262956
40	0xbd6a1492	-0.057148524
41	0xbda2c573	-0.07947817
42	0x3cd866f4	0.02641628
43	0x3bf2d7a9	0.0074109626
44	0x3dba64df	0.09101271
45	0xbe1c7fee	-0.15283176
46	0x3d024d9c	0.031812295
47	0xbd62abba	-0.055339552
48	0xbd325322	-0.043536313
49	0xbd7488b5	-0.059700686
50	0xbb02440c	-0.0019876985
51	0x3cfcb2cc	0.030846976
52	0xbcd121d2	-0.025528822
53	0xbe1504a4	-0.14552552
54	0xbc05d558	-0.008168541
55	0xbcf18b81	-0.029485466
56	0xbdb19a53	-0.08672013
57	0xbdae91d8	-0.08523911
58	0xbe3254ae	-0.17415115
59	0x3d258004	0.04040529
60	0xbd81ba8d	-0.0633441
61	0xbd1387f6	-0.036018334
62	0xbd6b1219	-0.057390306
63	0x3aebe12e	0.0017996186
64	0xbdaaf37f	-0.083472244
65	0x3db2979b	0.08720323
66	0x3cbaeecc	0.022818945
67	0x3b55a6a1	0.003260054
68	0xbd485670	-0.04891056
69	0xbc73ca94	-0.014879841
70	0x3c4aa28c	0.012367856
71	0xbd03f942	-0.032220133
72	0xbde48634	-0.1115841
73	0xbd19ec36	-0.037578784
74	0x3e20031a	0.15626183
75	0xbdf6e21b	-0.12054845
76	0xbdadc7d3	-0.08485379
77	0x3d984733	0.07435455
78	0x3dbae583	0.09125807
79	0x3d9c1065	0.076203145
80	0xbdd0387a	-0.10167022
81	0x3da5480a	0.08070381
82	0xbe197191	-0.14984728
83	0x3dbfe8e3	0.093705915
84	0xbd3f59a9	-0.046716366
85	0xbe20637c	-0.1566295
86	0x3cf7e379	0.030259835
87	0xbe1ddcba	-0.15416232
88	0xbe60b584	-0.21944243
89	0xbd519582	-0.051167972
90	0xbd82accf	-0.06380617
91	0xbcc7f7ce	-0.024410155
92	0x3d3284f8	0.04358384
93	0xbdf4356e	-0.119242534
94	0xbdf8f520	-0.12156129
95	0xbdb89319	-0.09012432
96	0xbd4850ad	-0.048905063
97	0xbe342443	-0.17591958
98	0x3c172f69	0.009227612
99	0x3d961109	0.07327468
100	0x3d20061e	0.039068334
101	0xbc7a1026	-0.015262639
102	0x3c7761b4	0.015098978
103	0xbc10ca4e	-0.008837296
104	0xbc83b1f3	-0.016076064
105	0xbe4d4c05	-0.2004853
106	0xbdf31d2d	-0.11870799
107	0xbcb34d4e	-0.021887448
108	0x3d195edb	0.037443977
109	0xbbc2ed2c	-0.0059486832
110	0xbcc08f3e	-0.023505803
111	0xbc67aeec	-0.014140826
112	0x3d20ab8a	0.039226092
113	0xbdaf66f6	-0.0856456
114	0xbd179ace	-0.037012868
115	0xbd1b773d	-0.03795551
116	0xbe118d1a	-0.14213982
117	0xbc20e84e	-0.009821011
118	0x3df08355	0.117437996
119	0xbd3de8aa	-0.046364464
120	0x3da6c7f6	0.08143608
121	0xbda30f91	-0.079619534
122	0x3c0e0c15	0.008669873
123	0xbd8df807	-0.06932073
124	0xbb035833	-0.0020041585
125	0xbdc14490	-0.094369054
126	0xbd18199c	-0.037133798
127	0x3d762477	0.06009337

network_body._body_endoder.seq_layers.2.weight f4 [128, 128]
0	0x3e0ae3fc	0.13563532
1	0xbe4102b0	-0.18848681
2	0xbd00b015	-0.031417925
3	0xb9835b9c	-0.0002505452
4	0xbe0dbe58	-0.13842142
5	0x3e0875dd	0.13326211
6	0x3da0172d	0.078169204
7	0xbdc02a93	-0.093831204
8	0x3cc2e950	0.023792893
9	0x3d8deb5a	0.069296554
10	0xbd1465f7	-0.036230054
11	0xbe0a0c6e	-0.13481304
12	0xbdd4c814	-0.103897244
13	0xbe002ca8	-0.12517035
14	0x3de89f26	0.1135848
15	0xbdfc46cb	-0.1231819
16	0xbd7383c6	-0.05945184
17	0x3d99df87	0.075133376
18	0x3e3dd85b	0.18539564
19	0x3d5c217c	0.05374287
20	0xbe090079	-0.13379087
21	0x3ceb9198	0.028755948
22	0xbe68e9b5	-0.22745402
23	0xbda1121f	-0.078647844
24	0xbe4f15b3	-0.20223121
25	0xbe2e319d	-0.17011113
26	0xbdc0742a	-0.093971565
27	0xbe689cfd	-0.22716136
28	0xbd8578f9	-0.06517214
29	0xbde8b844	-0.11363271
30	0x3d9b596e	0.07585417
31	0x3ddec28d	0.10876951
32	0xbe3ddf3b	-0.18542187
33	0x3e5a88b2	0.21341208
34	0x3e25766f	0.1615846
35	0xbe46cf30	-0.19414973
36	0xbe75a67a	-0.23989287
37	0x3d8695b6	0.06571524
38	0xbdec8500	-0.11548805
39	0xbc4ab086	-0.012371188
40	0x3dbb5c2f	0.09148442
41	0xbd1ecbf9	-0.038768742
42	0x3cb01d54	0.02149836
43	0xbe45c72e	-0.19314262
44	0xbd1d8ed1	-0.03846628
45	0xbdd49751	-0.10380424
46	0x3cb36d47	0.021902693
47	0xbcc8dad8	-0.024518415
48	0xbda5d6c1	-0.08097602
49	0x3ddd95f5	0.10819618
50	0xbdb5d4c1	-0.0887847
51	0xbe6b1509	-0.22957243
52	0xbe023e4f	-0.12719081
53	0xbddd64b6	-0.10810225
54	0x3c58cf77	0.013233057
55	0x3d919e13	0.071102284
56	0xbd2619d2	-0.040551968
57	0x3d6db770	0.058036268
58	0xbd81b79d	-0.063338496
59	0x3de350f0	0.11099422
60	0xbcdd6d36	-0.027029615
61	0xbd263955	-0.04058202
62	0xbc68d35f	-0.014210551
63	0xbdd36873	-0.103226565
64	0xbe2e9355	-0.1704839
65	0xbc8afbde	-0.016965803
66	0xbdf7e133	-0.121035
67	0x3e81b5dc	0.2533406
68	0xbe1ecd23	-0.15507941
69	0xbe47e6ef	-0.19521688
70	0xbe6698b1	-0.22519185
71	0x3d4aa7e0	0.049476504
72	0xbcf92db1	-0.030417295
73	0xbe1f1638	-0.1553582
74	0x3e791e77	0.24328028
75	0xbd037bbc	-0.032100424
76	0x3c9d7b0c	0.019223712
77	0xbd3f4671	-0.046698038
78	0xbe56b7c6	-0.20968542
79	0xbde800e5	-0.113282956
80	0x3d39e769	0.045386706
81	0x3d954089	0.072877
82	0xbe03d447	-0.12873946
83	0xbe08ba9b	-0.13352434
84	0x3e0286d5	0.12746747
85	0x3e03cd12	0.12871197
86	0xbd405769	-0.04695836
87	0xbe3c8c3a	-0.18412867
88	0xbd13cb51	-0.03608257
89	0x3ded1e4d	0.11578045
90	0x3c5e6e38	0.013576083
91	0xbcb0c054	-0.021576084
92	0xbbe9f7c2	-0.0071401307
93	0x3d0d6792	0.0345226
94	0xbe55194b	-0.2081043
95	0xbd927b21	-0.07152391
96	0x3dbd7601	0.09251023
97	0xbdc6c109	-0.09704787
98	0xbe193ee5	-0.14965399
99	0x3dda2c42	0.10652973
100	0xbda6a2d3	-0.08136525
101	0xbcd2187f	-0.025646446
102	0xbcbae953	-0.022816336
103	0xbdbd0d9f	-0.09231114
104	0xbd07481a	-0.033027746
105	0xbe67ac76	-0.22624382
106	0xbbbb9afa	-0.0057252618
107	0x3da060a1	0.078309305
108	0x3e03f47b	0.1288623
109	0xbd8bc28a	-0.06824215
110	0x3d261819	0.040550325
111	0xbdfacf21	-0.12246538
112	0xbd9118a2	-0.070847765
113	0x3ddea6dc	0.1087167
114	0xbd1ac7d8	-0.037788242
115	0x3c3e488a	0.011613974
116	0xbd81ea1c	-0.06343481
117	0xbe39e559	-0.18153895
118	0xbd356c94	-0.044293
119	0xbb9826e9	-0.0046433103
120	0x3d608880	0.054817677
121	0xbc5c430b	-0.013443719
122	0xbd79bcc7	-0.060971048
123	0xbe1d9175	-0.15387519
124	0xbe0aeda3	-0.13567214
125	0xbe0f78ae	-0.1401088
126	0xbd89a7b1	-0.06721438
127	0xbd35500d	-0.044265795
128	0xbc7b97a7	-0.015355981
129	0x3d0029b1	0.03128976
130	0xbd2c5a73	-0.042078447
131	0xbdd43f87	-0.103636794
132	0xbb3cf059	-0.0028829782
133	0x3e33d5ab	0.17561977
134	0xbe2496c6	-0.1607314
135	0xbe3fa9fa	-0.18717185
136	0x3d3da9f9	0.046304677
137	0xbda55c01	-0.08074189
138	0xbe869da0	-0.26292133
139	0x3a56f347	0.00081997033
140	0xbb932b7b	-0.0044912673
141	0xbe25f52c	-0.16206807
142	0xbd7365ce	-0.05942326
143	0xbe710032	-0.23535231
144	0xbde1267c	-0.109936684
145	0x3d4b0020	0.049560666
146	0x3c0b9eb3	0.008521724
147	0xbe2d3ea4	-0.16918427
148	0xbd5c4af4	-0.05378242
149	0xbd9676de	-0.07346891
150	0xbdcce7f8	-0.10005182
151	0x3dbc1159	0.09182996
152	0xbe326201	-0.17420198
153	0xbd069c2a	-0.032863773
154	0xbdd6468a	-0.10462673
155	0xbe2920d8	-0.16516435
156	0xbe0c3670	-0.13692641
157	0xbe0b1ba2	-0.1358476
158	0xbd628d8a	-0.055310763
159	0xbd8361d1	-0.064151414
160	0xbe15c58f	-0.14626144
161	0xbdf3aac2	-0.11897804
162	0x3cd3abd5	0.025838772
163	0x3d90eb0d	0.070760824
164	0x3d7fbb77	0.06243464
165	0xbd845b86	-0.06462769
166	0xbcf7a9f8	-0.030232415
167	0xbd470769	-0.04859105
168	0x3e060055	0.13086064
169	0xbe1cd1b0	-0.15314364
170	0xbe374c83	-0.1790028
171	0xbd74b1d2	-0.059739895
172	0x3d9e03dd	0.077155806
173	0xbe317f10	-0.17333627
174	0xbddf8198	-0.1091339
175	0xbd507bfb	-0.050899487
176	0xbd0d4954	-0.03449376
177	0xbd5ec607	-0.054388072
178	0xbbd0f7b1	-0.0063771834
179	0xbddbca91	-0.10731996
180	0xbe4c2d27	-0.19939099
181	0xbd0c4d97	-0.034253683
182	0xbde289f4	-0.11061469
183	0xbdaf5f76	-0.085631296
184	0xbd5a9708	-0.05336669
185	0xbe3347d2	-0.17507866
186	0x3de51c26	0.111870095
187	0xbe859d19	-0.26096418
188	0x3cc94650	0.02456966
189	0x3ccc3a98	0.024930283
190	0xbde13327	-0.10996085
191	0xbd8e2d52	-0.06942238
192	0xbe3181a5	-0.17334612
193	0xbe0bf670	-0.13668227
194	0xbdbd9355	-0.09256617
195	0xbd53f4c9	-0.051747117
196	0xbd285643	-0.04109789
197	0xbcc6b574	-0.024256445
198	0x3d8df5e9	0.06931669
199	0x3d9d5f04	0.076841384
200	0x3adce3e7	0.0016852588
201	0xbd77ee20	-0.060529828
202	0xbcb3cd1a	-0.021948386
203	0xbdf4235c	-0.11920807
204	0x3d2aada5	0.041669507
205	0xbd1cfb8c	-0.03832583
206	0xbe160d47	-0.14653502
207	0xbdc066e4	-0.09394625
208	0xbd4fdb2b	-0.050746124
209	0xbe3d72da	-0.18500844
210	0xbe29a9e8	-0.1656872
211	0x3c3ad2aa	0.011402765
212	0x3df8f936	0.12156908
213	0xbae73e54	-0.0017642477
214	0xbe7dba1c	-0.24778026
215	0xbde8e846	-0.11372428
216	0x3ce832e9	0.028344588
217	0xbd4a56c0	-0.049399137
218	0xbc55a8c6	-0.013040727
219	0xbe4126ac	-0.18862408
220	0xbcf87165	-0.030327508
221	0xbcd7c2f1	-0.026338072
222	0xbcc72fc2	-0.024314765
223	0xbddd9812	-0.10820021
224	0xbda5c309	-0.08093841
225	0xbe1f76dc	-0.15572685
226	0xbdd95102	-0.10611154
227	0xbd0e29c4	-0.0347078
228	0x3deefe7d	0.116696335
229	0xbcf4465e	-0.02981871
230	0xbd54ae00	-0.05192375
231	0xbde11ecb	-0.109922014
232	0xbd1e67b4	-0.038673118
233	0x3d372947	0.0447171
234	0xbca60f6b	-0.020271024
235	0xbb827e54	-0.0039823446
236	0xbe5f6877	-0.21817194
237	0x3c838ca1	0.016058268
238	0xbeb24101	-0.3481522
239	0xbe291bf9	-0.16514577
240	0x3db5238a	0.08844669
241	0xbd92b323	-0.07163074
242	0x3d45e8f5	0.04831787
243	0xbda51c7d	-0.08062074
244	0xbd9cc02a	-0.0765384
245	0x3e040d1c	0.12895626
246	0x3e00d36f	0.12580656
247	0xbdc2b878	-0.09507841
248	0xbdf7a9bc	-0.12092921
249	0xbde65378	-0.11246389
250	0xbdb0b805	-0.08628849
251	0xbe1dce1a	-0.15410653
252	0xbad0c452	-0.0015927649
253	0xbc2b7f7c	-0.010467406
254	0x3d9b389b	0.07579156
255	0xbbb431a5	-0.005499082

network_body._body_endoder.seq_layers.2.bias f4 [128]
0	0x3d13fbc9	0.036128793
1	0x3b49e6c2	0.0030807708
2	0xbd8edc2e	-0.0697559
3	0x3e00fcfd	0.12596507
4	0x3de2ef99	0.11080856
5	0xbde0f917	-0.1098501
6	0xbdef0a80	-0.116719246
7	0xbccb74dc	-0.024835996
8	0xbc1949b4	-0.009355951
9	0xbd914181	-0.07092572
10	0x3ca702bb	0.020387044
11	0x3d004b7a	0.03132198
12	0xbdede3d8	-0.11615723
13	0xbbe03fb0	-0.0068435296
14	0xbce05167	-0.027382566
15	0xbdbd6252	-0.09247269
16	0x3e0061b2	0.12537268
17	0x3d94f500	0.072732925
18	0xbd4140f7	-0.047181096
19	0x3d84c6e7	0.0648325
20	0xbcedf391	-0.029046806
21	0xbd1ef53f	-0.038808104
22	0x3b0bdc58	0.0021341052
23	0x3cbd6055	0.023117224
24	0xbd1a6bd5	-0.037700493
25	0xbe0e2c31	-0.13884045
26	0xbdb96b3c	-0.090536565
27	0xbc70a25d	-0.014687148
28	0xbd04f9a5	-0.032464642
29	0xbde7cba2	-0.11318137
30	0x3ce1e7f0	0.027576417
31	0xbdb877a1	-0.090071924
32	0xbd91568e	-0.07096587
33	0x3e25a583	0.16176419
34	0xbc781c0c	-0.015143406
35	0x3cd61010	0.026130706
36	0xbd46f7fa	-0.048576333
37	0xbd76ceec	-0.06025593
38	0x3d2c8629	0.042120133
39	0xbe163478	-0.14668453
40	0xbc3bdc18	-0.011466049
41	0xbcfefd72	-0.031126712
42	0xbd1e889a	-0.038704492
43	0xbcb74523	-0.022371834
44	0x3d1ae406	0.037815116
45	0xbdd7fad0	-0.105458856
46	0xbd3784f5	-0.044804532
47	0xbdaf2d16	-0.08553521
48	0xbcfd587b	-0.03092598
49	0x3e2e3c8b	0.17015283
50	0xbc1372d9	-0.00899955
51	0xbd874ac7	-0.066060595
52	0xbd83d017	-0.06436174
53	0x3c4b3993	0.0124038635
54	0xbc88f12a	-0.016716558
55	0xbad3432a	-0.0016118039
56	0xbd89fe54	-0.06737962
57	0xbd3c38d4	-0.045952633
58	0xbdf5582e	-0.119797096
59	0xbdba9294	-0.09109989
60	0xbbc1e0c4	-0.0059166867
61	0xbda39303	-0.07987025
62	0xbc3c437a	-0.011490697
63	0x3c28098b	0.0102561815
64	0xbcb7df49	-0.022445338
65	0x3c318260	0.0108343065
66	0xbb671a2b	-0.00352634
67	0x3df17e8c	0.11791715
68	0xbdb5b740	-0.08872843
69	0x3ddfe771	0.10932816
70	0xbd77d408	-0.060504943
71	0xbd7802da	-0.060549594
72	0x3e041840	0.12899876
73	0x3d3b6720	0.045752645
74	0xbd9cbf96	-0.076537296
75	0x3dd8c805	0.10585026
76	0xbcc4ff0c	-0.024047397
77	0xbd93c591	-0.07215417
78	0x3deecc7b	0.11660095
79	0xbdad0450	-0.08448088
80	0xbcb1d86a	-0.02170964
81	0x3d53ba85	0.05169155
82	0xbddc5e76	-0.107602045
83	0xbd0ba7e7	-0.03409567
84	0x3e117371	0.14204194
85	0xbda4544c	-0.08023891
86	0xbdcca83c	-0.09993026
87	0xbd17d7a9	-0.037070904
88	0xbd3873c8	-0.045032293
89	0x3d6bd0f6	0.057572328
90	0xbd8315e7	-0.06400662
91	0xbe010f9b	-0.1260361
92	0xbda6e011	-0.08148206
93	0xbc10684c	-0.008813929
94	0xbdb70afb	-0.08937641
95	0xbc997369	-0.01873179
96	0xbd95f145	-0.07321409
97	0xbcda7b40	-0.026670098
98	0xbd237ef5	-0.039915998
99	0x3d2363a7	0.039889958
100	0x3b25053a	0.0025180117
101	0x3b9d5f55	0.004802624
102	0x3c99c900	0.018772602
103	0xbdb84d08	-0.089990675
104	0xbd44938c	-0.047992274
105	0xbdc50139	-0.09619374
106	0x3cc65d4c	0.02421441
107	0xbdcb6fa8	-0.09933406
108	0xbda3312e	-0.07968365
109	0x3c2fff19	0.010741972
110	0xbe0cb57a	-0.13741103
111	0x3d462487	0.04837468
112	0xbc9c429b	-0.019074729
113	0x3e12115a	0.14264432
114	0x3df06d63	0.11739614
115	0x3c065aa2	0.0082003195
116	0xbdd57568	-0.10422784
117	0xbd08345d	-0.033253063
118	0xbdb0ab34	-0.086264044
119	0xbdfbbefc	-0.12292287
120	0xbd134f8c	-0.035964534
121	0x3e18ffba	0.14941302
122	0x3de58f00	0.11208916
123	0xbe2274a1	-0.15864803
124	0x3c848883	0.016178375
125	0xbd6ae27e	-0.057344906
126	0x3aca138a	0.00154172
127	0x3c45e17c	0.012077685

action_model._continuous_distribution.log_sigma f4 [1, 2]
0	0xbf19fd9e	-0.60152614
1	0xbf21defe	-0.63230884

action_model._continuous_distribution.mu.weight f4 [2, 128]
0	0x3d94bc47	0.072624736
1	0xbafed5d5	-0.0019442389
2	0xbdb25615	-0.08707825
3	0x3c7738ca	0.015089223
4	0x3dc85258	0.09781331
5	0xbd8f916a	-0.070101574
6	0x3b9f7934	0.0048667435
7	0x3d2aa4bd	0.041661013
8	0x3d6aa54d	0.05728655
9	0xbd69241c	-0.056919202
10	0xba265819	-0.0006345525
11	0x3da22098	0.07916373
12	0xbbbf8567	-0.00584476
13	0xbd26f174	-0.04075761
14	0xbc8f9d59	-0.017531084
15	0x3d14d2b9	0.036333773
16	0x3e0e5b87	0.13902102
17	0x3d84c266	0.06482391
18	0x3d687885	0.05675556
19	0x3def4036	0.11682169
20	0x3d1ae6ef	0.03781789
21	0x3d1f841b	0.038944345
22	0x3d600807	0.054695155
23	0x3dabf35c	0.083960265
24	0xbd1a439b	-0.03766213
25	0xba0d696b	-0.00053944316
26	0xbbb82b67	-0.0056204083
27	0x3df2167a	0.11820693
28	0xbd7937e7	-0.06084433
29	0x3c771427	0.015080488
30	0x3d0d5775	0.034507234
31	0x3c14ec6c	0.0090895705
32	0xbd102fbd	-0.035201777
33	0x3cdfd051	0.027321013
34	0x3d78be6f	0.060728487
35	0xbd90203e	-0.070374
36	0xbc093419	-0.008374237
37	0x3d654a86	0.055979274
38	0xbd210134	-0.039307788
39	0x3b9364fe	0.004498123
40	0xbddde4bb	-0.108346425
41	0xbd6cc85c	-0.057808265
42	0xbc0acdbb	-0.0084719015
43	0xbc3d6bc0	-0.011561334
44	0xbc19d7f1	-0.009389863
45	0x3d2a4e6c	0.041578695
46	0x3dc0e7e7	0.09419232
47	0x3c81152a	0.015757162
48	0xbdc5a4c1	-0.09650565
49	0xbc4f5de1	-0.01265666
50	0xba53e648	-0.0008083326
51	0xbdca4ab2	-0.09877528
52	0xbda2b98e	-0.07945548
53	0xba979811	-0.0011565705
54	0xbd887f8a	-0.06664951
55	0xbdbfe653	-0.09370103
56	0x3cdadbad	0.026716078
57	0x3d914b64	0.07094458
58	0xb974a84c	-0.00023332349
59	0xbce8a622	-0.02839953
60	0xbd6f0f0d	-0.058363963
61	0xbd3ed563	-0.04659022
62	0x3dbad4db	0.0912263
63	0x3dc1e253	0.09466996
64	0x3d2178fc	0.03942202
65	0x3d54c51b	0.051945787
66	0x3da7b994	0.08189693
67	0xbd42c5e2	-0.047551997
68	0xbbb01b72	-0.0053743655
69	0xbcafc6c2	-0.02145708
70	0x3d2914b0	0.041279495
71	0x3d3f0284	0.04663326
72	0x3d3092fb	0.04310892
73	0xbb0e10cd	-0.0021677495
74	0x3d05e418	0.03268823
75	0xbda6446a	-0.08118518
76	0x3dcb612b	0.09930643
77	0x3d8c35e6	0.06846218
78	0x3cefec76	0.029287558
79	0xb8d66e43	-0.00010224853
80	0xbc9f349c	-0.019434266
81	0xbcd3ed7f	-0.025870083
82	0xbdfa7a70	-0.12230384
83	0x3bd95e27	0.0066335383
84	0x3dab2c64	0.08358076
85	0x3c11d5bd	0.008901057
86	0xbd5e1eab	-0.054228466
87	0xbd81a839	-0.06330914
88	0x3e157866	0.1459671
89	0x3e0e8a92	0.13920048
90	0x3b11245c	0.0022146916
91	0xbc3bcde0	-0.011462659
92	0x3ba5e3f5	0.005062575
93	0x3dba80e6	0.09106617
94	0xbc897f35	-0.01678429
95	0xbcd164b6	-0.025560718
96	0x3cfc77b7	0.030818803
97	0x3c46a9f5	0.012125482
98	0x3d7a5837	0.061119284
99	0x3dcfcc92	0.101464406
100	0x3d1b9a89	0.037989173
101	0x3dcfd75f	0.10148501
102	0x3d96c646	0.073620364
103	0x3d3dda39	0.04635069
104	0xbd80e154	-0.06292978
105	0x3d0ce102	0.03439427
106	0x3cfef0e1	0.03112072
107	0xbdbb7db5	-0.09154836
108	0x3be67b11	0.0070337136
109	0xbd4d46f9	-0.050116513
110	0xbd15163d	-0.03639816
111	0x39cccd12	0.000390627
112	0x3d576e3e	0.05259537
113	0x3da90585	0.08253006
114	0x3e07bdd6	0.1325601
115	0x3c860280	0.016358614
116	0xbd1a6515	-0.037694056
117	0x3d77152d	0.06032293
118	0xbc851dfc	-0.01624965
119	0x3c9691cd	0.01838007
120	0x3d8f4960	0.06996417
121	0x3dc63311	0.09677709
122	0xbdf6c9a0	-0.12050176
123	0xbd1df5f2	-0.03856463
124	0x3da4d15e	0.08047746
125	0x3ce133b5	0.027490476
126	0xbcf447f3	-0.029819464
127	0x3d6627a9	0.056190167
128	0xbb0da9c7	-0.0021616088
129	0xbebed4b0	-0.37271643
130	0xbe13ccb0	-0.14433551
131	0x3d46af2b	0.048506897
132	0x3c942356	0.018083256
133	0xbde94df1	-0.11391819
134	0xbd403bb3	-0.046931934
135	0xbc8febdc	-0.017568521
136	0xbaf64b44	-0.0018790741
137	0xbdd6d08b	-0.10488995
138	0x3cf8c52e	0.03036746
139	0xbd83d9e0	-0.06438041
140	0xbd01f4ca	-0.03172759
141	0x3cef50b0	0.02921328
142	0xbdcc9212	-0.09988798
143	0xbd8b9cc3	-0.06817009
144	0xbb5112f6	-0.003190217
145	0x3d0ced3b	0.034405928
146	0xbcdd132c	-0.02698668
147	0xbd8b140f	-0.06790935
148	0x3c43a451	0.011941032
149	0xbd7edba3	-0.06222118
150	0xbea9012d	-0.3300871
151	0x3b084efa	0.0020799027
152	0xbe09abe9	-0.13444485
153	0xbd8a3ca2	-0.06749846
154	0xbc65b7e1	-0.014020891
155	0xbe90b0b7	-0.28259823
156	0xbe46f87f	-0.19430731
157	0xbc83ba2a	-0.01607998
158	0xbbf5ab14	-0.0074972007
159	0xbca178d0	-0.019710928
160	0xbdd3308c	-0.10311994
161	0x3d8605a0	0.06544042
162	0xbd5653ad	-0.052325893
163	0x3cc5079f	0.024051486
164	0xbdb1a03f	-0.08673143
165	0xbce94a3e	-0.028477784
166	0x3bf1fa7f	0.007384598
167	0xbb4a2d8c	-0.0030849902
168	0xbe881cd6	-0.265845
169	0xbdb2c3ec	-0.087287754
170	0xbdc28797	-0.09498518
171	0xbe2b312a	-0.16717973
172	0x3d08570e	0.033286147
173	0xbcf26a87	-0.029591812
174	0xbd7599eb	-0.05996124
175	0xbd81dd89	-0.063410826
176	0xbe3c9507	-0.18416224
177	0x3db853da	0.090003684
178	0xbd39056e	-0.045171194
179	0xbd903d1a	-0.07042904
180	0xbcd00515	-0.025393048
181	0x3c2f233a	0.010689551
182	0xbc3c3939	-0.011488252
183	0xbe044e49	-0.12920488
184	0xbb1f6020	-0.002431877
185	0xbd0b18f7	-0.033959355
186	0xbc073386	-0.00825203
187	0xbcb0a3e0	-0.021562517
188	0xbc818d06	-0.015814316
189	0x3c8e0341	0.017335536
190	0xbd899cb3	-0.06719341
191	0xbd01c07b	-0.031677704
192	0xbdc9420e	-0.09827052
193	0xbe9bbb7e	-0.30416483
194	0xbd84d924	-0.06486729
195	0x3da063d5	0.078315414
196	0xbdf12a53	-0.11775651
197	0x3db7b1ad	0.08969436
198	0xbe3e394a	-0.18576542
199	0xbddecdb2	-0.10879077
200	0x3cab33e1	0.020898761
201	0x3d974428	0.07386047
202	0xbdad9cc5	-0.08477167
203	0x3d97be51	0.07409347
204	0xbe8ce17c	-0.2751578
205	0xbdfd533c	-0.12369391
206	0x3da0495d	0.07826493
207	0xbca9099a	-0.020634461
208	0xbe1eb131	-0.1549728
209	0x3d01b93f	0.031670805
210	0xbde87840	-0.11351061
211	0xbdc1a4ee	-0.09455286
212	0x3d89bb20	0.067251444
213	0x3bb17989	0.0054160994
214	0xbe0756d0	-0.1321671
215	0xbdd2af68	-0.10287362
216	0xbdab7cc2	-0.08373405
217	0x3d34a3a9	0.04410139
218	0xbe174309	-0.14771666
219	0xbcef3dc0	-0.02920425
220	0xbdae347e	-0.08506106
221	0xbd8c69f4	-0.068561465
222	0xbdb3e636	-0.087841436
223	0xbe39261d	-0.18080945
224	0xbd426267	-0.047457125
225	0xbce33bd5	-0.027738491
226	0xbdfea750	-0.12434256
227	0x3c80ffaf	0.01574692
228	0xbe4d8b60	-0.20072699
229	0xbda32714	-0.07966438
230	0xbd7f5a1f	-0.062341806
231	0xbcddd9b6	-0.027081352
232	0xbd86a276	-0.06573956
233	0xbd80c497	-0.062874965
234	0xbec8b3cf	-0.39199683
235	0xbe01f33b	-0.12690441
236	0xbd22e92e	-0.03977316
237	0xbe2e3c78	-0.17015254
238	0xbd19e5d5	-0.0375727
239	0x3d8085c6	0.06275515
240	0xbd02eecb	-0.031966012
241	0x3dcdd24f	0.10049879
242	0x3d38b06d	0.045090128
243	0x3994c87c	0.00028378132
244	0xbd953479	-0.07285399
245	0xbd437388	-0.0477176
246	0xbd7ec5b6	-0.06220027
247	0xbd8feba6	-0.07027368
248	0xbdb7ee0d	-0.089809515
249	0x3d5e3ce2	0.05425728
250	0x3ded5e17	0.11590212
251	0xbc893a6a	-0.016751487
252	0xbc1cadca	-0.009562919
253	0xbd9aec72	-0.075646296
254	0x3bf4ec96	0.0074744923
255	0x3cf6e96b	0.0301406

action_model._continuous_distribution.mu.bias f4 [2]
0	0x3bd000d3	0.0063477545
1	0x3e23e627	0.16005765
