Goodminton/Assets/results/Badminton/Badminton/Badminton-8000.pt (torch, 439033 bytes, 36 tensors)

network_body._body_endoder.seq_layers.0.weight f4 [128, 5]
0.16180946 0.02173457 0.1635061 -0.19740996 -0.13175274 -0.43261895 -0.98038346 0.46687308
0.4601935 -0.14044352 0.4450999 -0.324718 -0.69537807 -0.38934463 0.53763354 -0.39194426
0.3169494 -0.5740263 -0.009977542 -0.29929167 -1.0111115 -0.123419665 0.26491004 -0.11107361
-0.17890796 0.12694843 -0.14476417 0.1535619 0.4574255 0.4529294 0.7318769 -0.73458743
-0.42092815 -0.6033548 0.17867127 0.34172904 0.2886074 -0.57372946 0.7166024 -0.5401394
0.20565334 -0.40913337 -0.23533973 -0.34299013 -0.39716476 0.49016353 0.17085214 0.052800667
1.0895522 0.5001504 0.072525434 -0.03811732 -0.042514104 -0.49204403 0.27694547 0.4699984
0.86744237 0.43039468 0.17099844 -0.45851886 0.5148868 1.433507 0.95024157 -0.7145537
0.2511212 0.95692825 -0.18475506 -0.15470755 0.10413329 -0.18582413 0.25077137 0.14329146
0.4616868 -0.044272494 0.11076863 -0.0236071 -0.10040644 -0.48831022 0.22088613 0.11173054
-0.11727502 0.09488115 0.20647986 -0.09961356 0.5964606 -0.64840126 -0.10285517 -0.24046259
-0.030828033 -0.21261483 0.016390743 -1.1380148 -0.7081597 -0.27091032 0.118616305 0.1553886
-0.25704843 -0.56131697 1.202978 0.6198248 0.032997575 0.08808252 0.19076724 -0.5931086
-0.19078296 0.3009966 -0.09567888 0.3051875 0.8259353 -0.057264138 -0.59386367 -0.24046274
0.45895496 0.11383942 0.07545216 -0.8432543 -0.25000346 0.09139242 -0.37636986 -0.27525723
0.24619897 -0.20456606 -0.24081197 -0.3474655 0.36590582 0.3564817 0.23496586 -0.3998255
0.4208872 -0.39564914 -0.8185981 0.66931415 -0.23468408 -0.15074256 0.010127851 0.18988752
-0.42721912 -0.309959 0.39180976 -0.09183759 0.046286173 0.7757995 0.011228031 0.5071379
-0.39463896 0.38164917 0.26019663 0.449136 0.07926622 -0.39004982 0.34491298 -0.079986416
-0.05612979 0.58492047 0.4713233 0.3113132 -0.13242926 -0.47228587 -0.32238224 0.14990251
-0.22442624 -0.120443106 0.04070739 0.2774738 1.1554898 0.020311324 0.7179736 0.024999637
0.20431712 -0.43994126 -0.17901394 -0.9988073 -0.293576 -0.5055154 -0.044721242 0.10431174
0.55002385 0.032608084 -0.06907116 -0.18133427 0.11658124 -0.4654664 0.6166367 0.3816293
-0.19357522 0.20827131 -0.86428046 -0.98428744 0.28195596 0.14903517 0.5039323 -0.018845346
-0.7453503 0.1410165 -0.08254527 -0.48983315 0.10971329 -0.12870276 -0.30862832 0.2652935
-0.80789024 0.3342306 0.07564209 -0.028081927 0.4910958 -0.021860233 0.5999682 -0.14763995
0.61273104 0.17418458 0.35603657 -0.026446695 -0.07618533 0.92561007 0.31999782 -0.4559577
-0.5575065 -0.16552334 -0.1455295 0.34386596 -0.32910004 0.65930206 -0.30815402 -0.5775409
-0.72391725 0.7157619 0.008144 0.6762674 -0.2072959 -0.17780209 0.109755136 0.2902249
-0.5375397 -0.20570229 0.46670374 -0.35680598 -0.29047707 -0.62951255 -0.1258001 0.036161404
0.15404718 0.23755245 0.43992043 0.49773207 0.38052666 -0.20872964 0.64457744 -0.4865202
0.5028597 -0.4555006 -0.55366313 -0.47143802 0.031661898 0.7207719 1.1329228 0.21271181
00000000: 61b1 253e b20c b23c 256e 273e d625 4abe
00000010: 31ea 06be 3b80 ddbe 69fa 7abf fd09 ef3e
00000020: 7c9e eb3e 6dd0 0fbe 22e4 e33e 7041 a6be
00000030: 4c04 32bf 2e58 c7be 5aa2 093f ebac c8be
00000040: 3147 a23e 63f3 12bf d878 23bc c23c 99be
00000050: 1a6c 81bf 73c3 fcbd 4aa2 873e 907a e3bd
00000060: a633 37be c5fe 013e 0f3d 14be 553f 1d3e
00000070: ad33 ea3e 5de6 e73e 495c 3b3f ec0d 3cbf
00000080: e583 d7be 7675 1abf 9af5 363e 1cf7 ae3e
00000090: 59c4 933e efdf 12bf 4173 373f 9346 0abf
000000a0: ca96 523e ee79 d1be e6fc 70be 679c afbe
000000b0: 2e59 cbbe b7f6 fa3e ddf3 2e3e 8345 583d
000000c0: 7276 8b3f db09 003f 3788 943d e820 1cbd
000000d0: 4523 2ebd 32ed fbbe cccb 8d3e a1a3 f03e
000000e0: b410 5e3f b15c dc3e 371a 2f3e fcc2 eabe
000000f0: 9fcf 033f 287d b73f 0843 733f feec 36bf
00000100: f592 803e 40f9 743f 6e30 3dbe a86b 1ebe
00000110: d643 d53d ae48 3ebe 1b65 803e ffba 123e
00000120: 3662 ec3e 1357 35bd aada e23d ad63 c1bc
00000130: e4a1 cdbd cc03 fabe f92f 623e fbd2 e43d
00000140: e32d f0bd 0c51 c23d 756f 533e 3202 ccbd
00000150: a4b1 183f a0fd 25bf bba5 d2bd d33b 76be
00000160: 128b fcbc b4b7 59be e145 863c 78aa 91bf
00000170: f449 35bf c2b4 8abe 1bed f23d 301e 1f3e
00000180: da9b 83be 78b2 0fbf 2ffb 993f d7ac 1e3f
00000190: 7728 073d 9c64 b43d 7d58 433e f7d5 17bf
000001a0: 9c5c 43be 3a1c 9a3e 4af3 c3bd 8941 9c3e
000001b0: 7f70 533f cd8d 6abd 7307 18bf dd3b 76be
000001c0: 25fc ea3e a424 e93d a986 9a3d 84df 57bf
000001d0: 7400 80be f32b bb3d 8db3 c0be 84ee 8cbe
000001e0: 951b 7c3e c479 51be 6a97 76be ffe6 b1be
000001f0: 0258 bb3e c584 b63e e49a 703e eeb5 ccbe
00000200: 877e d73e 8692 cabe a58f 51bf 2c58 2b3f
00000210: 0651 70be 425c 1abe 49ef 253c e071 423e
00000220: 77bc dabe f2b2 9ebe 4a9b c83e 5915 bcbd
00000230: 9296 3d3d cc9a 463f c6f5 373c cad3 013f
00000240: 1e0e cabe 8567 c33e 7e38 853e 27f5 e53e
00000250: 5456 a23d 9cb4 c7be 6f98 b03e ebcf a3bd
00000260: 5ae8 65bd 59bd 153f 4a51 f13e 7264 9f3e
00000270: 899b 07be 74cf f1be 490f a5be 0b80 193e
00000280: fecf 65be e0aa f6bd cbbc 263d 0c11 8e3e
00000290: 17e7 933f ef63 a63c 1ecd 373f 0acc cc3c
000002a0: 8238 513e fb3f e1be 6e4f 37be d6b1 7fbf
000002b0: 984f 96be 7569 01bf 9f2d 37bd 65a1 d53d
000002c0: 5dce 0c3f 0e90 053d 2e75 8dbd b1af 39be
000002d0: 25c2 ee3d 9d51 eebe e7db 1d3f ea64 c33e
000002e0: 9538 46be 1345 553e 7c41 5dbf 43fa 7bbf
000002f0: 885c 903e ad9c 183e b501 013f 8e61 9abc
00000300: 47cf 3ebf a166 103e 7f0d a9bd 69cb fabe
00000310: 5db1 e03d a8ca 03be 8804 9ebe 8dd4 873e
00000320: e5d1 4ebf 4620 ab3e 3dea 9a3d 120c e6bc
00000330: e970 fb3e 3b14 b3bc 8497 193f ed2e 17be
00000340: f1db 1c3f 715d 323e 6d4a b63e bda6 d8bc
00000350: 0e07 9cbd c8f4 6c3f c1d6 a33e 4a73 e9be
00000360: bfb8 0ebf f37e 29be af05 15be 330f b03e
00000370: cd7f a8be 05c8 283f 5dc6 9dbe b8d9 13bf
00000380: a452 39bf 2c3c 373f 696e 053c dc1f 2d3f
00000390: 6045 54be c011 36be 4dc7 e03d 5c98 943e
000003a0: 349c 09bf 9fa3 52be cbf3 ee3e 46af b6be
000003b0: 69b9 94be bc27 21bf bed1 00be fb1d 143d
000003c0: 8bbe 1d3e f340 733e 403d e13e bdd6 fe3e
000003d0: 64d4 c23e 39bd 55be 0703 253f 2d19 f9be
000003e0: 6abb 003f 6037 e9be debc 0dbf 5360 f1be
000003f0: e8af 013d 8284 383f 9d03 913f 20d1 593e

network_body._body_endoder.seq_layers.0.bias f4 [128]
-0.015702073 -0.020938795 -0.015103013 -0.015152179 -0.034810405 0.0086095 0.010304924 -0.01144687
0.0046384763 -0.0047873575 -0.020764314 0.0026948918 -0.02376894 -0.004194605 -0.0119113885 -0.011517618
0.004687852 -0.03103123 0.01818894 0.03358624 -0.011133135 -0.007097398 0.018779078 -0.028176859
0.0024472838 -0.0063280445 -0.022919882 0.012099806 0.0118999835 -0.027990453 0.010626003 0.00801076
-0.03211306 0.0046200217 0.0213428 -0.006230211 -0.007489689 -0.0029017131 0.012027635 -0.009802542
-0.0185686 0.0072145136 -0.004586374 -0.031276535 -0.025062783 0.0011648341 -0.028081585 0.01108974
0.0033101246 -0.015734285 -0.01793077 -0.020332616 0.00050674105 -0.004294597 -0.016366461 0.021711823
-0.03095782 -0.01621824 0.013917585 -0.021986596 -0.033004496 -0.0019201561 -0.0050044428 0.0062851594
0.021776237 -0.0052733556 -0.019651826 -0.0030936997 0.0129666515 -0.019801725 -0.024362793 -0.030771231
0.013179542 -0.016041469 -0.0174132 -0.041055556 -0.046123996 0.002333476 -0.02466384 -0.021059811
-0.022038134 -0.00090793613 -0.012129669 -0.022355905 -0.03832413 -0.0025429882 -0.035018448 0.01146811
-0.017785529 -0.014241528 -0.019783197 -0.012134261 0.0025691513 -0.03530953 0.020512361 0.029626934
0.00073558127 -0.015596974 -0.012786466 -0.008053014 0.006692287 -0.038171127 0.02044495 0.03384791
0.015121094 -0.016947793 0.028540188 0.0038786551 0.011009068 -0.030763209 -0.015097694 -0.013009856
0.012477725 -0.019110672 -0.029840287 -0.0018624775 -0.015764352 -0.009947396 0.020289341 -0.008729344
-0.007875188 -0.010264653 -0.020926816 -0.0028605948 0.0012972171 0.028577982 -0.030734409 -0.018316964
00000000: a2a1 80bc d687 abbc a172 77bc d840 78bc
00000010: 5b95 0ebd dc0e 0d3c fcd5 283c a78b 3bbc
00000020: 5cfe 973b 44df 9cbb ec19 aabc c89c 303b
00000030: 14b7 c2bc e672 89bb fc27 43bc 64b4 3cbc
00000040: 8e9c 993b 3535 febc f900 953c ba91 093d
00000050: c167 36bc 4a91 e8bb 95d6 993c 28d3 e6bc
00000060: 9c62 203b 7c5b cfbb 7ac2 bbbc 443e 463c
00000070: 26f8 423c 3c4c e5bc b018 2e3c 903f 033c
00000080: fc88 03bd 8d63 973b 19d7 ae3c cc26 ccbb
00000090: 116c f5bb ab2a 3ebb 8f0f 453c d79a 20bc
000000a0: 2d1d 98bc ba67 ec3b 4b49 96bb d31b 00bd
000000b0: 7750 cdbc 59ad 983a 5a0b e6bc beb1 353c
000000c0: adee 583b 30e5 80bc 8de3 92bc 9690 a6bc
000000d0: d1d6 043a b1b9 8cbb f512 86bc fedc b13c
000000e0: 419b fdbc 1ddc 84bc 9506 643c 3c1d b4bc
000000f0: b92f 07bd bfad fbba 4ffc a3bb bdf3 cd3b
00000100: 1464 b23c 1dcc acbb defc a0bc abbf 4abb
00000110: 1472 543c 3a37 a2bc 7b94 c7bc f313 fcbc
00000120: 01ef 573c 6669 83bc 21a6 8ebc df29 28bd
00000130: 84ec 3cbd 3bed 183b d20b cabc a085 acbc
00000140: 5189 b4bc 9002 6eba 85bb 46bc bb23 b7bc
00000150: c3f9 1cbd 43a8 26bb 816f 0fbd bde4 3b3c
00000160: f5b2 91bc 4c55 69bc 5f10 a2bc c8ce 46bc
00000170: 355f 283b baa0 10bd 8a09 a83c 2fb4 f23c
00000180: 06d4 403a 738a 7fbc 537e 51bc caf0 03bc
00000190: f94a db3b 5459 1cbd 2b7c a73c 1ba4 0a3d
000001a0: 77be 773c 19d6 8abc 1dcd e93c 0931 7e3b
000001b0: 615f 343c 2003 fcbc 515c 77bc 4b27 55bc
000001c0: 5f6f 4c3c fc8d 9cbc 9e73 f4bc 601e f4ba
000001d0: 3e24 81bc 67fa 22bc d535 a63c 8605 0fbc
000001e0: ef06 01bc 132d 28bc b76e abbc d178 3bbb
000001f0: 6207 aa3a 5f1c ea3c bac6 fbbc 750d 96bc

network_body._body_endoder.seq_layers.2.weight f4 [128, 128]
-0.1782352 -0.037388336 0.07933163 0.061127637 -0.030866435 0.025546137 -0.08496943 0.16098905
0.10046166 -0.052904803 0.112305544 -0.07189666 -0.0032418063 0.016441194 -0.14364696 -0.054547366
-0.009905551 0.10080552 0.097158045 -0.1073603 -0.045197528 -0.025403729 -0.022274297 0.06398294
-0.09287235 0.1140034 -0.046318233 -0.12789652 0.007830669 -0.16878287 0.060075775 -0.18205796
0.04565393 0.119141564 -0.08969168 -0.048510026 -0.029564543 -0.0978427 -0.17592457 -0.01639373
-0.061251126 0.061868742 0.018139549 -0.05469683 0.053482473 0.19738558 -0.04581055 0.0035749818
0.021571942 0.11865681 -0.020994144 -0.03779304 0.1322818 0.18952754 0.035905294 0.0831378
0.1221067 -0.081485935 -0.01361336 0.22549653 0.019487588 0.015722437 0.12647341 -0.1721193
-0.01071252 -0.0005287111 0.064899065 0.028532835 0.07288841 0.063546196 -0.13219589 0.022762572
-0.060386688 -0.08265142 0.1971649 -0.07513186 0.036843292 0.0060115485 -0.23138034 0.07380596
-0.14491634 0.048517946 -0.039120995 -0.058451504 -0.054543998 -0.102098554 -0.021204626 0.039507702
0.051887654 0.13015059 -0.036573205 -0.036237802 0.11930449 -0.114904575 -0.044990595 -0.0928371
0.089812465 -0.16782553 0.0876667 -0.015465694 -0.025780145 -0.10007351 -0.049065758 -0.095679134
-0.09665478 0.092089765 -0.03226878 0.059308704 -0.017701063 -0.016579598 0.16071007 -0.018781627
-0.0031371377 -0.0037028554 0.019835643 0.03894852 0.05337361 -0.1370199 -0.08322104 0.0984146
-0.08804275 0.0073617613 -0.0019331386 -0.007302521 -0.15629706 -0.09442636 0.02586768 -0.055536825
-0.0049945754 -0.17012875 -0.042024773 -0.066356756 0.039463423 -0.16898285 -0.006418179 -0.11522296
0.12564676 -0.09145263 0.06312909 -0.023205515 -0.10366672 0.015745167 0.1304718 0.14229915
-0.08299733 0.05762473 0.038914602 0.053449426 -0.12159931 -0.12532194 -0.099755205 0.083365165
-0.19909552 -0.109841526 0.0027651372 0.05319945 -0.07778059 0.013230027 -0.10212217 -0.088351056
-0.0889444 -0.018269736 -0.139834 -0.022780642 0.17096953 0.09161022 -0.02136381 -0.027514052
0.061927278 0.030751733 -0.11156177 -0.10005316 -0.078450754 0.044240206 -0.056396242 -0.05331602
0.028448945 0.043470837 0.010160325 0.07829903 0.07789314 -0.042328794 -0.20523798 -0.07292088
-0.16237183 -0.049919058 0.03596181 -0.121727236 0.13172857 0.065156914 0.08381379 0.15150888
0.1908848 -0.057652052 -0.06761007 -0.09385951 -0.021425635 0.17249267 0.15125667 -0.005447639
-0.028443402 0.052246753 -0.006694013 -0.038334567 0.08219216 -0.010984575 -0.051337488 -0.07092961
-0.04280395 0.09357278 0.108265445 -0.05509197 0.040763903 0.08500411 0.026249321 -0.05428485
0.068973675 0.004352132 -0.14091034 -0.04359277 0.17517282 0.16739175 -0.0055848593 -0.062296264
-0.039490175 0.013102803 -0.026115773 0.040664203 0.16108268 -0.0904751 0.060805563 -0.006945164
-0.13985734 0.012601682 -0.060416956 -0.07065651 0.0075152363 0.04513554 -0.020202478 -0.15458912
-0.090010084 -0.0241968 0.031560343 0.018188272 -0.07887732 -0.049380932 0.11231809 -0.0662376
-0.07910135 -0.1427493 0.10682034 -0.06979913 -0.1579029 0.16873401 -0.099307746 -0.006192369
00000000: 4a83 36be 8324 19bd 9f78 a23d f960 7a3d
00000010: 9bdb fcbc 2246 d13c 7404 aebd 50da 243e
00000020: d8be cd3d b5b2 58bd 7300 e63d 8e3e 93bd
00000030: 7c74 54bb afaf 863c 3018 13be 0f6d 5fbd
00000040: e44a 22bc 2073 ce3d ccfa c63d b8df dbbd
00000050: 0b21 39bd 7b1b d0bc 9678 b6bc 7d09 833d
00000060: dc33 bebd 9d7a e93d 30b8 3dbd 4ef7 02be
00000070: 354c 003c 6bd5 2cbe 0412 763d 676d 3abe
00000080: 9eff 3a3d 7e00 f43d 46b0 b7bd 73b2 46bd
00000090: 5731 f2bc c161 c8bd 9225 34be 254c 86bc
000000a0: 76e2 7abd 146a 7d3d 6499 943c c909 60bd
000000b0: 7010 5b3d 721f 4a3e d8a3 3bbd 3e4a 6a3b
000000c0: a4b7 b03c 5702 f33d e9fb abbc e0cc 1abd
000000d0: e174 073e 8213 423e 6e11 133d 2744 aa3d
000000e0: 1413 fa3d 19e2 a6bd 920a 5fbc 90e8 663e
000000f0: 6fa4 9f3c 57cc 803c 3f82 013e 0b40 30be
00000100: 9183 2fbc 3499 0aba cde9 843d b1bd e93c
00000110: 8546 953d 8224 823d 5c5e 07be 9378 ba3c
00000120: 0858 77bd 2645 a9bd 98e5 493e bcde 99bd
00000130: fee8 163d 86fc c43b f8ee 6cbe 9427 973d
00000140: f364 14be c1ba 463d 563d 20bd d86a 6fbd
00000150: 8769 5fbd 0c19 d1bd 53b5 adbc d4d2 213d
00000160: 2688 543d 3246 053e c9cd 15bd 176e 14bd
00000170: ea55 f43d 1753 ebbd 0f48 38bd 6121 bebd
00000180: 99ef b73d 75da 2bbe 998a b33d d263 7dbc
00000190: e230 d3bc 57f3 ccbd 2df9 48bd 6cf3 c3bd
000001a0: f1f2 c5bd 8f99 bc3d 452c 04bd afed 723d
000001b0: d201 91bc f0d1 87bc 2e91 243e eddb 99bc
000001c0: 7098 4dbb 9bab 72bb 5c7e a23c 7c88 1f3d
000001d0: 499e 5a3d f24e 0cbe cb6f aabd 988d c93d
000001e0: c24f b4bd ee3a f13b 5e61 fdba fc49 efbb
000001f0: 560c 20be 9c62 c1bd 75e8 d33c 957a 63bd
00000200: 89a9 a3bb 3b36 2ebe 2b22 2cbd 0de6 87bd
00000210: 66a4 213d d709 2dbe 964f d2bb 04fa ebbd
00000220: 8ba9 003e 844b bbbd d349 813d 7e19 bebc
00000230: 384f d4bd 02fc 803c 669a 053e deb6 113e
00000240: 81fa a9bd e907 6c3d eb64 1f3d c9ed 5a3d
00000250: 0f09 f9bd 6554 00be 754c ccbd 5bbb aa3d
00000260: b2df 4bbe 98f4 e0bd 4e37 353b abe7 593d
00000270: 6e4b 9fbd c1c2 583c 6e25 d1bd 66f1 b4bd
00000280: 7b28 b6bd 6aaa 95bc a530 0fbe 789e babc
00000290: a312 2f3e 249e bb3d 2803 afbc 2665 e1bc
000002a0: 75a7 7d3d 0feb fb3c 7f7a e4bd ace8 ccbd
000002b0: caaa a0bd 3835 353d bfff 66bd e661 5abd
000002c0: c30d e93c 7a0e 323d 7e77 263c 3e5b a03d
000002d0: 7086 9f3d f560 2dbd e829 52be 8b57 95bd
000002e0: cd44 26be ed77 4cbd b14c 133d 214c f9bd
000002f0: dbe3 063e fd70 853d 90a6 ab3d 2525 1b3e
00000300: 4e77 433e 8f24 6cbd 2677 8abd 6a39 c0bd
00000310: d084 afbc eba1 303e 07e3 1a3e 1c82 b2bb
00000320: 2302 e9bc b100 563d 7359 dbbb b504 1dbd
00000330: 5d54 a83d a6f8 33bc 4247 52bd 8b43 91bd
00000340: 3253 2fbd 16a3 bf3d 46ba dd3d 1ea8 61bd
00000350: 0df8 263d a316 ae3d d108 d73c ca59 5ebd
00000360: 1242 8d3d 549c 8e3b cd4a 10be 558e 32bd
00000370: 8160 333e be68 2b3e 3201 b7bb 5e2a 7fbd
00000380: 73c0 21bd 24ad 563c bff0 d5bc 828f 263d
00000390: dcf2 243e 024b b9bd 410f 793d 4294 e3bb
000003a0: c336 0fbe 4977 4e3c c577 77bd 5cb4 90bd
000003b0: 5f42 f63b 0be0 383d ab7f a5bc 9c4c 1ebe
000003c0: 3557 b8bd 5e38 c6bc 6b45 013d 92ff 943c
000003d0: 6f8a a1bd a943 4abd 0707 e63d 94a7 87bd
000003e0: e3ff a1bd df2c 12be 9fc4 da3d d9f2 8ebd
000003f0: 4cb1 21be 9cc8 2c3e dc61 cbbd 5be9 cabb

network_body._body_endoder.seq_layers.2.bias f4 [128]
-0.016381964 0.010203723 0.011867705 0.0038601058 -0.016411163 -0.01928126 -0.0085304035 -0.021832546
-0.018827002 0.01099614 0.02441206 0.0066497857 -0.002186654 0.007008159 0.0144087495 -0.028715488
-0.03545361 -0.016052738 0.012348278 -0.029553194 0.0065787616 -0.03248794 -0.011916557 -0.0014311943
-0.0018363862 0.026539683 0.007697412 -0.0057558967 0.006419017 -0.013831212 -0.0094135655 -0.015213952
0.033464015 -0.023113793 -0.03305101 0.0019256386 -0.0017946557 0.0024878003 -0.0029118503 0.006769012
-0.022788482 -0.0048646387 0.007172106 -0.02508338 -0.012744055 0.015920915 -0.021188647 -0.024307134
-0.008714559 -0.024130987 -0.008399639 0.013140986 -0.012958639 -0.01894042 0.0023073817 0.0100497
0.0014877265 -2.5936442e-05 0.00060472067 0.003461233 -0.00086571893 0.0050175907 -0.011435803 -0.00412587
-0.009995557 -0.026420046 -0.0061557908 0.008537723 -0.02971233 0.0014164017 0.0152360825 -0.00140035
-0.021975657 -0.01959253 -0.0004891752 -0.00039450906 -0.0027079266 -0.000414749 0.0034461971 0.05739143
0.0037506279 0.022416435 0.02079987 -0.024896493 0.007793251 -0.006556819 0.018945029 0.019020682
-0.03304948 -0.029721266 -0.025498958 0.000322291 -0.019752 -0.03342975 0.0029621464 -0.029580886
0.006534486 -0.025300995 -0.00987637 -0.0057250853 0.014423662 0.0116144875 0.014698159 0.017897619
0.006500126 -0.00046056538 -0.025203131 -0.013061287 -0.026344948 0.005498872 0.017757704 0.019090967
0.0037415323 0.024089912 0.011392297 -0.008912435 0.0030827317 -0.004630965 0.020975769 -0.025840363
0.015668476 -0.038447954 0.003702697 -0.0049555446 -0.0065952158 0.009182927 -0.010687982 0.0078760935
00000000: 7833 86bc 842d 273c c370 423c d4f9 7c3b
00000010: b470 86bc bcf3 9dbc 1bc3 0bbc 2bda b2bc
00000020: 163b 9abc 2729 343c cdfb c73c 72e6 d93b
00000030: f74d 0fbb b3a4 e53b ad12 6c3c be3c ebbc
00000040: ce37 11bd 0881 83bc 6f50 4a3c 8a19 f2bc
00000050: a792 d73b 1312 05bd aa3d 43bc e996 bbba
00000060: e5b2 f0ba c069 d93c 923a fc3b f69b bcbb
00000070: 9e56 d23b 4f9c 62bc 5b3b 1abc f143 79bc
00000080: 9011 093d 2359 bdbc 7f60 07bd b665 fc3a
00000090: a73a ebba 5d0a 233b bed4 3ebb 97ce dd3b
000000a0: e9ae babc 8c67 9fbb fc03 eb3b a97b cdbc
000000b0: 71cc 50bc 946c 823c d093 adbc c11f c7bc
000000c0: 82c7 0ebc 59ae c5bc a49e 09bc 4a4d 573c
000000d0: 7950 54bc f128 9bbc 7137 173b 7fa7 243c
000000e0: d1ff c23a 1692 d9b7 1e86 1e3a dbd5 623b
000000f0: 6af1 62ba 9a6a a43b 3c5d 3bbc 4e32 87bb
00000100: 68c4 23bc da6e d8bc 84b6 c9bb cee1 0b3c
00000110: 4667 f3bc 8ea6 b93a c3a0 793c f38b b7ba
00000120: 4b06 b4bc 8380 a0bc fe3b 00ba 1cd6 ceb9
00000130: 7877 31bb ab72 d9b9 98d9 613b 4713 6b3d
00000140: 18cd 753b aca2 b73c 7d64 aa3c bbf3 cbbc
00000150: 875e ff3b 96da d6bb 9b32 9b3c 43d1 9b3c
00000160: e45e 07bd 037a f3bc 31e3 d0bc 2af9 a839
00000170: f2ce a1bc a2ed 08bd 9220 423b 9d53 f2bc
00000180: 3e1f d63b 0844 cfbc 80d0 21bc 7f99 bbbb
00000190: 3951 6c3c b14a 3e3c 8cd0 703c 079e 923c
000001a0: 02ff d43b 0a78 f1b9 cc76 cebc 02ff 55bc
000001b0: 5cd1 d7bc e22f b43b 9b78 913c a964 9c3c
000001c0: 7f34 753b 3558 c53c c2a6 3a3c 7605 12bc
000001d0: a807 4a3b 5abf 97bb 60d5 ab3c 2baf d3bc
000001e0: 2d5b 803c 9a7b 1dbd f3a8 723b 1f62 a2bb
000001f0: ae1c d8bb fd73 163c a51c 2fbc bb0a 013c

action_model._continuous_distribution.log_sigma f4 [1, 2]
0.011932163 -0.023147158
00000000: 1e7f 433c 1c9f bdbc

action_model._continuous_distribution.mu.weight f4 [2, 128]
0.011631056 6.7925896e-05 0.02526596 0.01304943 0.007961507 0.010800518 0.04136556 0.022567665
0.0073773037 0.026907384 -0.0054441276 0.000121697834 -0.00090700964 -0.0022130646 -0.009125993 0.0070456727
0.0020370954 0.008124247 -0.01839846 0.0016414134 0.008497986 0.011131456 0.024041565 0.0022847978
-0.0048413863 -0.0047810692 0.025927536 0.008630937 -0.00045555466 -0.008525165 0.02838279 -0.0054112305
-0.02394559 0.01129071 0.010050868 0.024340358 0.01891522 0.015610856 0.030075714 -0.00044667814
0.007544077 0.044198487 0.026792822 0.014687615 0.0141678145 -0.031666912 -1.42292865e-05 -3.516682e-05
0.010595603 0.0044559096 0.027543735 0.006044213 0.00012635827 0.007451641 0.052662715 0.0069576474
-0.026887177 -0.0023681107 -0.014480508 -0.010417149 0.0071294736 -0.03154163 -0.009226915 0.035092983
-0.007549115 -0.009442208 -0.011739341 0.008461941 0.026664352 0.0048432373 0.004116041 -0.0015912377
0.0030631036 0.015862156 0.014131743 -0.015021717 -0.010727045 -0.03151773 0.0011521749 0.07028683
0.020655524 -0.004969238 0.003314424 -0.02243205 0.0073605063 0.016295902 -0.0069572623 0.054688156
0.0041623837 0.03331022 0.025054678 -0.008154513 0.022882814 0.007912015 -0.002164696 0.007276674
0.0021760182 0.0059261695 0.031092968 -0.015863784 0.03769235 0.004512407 0.016089264 -0.021331593
0.02108062 7.363318e-05 0.022098875 -0.0041088965 0.008429105 -0.0032956658 -0.02819324 -0.0019269226
-0.0135255745 0.060042556 0.00081108126 0.021954771 -0.007745619 0.0014914136 -0.008625047 0.009073419
0.0017612834 0.0023463143 -0.015087416 0.006750726 0.02661821 0.019889358 0.014831942 0.012227285
0.02962501 -0.023199277 -0.0070175654 0.034736436 0.018997496 -0.033358496 -0.01982342 0.027113857
0.010607894 0.019935329 -0.00570337 -0.0030306939 0.03682706 0.0049333754 -0.006122094 0.016455704
-0.01205296 0.017295312 0.00848227 0.018305976 0.0015341974 0.033120897 0.009953361 0.018873828
0.0024577028 -0.029950477 0.007995759 -0.010308812 -0.009966253 0.029360123 -0.011503463 0.024210922
-0.03139796 0.011803305 0.005938023 0.014393708 0.057911843 -0.02646836 -0.015131013 0.021338912
0.014745872 0.0154557945 0.0126570035 0.0016205839 0.003366447 -0.014625541 0.02159012 0.0071227686
0.0012902181 0.014265938 0.0017325183 0.017893774 -0.0006183152 0.0023824072 -0.006758544 -0.01702814
0.033694085 0.015570571 0.007575428 0.015725596 -0.04135295 0.027766494 -0.028851729 0.007092406
0.034861147 0.0062764506 0.022921529 -0.018512415 0.029231187 0.02954326 0.017541956 0.033880234
0.034087423 -0.017012328 -0.0045976816 0.011679543 0.011901907 0.013619387 -0.013698585 0.0052227704
-0.0471883 -0.011234635 0.05202222 -0.005184186 0.009978429 0.012512216 -0.008409623 0.017208569
9.8942844e-05 0.024559872 0.026007282 0.0031772652 0.005431563 0.01080365 0.0003990583 0.011677809
0.0051833494 0.019772524 0.0032531046 0.023152024 0.045618717 -0.030897683 0.028297687 -0.0103954105
0.022996912 -0.009386803 0.040920652 0.028563268 -0.006092277 0.021221634 -0.0021372868 -0.006978198
0.019216517 0.006257304 -0.019343562 0.009248113 0.008276887 -0.0016428292 -0.018907761 0.026911069
-0.010361931 0.0026561592 0.018371733 0.018294053 0.026177688 -0.0085512735 0.005305854 0.02828306
00000000: 2f90 3e3c 7073 8e38 8ffa ce3c 47cd 553c
00000010: fb70 023c a8f4 303c ef6e 293d d3df b83c
00000020: 4fbd f13b e06c dc3c a764 b2bb 0738 ff38
00000030: 63c4 6dba 1009 11bb 3085 15bc 63df e63b
00000040: ca80 053b 901b 053c 5eb8 96bc b224 d73a
00000050: 233b 0b3c b660 363c d1f2 c43c 8cbc 153b
00000060: 7ea4 9ebb 84aa 9cbb fc65 d43c c668 0d3c
00000070: 83d7 eeb9 22ad 0bbc 0683 e83c b150 b1bb
00000080: 8b29 c4bc acfc 383c 65ac 243c 6e65 c73c
00000090: 17f4 9a3c adc4 7f3c 5861 f63c 2030 eab9
000000a0: 4e34 f73b 7909 353d 9f7c db3c 53a4 703c
000000b0: 1f20 683c 2ab5 01bd 52ba 6eb7 1680 13b8
000000c0: 2e99 2d3c e102 923b 66a3 e13c 890e c63b
000000d0: 0a7f 0439 e52c f43b dcb4 573d fafc e33b
000000e0: 7f42 dcbc 4e32 1bbb a73f 6dbc b1ac 2abc
000000f0: 5c9e e93b cc31 01bd 7d2c 17bc a9bd 0f3d
00000100: 915e f7bb 7eb3 1abc 5d56 40bc f4a3 0a3c
00000110: 336f da3c 05b4 9e3b dbdf 863b 1491 d0ba
00000120: 5abe 483b 5af1 813c d488 673c a61d 76bc
00000130: 7dc0 2fbc bc18 01bd 9304 973a 8bf2 8f3d
00000140: c635 a93c fdd4 a2bb cf36 593b 6bc3 b7bc
00000150: 6730 f13b fc7e 853c bff9 e3bb b000 603d
00000160: 9b64 883b 4c70 083d 783f cd3c 829a 05bc
00000170: bd74 bb3c 65a1 013c 93dd 0dbb 2a71 ee3b
00000180: 879b 0e3b 5030 c23b aeb6 fe3c c4f4 81bc
00000190: 4b63 1a3d d0dc 933b a2cd 833c 98bf aebc
000001a0: 44b1 ac3c 836b 9a38 b308 b53c eca3 86bb
000001b0: 3b1a 0a3c 19fc 57bb 82f5 e6bc cb90 fcba
000001c0: 5f9a 5dbc 2fef 753d be9e 543a 7eda b33c
000001d0: f6ce fdbb 897b c33a 1250 0dbc ada8 143c
000001e0: ddda e63a 9fc4 193b 3631 77bc 3235 dd3b
000001f0: 6f0e da3c 02ef a23c ac01 733c f354 483c
00000200: 26b0 f23c 690c bebc 9bf3 e5bb cb47 0e3d
00000210: a3a0 9b3c eba2 08bd ba64 a2bc e11d de3c
00000220: bbcc 2d3c 6a4f a33c 56e3 babb 9b9e 46bb
00000230: f9d7 163d 27a8 a13b d99b c8bb 1dce 863c
00000240: c779 45bc e6ae 8d3c 38f9 0a3c 6af6 953c
00000250: 1f17 c93a c7a9 073d 6c13 233c 499d 9a3c
00000260: 6911 213b b45a f5bc a500 033c 4be6 28bc
00000270: 7f49 23bc a484 f03c 0579 3cbc fc55 c63c
00000280: 269b 00bd a662 413c bf93 c23b 96d3 6b3c
00000290: f834 6d3d 2dd4 d8bc 11e8 77bc f1ce ae3c
000002a0: ab98 713c 4d3a 7d3c 525f 4f3c c669 d43a
000002b0: 9c9f 5c3b f79f 6fbc c3dd b03c 1d66 e93b
000002c0: 891c a93a aebb 693c ab15 e33a f795 923c
000002d0: 6e16 22ba 2922 1c3b c776 ddbb 997e 8bbc
000002e0: cf02 0a3d b51b 7f3c 4c3b f83b f7d2 803c
000002f0: b661 29bd 8f76 e33c 765a ecbc 6a67 e83b
00000300: 90ca 0e3d afaa cd3b eec5 bb3c 59a7 97bc
00000310: 3e76 ef3c b504 f23c 26b4 8f3c 00c6 0a3d
00000320: 419f 0b3d 705d 8bbc 26a8 96bb 8e5b 3f3c
00000330: 3700 433c d923 5f3c 0870 60bc c623 ab3b
00000340: 8548 41bd 7911 38bc 4015 553d 1be0 a9bb
00000350: 917c 233c 0a00 4d3c 84c8 09bc fcf8 8c3c
00000360: 897f cf38 c931 c93c 390d d53c aa39 503b
00000370: 41fb b13b cb01 313c b338 d139 4854 3f3c
00000380: 16d9 a93b fdf9 a13c 0a32 553b 50a9 bd3c
00000390: b1da 3a3d 231d fdbc 8dd0 e73c 8351 2abc
000003a0: 0564 bc3c 1bcb 19bc 6a9c 273d 84fd e93c
000003b0: b9a1 c7bb fed8 ad3c b911 0cbb 5ea9 e4bb
000003c0: f56b 9d3c 120a cd3b 6476 9ebc 6685 173c
000003d0: c89b 073c 3354 d7ba 73e4 9abc 9a74 dc3c
000003e0: 17c5 29bc f512 2e3b 5180 963c 69dd 953c
000003f0: 9772 d63c a41a 0cbc bbdc ad3b e0b1 e73c

action_model._continuous_distribution.mu.bias f4 [2]
-0.012799883 -0.019925538
00000000: 9ab6 51bc e23a a3bc

exp_avg f4 [128, 5]
0.0007173934 -6e-45 -0.0016062323 -2.4282452e-05 4.235872e-05 0.0013777429 -6e-45 -0.0005383019
-5.8752466e-05 0.00018470052 0.00057064724 6e-45 0.0007255483 -0.00010883158 -0.00015506794 0.002129895
-6e-45 0.0011994975 0.00010078985 -0.00016737619 0.00053693715 -6e-45 -0.0023464796 0.00028864614
-0.0003010073 -9.61261e-05 -6e-45 0.0008105967 -5.8375423e-05 -0.0002653339 -6.0069968e-05 6e-45
-0.00044117688 -1.4632054e-05 -0.00018228711 0.0017974835 -6e-45 -0.00031510982 8.048163e-05 -0.00037556363
0.0006533945 6e-45 0.0005047711 -0.00014636101 -0.0003210618 -0.00021295139 6e-45 0.00023219505
-0.00022181353 -0.00022259842 6.564708e-05 6e-45 0.0006288579 -4.9201935e-05 -4.34426e-05 -0.0013984967
-6e-45 0.00015023244 0.0005796805 0.0005963474 -0.00093033136 6e-45 -0.0005429658 0.00015049175
0.0003703044 -0.0014713249 -6e-45 -0.00083256606 0.0006263967 0.00078891567 0.00010795161 6e-45
0.0017301467 -0.00033364867 -0.00035126132 0.00011699371 -6e-45 0.0007655798 6.162102e-05 0.0006210837
-0.0015727474 6e-45 -0.00015330031 -0.00034682074 -0.00063700846 -0.0019491945 -6e-45 -0.0031669969
-3.034142e-05 -0.0011474951 -0.0013229541 -6e-45 -0.00017775768 -0.0003813041 0.0005537569 0.0014561339
-6e-45 0.0015849697 -0.0002622709 0.00032202972 0.00065110787 6e-45 -0.0014211357 -1.9560208e-05
3.1450334e-05 -0.00052917073 -6e-45 0.00060106325 -0.00019111019 -0.00023555325 -0.0017783942 -6e-45
0.00011904794 -0.00017776122 -0.0005576472 0.0013434269 -6e-45 9.728849e-05 0.0005425003 -0.0005549331
0.0015498574 6e-45 0.0018363657 -0.00037230144 6.444426e-05 0.0015365505 6e-45 0.0017714066
2.5343397e-06 0.00082977145 0.00083462027 6e-45 -0.0014626576 0.00022671201 -0.0005620828 0.0013343398
-6e-45 0.002156486 -0.00027848632 0.0006424487 -0.0005786557 -6e-45 -0.0012360913 0.0005155224
0.0004352523 7.852958e-05 6e-45 -0.00016288199 -0.00040015977 -0.0002593601 0.00045149674 6e-45
-0.00043350222 -0.0002657263 -0.0004355745 7.7459885e-07 6e-45 0.0002624752 -9.083688e-05 1.023663e-05
-0.000519073 6e-45 0.0006554149 0.00012356928 0.00025750353 -0.00031683358 -6e-45 -0.0026950692
0.0001872072 -0.00093189947 0.0011694863 -6e-45 0.0008684379 -0.0002423094 0.0005343719 -0.00055026717
6e-45 -0.0008662813 0.000101992635 -0.00018114434 0.0010049116 6e-45 -0.0003206549 -2.7961969e-05
1.9013594e-05 0.0014920615 6e-45 0.0014026708 0.00050367805 -2.0366384e-05 -0.00094664685 6e-45
-0.0006943133 0.00012044826 0.0006077375 0.0004906216 -6e-45 -1.3044859e-05 4.7833608e-05 0.00041808916
0.001438111 6e-45 0.00271469 -4.8581816e-05 0.0007847494 0.0025153207 -6e-45 0.001601462
0.0001437805 0.0009740248 0.0005925365 6e-45 -6.435989e-05 -0.00024631651 -0.00029909995 -0.00025928832
-6e-45 -0.0012090112 0.00014690829 5.189384e-06 -0.0009798041 -6e-45 -0.0008128437 0.0005658912
-0.0005707313 1.0124303e-05 -6e-45 -0.0012682229 0.0007535939 0.0010090852 0.0018505071 6e-45
0.0035681836 0.0005523935 0.00074022746 0.0023107533 -6e-45 0.0029283774 -1.2794103e-05 0.00020287713
-0.0004911679 6e-45 -0.0015690826 0.00035660653 0.0010418833 0.0021983776 -6e-45 0.001544054
7.13523e-05 5.5308163e-05 -0.003201927 6e-45 0.0004134611 -1.48044855e-05 0.0004583516 0.00029149363
00000000: 750f 3c3a 0400 0080 3688 d2ba 2bb2 cbb7
00000010: 54aa 3138 6195 b43a 0400 0080 d41c 0dba
00000020: fb6c 76b8 2bac 4139 7d97 153a 0400 0000
00000030: b932 3e3a 823c e4b8 bc99 22b9 b595 0b3b
00000040: 0400 0080 7538 9d3a 245f d338 b481 2fb9
00000050: 3ec1 0c3a 0400 0080 65c7 19bb 6e55 9739
00000060: 84d0 9db9 4f97 c9b8 0400 0080 397e 543a
00000070: 22d8 74b8 831c 8bb9 a3f3 7bb8 0400 0000
00000080: c24d e7b9 327c 75b7 5324 3fb9 8a99 eb3a
00000090: 0400 0080 5335 a5b9 3fc8 a838 4ce7 c4b9
000000a0: 9048 2b3a 0400 0000 9d52 043a 7c78 19b9
000000b0: 2f54 a8b9 b44b 5fb9 0400 0000 6279 7339
000000c0: 9e96 68b9 4f69 69b9 02ac 8938 0400 0000
000000d0: f0d9 243a 2d5e 4eb8 2336 36b8 c34d b7ba
000000e0: 0400 0080 b787 1d39 b3f5 173a 3254 1c3a
000000f0: 7be1 73ba 0400 0000 d155 0eba 52cd 1d39
00000100: 6a25 c239 79d9 c0ba 0400 0080 9040 5aba
00000110: c534 243a 3ccf 4e3a 1464 e238 0400 0000
00000120: 17c6 e23a 91ed aeb9 7f29 b8b9 855a f538
00000130: 0400 0080 31b1 483a 893a 8138 39d0 223a
00000140: a524 ceba 0400 0000 3dbf 20b9 7ed5 b5b9
00000150: eafc 26ba 1d7c ffba 0400 0080 648d 4fbb
00000160: b485 feb7 8c67 96ba f966 adba 0400 0080
00000170: 7764 3ab9 c5e9 c7b9 ff29 113a bfdb be3a
00000180: 0400 0080 c2be cf3a 6881 89b9 19d6 a839
00000190: 1caf 2a3a 0400 0000 6745 baba 3a15 a4b7
000001a0: 8ae9 0338 0cb8 0aba 0400 0080 ac90 1d3a
000001b0: c064 48b9 d8fe 76b9 0219 e9ba 0400 0080
000001c0: 60a9 f938 6a65 3ab9 122f 12ba ed15 b03a
000001d0: 0400 0080 5c07 cc38 9436 0e3a ee78 11ba
000001e0: 9624 cb3a 0400 0000 35b2 f03a 7431 c3b9
000001f0: 4026 8738 1466 c93a 0400 0000 8b2e e83a
00000200: a013 2a36 0585 593a 6bca 5a3a 0400 0000
00000210: a5b6 bfba 8bb9 6d39 bd58 13ba 04e5 ae3a
00000220: 0400 0080 d553 0d3b cd01 92b9 016a 283a
00000230: edb0 17ba 0400 0080 5704 a2ba 1f24 073a
00000240: 9332 e439 3fb0 a438 0400 0000 4dcb 2ab9
00000250: 89cc d1b9 b9fa 87b9 deb6 ec39 0400 0000
00000260: af47 e3b9 2e51 8bb9 d25d e4b9 07ee 4f35
00000270: 0400 0000 d39c 8939 ae7f beb8 febd 2b37
00000280: 6612 08ba 0400 0000 26d0 2b3a 6092 0139
00000290: 8a01 8739 af1c a6b9 0400 0080 c29f 30bb
000002a0: 0d4d 4439 b74a 74ba 7349 993a 0400 0080
000002b0: e2a7 633a 6f14 7eb9 1715 0c3a ce3f 10ba
000002c0: 0400 0000 2717 63ba e1e4 d538 90f1 3db9
000002d0: 3db7 833a 0400 0000 921d a8b9 df8f eab7
000002e0: 627f 9f37 4791 c33a 0400 0000 d2d9 b73a
000002f0: 4309 043a 7ad8 aab7 6528 78ba 0400 0000
00000300: 9402 36ba 2b99 fc38 9350 1f3a 0f9d 003a
00000310: 0400 0080 3edb 5ab7 f2a0 4838 fa32 db39
00000320: ff7e bc3a 0400 0000 f1e8 313b 54c4 4bb8
00000330: a4b7 4d3a 14d8 243b 0400 0080 26e8 d13a
00000340: c9c3 1639 b355 7f3a 7454 1b3a 0400 0000
00000350: f4f8 86b8 0b24 81b9 84d0 9cb9 17f1 87b9
00000360: 0400 0080 af77 9eba 650b 1a39 7820 ae36
00000370: c56c 80ba 0400 0080 0415 55ba 5158 143a
00000380: 219d 15ba 8ddb 2937 0400 0080 803a a6ba
00000390: d58c 453a 4843 843a b78c f23a 0400 0000
000003a0: 30d8 693b 80ce 103a d30b 423a 0270 173b
000003b0: 0400 0080 05ea 3f3b 41a6 56b7 6abb 5439
000003c0: b8c1 00ba 0400 0000 ada9 cdba ebf6 ba39
000003d0: cd8f 883a a812 103b 0400 0080 db61 ca3a
000003e0: f9a2 9538 b0fa 6738 6cd7 51bb 0400 0000
000003f0: cfc5 d839 c860 78b7 e94e f039 9dd3 9839

exp_avg_sq f4 [128, 5]
1.241186e-05 2.857745e-09 1.5723941e-05 8.835347e-07 1.7604492e-06 0.0003170621 0.088869736 0.00013508278
1.4593878e-06 8.828399e-06 0.00010932865 0.10701439 0.0001382923 2.0244333e-06 6.805753e-06 0.00034038821
1.4813896e-09 0.00030251153 1.7519206e-06 1.0727896e-05 0.0010830788 0.057784922 0.0007237451 2.5396544e-06
2.4441646e-05 1.0361578e-05 0.00036612822 8.214086e-06 1.1779862e-06 1.4422369e-06 4.361474e-06 0.0017902654
9.269035e-06 8.237914e-07 1.2968702e-06 0.0005291665 1.4488737e-09 0.00050931616 2.8439174e-06 1.1098718e-05
5.128991e-05 0.0016699987 0.00010820313 3.5171145e-06 4.7506387e-06 1.4628179e-05 5.0251137e-09 1.0541512e-05
2.3649748e-06 1.3087645e-06 2.0314714e-05 0.0005561503 1.797224e-05 2.6799495e-07 2.502829e-06 2.1335445e-05
4.948361e-10 1.0286805e-05 4.1545886e-06 4.4639737e-06 2.8332426e-05 9.2611846e-10 1.634001e-05 4.5241013e-06
2.686614e-06 3.820701e-05 0.016735844 1.978129e-05 6.969163e-06 6.6478865e-06 4.5791498e-05 4.570879e-09
4.2727e-05 4.5341003e-06 5.0795848e-06 4.9039492e-05 0.019135797 6.896611e-05 5.683469e-07 3.2502699e-06
0.00010848788 3.132292e-09 5.0991137e-05 1.159314e-06 7.64281e-06 0.00024961497 0.16209446 0.0002691761
1.912535e-06 1.545699e-05 0.0011401004 0.058043964 0.0005725513 3.1780096e-06 2.0460684e-05 0.0006124882
0.0184685 0.0003748511 1.6220702e-06 1.00471925e-05 1.3631045e-05 6.08208e-10 1.0330834e-05 7.7559e-07
1.4455355e-06 2.252292e-05 0.04485376 1.7631883e-05 3.445404e-06 2.7633735e-06 0.00039517586 0.054505497
0.00019133186 1.9613042e-06 8.785622e-06 0.00100206 0.03553575 0.00068663794 4.5205115e-06 3.5157125e-05
8.595011e-05 0.011730935 0.00024539806 3.25373e-06 8.73122e-06 5.2867028e-05 1.6729159e-08 0.00013095858
2.5528616e-06 6.8113663e-06 0.0004188347 2.59348e-11 0.00030195105 1.5661558e-06 1.3752635e-05 8.66564e-05
0.016142422 0.00014860631 2.7498324e-06 8.859731e-06 7.793545e-05 1.3498248e-09 7.966576e-05 3.069942e-06
1.2088196e-05 9.204234e-06 2.4428175e-09 6.9525263e-06 1.5135811e-06 1.661939e-06 1.7625953e-05 0.04564345
1.8502566e-05 9.98154e-07 2.2130457e-06 9.062305e-05 0.018349554 6.465493e-05 2.3444584e-06 2.172258e-06
4.1040657e-05 0.0043917135 3.1201216e-05 4.147968e-07 1.9773256e-06 0.00011340734 2.7275393e-09 8.441884e-05
1.7321577e-06 1.0156999e-05 0.00031913765 0.021157729 0.00021184844 2.305485e-06 1.2310241e-05 6.4403907e-06
1.3325269e-09 6.0279554e-06 3.4109354e-07 7.8206676e-07 5.3018975e-05 0.0067696315 4.7028574e-05 3.0536899e-06
7.915189e-06 0.00039426246 0.029014723 0.00024003768 1.4176243e-06 8.579767e-06 8.137859e-05 0.0059655244
8.4888205e-05 9.903385e-07 2.5829697e-06 9.417459e-05 2.8385885e-10 3.931608e-05 2.7442417e-07 3.954146e-06
5.5768964e-05 3.3736416e-11 7.4114316e-05 4.8652146e-07 4.034546e-06 0.00074090174 2.1302629e-10 0.00066534185
3.1455772e-06 2.2419219e-05 1.7013499e-05 0.031937987 1.7103232e-05 1.722323e-06 1.3142694e-06 0.00056433724
0.06890834 0.0004757595 2.5800816e-06 1.7241306e-05 0.0003515567 4.3954457e-10 0.00024617245 3.495769e-06
1.4665411e-05 4.8076938e-05 6.3854646e-09 3.469028e-05 9.15793e-06 8.943454e-06 0.00017875533 1.9276014e-08
0.00020890488 1.6151314e-06 1.10483315e-05 0.0002905043 0.017971244 0.00024332787 1.3434473e-06 1.2411654e-05
3.80666e-05 1.4507496e-09 3.9380262e-05 2.7548806e-06 4.777699e-06 0.00023199545 2.3866926e-11 0.00013509407
6.7910366e-07 6.681327e-06 0.00060152047 0.009054634 0.0004261964 1.7340138e-06 1.036721e-05 1.5853671e-05
00000000: 883c 5037 fb61 4431 e8e6 8337 0b2c 6d35
00000010: 9348 ec35 5b3b a639 5601 b63d 02a5 0d39
00000020: 2fe0 c335 af1d 1437 5f47 e538 5c2a db3d
00000030: 8e02 1139 80db 0736 f95c e436 2276 b239
00000040: c399 cb30 699a 9e39 8923 eb35 f6fb 3337
00000050: 18f6 8d3a e2af 6c3d b6b9 3d3a ee6e 2a36
00000060: 0908 cd37 a3d6 2d37 e6f4 bf39 3bcf 0937
00000070: 4c1b 9e35 e292 c135 c758 9236 57a7 ea3a
00000080: 3482 1b37 8422 5d35 1f10 ae35 c3b7 0a3a
00000090: b621 c730 a183 053a 21da 3e36 a134 3a37
000000a0: 1f20 5738 dce3 da3a 1deb e238 9107 6c36
000000b0: ad67 9f36 8d6b 7537 5ea9 ac31 73db 3037
000000c0: f5b5 1e36 cea8 af35 8469 aa37 9dca 113a
000000d0: 17c3 9637 f2e0 8f34 46f6 2736 85f9 b237
000000e0: ff04 0830 7e95 2c37 a567 8b36 3ec9 9536
000000f0: 6cab ed37 cb91 7e30 e711 8937 bccd 9736
00000100: ad4b 3436 7740 2038 9c19 893c ffef a537
00000110: a8d8 e936 e910 df36 3f10 4038 e00d 9d31
00000120: c435 3338 a023 9836 4d71 aa36 c1af 4d38
00000130: adc2 9c3c e6a1 9038 8090 1835 361f 5a36
00000140: fd83 e338 dd3f 5731 51df 5538 ba99 9b35
00000150: 9e39 0037 c1de 8239 17fc 253e 3420 8d39
00000160: 1a59 0036 a2a9 8137 6c6f 953a 82bf 6d3d
00000170: 4417 163a ca45 5536 fca2 ab37 638f 203a
00000180: 404b 973c aa87 c439 e8b5 d935 5d90 2837
00000190: e4b0 6437 d52e 2730 9852 2d37 2432 5035
000001a0: 3904 c235 9aef bc37 94b8 373d 2ee8 9337
000001b0: 9737 6736 6572 3936 9b2f cf39 2841 5f3d
000001c0: 41a0 4839 f39e 0336 f665 1337 8e57 833a
000001d0: ef8d 113d 7eff 333a e6ae 9736 ad75 1338
000001e0: 1d40 b438 1c33 403c c5a8 8039 a85a 5a36
000001f0: 4e7c 1237 8abd 5d38 cfb3 8f32 ed51 0939
00000200: d451 2b36 318d e436 0b97 db39 fa1f e42d
00000210: 2f4f 9e39 b434 d235 1ebb 6637 4dbb b538
00000220: 1d3d 843c 34d3 1b39 c389 3836 41a4 1437
00000230: 4771 a338 bd84 b930 3b12 a738 3405 4e36
00000240: 68ce 4a37 e26b 1a37 80de 2731 bf49 e936
00000250: 4026 cb35 ca0f df35 72db 9337 a0f4 3a3d
00000260: f535 9b37 4ff8 8535 d683 1436 e10c be38
00000270: ce51 963c 5a97 8738 7d55 1d36 1cc7 1136
00000280: 1223 2c38 5de8 8f3b 0dde 0238 3db1 de34
00000290: 32b2 0436 1ad5 ed38 616f 3b31 050a b138
000002a0: 7c7c e835 fb67 2a37 ee51 a739 f952 ad3c
000002b0: a223 5e39 eeb7 1a36 1588 4e37 891a d836
000002c0: 1f24 b730 be43 ca36 8a1f b734 38ef 5135
000002d0: b160 5e38 c9d3 dd3b 8c40 4538 feed 4c36
000002e0: 7acb 0437 03b5 ce39 49b0 ed3c a0b2 7b39
000002f0: 3345 be35 d2f1 0f37 cca9 aa38 727a c33b
00000300: 0206 b238 c6eb 8435 1557 2d36 997f c538
00000310: 950d 9c2f 52e7 2438 9254 9334 dbad 8436
00000320: 78e9 6938 d45f 142e d26d 9b38 8099 0235
00000330: 7c60 8736 1339 423a 9239 6a2f 566a 2e3a
00000340: 9b18 5336 e810 bc37 36b8 8e37 68d1 023d
00000350: e978 8f37 912a e735 f465 b035 08f0 133a
00000360: d11f 8d3d 5c6f f939 7725 2d36 6ca1 9037
00000370: 2451 b839 66a4 f12f b510 8139 db98 6a36
00000380: 760b 7637 38a6 4938 2467 db31 6880 1138
00000390: 03a5 1937 d80b 1637 4570 3b39 6794 a532
000003a0: 7a0d 5b39 7ec7 d835 395c 3937 d44e 9839
000003b0: 6e38 933c d425 7f39 7f50 b435 a63b 5037
000003c0: b3a9 1f38 b763 c730 3c2c 2538 7de0 3836
000003d0: 1f50 a036 ce43 7339 8aef d12d 0aa8 0d39
000003e0: a64b 3635 2930 e036 5baf 1d3a e359 143c
000003f0: 1d73 df39 43bc e835 d4ee 2d37 80fd 8437

exp_avg f4 [128]
-0.00011606489 -0.00010454649 -0.00017102336 -0.0002104077 -5.326422e-05 -4.3662836e-05 2.3650407e-05 -3.9269973e-05
0.00026869544 -5.527843e-05 7.045353e-05 -0.00034993963 -0.00012057134 -0.00021908875 0.0005513155 5.5293232e-05
-3.066454e-06 0.00040249567 5.9331887e-05 -0.0003780629 -0.000111630965 -4.078219e-05 0.00020962511 -0.00018512213
0.00022860029 1.8389446e-05 -0.000107602435 -9.327169e-05 -0.00032312915 9.156024e-05 8.481657e-05 7.9891775e-05
0.00010948369 0.00013541889 -1.7109844e-05 1.176391e-05 -0.000103734325 -0.00011450978 2.5840018e-05 -0.00010318045
-0.00023412785 -0.00029359863 1.5480327e-06 4.562106e-06 -0.00010311525 -0.00046501364 -0.0001677723 -0.00035272865
-0.00021423183 -0.00031640485 0.00042769898 -0.0001433034 -0.00029074802 -0.00026500464 -0.00022679003 -9.0338755e-05
-0.000473982 0.00013136552 0.000533957 -3.4873756e-05 0.0001973733 -0.00013860017 -0.00065978954 8.479432e-06
-0.0002137908 -5.903579e-05 0.00035331424 8.038708e-05 0.00014912563 -0.00023151148 6.817857e-05 7.338572e-05
0.00012677403 -3.8831786e-06 1.9195602e-05 -4.1968917e-05 -0.00039479343 -7.601156e-06 -5.6908716e-06 0.00023110418
-3.947979e-05 -0.0002698724 -0.00022047378 0.00018464217 1.6135498e-05 3.643948e-07 0.000462654 -0.0002757318
-0.00036820382 -0.00023173692 0.00036712174 -0.00045915638 -3.6621168e-05 -0.00023408626 -0.00020281204 0.00020622784
-4.9635117e-05 0.00045965984 -0.00024511266 4.8163074e-06 -0.00027243028 3.5897214e-05 -0.00012265512 0.0003272432
6.5767235e-05 -9.2406335e-06 0.00021607162 -0.00047582877 0.00017470673 -1.3263578e-06 -0.00030292934 -0.00026083665
1.1649044e-07 0.0002627685 -0.0002965108 -6.820929e-05 -0.00010436913 -0.00038042184 0.00029421432 0.000105768486
-0.00042035733 0.00015024348 1.4191927e-05 3.71782e-05 -0.00031524987 -0.00012655281 -7.902287e-05 0.00022268954
00000000: dd67 f3b8 f83f dbb8 bc54 33b9 e3a0 5cb9
00000010: 0568 5fb8 9d22 37b8 dd64 c637 d0b5 24b8
00000020: b1df 8c39 c3da 67b8 73c0 9338 1a78 b7b9
00000030: 3fdb fcb8 30bb 65b9 2886 103a a8ea 6738
00000040: 47c9 4db6 0e06 d339 21db 7838 be36 c6b9
00000050: 6b1b eab8 8b0d 2bb8 d0ce 5b39 581d 42b9
00000060: 6cb4 6f39 0943 9a37 9ea8 e1b8 db9a c3b8
00000070: a969 a9b9 0804 c038 8ddf b138 928b a738
00000080: 9c9a e538 3bff 0d39 1c87 8fb7 9c5d 4537
00000090: f18b d9b8 f824 f0b8 04c3 d837 9562 d8b8
000000a0: 3780 75b9 24ee 99b9 00c6 cf35 3114 9936
000000b0: 943f d8b8 13cd f3b9 09ec 2fb9 70ee b8b9
000000c0: 6ba3 60b9 24e3 a5b9 c93c e039 b743 16b9
000000d0: 8a6f 98b9 52f0 8ab9 7cce 6db9 4074 bdb8
000000e0: ca80 f8b9 2abf 0939 3ff9 0b3a 6945 12b8
000000f0: fef5 4e39 3355 11b9 baf5 2cba e242 0e37
00000100: 082d 60b9 329d 77b8 093d b939 7c95 a838
00000110: 9b5e 1c39 e4c1 72b9 17fb 8e38 a9e6 9938
00000120: a5ee 0439 404c 82b6 3e06 a137 c807 30b8
00000130: 47fc ceb9 6f0d ffb6 37f4 beb6 8e54 7239
00000140: 1a97 25b8 a97d 8db9 fb2e 67b9 819c 4139
00000150: b85a 8737 0aa2 c334 5e90 f239 1990 90b9
00000160: 7b0b c1b9 68fe 72b9 3f7a c039 edba f0b9
00000170: ae99 19b8 0d75 75b9 f1a9 54b9 dd3e 5839
00000180: 4d2f 50b8 80fe f039 7782 80b9 c49b a136
00000190: f9d4 8eb9 5790 1638 fc9c 00b9 d791 ab39
000001a0: 84ec 8938 3808 1bb7 4991 6239 a878 f9b9
000001b0: 7b31 3739 4f05 b2b5 7dd2 9eb9 e7c0 88b9
000001c0: 4c29 fa33 31c4 8939 0275 9bb9 950b 8fb8
000001d0: c0e0 dab8 5b73 c7b9 c740 9a39 06d0 dd38
000001e0: 6863 dcb9 ad8a 1d39 dd19 6e37 caef 1b38
000001f0: 1f48 a5b9 43b3 04b9 15b9 a5b8 c581 6939

exp_avg_sq f4 [128]
5.213515e-07 3.7514037e-06 1.8319944e-06 3.961485e-06 1.0834613e-05 3.4923153e-07 2.2619768e-07 5.349255e-06
1.6637086e-06 5.2646675e-07 3.7532226e-07 9.697034e-07 9.926765e-07 1.6883736e-06 1.7043794e-06 8.924552e-07
1.94797e-06 4.4513718e-06 1.0370558e-05 5.450029e-06 4.3408465e-07 7.884733e-07 3.83961e-06 1.3151867e-05
2.7481994e-06 1.7679469e-06 5.4080265e-06 1.9760043e-06 2.3177458e-06 3.8470344e-07 5.513197e-07 1.0786322e-06
7.702205e-07 2.1746378e-06 4.215381e-06 2.0276968e-07 2.3997716e-06 3.7860655e-06 9.822226e-07 1.0577096e-06
9.372776e-07 8.180663e-06 5.0944345e-07 6.6716984e-06 4.4043045e-06 2.197581e-06 2.785579e-06 3.8132423e-06
1.3481485e-06 2.404136e-06 5.5789583e-06 5.2565383e-07 1.888394e-06 2.0042696e-06 2.3505202e-06 1.487557e-06
4.244442e-06 2.1232266e-07 8.141606e-06 1.1339611e-06 4.2700188e-07 6.726844e-07 3.1055185e-06 6.3361364e-07
2.3802531e-06 2.3316804e-06 4.0912784e-07 3.365528e-07 1.3962867e-06 1.2974286e-06 4.888614e-07 9.723151e-07
2.734154e-06 4.440153e-06 3.605378e-07 1.3101095e-06 2.5703046e-06 1.6793742e-06 9.558502e-07 1.2055344e-05
3.0139029e-06 9.442733e-07 2.093141e-06 7.968951e-07 6.4104042e-06 1.3538187e-06 1.0986353e-05 2.2403492e-06
5.915883e-06 2.5242148e-06 3.6133308e-06 2.6690063e-06 1.3734146e-06 1.0396611e-06 3.9157482e-07 3.456189e-06
6.44275e-07 2.4947665e-06 9.775867e-06 1.860235e-06 1.5976163e-06 1.0943411e-06 1.0828286e-05 2.0927414e-06
3.1200905e-06 9.915298e-07 3.4200455e-06 4.771487e-06 2.9482762e-06 9.557198e-07 8.1122766e-07 1.7217939e-06
3.1023994e-06 5.4124866e-06 3.0137755e-06 1.2256705e-06 2.1806532e-06 1.9845102e-06 4.491257e-06 1.8726143e-06
3.1924246e-06 1.3865337e-06 1.2150348e-06 7.851784e-07 1.2194615e-06 8.1679184e-07 4.3931374e-07 5.034355e-07
00000000: 01f3 0b35 a0c0 7b36 d9e2 f535 e6ec 8436
00000010: 4fc6 3537 047e bb34 bfe0 7234 c07d b336
00000020: 984c df35 8552 0d35 e67f c934 c126 8235
00000030: 1b3c 8535 139c e235 08c2 e435 0e91 6f35
00000040: dfb9 0236 fe5c 9536 35fd 2d37 65df b636
00000050: 240c e934 79a7 5335 00d6 8036 d7a6 5c37
00000060: b56d 3836 314a ed35 9876 b536 7f9b 0436
00000070: 928a 1b36 3d89 ce34 67fe 1335 85c5 9035
00000080: 26c1 4e35 feef 1136 d971 8d36 e8b8 5934
00000090: c30b 2136 1c14 7e36 e9d4 8335 a0f6 8d35
000000a0: 3a99 7b35 ae3f 0937 b0c0 0835 74dd df36
000000b0: b0c8 9336 277a 1336 e2ef 3a36 01e7 7f36
000000c0: 08f2 b435 be56 2136 e332 bb36 a81a 0d35
000000d0: b974 fd35 1781 0636 a1bd 1d36 12a8 c735
000000e0: 7b6b 8e36 cffa 6334 ee97 0837 9b32 9835
000000f0: b13e e534 8592 3435 6768 5036 9915 2a35
00000100: 70bc 1f36 f779 1c36 1aa6 db34 77af b434
00000110: 0c68 bb35 4f23 ae35 4d3a 0335 7e80 8235
00000120: 687c 3736 a0fc 9436 f08f c134 05d7 af35
00000130: 7f7d 2c36 dc66 e135 c34a 8035 4f41 4a37
00000140: 7542 4a36 f879 7d35 e377 0c36 37ea 5535
00000150: f418 d736 dbb4 b535 0752 3837 e858 1636
00000160: 0c81 c636 ae65 2936 8d7c 7236 2e1d 3336
00000170: 2b56 b835 7c8a 8b35 a239 d234 e0f0 6736
00000180: 3ef2 2c35 c36b 2736 0703 2437 30ad f935
00000190: ae6d d635 46e1 9235 22ab 3537 0671 0c36
000001a0: bf62 5136 b414 8535 ef83 6536 c31a a036
000001b0: 00db 4536 4846 8035 24c3 5935 6318 e735
000001c0: d132 5036 e89c b536 4540 4a36 b881 a435
000001d0: 5657 1236 a02d 0536 9bb3 9636 8a56 fb35
000001e0: 703d 5636 ef18 ba35 4714 a335 0cc5 5235
000001f0: 61ac a335 8241 5b35 d2da eb34 d323 0735
