Goodminton/Assets/results/Badminton/Badminton/Badminton-370.pt (torch, 438968 bytes, 36 tensors)

network_body._body_endoder.seq_layers.0.weight f4 [128, 5]
00000000: ac50 4cbf 3509 a9be f17b 30be 214f 943d
00000010: 10f6 b33e c70f b43e f75d a63d 025a a4bd
00000020: 8987 d2be bde4 81be 27ad 2c3f 7942 19bf
00000030: 8436 69be 69b0 8ebe 656f 6bbe ba64 90be
00000040: 796e e2be 0b15 ffbe c075 e6be 6d83 44be
00000050: 3f58 88be b892 82be 10c2 cd3e 5e0f ea3b
00000060: a9b8 39be 05ce 94be 4a01 f1bd 85f4 673e
00000070: 4100 95be e781 1d3f 6197 6fbf b426 fbbe
00000080: 7aab ac3b 49b8 d1be 2a4c 7a3f 1861 aebe
00000090: 779b 143f 7ee4 65be b1e6 8a3e 188e 2bbf
000000a0: 1f85 55be 42f4 e3bc 5356 7abf 98d2 be3c
000000b0: 2f49 763e 52b4 623d 0475 873e 220c f8be
000000c0: d29f 60be 09c3 fd3d 2c22 b1be 9a5d 4abf
000000d0: 5231 06bd 2a7f b9be b9e8 b43e 3dbd 00bf
000000e0: 55ea 29be f6cd b73d afe0 21bf 1de0 2c3f
000000f0: 8f71 243f 3754 a43e e7de a5be f1c6 03be
00000100: afd2 aa3d be9a 653e 0afc 44bf 6f6d b93d
00000110: bfa4 6ebf 8854 f5be 855d 053f f6b2 7abf
00000120: 73de 49bf 27d0 423f 2284 19be 9839 04bf
00000130: 1e92 473e d61a c1bd 657a cc3e 33e4 4d3d
00000140: d6b5 663e fc1d 083e 8698 96be d374 f73c
00000150: 10b4 01bf 06aa 033f 2dbb 40bf 2cbb 8dbf
00000160: 8b86 d93e 751d b1be 6744 fe3e 32fa d03e
00000170: 84f4 243f 339a 783f c52a 20bf 7f8a 7e3e
00000180: bb22 0dbf 6754 8fbe 65e4 27be 7cb5 e2be
00000190: eac7 64be 7903 02bf dc5c 15bc 859b d73e
000001a0: 185a f2be 5fcf 9d3d c614 603f c3b1 43be
000001b0: 2ac2 d5be 8336 8cbd d7d9 fe3d 94fb 9dbe
000001c0: adea 27bd 0fb1 41be a42c 6f3e fe45 1fbf
000001d0: 619a 9c3e 5ae5 4cbe eb5d 3abd 064b 1ebd
000001e0: ccba f13e 1a94 cf3f 6b1e 8abe 76e5 843e
000001f0: 8fe0 3f3e 8149 033f c93f dd3e 1130 403f
00000200: 5d64 35be 2e54 c83e 69fd 8a3e 227f adbe
00000210: 3714 f1be b99b 1cbf b9f0 6fbe df75 3a3f
00000220: fd69 91bd 13b7 a93d f2c4 553e cb39 c13e
00000230: 54fc a0bd 3d9b 5a3e 1464 6bbe 844a 68be
00000240: 4a76 f6bd 014d 2ebe f729 853d a184 73be
00000250: 6a88 223f 7be2 fe3e 1740 d93f 01d3 e3be
00000260: 5326 40bf 8b35 873f 7128 15bd 2880 9e3c
00000270: e4e3 e3be 1138 5f3e 8ab4 0c3f ace2 dabd
00000280: 68d8 a1be 5e3a 0c3e 6685 a7be bc2f 393e
00000290: 6a07 65be 8f60 0dbf 4b06 a43e c20b f5be
000002a0: 7cc8 9c3e 609b 6a3c 4765 ebbe 2946 07bf
000002b0: bf26 23bf f7a7 9dbe bd52 d63c 3a46 153f
000002c0: cf81 bcbe 63fa 35bd 6825 97be 8e44 61be
000002d0: 7402 10bf d894 cbbe 3c58 13be 49c2 d5bd
000002e0: d9a5 cc3d b84e 73be 1361 313d 42e9 5ab9
000002f0: 3731 3dbd 78e2 e73e 1d95 14bf c2b9 4e3c
00000300: 16b2 15bd 93f6 adbf 4b05 d1bd b628 74bc
00000310: cc36 d7be 46c4 49bf 3e3c 6abf c8bb 8fbd
00000320: eb76 a6bd e140 8c3e 24ef d2be 7ac6 12bf
00000330: f2e6 d63c e673 d83e 42fb 393f 0c71 43bf
00000340: fdf1 e03d 4eed 66bf 72fa c2be 5d38 2fbe
00000350: e751 173f 036d 93be 2d46 673d 25f4 1c3f
00000360: 9bf6 cd3e 45f3 3abf 7c26 17bc c57f 8b3e
00000370: 26f5 e03d 7bf6 89bd 5023 2e3d 18c3 2b3f
00000380: fbc3 c4be 2a58 1dbf ac6f ac3e 08b4 f23d
00000390: 163b 643f 448d 363f 1298 8a3e 1cbf 9d3c
000003a0: 3b05 6e3f 3dfb 2abf bcb0 1abe 95bf fbbe
000003b0: 7fab fbbe 276f cbbe 99ca 233e 36e5 03be
000003c0: afb3 823d b7e7 5c3e 1760 c63e 9727 033f
000003d0: 2f7d 45bf ac82 1fbf 3694 a7be cdb1 753d
000003e0: 6d41 573e 0484 c03e e767 2d3e 706f ac3e
000003f0: a0f3 853d 9eed 113f 3744 aa3e 73bc 47be
-0.79810596 -0.33014837 -0.1723478 0.07241655 0.35148668 0.35168287 0.08123391 -0.0802498
-0.4111903 -0.25369826 0.6745171 -0.59867054 -0.22774702 -0.27868965 -0.22991712 -0.28201848
-0.4422491 -0.49820742 -0.4501171 -0.1919076 -0.26629826 -0.25502563 0.4018712 0.007142945
-0.18136849 -0.2906343 -0.11767824 0.2265187 -0.29101756 0.6152634 -0.9359036 -0.49052966
0.005269465 -0.4096091 0.9777247 -0.34058452 0.5804972 -0.22450444 0.2712913 -0.6701369
-0.20851563 -0.027826432 -0.9778797 0.023293778 0.24051355 0.055347748 0.26456463 -0.48446757
-0.21935967 0.12390716 -0.34596384 -0.79049075 -0.03276188 -0.3622983 0.35333803 -0.50288755
-0.16593297 0.08974831 -0.63233465 0.6752947 0.64235777 0.320955 -0.32396623 -0.12868859
0.08340966 0.2242231 -0.7694708 0.09054076 -0.9322013 -0.47916055 0.52095824 -0.9792932
-0.78855056 0.76098865 -0.14991811 -0.5165038 0.19489333 -0.09428947 0.3993713 0.050266456
0.22530302 0.13292688 -0.2941324 0.030207073 -0.5066538 0.5143131 -0.7528561 -1.1072745
0.4248546 -0.34592786 0.49661562 0.40815884 0.644356 0.9711029 -0.6256526 0.2485752
-0.5513112 -0.2799408 -0.1639572 -0.44279087 -0.22341886 -0.5078655 -0.009116378 0.4211084
-0.4733436 0.077055685 0.875317 -0.1911078 -0.41749698 -0.06846335 0.124438934 -0.30856
-0.04099529 -0.18915199 0.23356873 -0.62216175 0.30586532 -0.20009366 -0.045499723 -0.038645767
0.47212827 1.6217072 -0.26976332 0.25956315 0.18738006 0.51284033 0.43212727 0.75073344
-0.17714067 0.39126724 0.27146462 -0.33886057 -0.47085735 -0.61175114 -0.23431672 0.72836107
-0.07100294 0.08286872 0.2087591 0.37739405 -0.07860628 0.21348281 -0.22987396 -0.22684675
-0.120342806 -0.17021562 0.06502145 -0.23781063 0.634894 0.49782166 1.6972684 -0.4449692
-0.7505848 1.0563215 -0.03641552 0.019348219 -0.44509804 0.21798731 0.5496298 -0.106877655
-0.31610417 0.1369414 -0.32718962 0.18084615 -0.2236611 -0.5522546 0.3203605 -0.47860533
0.30621707 0.014319271 -0.45975706 -0.5284143 -0.63730997 -0.3079221 0.0261625 0.5831028
-0.36817786 -0.04442824 -0.29520726 -0.21998808 -0.56253743 -0.39761996 -0.14389127 -0.104374476
0.099925704 -0.23760498 0.043305468 -0.00020876995 -0.046189513 0.4528997 -0.5804003 0.01261753
-0.03654679 -1.3590873 -0.10206088 -0.014902284 -0.42033994 -0.78815114 -0.9149817 -0.07018238
-0.081281506 0.2739325 -0.41198075 -0.573341 0.02623317 0.42275923 0.72649014 -0.7634437
0.109836556 -0.9020585 -0.380817 -0.17111345 0.5910935 -0.28794107 0.05646341 0.61310035
0.40227208 -0.7302745 -0.009225484 0.27245918 0.10984258 -0.067364655 0.042514145 0.67094564
-0.3843077 -0.6146265 0.3367895 0.118507445 0.8915266 0.71309304 0.27069145 0.019256167
0.9297673 -0.6678961 -0.15106481 -0.49169603 -0.4915428 -0.3973324 0.15995254 -0.12880406
0.06381928 0.21572767 0.38745186 0.51232284 -0.7714414 -0.62308764 -0.32730263 0.059984017
0.21021052 0.3760072 0.16934167 0.3367877 0.065406084 0.570032 0.3325517 -0.19505481

network_body._body_endoder.seq_layers.0.bias f4 [128]
00000000: 8d67 3bbb d0df 06bb 5dad 2eba d461 60bb
00000010: fac8 41bb 7fd6 253b 7625 923a 85ad 193a
00000020: f82d 023a faaf 4c3b c8af b13a 3b86 57bb
00000030: 9075 19ba c142 033b 6f93 aeb7 c401 59ba
00000040: 7b03 8d3a 8787 28bb 9708 ab3a 214c 9a3a
00000050: a24c 29bb d26a a838 d283 313a 29c1 b5ba
00000060: be78 523a 5e00 df3a 1d87 473b 3c19 faba
00000070: f02d 58bb ef57 cf3a c0cb ef3a a846 0abb
00000080: 7d52 d43a 2c73 943a 69c5 39b9 b12b beba
00000090: f148 8ab9 bbe3 16ba 10fb 9eba ab56 eb3a
000000a0: 113c 64ba 9dfa 9cb9 a906 07bb fef1 103a
000000b0: 6b09 213b 631b 03bb d135 2a3b fe09 443a
000000c0: 767e c6b9 08b4 6f3a 9724 a13a 82c2 40bb
000000d0: d897 92ba 1b41 f7b9 d600 c4ba f003 6f3b
000000e0: 7abf 4b3a cbce 193a 17ff 983a 4553 c63a
000000f0: df7e 94ba 203d 72b8 a6a9 15bb 2974 0fb9
00000100: e806 553a 3b18 6bba 02a0 cd3a d00d e03a
00000110: 125e 1dbb 0fef b93a 8df4 f23a ed46 d739
00000120: 99cb 553b caef 283b 0619 273a 688c 28ba
00000130: a76c 5abb e4da b2ba 8243 30bb 5d8d 99b9
00000140: 1d04 1cbb 1f8f 043b 076f 8e3a 05e9 c338
00000150: 7151 1739 b966 7339 cf67 9fbb e65f 30bb
00000160: 2432 8b3a c073 99bb 05ad 3e3a 386e cebb
00000170: 5324 5aba 87fd e93a 2fff 37bb 9f47 2bbb
00000180: 27cc 343b 72ef 2c3b 5022 abba 2f2b a83a
00000190: 54cf 15b9 04d9 663a d00f fb3a d486 233b
000001a0: ca60 aeba 8b18 f83a dbe3 d7b8 bfe1 85ba
000001b0: 7949 0ebb a520 4bbb b64d 2c3b 06a3 5aba
000001c0: 3477 f1b9 a37b 0d3b 4a4a ff39 d2ee ca3a
000001d0: 8830 c5b9 ee1e a8b9 395d b5ba d90f 1aba
000001e0: 28f0 b6ba 9919 043a 3b33 2fba 07b0 3aba
000001f0: f6d7 1f3b 58f3 8bba 7a94 e3b9 2a31 af39
-0.0028595657 -0.002058018 -0.00066634064 -0.0034237998 -0.0029569254 0.0025304852 0.001115008 0.0005862343
0.00049659563 0.003123282 0.0013556415 -0.0032886404 -0.0005854005 0.0020028802 -2.081107e-05 -0.0008278156
0.0010758484 -0.0025715546 0.0013048825 0.0011771956 -0.002583303 8.030761e-05 0.0006771657 -0.001386677
0.0008028856 0.0017013659 0.0030445524 -0.0019081007 -0.0032986365 0.0015819053 0.0018294975 -0.0021099243
0.00161989 0.0011325828 -0.00017716516 -0.0014508871 -0.00026375757 -0.00057559804 -0.0012129266 0.0017954906
-0.00087064604 -0.0002994136 -0.0020603335 0.00055292237 0.0024572264 -0.0020005337 0.0025972018 0.00074782956
-0.00037859724 0.0009143953 0.001229423 -0.002941281 -0.0011184169 -0.0004716002 -0.0014953862 0.0036470853
0.00077723677 0.00058673014 0.0011672702 0.0015131017 -0.0011329314 -5.7754223e-05 -0.0022836714 -0.00013680816
0.0008126334 -0.0008968149 0.0015687945 0.001709396 -0.002401237 0.0014185625 0.0018536017 0.0004106084
0.0032622574 0.002577769 0.0006374273 -0.00064296136 -0.0033328922 -0.0013645557 -0.0026895707 -0.00029287758
-0.0023806163 0.0020226908 0.0010866829 9.341728e-05 0.00014430821 0.00023212553 -0.00486467 -0.0026912629
0.0010619801 -0.004682988 0.0007273707 -0.00629976 -0.0008321453 0.0017852046 -0.0028075685 -0.0026135219
0.0027587505 0.0026387838 -0.001305649 0.0012830253 -0.00014286983 0.00088061416 0.0019154493 0.002495219
-0.0013303992 0.0018928213 -0.0001029444 -0.0010214372 -0.0021711274 -0.00309948 0.0026291437 -0.00083403324
-0.00046055915 0.0021588586 0.0004869274 0.0015482551 -0.00037610927 -0.000320665 -0.0013836987 -0.0005876995
-0.001395707 0.0005039215 -0.0006683354 -0.0007121567 0.0024390197 -0.001067738 -0.00043407438 0.0003341523

network_body._body_endoder.seq_layers.2.weight f4 [128, 128]
00000000: 8c94 b93d 913c 633c d714 ce3d 5a0b a13c
00000010: 3eaa e13d fc83 953d 7388 e73c f464 0e3d
00000020: 69c3 103d 8067 ae3d fa15 07be 1e31 013d
00000030: 6866 bb3d 5cc3 573d bc63 303e 4e1b fcbc
00000040: 09d7 27bd 84da c63c 1eed 21be 5903 c5bd
00000050: ec92 04be c7ce 1e3e aea8 fa3b 53ec b03c
00000060: 9618 58bc bd3d d83d c778 1fbd 959a 91bd
00000070: 335d 08bc 0e11 5e3d dd21 0abd 6ecd 8dbd
00000080: 64fe efbd 8a9b 23be 7a8d 38bd 96e5 bbbd
00000090: b84c 7d3d f1ef f7bc 673f d4bc 554e 7dbc
000000a0: 9e8e 1f3d 8200 f93b ba83 d53c 2815 963c
000000b0: 2907 4c3d d4b7 64bd dbd8 e53d caae aebb
000000c0: eb4f a5bd 71e3 85bd a0c3 7ebb 8c18 5abd
000000d0: 691f 1bbd 0409 82bb 228f 053e c6bd 863d
000000e0: cbce 7d3d 1408 cc3d 2cdd 563b 8997 003e
000000f0: 4d3a 54bd dc37 d5bd bc5c 08be 638f 773d
00000100: 9df6 bb3c 8b55 ba3d 6773 9fb9 df09 fa3d
00000110: 1257 31bd a7cc e33c a9f6 8d3c d4e2 2a3d
00000120: e458 e53c 0282 893c 3a28 48bc a98b e9bc
00000130: 58f5 773b cbac a03c 062d 67ba 17db 95bc
00000140: 6edd 623e ac16 9a3b 150c 08be 21b6 d63d
00000150: f53f 69bc 8284 3a3e 51f5 4b3e e712 3abe
00000160: 6c41 4f3d f785 753d 1b21 7c3c c24c 6abb
00000170: a174 283d 6a4c 9a3c d80a 92bc d069 a93d
00000180: 87b8 223c b0a7 09be 9760 673d 9a7e 6a3c
00000190: 6e3f 06bd 9b1d 21be 50e2 51bd 865e 88bd
000001a0: 739f 9bbb 42c1 ff3d e742 f33b 90c1 c5bd
000001b0: 7804 86bd 48c6 a2bd 0866 79bd 9cd0 e33d
000001c0: 10f5 443e 1e47 85bd 6ff6 0a3e 1fd6 343e
000001d0: 735f b03d 3935 a23d fc50 113e 17d1 d9bd
000001e0: 828a 183d 75af 173b 1285 66bd 221b 84bc
000001f0: fa6c 93bd 871f cabd e5af 553d dec7 d83d
00000200: c0ef 6fbd 6f40 c9bc d542 6a3d b1bc c7bc
00000210: e3c6 06bd 712f 5cbd d1c6 a7bc 46fc 603d
00000220: 1e0a 393d b44b b4bd 36a8 16be 9cf8 cdbd
00000230: 06b0 7dbd 3438 7f3d 184b 743d 357b 563c
00000240: a36d a1bd 4b7b 243d 005c 993d fa97 bd3d
00000250: 9359 eb3d 5202 fb3c f314 be3d 9721 4cbc
00000260: ec29 953c d28a 8b3d 9cc4 5fbd 64e5 9e3c
00000270: 6d94 f03d 000f 1abe f0cf 043d 45d6 e03d
00000280: ba39 7abd 40d8 3a3c d2eb cb3d 42e5 9a3d
00000290: a175 2f3d ab3a f63b 1a00 ba3d 0e07 843d
000002a0: 3378 b0bd 6841 bb3c 461e 33bc 67af 0ebd
000002b0: 2209 5abd d41f 003e 79b0 d5bd 5c91 9f3d
000002c0: 11cc da3d dafe 853d 2f0b dd3c cae7 1ebe
000002d0: cdb6 733e 8e46 bbbc 4176 803d 6ce4 a9bc
000002e0: 58d0 c73d 64b0 103a 8cbd 6abd 0979 173e
000002f0: fe34 3d3e 2637 2bbc 99bf c7bc caad 893d
00000300: fae4 023e 9cba d83d b63f 1dbe a40f bebd
00000310: 61fa cebc d38d 71bd aea8 0e3d 5176 98bd
00000320: 14d6 23be c32d 183e 79a5 e4bd e967 d53c
00000330: 163e a73d 8596 43bc 22d3 74bd 023d 9b3d
00000340: c5f2 153d 8e28 7e3c e6ae 8cbd 55a0 39bd
00000350: acdf 343d 6a74 b7bd e321 74bd d260 2c3c
00000360: 1cff 0ebe f729 82bd c486 ac3c 4781 a33d
00000370: 6a92 80be 35cd 38be 43c8 02be 46b2 12be
00000380: 0883 913d 05d0 793c 91ff 31bd ad8f a1bd
00000390: 1d24 993d 484c 263d 5c28 cc3d 3767 3c3d
000003a0: a78c 47bd d82d 4d3c c81a b43d 0c4e 4b3d
000003b0: a85b 8d3d dc73 45be c343 3b3d 0ccb 1e3d
000003c0: 0db6 0abe 94e7 f8bb 54b7 e63d c0b0 a33c
000003d0: c333 69bd 274f d8bd a869 743d 5f5c a33d
000003e0: 0381 f73d 33f1 4bbc 53a9 74bd 8372 a3bd
000003f0: c226 c1bd e18e d73d 3441 f2bd 3a88 93bd
0.09061536 0.013869421 0.10062569 0.019658733 0.11018799 0.07300565 0.028263306 0.034764245
0.035342608 0.08515835 -0.13191977 0.031540982 0.09150392 0.052676544 0.17225546 -0.030774739
-0.040976558 0.024274118 -0.1581311 -0.09619779 -0.12946671 0.15508567 0.0076495027 0.021597063
-0.0131894555 0.10558651 -0.03893354 -0.07109562 -0.008323002 0.054215483 -0.0337237 -0.06923948
-0.11718443 -0.15977302 -0.045056798 -0.091746494 0.061840743 -0.03026578 -0.025909139 -0.01546057
0.03895437 0.0075989375 0.026063789 0.018320635 0.049811516 -0.055839375 0.112230025 -0.005330895
-0.08071884 -0.06537522 -0.0038873926 -0.053246066 -0.037871752 -0.00396836 0.13042882 0.06579165
0.06196479 0.09962478 0.0032785637 0.12557806 -0.051813412 -0.10411045 -0.13316625 0.06043948
0.022944743 0.09098347 -0.00030412825 0.12208914 -0.043295927 0.027807547 0.01732953 0.041720226
0.027996488 0.016785625 -0.012216622 -0.028508978 0.0037835445 0.019613644 -0.00088186597 -0.018292947
0.22154781 0.0047024097 -0.13285859 0.10483957 -0.01423644 0.1821461 0.199178 -0.18171273
0.0505995 0.059942212 0.015388752 -0.0035751318 0.04112685 0.018835265 -0.017827436 0.08272135
0.00993169 -0.13442874 0.0564886 0.014312411 -0.032775335 -0.1573395 -0.05124122 -0.06658654
-0.0047492324 0.12488033 0.007423747 -0.0965606 -0.06543821 -0.079479754 -0.06088832 0.111237735
0.19234109 -0.06507705 0.1357057 0.17659806 0.086119555 0.07920308 0.1419105 -0.10635584
0.037241466 0.0023145352 -0.05627925 -0.01612622 -0.0719852 -0.098692946 0.0521697 0.10584997
-0.058578253 -0.024566857 0.057192642 -0.024381967 -0.032904517 -0.05375618 -0.020480545 0.054928087
0.045175664 -0.08803502 -0.14712605 -0.10057184 -0.061935447 0.06230946 0.059641927 0.013090898
-0.0788224 0.040156644 0.07488251 0.09257503 0.11491694 0.030640755 0.092813395 -0.01245918
0.018208466 0.06813587 -0.05463086 0.019396491 0.1174706 -0.15044785 0.032424867 0.10978369
-0.06109021 0.011404097 0.099570885 0.07563259 0.04283679 0.007514318 0.090820506 0.06446658
-0.08616676 0.022858337 -0.010932511 -0.034835245 -0.053231366 0.12512141 -0.1043405 0.07791397
0.10683454 0.0654275 0.026982872 -0.15518108 0.23800202 -0.022860792 0.06272555 -0.020738803
0.09756535 0.00055194483 -0.057309672 0.14792265 0.18477246 -0.01045016 -0.024383353 0.06722601
0.1278266 0.10582468 -0.15356335 -0.09280327 -0.025265874 -0.058973145 0.034828834 -0.07444442
-0.15999633 0.14861207 -0.11164374 0.026050525 0.08166139 -0.011937742 -0.059771664 0.07579996
0.036608476 0.015512599 -0.06869297 -0.04531892 0.044158623 -0.08957751 -0.05960263 0.010521131
-0.13964504 -0.063556604 0.021060355 0.07983642 -0.25111705 -0.1804703 -0.12771706 -0.14325818
0.0710507 0.01524735 -0.043456618 -0.07888732 0.07477591 0.04060009 0.099686354 0.04599687
-0.04871812 0.012523137 0.087941706 0.04963498 0.06902248 -0.19282478 0.04571892 0.03876786
-0.1354601 -0.0075959656 0.11265436 0.019981742 -0.05693413 -0.10561972 0.059671074 0.07976603
0.12085154 -0.012447643 -0.059731793 -0.07980826 -0.094312206 0.10525299 -0.11828843 -0.072037175

network_body._body_endoder.seq_layers.2.bias f4 [128]
00000000: 0998 f2b8 9855 62bb 5434 cf3a 8971 e5ba
00000010: c5dc e2b9 9094 5b3b fc10 823a c552 68ba
00000020: 8742 113b 0483 2bbb 9136 5fbb cc9f 8eb8
00000030: ce6c 0db8 8764 12bb b2ef 5939 fbb7 12bb
00000040: 2ae2 81ba 30be 273b 6382 cd3a f3f8 163b
00000050: 30dc 5639 d8e2 79bb 815a 0b3a b836 513b
00000060: 903b 6a3a 582d ffb9 d2df 3f3b 6e35 713b
00000070: ea64 303b e153 36bb b784 4d3a f838 163b
00000080: 3f48 c63a 3354 aeba b153 b9ba 8864 033b
00000090: 9a97 133b e0a5 183a 0f95 88ba 4c7e 05bb
000000a0: b216 8e3a 97ac c93a 434f 263b c582 a93a
000000b0: 6dd1 7db9 5007 5e3b cf2b 303b 583d 1dba
000000c0: 8338 233a 5f49 623a 9ddb edba f64c f2b9
000000d0: d7f2 203b 2472 d6ba cfa9 bb3a cc14 f13a
000000e0: b78c cdb9 ac42 bb39 5536 87bb 906f 9bbb
000000f0: 3922 093b 15b3 50ba 005d 2e3a 50d9 0f3b
00000100: 3068 863a 4d73 243b f8ae a43a 4135 3cba
00000110: 8e1f f53a 3833 423b c9f4 8eba 5082 7d3b
00000120: bc70 5d3a 5339 a43a f4b6 0db9 4c4f 14bb
00000130: d9f7 273b 86d6 ae39 d38d 783b b133 5c3b
00000140: c9f9 743a 381b d7ba dc98 7cbb 949e 37bb
00000150: 7a1a c3b9 b89c 15bb 99c7 3c3a 1247 4fbb
00000160: 89f9 353b 0fc4 443b 8ed7 06bb c28a 2fbb
00000170: 8ee0 b7b9 e788 37ba 3e4a 59bb d4c6 1f3b
00000180: 87a4 9c3a 282f beb7 e85e 4b3b ab0d 33bb
00000190: 0d72 01bb 86e5 a4bb 2665 8dba b03e b239
000001a0: f2bd 10bb 780a 0eba 1b01 cf3a 0a1f 0b3b
000001b0: 468b 8abb c8b6 203b 9d85 a83a c997 35bb
000001c0: c041 ccba 464b 35bb c720 123b b55c 76bb
000001d0: 48b9 913a ba57 1cbb d781 32bb f4dd 34bb
000001e0: deff e73a 1942 95ba 3468 593b d7d4 c338
000001f0: db5f 443b 28c0 d9ba b05c 9fb6 0d12 90ba
-0.00011567778 -0.003453588 0.0015808442 -0.001750515 -0.00043270565 0.0033505298 0.0009923275 -0.0008862431
0.0022164898 -0.002617062 -0.0034059624 -6.800852e-05 -3.3718352e-05 -0.002233775 0.00020784026 -0.0022387493
-0.0009909321 0.0025595538 0.0015679117 0.002303657 0.00020490657 -0.0038129594 0.00053159153 0.0031923484
0.0008935267 -0.00048671174 0.0029277694 0.0036805528 0.0026915618 -0.0027820992 0.00078399054 0.002292214
0.0015127732 -0.001330024 -0.0014139322 0.0020048935 0.0022520781 0.0005823057 -0.00104204 -0.0020369468
0.0010840504 0.0015386519 0.0025376834 0.0012932649 -0.00024205977 0.003387887 0.002688158 -0.00059982156
0.00062263774 0.0008632149 -0.0018147115 -0.00046215177 0.0024558806 -0.0016360921 0.0014317575 0.0018393039
-0.00039205488 0.00035717094 -0.00412635 -0.004743524 0.002092494 -0.00079612556 0.00066514313 0.0021949597
0.0010254439 0.0025093139 0.0012564352 -0.00071795663 0.0018701421 0.002963258 -0.0010906692 0.0038682409
0.00084472797 0.0012529291 -0.00013514963 -0.0022630272 0.0025629906 0.000333477 0.003792633 0.0033600146
0.0009345082 -0.001641131 -0.003854326 -0.0028018104 -0.00037213025 -0.0022829007 0.0007201373 -0.0031628055
0.0027767143 0.0030024087 -0.0020575258 -0.0026785587 -0.00035071786 -0.0007001296 -0.0033155824 0.0024379985
0.0011950888 -2.2671724e-05 0.003103191 -0.002732138 -0.0019751817 -0.005032244 -0.0010787591 0.00033997511
-0.0022085872 -0.000541843 0.0015793176 0.0021228218 -0.0042280285 0.0024523009 0.0012857203 -0.002770888
-0.001558356 -0.0027663275 0.002229737 -0.0037591879 0.001111784 -0.0023856 -0.0027238035 -0.0027598115
0.0017700156 -0.0011387496 0.0033173682 9.337969e-05 0.002996436 -0.0016613053 -4.7493595e-06 -0.0010991708

action_model._continuous_distribution.log_sigma f4 [1, 2]
00000000: ef83 d1bb dc9c a23a
-0.0063939015 0.0012406367

action_model._continuous_distribution.mu.weight f4 [2, 128]
00000000: 18f4 b83c 859a 6d3b f40a c1bc 7adf 183d
00000010: b72a de3b d996 0cbc 8675 72bc a51d 29bc
00000020: d2f1 24bc 709c bbbb c82f 2f3c 322c 0dbb
00000030: b4a3 dfbb ae66 80bb 43ab aabc ab1d 923c
00000040: 88d2 e83c 3935 98bc 656e 30bc 1563 24bd
00000050: a0b1 2dbc 2aa8 2d3c 5640 c9bc b51c b13a
00000060: c02e 03bb 9ceb 693b 9ce7 2bbb f497 bcbc
00000070: 6928 c0ba 33bd 683c 823e 2b3b 86b1 1dbc
00000080: 3151 743c 4e0f 943c 1533 85bc 6c52 dfbc
00000090: ea9e 743c e97b efbb fe36 1fbc dcf1 26bc
000000a0: faa5 233b 802d f0bc e55b 393c 3faf 91bc
000000b0: b61e 97bc 0e94 2dbc f6f3 d33a 347a 09bc
000000c0: d753 9ebc ed26 5039 0e42 893c 5f84 6fbc
000000d0: 148d 433c 9a48 b5ba c84b 3ebd e6d6 1cbd
000000e0: 23e4 acbb bad7 1ebb bfc5 ce3c 9d6c 763c
000000f0: b8d7 633a b557 333c dd0e babc 669a ebbc
00000100: 281b ea3c dd8c 08bc 6015 9abb df2a a6bc
00000110: 0cb2 1eba 46d6 3a3c 1b29 c43a ef06 03bc
00000120: ce8a da3b 9822 d7bb f7f2 fa3c 1bdd 733c
00000130: 77bc c03c c098 0fbc 8e40 aebc 4b2b 773b
00000140: 08a7 9a3c eafd 74bb e814 b63b 8b4d b2bc
00000150: 3587 683c 170e a33c b331 e9bc a614 6a3b
00000160: 62fa 5bbc b655 c6bb 3b4c 3a3c 7976 8ebb
00000170: 910f 473c 6cdf 763b 0d3e b8bc be44 b4bb
00000180: ec7c 72bd 5ecf 753c 2f06 d8bb ef5f 1b3d
00000190: 96f4 9a3c 8f13 4c3c 58db 863c de4c d5bc
000001a0: d3d2 bd3b 6d2f 893c b2d0 45ba 5439 6ebc
000001b0: c33c f5bb 822c e9bb 2255 ebbc 2ca8 2dbb
000001c0: 14d0 7abc 014e 543c 83f5 acbc c301 a93a
000001d0: 99d5 e3ba be1a 173c 60c1 633b 093c f6bb
000001e0: 4b8f 85bc e98e a5bc af0d 75bc 4d43 6fbc
000001f0: 2072 76bb c394 7fbc 1081 783c 687a 42bc
00000200: 3705 833c 8ee4 a3bc cd1e fb3b ddc0 9abc
00000210: 5a53 6d3c 0c6f 8c3c 8ec1 48bd ed3d 0ebd
00000220: e96f d43b 7f7b 97bc 8ff9 59bc bf3f ad37
00000230: 8882 2eb9 ae00 51bb 62ac 9e3c 2890 a33b
00000240: fcc2 08bb 239a d0b9 f6ab e13b f902 013c
00000250: e5d2 a1bb 34f5 06bd bd61 11bc 73ed 1d3c
00000260: 0f15 b2bb 3d75 ad3b 2fb7 023c c7ec 193d
00000270: 45a8 a13c 1230 f9bb 05e5 143d 8da4 f93c
00000280: 1ebe b93c 6698 bbb7 9595 3dbc 960b ce3b
00000290: 5d88 be3c 9acc 80bb 2df9 f1bc 9801 e7bc
000002a0: b643 713c 4546 453c 4f84 053d d8fa eb3b
000002b0: 02da 9bba b55f 0d3c ecbf 783c d71f e7bc
000002c0: c2b7 cc3b 2c8c b13b 449e 9abb 939d 34bb
000002d0: 0dbb c53c 417a 23bc bc51 e73c 1b0e 623c
000002e0: 3398 01bc 2ada 16bd f351 f7bc 6ab1 0fbd
000002f0: 5004 063d ee5a 493b edff 753c ae34 1d3b
00000300: b18a 8c3c c10f 5e3c 090e bc39 7794 93bc
00000310: 4fa5 c03c 0967 183d c7b1 133d 49ed 873c
00000320: 5765 e0bc 3a6e 8a3b e3df 323d 43fb 59bc
00000330: f675 b0ba 1c69 db3b 0da7 7a3c 3f60 cc3c
00000340: 6614 953c 2399 89bb a0c1 b3bc c425 dcbc
00000350: 409b 103c d5e6 713b 02ce dc3a 540d cfbb
00000360: 38fe e83b 0428 803c 2b9e 87bb 5ad4 3fbb
00000370: e0e5 aa3b 3fee 5ebb c9a9 07bc 2cfc 2d3c
00000380: 3cf5 633c 4cfd 0d3d 1030 193d f4d4 9abc
00000390: 4986 5cba d1d9 2cbc 6871 0d3c 1536 e43c
000003a0: 4f3d 35bc fed4 643b 90e1 e13b c98b c33c
000003b0: 889d 8abc 128f 0d3c d6c4 793b a64c 02bd
000003c0: d640 3cbc f0fe a038 f82d 91bb 64ff 39bb
000003d0: fdc2 cd3c 96c3 c4bc 9a62 47bb 33e2 39bd
000003e0: c263 793c 93bc 24bc 6c44 993c 0918 4d3b
000003f0: 6427 1b3d 8e4b 04bc 9214 eb3b e4e0 7fbb
0.02257733 0.003625543 -0.023564793 0.0373225 0.0067799943 -0.008580887 -0.014798528 -0.010322009
-0.01006742 -0.005725436 0.010692544 -0.0021541235 -0.006824935 -0.0039184904 -0.020833617 0.017836412
0.028420702 -0.018580066 -0.010768508 -0.040133554 -0.010601431 0.0105991755 -0.02456681 0.0013512584
-0.002001688 0.0035693413 -0.002623058 -0.023021676 -0.0014660481 0.014205265 0.0026129787 -0.009624844
0.014911936 0.018073704 -0.01625971 -0.027260982 0.014930466 -0.0073084724 -0.009717701 -0.0101895
0.0024970756 -0.029318571 0.011313413 -0.01778376 -0.018447261 -0.010594381 0.0016170728 -0.008390952
-0.019327087 0.00019850927 0.01675513 -0.014618962 0.011935491 -0.0013830841 -0.04645899 -0.03829088
-0.0052762195 -0.002423747 0.025240777 0.015040544 0.00086915074 0.010946204 -0.022712165 -0.028760146
0.028577402 -0.008334366 -0.004702255 -0.020284114 -0.0006053753 0.011403626 0.0014965864 -0.007997259
0.006669379 -0.006565403 0.030633433 0.014884259 0.023527367 -0.008764446 -0.021271016 0.0037715014
0.018878475 -0.003738279 0.0055566914 -0.021765491 0.014192392 0.01990418 -0.028466081 0.0035717874
-0.013426395 -0.006052698 0.011370714 -0.004347619 0.012149707 0.003766979 -0.022490526 -0.005501359
-0.059201166 0.0150030535 -0.006592534 0.037933286 0.018915456 0.012455835 0.016462013 -0.02603763
0.0057929545 0.016746247 -0.00075460516 -0.014540035 -0.00748405 -0.0071159014 -0.028727118 -0.0026497943
-0.015308399 0.012958051 -0.021113163 0.0012894202 -0.0017382383 0.009222684 0.0034752712 -0.007514481
-0.016303679 -0.020209746 -0.014956876 -0.014603448 -0.0037604645 -0.015599432 0.01516749 -0.011870004
0.015993698 -0.020006444 0.007663584 -0.018890793 0.014485205 0.017142795 -0.049012713 -0.034727026
0.0064830673 -0.018491505 -0.013304128 2.0652891e-05 -0.0001664256 -0.0031891274 0.019369308 0.00499155
-0.0020868173 -0.00039787692 0.0068869544 0.007874244 -0.0049384707 -0.032948688 -0.0088734 0.009639132
-0.0054346393 0.005293517 0.007978245 0.037579324 0.019733557 -0.0076046074 0.036351223 0.030473972
0.022673663 -2.2363103e-05 -0.011571308 0.0062880022 0.023258382 -0.0039306404 -0.029537762 -0.028199002
0.014725616 0.012040679 0.032596882 0.0072015338 -0.0011890533 0.008628775 0.0151824765 -0.028213425
0.0062474916 0.005418321 -0.0047185738 -0.0027559742 0.024137044 -0.009977878 0.028237216 0.013797308
-0.007909822 -0.03682915 -0.030190444 -0.035081305 0.032718956 0.0030724364 0.015014631 0.0023987698
0.017155977 0.013553561 0.0003586861 -0.01801513 0.023516325 0.037207637 0.036058214 0.016592639
-0.027392073 0.004224566 0.043670546 -0.013304534 -0.001346289 0.0066958796 0.015298617 0.024948237
0.018198203 -0.0041991635 -0.021942914 -0.026873477 0.008826077 0.0036911268 0.0016846063 -0.0063187275
0.0071103834 0.015644081 -0.004138728 -0.0029270859 0.0052153915 -0.0034016517 -0.008280226 0.0106192045
0.013913449 0.03466539 0.03739935 -0.018900372 -0.0008412344 -0.010549978 0.008632995 0.02785782
-0.01106198 0.0034916992 0.006893344 0.023870366 -0.01692082 0.008640068 0.0038111708 -0.03181138
-0.0114900675 7.67688e-05 -0.0044305287 -0.0028380984 0.025117392 -0.024019044 -0.0030423761 -0.045381736
0.015221538 -0.010054725 0.018709384 0.0031294844 0.037879363 -0.008074654 0.007174083 -0.0039043957

action_model._continuous_distribution.mu.bias f4 [2]
00000000: e824 b4ba c9fd 733b
-0.0013743909 0.0037230125

exp_avg f4 [128, 5]
00000000: bea6 0a3a bc2a 4f37 cc7c a03a 0000 0000
00000010: 8a42 8498 dbd6 4137 ebb7 0d37 67f0 e8b9
00000020: 0000 0000 fc9a ea18 ff17 e639 c6e8 6437
00000030: 6c1b 953a 0000 0000 82cc 2099 983f 7437
00000040: 9e03 fcb6 8a39 01b9 0000 0000 6b43 5817
00000050: 083d 31b9 9bd0 7734 64a8 a739 0000 0000
00000060: 3ce0 b298 e113 c4b9 e246 b437 5465 bf39
00000070: 0000 0000 8ad7 1619 b732 d53a 056e 9e36
00000080: 5922 073a 0000 0000 c79e ed18 012e 5d39
00000090: ed23 7bb7 5596 09b9 0000 0000 6417 7c17
000000a0: 0604 d6ba 6005 a7b6 854f 6fba 0000 0000
000000b0: 07a5 e898 a78c cfb7 e40e c734 d50c 143a
000000c0: 0000 0000 b785 6e18 ee6b b2ba 7ad0 c336
000000d0: 5ef5 52ba 0000 0000 be88 1598 b846 4739
000000e0: fa59 2038 3679 bd3a 0000 0000 e7c7 ac14
000000f0: 8ab7 0839 0c7f 0b38 7675 a138 0000 0000
00000100: be9b 3317 dd1e 063a 5b11 e137 c055 7fb9
00000110: 0000 0000 cea5 d418 a489 a63a 6248 f537
00000120: db29 0a3a 0000 0000 3d1b 1d19 0b81 3938
00000130: 62de e0b6 3898 edb9 0000 0000 c461 2318
00000140: 33ed abb9 3d8d 93b7 7670 e7b8 0000 0000
00000150: f155 b495 c002 853a 6e3d 0d38 c00e 9039
00000160: 0000 0000 c365 0396 53d2 c939 abb4 9a38
00000170: cad4 8c3a 0000 0000 dbb2 a218 ade6 f3b9
00000180: 0141 f9b7 7f2e a6b8 0000 0000 5df1 e218
00000190: d83f 163a ff2c 8336 d681 0b3a 0000 0000
000001a0: c007 e917 8206 e6b8 ba6d 6b37 a8e4 c4b6
000001b0: 0000 0000 c816 4199 984b 2eba dbd8 54b8
000001c0: e820 8437 0000 0000 d282 c498 7e70 baba
000001d0: d421 9c37 3d96 c6b9 0000 0000 5d7a de98
000001e0: 40dc c8ba edd5 a9b8 30e5 abba 0000 0000
000001f0: 00b2 6819 5c1f 5a3a bc54 6837 3aa4 23b8
00000200: 0000 0000 a0bb 9f18 95cd 58ba 9fe1 06b8
00000210: 45c4 e639 0000 0000 c56f 2698 2b51 7aba
00000220: 14cb bfb7 105c 7539 0000 0000 d714 2199
00000230: 4a2f f6b9 bef4 69b5 d376 2aba 0000 0000
00000240: 5d91 8598 e851 b2b9 4059 81b6 5c56 0d38
00000250: 0000 0000 c49d 3698 2176 4db9 9a32 7fb7
00000260: 8318 13ba 0000 0000 539d 9d97 6f25 6038
00000270: 6b64 6cb7 6fd5 3e39 0000 0000 41a4 0699
00000280: 5733 8dba 7026 b3b7 eff7 9cba 0000 0000
00000290: d378 e498 df91 2e39 e583 d536 88ba fc39
000002a0: 0000 0000 e46b 7718 9061 49b9 81ba 2c37
000002b0: 3b2a 5e3a 0000 0000 afa4 6c18 c8d7 dd39
000002c0: 2841 f536 5aba e9b8 0000 0000 2037 0499
000002d0: 2d05 9eba 2e0d bcb5 1ce5 24ba 0000 0000
000002e0: 239b b398 dc7b 2fba e894 9d36 3b95 73b9
000002f0: 0000 0000 c61b 1216 f5a8 1439 178a 0538
00000300: 1e70 013a 0000 0000 ce5e b517 e353 7e3a
00000310: 96dc d537 9708 af39 0000 0000 9dae 8b98
00000320: 6dcd aeb9 30dd eb36 6d23 68b9 0000 0000
00000330: 1a90 c098 0614 73ba a149 9ab7 dc02 0037
00000340: 0000 0000 fd0d 3b99 6871 c7b8 4ad7 27b8
00000350: 5b3a a5b9 0000 0000 2aa2 3697 b80a 97ba
00000360: d721 b335 a1fb 33b9 0000 0000 0f8c d799
00000370: ae70 9eb9 476a b636 4018 b138 0000 0000
00000380: 0b3c 0218 473e 8fb9 56ca 2a37 7e51 07b9
00000390: 0000 0000 c789 aa98 d4e9 eb39 42ed 9537
000003a0: a8c9 0bb9 0000 0000 defe 2f19 3a4f 6bba
000003b0: a41b 1bb8 e758 a3ba 0000 0000 e9a0 a897
000003c0: 3598 5c3a 75ee 2238 6821 663a 0000 0000
000003d0: 9602 7098 2b4f 46b9 30cd 0e37 ba8c 5b39
000003e0: 0000 0000 6a50 a518 d34f 0ab9 7234 16b6
000003f0: a122 c0b9 0000 0000 fb17 1b19 179f 19b9
0.0005289129 1.2348111e-05 0.0012244224 0.0 -3.4188388e-24 1.1553721e-05 8.447077e-06 -0.00044429602
0.0 6.0644077e-24 0.00043886897 1.3644056e-05 0.001137597 0.0 -8.313106e-24 1.455834e-05
-7.5106063e-06 -0.00012323834 0.0 6.987846e-25 -0.00016902771 2.3079558e-07 0.00031978183 0.0
-4.623834e-24 -0.00037398844 2.149068e-05 0.00036505854 0.0 7.798346e-24 0.0016265725 4.721575e-06
0.00051549595 0.0 6.142339e-24 0.0002109334 -1.49691305e-05 -0.00013121341 0.0 8.1455115e-25
-0.0016328103 -4.9776136e-06 -0.0009128976 0.0 -6.013723e-24 -2.474182e-05 3.7077473e-07 0.0005647664
0.0 3.0828288e-24 -0.0013612488 5.8357227e-06 -0.0008047427 0.0 -1.9326836e-24 0.00019004464
3.823077e-05 0.0014455679 0.0 1.744641e-26 0.00013038344 3.3258504e-05 7.698957e-05 0.0
5.8034594e-25 0.00051162933 2.6830172e-05 -0.0002435064 0.0 5.4968136e-24 0.0012705815 2.9239982e-05
0.0005270519 0.0 8.1222105e-24 4.4227618e-05 -6.701609e-06 -0.00045317574 0.0 2.1116615e-24
-0.0003279239 -1.7589535e-05 -0.00011035886 0.0 -7.283701e-26 0.0010147914 3.367423e-05 0.0002747681
0.0 -1.0614206e-25 0.0003849441 7.376944e-05 0.0010744568 0.0 4.2056616e-24 -0.0004652044
-2.9713383e-05 -7.9241574e-05 0.0 5.8663345e-24 0.00057315594 3.9093425e-06 0.0005321776 0.0
1.5059228e-24 -0.00010968467 1.4032639e-05 -5.8678743e-06 0.0 -9.982467e-24 -0.00066488376 -5.07467e-05
1.575095e-05 0.0 -5.0796907e-24 -0.0014224199 1.8612402e-05 -0.0003787744 0.0 -5.750921e-24
-0.0015324429 -8.098395e-05 -0.0013114568 0.0 1.2030066e-23 0.0008320713 1.3848006e-05 -3.9015176e-05
0.0 4.128999e-24 -0.000827038 -3.2158216e-05 0.0004401525 0.0 -2.1511426e-24 -0.0009548838
-2.286354e-05 0.00023399317 0.0 -8.3277135e-24 -0.0004695601 -8.715541e-07 -0.00065026915 0.0
-3.4526474e-24 -0.0003401183 -3.8548897e-06 3.3697448e-05 0.0 -2.36026e-24 -0.0001959433 -1.5210966e-05
-0.00056112575 0.0 -1.0185601e-24 5.3440624e-05 -1.4090077e-05 0.00018199322 0.0 -6.9608084e-24
-0.0010772747 -2.1356362e-05 -0.0011975745 0.0 -5.905862e-24 0.00016648274 6.363249e-06 0.00048204162
0.0 3.1978473e-24 -0.00019205199 1.0295423e-05 0.0008474921 0.0 3.058543e-24 0.00042313174
7.309154e-06 -0.000111450165 0.0 -6.8353725e-24 -0.0012055986 -1.4010927e-06 -0.00062902435 0.0
-4.6427064e-24 -0.00066941767 4.6962996e-06 -0.00023229879 0.0 1.180255e-25 0.00014177321 3.1838277e-05
0.0004937666 0.0 1.1720783e-24 0.0009701831 2.5494297e-05 0.00033385 0.0 -3.6106972e-24
-0.0003334092 7.0292954e-06 -0.00022138441 0.0 -4.9776342e-24 -0.0009272698 -1.8392517e-05 7.63006e-06
0.0 -9.670498e-24 -9.510183e-05 -4.0016406e-05 -0.0003151473 0.0 -5.901205e-25 -0.001152358
1.3346388e-06 -0.0001716451 0.0 -2.2287048e-23 -0.0003022006 5.436395e-06 8.4445346e-05 0.0
1.683242e-24 -0.00027321486 1.01799e-05 -0.00012904961 0.0 -4.408309e-24 0.00044996908 1.7872666e-05
-0.00013331196 0.0 9.098758e-24 -0.0008976344 -3.6980622e-05 -0.0012462408 0.0 -1.0897365e-24
0.00084150146 3.884589e-05 0.00087787816 0.0 -3.1020579e-24 -0.00018912244 8.5116335e-06 0.00020937892
0.0 4.2732698e-24 -0.00013190442 -2.238227e-06 -0.00036646894 0.0 8.018155e-24 -0.00014650483

exp_avg_sq f4 [128, 5]
00000000: 8314 0037 8264 fe31 0f3c 7136 0000 0000
00000010: 0000 0000 4b18 9d35 a0d0 7531 723e 1b36
00000020: 0000 0000 0000 0000 2a5d 7935 e3c1 f330
00000030: f72d 3036 0000 0000 0000 0000 97aa d333
00000040: 0a89 182f 3bd8 6635 0000 0000 0000 0000
00000050: df36 f935 acd3 8a32 c9c7 b936 0000 0000
00000060: 0000 0000 0622 5a36 3aad 9632 4a37 e036
00000070: 0000 0000 0000 0000 4100 9b36 4fff 4c32
00000080: 8429 c436 0000 0000 0000 0000 12e5 1935
00000090: 1158 7330 7647 0a35 0000 0000 0000 0000
000000a0: 542e d935 0ec5 3a30 4da1 4536 0000 0000
000000b0: 0000 0000 e0eb 6b35 5af2 2c2f 4c97 5935
000000c0: 0000 0000 0000 0000 de57 5b36 7460 b731
000000d0: bf66 1536 0000 0000 0000 0000 b09a 9134
000000e0: ed59 dd30 dd30 9d35 0000 0000 0000 0000
000000f0: 1421 5d35 55a4 a130 3e3c 6a35 0000 0000
00000100: 0000 0000 3637 dd34 3f3f 8e30 3ec2 c134
00000110: 0000 0000 0000 0000 f98f 0636 8e69 c02f
00000120: b497 3d37 0000 0000 0000 0000 4697 aa35
00000130: 7f83 1e31 6ace 2d35 0000 0000 0000 0000
00000140: f5b8 d834 1991 542f a2a2 5836 0000 0000
00000150: 0000 0000 922d 5735 1761 2430 6a49 1c35
00000160: 0000 0000 0000 0000 58cc f135 489b a432
00000170: 80a5 1e37 0000 0000 0000 0000 f52f c134
00000180: 5de0 842f 0d48 1236 0000 0000 0000 0000
00000190: 510b c034 ff33 b230 663c 3835 0000 0000
000001a0: 0000 0000 6aa2 aa35 4615 1e31 7c2b 3f36
000001b0: 0000 0000 0000 0000 3a06 7535 6bac b830
000001c0: e5fc 1e36 0000 0000 0000 0000 dac7 bd35
000001d0: 5eb7 1531 9c36 d935 0000 0000 0000 0000
000001e0: 33cf 1a36 32f8 0632 8b6b 8636 0000 0000
000001f0: 0000 0000 41ca 2535 8b1c 4132 6977 a336
00000200: 0000 0000 0000 0000 cef7 5735 e9a3 2630
00000210: c20a 5a36 0000 0000 0000 0000 23c4 1035
00000220: ecb6 4a31 3491 f735 0000 0000 0000 0000
00000230: cb9a 8434 5220 a42e 5309 3b35 0000 0000
00000240: 0000 0000 5617 f233 1a62 522e 3e12 6b35
00000250: 0000 0000 0000 0000 c753 3a35 d78b 1731
00000260: 524b 6836 0000 0000 0000 0000 9990 8535
00000270: 6533 6b32 7430 b036 0000 0000 0000 0000
00000280: 411f fc35 0e13 ec30 c610 1e36 0000 0000
00000290: 0000 0000 05e6 5435 79bc cf30 61b9 0435
000002a0: 0000 0000 0000 0000 5259 d535 16c8 8030
000002b0: 19c1 1937 0000 0000 0000 0000 0de6 be34
000002c0: 1956 802f 4b8d 9135 0000 0000 0000 0000
000002d0: 44df d235 06a5 0031 c761 2a36 0000 0000
000002e0: 0000 0000 c204 0435 596f d630 2da8 8835
000002f0: 0000 0000 0000 0000 5d24 0a36 6fdf 6a31
00000300: 380a b835 0000 0000 0000 0000 d8dc 6c35
00000310: 0632 072f ccc5 7035 0000 0000 0000 0000
00000320: 66f6 7634 ad83 8d2e b0ae 9c35 0000 0000
00000330: 0000 0000 a0bb c535 47a6 e32f cb43 d936
00000340: 0000 0000 0000 0000 9945 0036 e257 2232
00000350: e276 9236 0000 0000 0000 0000 ae76 4636
00000360: 28bb b730 f636 c636 0000 0000 0000 0000
00000370: 2fd4 0835 0ca7 a630 dcaf 7335 0000 0000
00000380: 0000 0000 7ae3 d734 fcd4 c931 984c 1c36
00000390: 0000 0000 0000 0000 f27d b335 81a6 cb32
000003a0: 378c 2137 0000 0000 0000 0000 7329 7436
000003b0: 8b2d 7331 3cc6 b636 0000 0000 0000 0000
000003c0: f408 c035 89a3 6a32 abe5 de36 0000 0000
000003d0: 0000 0000 99aa 1c36 b346 6231 bd2f 0036
000003e0: 0000 0000 0000 0000 aaf7 f934 b855 0331
000003f0: da2b 5d35 0000 0000 0000 0000 5acd e135
7.63417e-06 7.4037994e-09 3.5946757e-06 0.0 0.0 1.1704482e-06 3.5770782e-09 2.3133148e-06
0.0 0.0 9.28953e-07 1.7735683e-09 2.6252799e-06 0.0 0.0 9.856483e-08
1.3873006e-10 8.5996334e-07 0.0 0.0 1.8567915e-06 1.6161572e-08 5.5366877e-06 0.0
0.0 3.2504336e-06 1.7541073e-08 6.6821567e-06 0.0 0.0 4.6193895e-06 1.1932413e-08
5.8460882e-06 0.0 0.0 5.733028e-07 8.8528035e-10 5.1512995e-07 0.0 0.0
1.6181243e-06 6.794644e-10 2.9449177e-06 0.0 0.0 8.7887565e-07 1.572941e-10 8.1058965e-07
0.0 0.0 3.2684688e-06 5.3369664e-09 2.2262536e-06 0.0 0.0 2.7120905e-07
1.6105425e-09 1.1711633e-06 0.0 0.0 8.237705e-07 1.1760998e-09 8.7259457e-07 0.0
0.0 4.120463e-07 1.0349835e-09 3.609038e-07 0.0 0.0 2.005136e-06 3.4999598e-10
1.1300599e-05 0.0 0.0 1.2710013e-06 2.3066773e-09 6.4747894e-07 0.0 0.0
4.036771e-07 1.9332837e-10 3.2281173e-06 0.0 0.0 8.0160055e-07 5.9800825e-10 5.822136e-07
0.0 0.0 1.8015371e-06 1.9162727e-08 9.456067e-06 0.0 0.0 3.5983945e-07
2.417008e-10 2.1797634e-06 0.0 0.0 3.577102e-07 1.2965983e-09 6.863323e-07 0.0
0.0 1.2713256e-06 2.3004119e-09 2.848653e-06 0.0 0.0 9.1278673e-07 1.3436766e-09
2.3691039e-06 0.0 0.0 1.4139762e-06 2.1786586e-09 1.6183653e-06 0.0 0.0
2.3068394e-06 7.85626e-09 4.006031e-06 0.0 0.0 6.176161e-07 1.12405685e-08 4.8716797e-06
0.0 0.0 8.0454345e-07 6.062338e-10 3.2490793e-06 0.0 0.0 5.3929597e-07
2.9498848e-09 1.8445194e-06 0.0 0.0 2.4699543e-07 7.463598e-11 6.9676497e-07 0.0
0.0 1.1273248e-07 4.7835604e-11 8.757087e-07 0.0 0.0 6.941231e-07 2.2052882e-09
3.4614536e-06 0.0 0.0 9.951356e-07 1.3690486e-08 5.2508494e-06 0.0 0.0
1.8784559e-06 1.7176676e-09 2.3553598e-06 0.0 0.0 7.9310877e-07 1.5114799e-09 4.9443594e-07
0.0 0.0 1.5895732e-06 9.370094e-10 9.16447e-06 0.0 0.0 3.5557642e-07
2.334424e-10 1.0844464e-06 0.0 0.0 1.5711198e-06 1.8720256e-09 2.5388888e-06 0.0
0.0 4.9180755e-07 1.5602196e-09 1.0181735e-06 0.0 0.0 2.0584769e-06 3.417849e-09
1.3712042e-06 0.0 0.0 8.823822e-07 1.229595e-10 8.96948e-07 0.0 0.0
2.3000175e-07 6.435328e-11 1.1673746e-06 0.0 0.0 1.473225e-06 4.1409207e-10 6.474996e-06
0.0 0.0 1.9113997e-06 9.449623e-09 4.364979e-06 0.0 0.0 2.957338e-06
1.3368195e-09 5.907258e-06 0.0 0.0 5.0972716e-07 1.2125567e-09 9.0780463e-07 0.0
0.0 4.0212382e-07 5.8740834e-09 2.3290395e-06 0.0 0.0 1.3373194e-06 2.3708028e-08
9.628994e-06 0.0 0.0 3.638296e-06 3.5387042e-09 5.4471e-06 0.0 0.0
1.430772e-06 1.3657776e-08 6.6428524e-06 0.0 0.0 2.3345112e-06 3.2927516e-09 1.9101274e-06
0.0 0.0 4.6560064e-07 1.9111734e-09 8.239273e-07 0.0 0.0 1.6823572e-06

exp_avg f4 [128]
00000000: ce96 8a38 d6e9 5537 fd26 a438 b2f0 fab6
00000010: ca6b d537 9f55 aa38 3c42 d1b9 d498 2837
00000020: 16ff 8239 70f3 87b8 6f0c aa39 60c9 1e38
00000030: ef78 a538 ddd6 3b38 98c7 14b9 327c 42b9
00000040: 363d 87b8 60d1 2738 8f45 a239 e959 40b9
00000050: 8586 16b9 4352 3c39 1b64 25b9 bc31 d439
00000060: 032b ebb9 65d0 9638 1185 86b9 13ce 95b8
00000070: f1cb 2f39 e4af 8cb7 5d63 1a37 4b28 07b6
00000080: 2e34 9239 f710 e1b8 0760 62b9 ef8d e038
00000090: e08f b939 8cff 4939 06ef feb6 02a6 8db8
000000a0: e356 eb38 96ff ae38 d3c1 5cb9 4782 2439
000000b0: 7623 41b8 1145 3239 c770 7037 b4bc 6039
000000c0: a48d 9539 2b45 b4b7 9e6d e0b8 4555 75b8
000000d0: a57c b2b8 8cfc c8b9 dd40 31b9 c969 0fb9
000000e0: 920b 1239 7479 0b38 452b 7539 7640 57b8
000000f0: df29 53b8 e6c9 d939 2026 40b9 0ddc 3539
00000100: 0e52 3fb9 75b7 2239 1132 2eb9 760e 35b9
00000110: a752 8db8 6139 0539 7e41 b639 4592 2d39
00000120: 9cf2 0ab9 83cb e138 e268 5639 8904 bab9
00000130: 318c a3b7 4d9b 6ab8 61c0 7f38 09a9 6038
00000140: 5b14 b138 6f93 1539 baa5 46b8 8b5b c139
00000150: 08d2 5e39 01cd 8fb9 2fb7 a238 f96f d439
00000160: 8145 15b9 b724 7a38 cdf4 3439 a467 4339
00000170: 93ab 00b9 7f72 0039 b731 8f39 6859 2638
00000180: 90a8 96b9 b6ee 2937 d7a3 2ab9 cc77 93b8
00000190: 2236 82b9 10a6 9538 e003 06b9 b10c 86b8
000001a0: 0778 2438 c72c bc38 37cd 71b9 6bae 9339
000001b0: 0b36 2f39 06bf 8c38 8f1c d537 dbf3 26b9
000001c0: 1eef 2539 bb1a 7539 376e 9839 0af2 32b8
000001d0: 7852 3b37 c4fa 0bb9 9e75 21b8 6b92 8939
000001e0: 74f6 7537 2e80 3e39 78a9 bf38 44d7 b7b9
000001f0: 340f 67b8 a14f 1838 5566 a338 ad72 1839
6.608442e-05 1.27502335e-05 7.8273915e-05 -7.478601e-06 2.5441772e-05 8.12218e-05 -0.00039912935 1.0049163e-05
0.00024985586 -6.4826454e-05 0.0003243419 3.785768e-05 7.890339e-05 4.478438e-05 -0.00014188734 -0.00018547548
-6.448703e-05 4.00109e-05 0.00030950873 -0.00018344041 -0.00014355227 0.00017959722 -0.00015772918 0.00040472846
-0.0004485474 7.191374e-05 -0.00025657614 -7.143258e-05 0.00016765275 -1.6771206e-05 9.20225e-06 -2.0140021e-06
0.00027886167 -0.00010731996 -0.00021588813 0.000107075895 0.00035393145 0.00019264052 -7.597616e-06 -6.754325e-05
0.00011221857 8.344573e-05 -0.0002105304 0.00015688791 -4.604781e-05 0.00017001132 1.4331373e-05 0.00021432602
0.00028525025 -2.1489881e-05 -0.0001070157 -5.8491965e-05 -8.510918e-05 -0.00038335135 -0.00016904199 -0.00013676951
0.00013927955 3.3253295e-05 0.0002338114 -5.132003e-05 -5.0345316e-05 0.0004153989 -0.0001832475 0.0001734348
-0.00018245747 0.00015517867 -0.00016612584 -0.00017266892 -6.738799e-05 0.00012705244 0.0003476254 0.00016553055
-0.00013251085 0.00010766743 0.00020447702 -0.00035480064 -1.9496396e-05 -5.5934583e-05 6.0975904e-05 5.3563188e-05
8.443809e-05 0.0001426467 -4.7361224e-05 0.00036880033 0.00021249813 -0.00027427825 7.7588826e-05 0.00040519217
-0.0001423564 5.9638838e-05 0.00017257333 0.00018635258 -0.00012270948 0.00012249684 0.00027312126 3.966075e-05
-0.00028735818 1.0128764e-05 -0.00016273498 -7.03182e-05 -0.00024835864 7.135805e-05 -0.0001278068 -6.391982e-05
3.921243e-05 8.972879e-05 -0.0002306 0.00028167976 0.00016709433 6.711301e-05 2.5404877e-05 -0.00015921837
0.00015824704 0.00023374979 0.00029073816 -4.2663924e-05 1.116527e-05 -0.0001334949 -3.849493e-05 0.00026239766
1.466052e-05 0.00018167563 9.139156e-05 -0.00035064865 -5.508885e-05 3.6313784e-05 7.7915065e-05 0.0001453857

exp_avg_sq f4 [128]
00000000: 43d0 0335 75af 0334 a69b 0f34 dc82 3133
00000010: 19ad a534 0b6c ce34 519d a634 3aaf 5b33
00000020: 2dcf 4c34 6519 7a33 ece7 3d34 83c9 4e33
00000030: a2c8 8733 574a ec32 9d08 1835 acc8 ad33
00000040: 7939 2334 6c4d 7833 c134 0035 9e42 e733
00000050: cff2 1c33 be9a 2634 e39f 1a34 f770 e433
00000060: 8702 8134 b048 7134 5f9d 3134 a248 ad33
00000070: 5fad 2233 e941 2833 2c5b 0d34 4a42 8734
00000080: 260d 2c34 21f2 7d33 17b6 ee34 515d 8533
00000090: 83c8 0e34 5886 4d33 1ca0 f633 7d6d 9f33
000000a0: 0059 8133 9779 b734 90a9 6c34 5e9a b534
000000b0: b0da 7b33 9271 ff33 b32d ee34 7f43 ab34
000000c0: 9517 b034 b53e 3c34 42a1 5a33 dd1b aa34
000000d0: 0a8b 9534 7744 e533 30d5 9034 c0b1 0a34
000000e0: 6b53 6b33 1a14 4533 3bf7 4d34 cc4b 8533
000000f0: 6ee8 4433 2aae 3135 dfaf 4a34 5750 f933
00000100: 0333 9333 e3e4 b733 f666 3834 688f 0a34
00000110: d06e ad33 198d 4b34 8be7 5834 470c f633
00000120: 56f2 8434 ea4c 1b33 8263 fe33 2ada 4235
00000130: e48b c632 5456 5734 75a7 d933 9800 3234
00000140: fba9 8435 0e73 c034 2ecf 4034 04a3 aa34
00000150: ea70 8c34 a0f2 e133 9dbf 5e33 e8cb 4435
00000160: b15b 6c33 bdc6 1934 efe0 d534 70c8 3733
00000170: 188f 1b34 9a98 6533 85b3 c233 cceb d834
00000180: 0096 8635 f214 5a34 577f ba33 a191 9134
00000190: 89ec 3834 7bb5 2634 ba64 3333 2100 1d34
000001a0: 94fd f133 6207 fa33 9a9e ad33 60be 0236
000001b0: 5df7 1e35 5c48 a433 fca7 4435 66ca ca33
000001c0: 0a3c 8f34 edb8 c834 754a 6e34 a394 a234
000001d0: 505d 8433 06a9 bb33 8225 2a33 8265 e534
000001e0: 70e7 1734 6bed 2534 b538 8233 ac05 0035
000001f0: ed0b 4434 0fa4 9332 afe9 0534 7e4c 2a34
4.9104364e-07 1.2264157e-07 1.3374537e-07 4.133004e-08 3.085959e-07 3.8449102e-07 3.1034372e-07 5.114928e-08
1.907435e-07 5.8230757e-08 1.768637e-07 4.8146386e-08 6.322922e-08 2.7507822e-08 5.6636947e-07 8.092442e-08
1.5201466e-07 5.7812414e-08 4.7760483e-07 1.0768893e-07 3.6542414e-08 1.551625e-07 1.4400534e-07 1.06376255e-07
2.402996e-07 2.2471318e-07 1.6541661e-07 8.069152e-08 3.7876244e-08 3.9175493e-08 1.3164816e-07 2.519394e-07
1.6023532e-07 5.9126368e-08 4.4463442e-07 6.210269e-08 1.3297726e-07 4.7852467e-08 1.14843914e-07 7.42393e-08
6.0232196e-08 3.4174874e-07 2.2040899e-07 3.3826194e-07 5.8639387e-08 1.1895021e-07 4.4364205e-07 3.1900342e-07
3.2799713e-07 1.7531677e-07 5.0903743e-08 3.168524e-07 2.7854577e-07 1.0676097e-07 2.6977204e-07 1.2916917e-07
5.479107e-08 4.588592e-08 1.9182055e-07 6.2070825e-08 4.58462e-08 6.619108e-07 1.8876698e-07 1.160958e-07
6.8545e-08 8.563236e-08 1.7173792e-07 1.2904422e-07 8.076097e-08 1.895718e-07 2.0200802e-07 1.1457501e-07
2.4763239e-07 3.6158703e-08 1.1845897e-07 7.25881e-07 2.3113849e-08 2.0054841e-07 1.013531e-07 1.6577758e-07
9.884237e-07 3.58465e-07 1.7956765e-07 3.1783577e-07 2.6159188e-07 1.0521512e-07 5.1862674e-08 7.331241e-07
5.5031425e-08 1.4321536e-07 3.9838002e-07 4.2790305e-08 1.4487557e-07 5.3457008e-08 9.0664834e-08 4.04047e-07
1.0027434e-06 2.0310452e-07 8.684463e-08 2.7114314e-07 1.7222386e-07 1.5525977e-07 4.1768295e-08 1.4621811e-07
1.12685626e-07 1.1642875e-07 8.08479e-08 1.9482322e-06 5.921955e-07 7.650007e-08 7.326014e-07 9.443174e-08
2.667951e-07 3.7387454e-07 2.2192565e-07 3.0283e-07 6.1637024e-08 8.738611e-08 3.9615323e-08 4.272843e-07
1.4147167e-07 1.5453195e-07 6.063912e-08 4.769197e-07 1.8258261e-07 1.7187658e-08 1.2471604e-07 1.5860311e-07
