Goodminton/Assets/results/Badminton/Badminton/Badminton-7680.onnx (onnx, 74586 bytes, 7 tensors)

network_body._body_endoder.seq_layers.0.weight f4 [128, 5]
-0.0015624262 -0.3963476 -0.301878 1.0426965 0.24080981 -0.80089825 -0.6316776 -0.24751039
-0.32843012 0.40983567 -0.54086167 0.23389786 0.8445207 0.32190266 0.06888279 0.19094333
0.26531553 -0.54016286 0.11918551 0.31486762 0.66865546 -0.20535682 -0.010257114 0.020918688
-0.059423503 0.03948931 -0.45653725 -0.055635355 0.91708004 -0.38873667 -0.05957345 0.10457919
0.4992502 -0.41754046 -0.6057301 -0.45665023 -0.93898964 0.33945426 0.8892072 -0.64862716
-0.19733654 0.036922444 -0.69395167 -0.16586673 0.45738775 -0.09333673 0.8903676 0.035207573
-0.12529449 0.43728054 -0.41286597 0.47380435 0.42525354 -0.5853378 -0.28862557 -0.43582425
-0.20934655 0.0119297905 -0.29286912 -0.27603272 0.1371753 0.06400309 0.4296015 0.28528142
0.68786657 -0.55814177 -0.17148973 0.3578411 0.57693124 0.8288055 -0.64091617 -0.061124064
-0.14794911 0.5935117 -0.759053 0.36611345 -0.77400285 -0.13747747 0.36955103 -0.34235463
0.17667219 -0.064605504 0.301131 -0.106563926 -0.28641605 0.3524483 -0.67033875 -0.16343567
-0.13327341 0.7361844 0.6491468 0.17295536 -0.09884347 -0.19007497 0.58180904 0.37778014
-0.055601366 -0.08746944 0.22590539 0.7158308 -0.82540554 -1.0256811 -0.4224298 -0.05753058
0.27560776 -0.32155886 -0.4239766 0.22262818 0.8521261 -0.02290808 -0.2922649 -0.7744929
-0.5417712 -0.20866477 0.1542194 0.08722171 -0.44922614 -0.21064897 0.69584644 -0.06462285
0.15378672 0.041248273 0.07842967 0.6786526 -0.65279347 0.8560105 0.38040164 0.4581373
-0.0042449906 -0.8280105 0.6757954 0.010573514 0.8328125 0.40200382 -0.57802594 0.006468208
0.010813694 -0.51433533 0.5272175 -0.59953874 -0.5498546 0.51339847 -0.3764055 0.6779189
-0.03963193 -0.53572375 0.14027198 0.35618916 -0.5869017 0.07440126 -0.020740386 0.19036765
-0.3088346 -0.370553 -0.06311663 0.5066102 0.15000528 0.2854584 -0.24019389 -0.11559658
-0.15560614 0.5576556 -0.18430263 -0.3624862 0.14299735 0.6098472 -0.6220535 -0.7953866
0.61811644 -0.40331322 -0.93238574 0.46577746 -0.15355611 0.22044644 0.66427964 -0.0103141535
-0.3252268 0.07901032 -0.4926566 0.20742185 -1.0016739 1.0297583 0.0037203457 0.3747956
0.33664352 0.2658167 0.48173514 0.32333392 0.4038264 0.38587302 0.37942737 0.21008834
-0.16950315 0.8690256 0.32913786 -0.07669849 -0.008220077 -0.24414374 -0.69643897 0.14721884
-0.9586572 0.2150114 0.19135551 0.16283038 -0.29009712 0.16762574 -0.8732641 -0.039015964
0.12189081 0.27236542 -0.7203047 -0.31179303 0.38105914 -0.55863494 -0.22362818 0.8729536
0.3087683 -0.21104953 0.30530992 -0.35812992 -0.06762262 0.15016723 0.564328 -0.004008518
0.29459807 0.6106679 0.01374008 0.6968044 0.23283713 -0.15512648 -0.36484236 -0.20214508
-0.35567024 -0.03556018 -0.24275702 0.1461729 -0.5100619 0.66496277 0.40240505 -0.5510936
0.21312736 0.045956794 0.76799554 -0.13591628 -0.040146254 0.3848789 -0.07989326 -0.4023329
1.4677098 -0.1942231 0.07372852 -0.13878937 1.1008741 -0.37317395 0.23739816 0.16075186
00000000: 53ca ccba 13ee cabe c18f 9abe 1477 853f
00000010: d996 763e ab07 4dbf a0b5 21bf 5d73 7dbe
00000020: fe27 a8be fbd5 d13e e975 0abf ec82 6f3e
00000030: 8232 583f 6dd0 a43e 6c12 8d3d a686 433e
00000040: 70d7 873e 1d48 0abf 8817 f43d 5436 a13e
00000050: 012d 2b3f 0f49 52be 740d 28bc ab5d ab3c
00000060: 0f66 73bd 8bbf 213d 40bf e9be e6e1 63bd
00000070: c2c5 6a3f 7e08 c7be 4a03 74bd 9d2d d63d
00000080: b99d ff3e ddc7 d5be 2111 1bbf 0fce e9be
00000090: a061 70bf f3cc ad3e 15a3 633f 6e0c 26bf
000000a0: 9712 4abe fd3b 173d d1a6 31bf f8d8 29be
000000b0: ba2e ea3e 5427 bfbd 22ef 633f d135 103d
000000c0: 334d 00be 3ce3 df3e 2b63 d3be 7c96 f23e
000000d0: d5ba d93e b3d8 15bf bbc6 93be 5b24 dfbe
000000e0: f15e 56be 2b75 433c f1f2 95be 2954 8dbe
000000f0: af77 0c3e 0d14 833d baf4 db3e 6810 923e
00000100: 0618 303f 61e2 0ebf 019b 2fbe f336 b73e
00000110: c4b1 133f 992c 543f 1513 24bf 3a5d 7abd
00000120: f97f 17be 62f0 173f 4c51 42bf 3973 bb3e
00000130: 0d25 46bf e5c6 0cbe cb35 bd3e 1b49 afbe
00000140: 8ee9 343e e44f 84bd d82d 9a3e 303e dabd
00000150: 20a5 92be 1b74 b43e 529b 2bbf ae5b 27be
00000160: d378 08be 9576 3c3f 7c2e 263f 361b 313e
00000170: 726e cabd 03a3 42be 70f1 143f 666c c13e
00000180: 42be 63bd 2e23 b3bd be53 673e b040 373f
00000190: c74d 53bf 8549 83bf b848 d8be 2fa5 6bbd
000001a0: 761c 8d3e 5da3 a4be 7613 d9be a4f8 633e
000001b0: f024 5a3f baa9 bbbc bfa3 95be 2b45 46bf
000001c0: 84b1 0abf 38ac 55be b1eb 1d3e 4ca1 b23d
000001d0: f800 e6be 5db4 57be fe22 323f fc58 84bd
000001e0: 447a 1d3e f3f3 283d bc9f a03d 2dbc 2d3f
000001f0: 791d 27bf 8123 5b3f 01c4 c23e f990 ea3e
00000200: 9019 8bbb 7ff8 53bf ed00 2d3f 883c 2d3c
00000210: 3333 553f 72d3 cd3e 82f9 13bf 43f3 d33b
00000220: ec2b 313c 7bab 03bf baf7 063f 5f7b 19bf
00000230: 45c3 0cbf 156e 033f 39b8 c0be 188c 2d3f
00000240: 1755 22bd 3125 09bf 75a3 0f3e 6d5e b63e
00000250: 313f 16bf b05f 983d bee7 a9bc bdef 423e
00000260: 921f 9ebe 1fb9 bdbe 4b43 81bd 35b1 013f
00000270: fc9a 193e 9a27 923e 63f5 75be e6bd ecbd
00000280: 3757 1fbe 84c2 0e3f d4b9 3cbe cb97 b9be
00000290: e66d 123e f21e 1c3f e63e 1fbf 759e 4bbf
000002a0: e13c 1e3f 127f cebe d5b0 6ebf 627a ee3e
000002b0: d03d 1dbe b6bc 613e 3b0e 2a3f b2fc 28bc
000002c0: 2184 a6be 2ad0 a13d 7c3d fcbe 6566 543e
000002d0: da36 80bf 1fcf 833f 0bd1 733b 35e5 bf3e
000002e0: 8a5c ac3e 2019 883e fda5 f63e 068c a53e
000002f0: 55c2 ce3e 2691 c53e 4e44 c23e 6621 573e
00000300: 3c92 2dbe 7678 5e3f c284 a83e 1914 9dbd
00000310: 80ad 06bc d100 7abe d349 32bf 89c0 163e
00000320: 8f6a 75bf f32b 5c3e b3f2 433e 02bd 263e
00000330: 9c87 94be 15a6 2b3e 3c8e 5fbf 34cf 1fbd
00000340: e4a1 f93d 7b73 8b3e e465 38bf 56a3 9fbe
00000350: 2f1a c33e b302 0fbf c9fe 64be e379 5f3f
00000360: e116 9e3e 5e1d 58be 9551 9c3e ce5c b7be
00000370: ba7d 8abd 70c5 193e cd77 103f e359 83bb
00000380: 8fd5 963e bb54 1c3f 131e 613c c661 323f
00000390: db6c 6e3e 7ad9 1ebe 9ecc babe 1fff 4ebe
000003a0: 691a b6be 8da7 11bd 4c95 78be 59ae 153e
000003b0: 6b93 02bf 003b 2a3f 0908 ce3e 7814 0dbf
000003c0: 0f3e 5a3e 313d 3c3d 5b9b 443f a32d 0bbe
000003d0: 6670 24bd d90e c53e 149f a3bd 94fe cdbe
000003e0: eadd bb3f 6ce2 46be fafe 963d cd1e 0ebe
000003f0: 71e9 8c3f a810 bfbe 8118 733e 239c 243e

network_body._body_endoder.seq_layers.0.bias f4 [128]
0.018249815 0.00928233 -0.021162646 -0.012544485 -0.01364131 -0.0018321036 0.00027755817 -0.030099113
0.0028913708 -0.0065748068 0.007137358 -0.0053906254 0.010648251 0.0031016613 -0.008406517 0.011323902
-0.0048228493 -0.009690548 0.0011023167 -0.009136426 -0.003943286 0.014256096 -0.013532512 -0.010327639
0.0015841826 -0.0049092514 -0.0052666073 0.0057457755 0.008326387 -0.016152997 -0.005870011 -0.046554238
-0.0214397 -0.006148717 0.007035528 -0.028691668 -0.008255615 -0.012624904 0.0319759 -0.016384749
-0.007221603 -0.028744465 -0.0019249556 -0.01670434 0.012690051 -0.016620923 -0.0067239404 -0.0022640978
-0.0103567215 -0.011547424 -0.019534022 -0.0064912024 -0.0022055537 -0.0029162874 -0.003688148 0.0083301235
-0.0057723382 -0.015423669 -0.020253282 -0.01610466 0.009267345 -0.01326753 -0.007362658 0.02514801
-0.0004670757 0.004554454 -0.021608088 -0.015164802 0.0013385001 -0.016002167 -0.015719905 -0.017278627
-0.0026889432 -0.013896224 -0.0058879657 0.009675343 -0.015498116 0.011803621 -0.004190697 -0.0209662
-0.012867648 -0.001974129 -0.0068199136 -0.01281872 -0.00187266 -0.01776667 0.0023815131 -0.01720699
0.008759262 -0.017010754 0.0047199666 0.0057701557 -0.023639899 -0.015110757 -0.012063979 -0.0042689024
-0.024779737 -0.0008027909 -0.01077222 0.016205503 0.013431347 -0.0034916706 -0.0071884766 -0.020171285
-0.0006474364 -0.010647377 -0.0075738854 0.01036692 -0.02636058 -0.006862901 -0.007531885 0.01325881
-0.015327864 -0.005578212 -0.008694337 -0.0069593103 -0.0121185 -0.01997868 -0.012883288 -0.002081039
0.0026958855 -0.009560604 -0.011769186 -0.0031781406 -0.020341013 0.0005602928 -0.0028122738 0.00032130204
00000000: a380 953c ea14 183c 495d adbc 6287 4dbc
00000010: cd7f 5fbc 3223 f0ba 3a85 9139 6a92 f6bc
00000020: 277d 3d3b 7a71 d7bb 80e0 e93b d8a3 b0bb
00000030: 0076 2e3c 3e45 4b3b 7dbb 09bc e387 393c
00000040: fe08 9ebb 1bc5 1ebc 9c7b 903a f3b0 15bc
00000050: ae36 81bb 6792 693c 78b7 5dbc 4235 29bc
00000060: 59a4 cf3a c9dd a0bb 8193 acbb 0f47 bc3b
00000070: 666b 083c 4a53 84bc 3959 c0bb a8af 3ebd
00000080: 4fa2 afbc 2d7b c9bb 498a e63b ca0a ebbc
00000090: 8f42 07bc afd8 4ebc 29f9 023d 4f39 86bc
000000a0: 32a3 ecbb 8379 ebbc cb4e fcba 8ad7 88bc
000000b0: efe9 4f3c 9a28 88bc 8054 dcbb 4261 14bb
000000c0: 3daf 29bc 6831 3dbc d005 a0bc 27b4 d4bb
000000d0: 0d8b 10bb 2f1f 3fbb dbb4 71bb 127b 083c
000000e0: e225 bdbb 8eb3 7cbc 36ea a5bc eced 83bc
000000f0: 10d6 173c 0e60 59bc 7442 f1bb 3303 ce3c
00000100: d7e1 f4b9 873d 953b 7203 b1bc ca75 78bc
00000110: 9c70 af3a fa16 83bc 08c7 80bc e88b 8dbc
00000120: fb38 30bb fdac 63bc d6ef c0bb 5485 1e3c
00000130: cfeb 7dbc fa63 413c 1d52 89bb 4fc1 abbc
00000140: d4d2 52bc 6360 01bb 9579 dfbb 9c05 52bc
00000150: 0b74 f5ba 688b 91bc 2913 1c3b acf5 8cbc
00000160: 0283 0f3c 235a 8bbc f3a9 9a3b 9313 bd3b
00000170: 76a8 c1bc 1c93 77bc ffa7 45bc 26e2 8bbb
00000180: e0fe cabc 6372 52ba f77d 30bc 67c1 843c
00000190: 270f 5c3c 83d4 64bb 508d ebbb 403e a5bc
000001a0: b9b8 29ba 5672 2ebc 5b2e f8bb 04da 293c
000001b0: 25f2 d7bc 30e2 e0bb 08ce f6bb 7b3b 593c
000001c0: b921 7bbc 6fc9 b6bb b172 0ebc ed0a e4bb
000001d0: ac8c 46bc 54aa a3bc 6d14 53bc 0a62 08bb
000001e0: 74ad 303b 14a4 1cbc 8bd3 40bc 5a48 50bb
000001f0: 32a2 a6bc 9de0 123a 204e 38bb 6e74 a839

network_body._body_endoder.seq_layers.2.weight f4 [128, 128]
0.11813243 -0.15741982 -0.04048056 -0.03987453 0.09090869 0.0603993 -0.052113276 -0.09428233
0.1394413 -0.11095943 -0.027952284 0.12495017 0.00019801184 0.023306562 -0.036249775 -0.12788792
0.06261305 0.09445919 -0.0598237 0.014378738 -0.031002963 -0.013323945 0.01387974 0.018333452
-0.011914461 -0.16709049 -0.03139083 0.016525934 -0.12327621 0.16813326 0.029542597 -0.11371581
0.111508146 0.0014506519 -0.15824312 0.05804473 -0.113615215 -0.010731062 -0.015827874 0.049429026
-0.028677417 -0.056793362 -0.11412905 0.05513535 0.023209333 -0.056422565 -0.14391592 0.112540014
0.041911297 0.059628624 0.124939784 -0.042114206 0.07150834 0.0008917897 0.038617987 -0.08605544
-0.0590723 0.009823094 0.050510965 -0.017641284 0.10167404 -0.05007775 0.016826086 -0.067970276
-0.16205919 0.03292443 -0.0006721762 -0.06729546 0.055479992 0.056151565 -0.12777434 -0.08687329
0.16578865 0.12550169 0.0940696 0.028553799 0.010057071 0.041753262 0.117614515 -0.16167168
0.006816869 -0.06427974 -0.06743215 0.04558467 -0.16764455 0.060145006 -0.124233864 0.08814993
-0.0020439427 -0.051740874 0.046204973 0.030073283 -0.0980592 -0.15247722 0.1699712 0.0053193336
0.045871295 0.10582194 -0.048353415 0.13126299 0.036799617 -0.14103268 0.04304009 0.02130466
0.047608834 -0.118835986 0.004945972 0.11949779 -0.036568623 -0.03240098 0.048153922 0.07268956
-0.070191965 0.046700317 -0.06850268 -0.11148097 0.03356919 0.028786931 -5.162937e-05 0.02058659
-0.10773257 0.09255103 -0.025824612 -0.036866646 0.17459826 0.03079526 -0.0027746905 -0.017590988
-0.008764979 -0.083713494 -0.052268464 -0.04375741 0.024734112 -0.030874323 0.08778898 -0.051943503
-0.04251036 0.015981698 -0.003423704 -0.0797297 -0.05967457 0.10766491 -0.14648706 0.07380636
-0.05420916 -0.11944364 -0.0628045 0.04212394 -0.009247094 0.13649076 -0.1562498 0.02841865
0.05557677 0.079923786 -0.0044758143 0.09049741 0.002091127 -0.12119689 -0.021704772 -0.039225567
0.054588802 -0.07161664 0.009859638 0.044050053 0.07079095 0.028551165 0.0026495666 0.057994284
0.087691255 0.13343628 0.033669185 0.069278575 -0.05442537 0.008884816 -0.01767059 -0.013893452
-0.09606776 -0.055492923 -0.059990883 -0.001666784 -0.17431039 0.2604631 0.0710025 -0.094801925
-0.041572116 -0.14522977 0.13745819 -0.14965299 -0.043256424 -0.14173822 0.012001128 0.040041763
0.01616149 0.1688782 -0.12517862 0.07511798 0.013255429 -0.009586669 -0.102380745 -0.051832758
-0.022449914 0.008052459 -0.06366942 -0.048977304 0.14446844 0.0067910147 0.048886195 0.09445104
-0.028835418 -0.08839855 -0.03573365 -0.081618644 -0.1369637 0.055839986 -0.091258004 -0.06720101
0.14935654 -0.07872517 -0.021449644 -0.028855871 -0.054934457 -0.091829695 0.006166644 0.03895184
-0.12019631 0.10993805 -0.04764663 -0.14200656 -0.08012121 -0.15485261 0.07920657 -0.11141586
-0.010958319 0.11869225 -0.013522455 -0.087926544 0.15165748 -0.07111345 0.15489765 -0.0975327
0.015901763 -0.10793262 -0.2459341 0.14886513 -0.100168206 0.014182728 -0.046691187 0.13379803
0.11654249 0.03977487 -0.03550241 -0.12415472 0.07454328 -0.07370529 -0.021283139 -0.13684079
00000000: 6aef f13d a932 21be f2ce 25bd 7a53 23bd
00000010: 562e ba3d 4265 773d bb74 55bd 1817 c1bd
00000020: b3c9 0e3e b33e e3bd 30fc e4bc e0e5 ff3d
00000030: 66a1 4f39 67ed be3c a57a 14bd 0df5 02be
00000040: 453b 803d d273 c13d b209 75bd cc94 6b3c
00000050: edf9 fdbc ad4c 5abc d967 633c 0930 963c
00000060: df34 43bc c519 2bbe ac93 00bd 6561 873c
00000070: 3d78 fcbd 202b 2c3e 5103 f23c d6e3 e8bd
00000080: 625e e43d cd23 be3a 7c0a 22be 50c0 6d3d
00000090: 18af e8bd 56d1 2fbc 75a9 81bc 1776 4a3d
000000a0: e7ec eabc 28a0 68bd 7ebc e9bd 9bd5 613d
000000b0: 8021 be3c 591b 67bd b25e 13be 617b e63d
000000c0: 2eab 2b3d 253d 743d 6ee0 ff3d f27f 2cbd
000000d0: f772 923d fec6 693a e52d 1e3d d63d b0bd
000000e0: ccf5 71bd 0bf1 203c 96e4 4e3d 7484 90bc
000000f0: 7b3a d03d 541e 4dbd dcd6 893c 0034 8bbd
00000100: d8f2 25be c4db 063d fb34 30ba 34d2 89bd
00000110: fd3e 633d 2fff 653d 47d7 02be a0ea b1bd
00000120: 80c4 293e 8483 003e 90a7 c03d a8e9 e93c
00000130: 6ac6 243c 7805 2b3d e1df f03d 438d 25be
00000140: 0b60 df3b 19a5 83bd de19 8abd feb6 3a3d
00000150: 03ab 2bbe 9c5a 763d 536e febd f387 b43d
00000160: abf3 05bb 3dee 53bd 6d41 3d3d 3f5c f63c
00000170: 43d3 c8bd fd22 1cbe ee0c 2e3e ce4d ae3b
00000180: 8ae3 3b3d 2cb9 d83d 3b0e 46bd ce69 063e
00000190: 32bb 163d df6a 10be ce4a 303d 1c87 ae3c
000001a0: 7b01 433d 4860 f3bd d211 a23b 42bb f43d
000001b0: fbc8 15bd e4b6 04bd 0c3d 453d 44de 943d
000001c0: cec0 8fbd d548 3f3d 224b 8cbd 2350 e4bd
000001d0: d97f 093d 92d2 eb3c 9d8c 58b8 35a5 a83c
000001e0: e5a2 dcbd 658b bd3d 238e d3bc 7b01 17bd
000001f0: e3c9 323e 5746 fc3c 95d7 35bb fa1a 90bc
00000200: fd9a 0fbc fb71 abbd 7517 56bd f83a 33bd
00000210: 319f ca3c 26ec fcbc b5ca b33d b6c2 54bd
00000220: 581f 2ebd 0dec 823c 3960 60bb 5349 a3bd
00000230: 526d 74bd 6c7f dc3d b400 16be ca27 973d
00000240: 6d0a 5ebd de9e f4bd a59f 80bd 278a 2c3d
00000250: 2081 17bc 3cc4 0b3e f3ff 1fbe 3bce e83c
00000260: 78a4 633d 15af a33d daa9 92bb b556 b93d
00000270: 4a0b 093b 1336 f8bd 35ce b1bc fdaa 20bd
00000280: 8298 5f3d bfab 92bd 528a 213c d46d 343d
00000290: d8fa 903d 22e4 e93c 5aa4 2d3b 6a8b 6d3d
000002a0: 7997 b33d 85a3 083e b3e8 093d ede1 8d3d
000002b0: 23ed 5ebd 9f91 113c eac1 90bc 5ca1 63bc
000002c0: 2cbf c4bd 8c4c 63bd 00b9 75bd fe77 daba
000002d0: 6c7e 32be 6b5b 853e c269 913d 8327 c2bd
000002e0: 8647 2abd 1db7 14be d7c1 0c3e a23e 19be
000002f0: a62d 31bd d323 11be 61a0 443c d502 243d
00000300: 1a65 843c 68ee 2c3e d32e 00be 75d7 993d
00000310: 4d2d 593c 6711 1dbc ffac d1bd 964e 54bd
00000320: e2e8 b7bc 76ee 033c 1d65 82bd 6d9c 48bd
00000330: 89ef 133e 2987 de3b e43c 483d 8c6f c13d
00000340: 4138 ecbc 4d0a b5bd 735d 12bd ad27 a7bd
00000350: 3640 0cbe 78b8 643d 7ae5 babd afa0 89bd
00000360: ecf0 183e a93a a1bd 2ab7 afbc 2663 ecbc
00000370: f402 61bd 3511 bcbd 8f11 ca3b f78b 1f3d
00000380: 7c29 f6bd 3327 e13d 1d29 43bd 2b6a 11be
00000390: 9716 a4bd af91 1ebe 0e37 a23d 002e e4bd
000003a0: 858a 33bc ec14 f33d 498d 5dbc d512 b4bd
000003b0: 194c 1b3e eea3 91bd 7d9d 1e3e 39bf c7bd
000003c0: 6a44 823c c70b ddbd 26d6 7bbe 1a70 183e
000003d0: fd24 cdbd ac5e 683c 423f 3fbd 5a02 093e
000003e0: d4ad ee3d f9ea 223d fa6a 11bd d444 febd
000003f0: 26aa 983d cdf2 96bd fa59 aebc fe1f 0cbe

network_body._body_endoder.seq_layers.2.bias f4 [128]
-0.0067821983 -0.012251465 -0.010774492 -0.00614381 -0.0047157626 -0.0017802127 -0.016695438 -0.006843487
-0.0029609744 -0.0026246065 -0.013961719 0.012193164 -0.0039679543 -0.0043042754 -0.0007319846 0.0074224607
-0.0030172535 0.0064533385 -0.0026228866 -0.007147952 0.00075613474 -0.030459145 -0.024858207 0.011146813
0.01089976 -0.0026172544 -0.022299066 -0.01916962 -0.02964611 -0.02322868 0.0041640396 0.026051018
0.006798938 -0.012836701 -0.016147992 -0.013609186 -0.008903029 0.0013419078 -0.011049389 -0.025050048
-0.0181839 -0.01660076 0.014091497 -0.013550003 -0.012053139 -0.019375201 -0.019364044 -0.007950907
-0.0056736195 -0.003045466 0.0074846176 -0.021761026 -0.0049332697 -0.0042861975 -0.008707443 -0.026047336
-0.0031605582 0.007473299 -0.007835635 -0.008132828 0.014673753 -0.0076418584 -0.009070015 -4.2710704e-05
0.002873917 -0.0033295506 0.0047839046 -0.007311148 -0.0037610983 -0.0018360699 0.019050218 -0.010004565
-0.000930378 -0.011446209 0.005679248 -0.007560627 -0.01513775 0.005988071 0.012658644 0.014765571
-0.010026464 -0.020637432 -0.000654745 0.010892335 -0.01614362 0.016859481 -0.0017229 -0.0094278315
-0.016975509 -0.0037289925 -0.003971188 -0.0015794614 -0.0014673917 -0.00666673 0.0053529814 -0.0019192917
0.006008988 -0.020981899 0.0021300232 -0.0039773737 0.016179087 -0.0046473853 -0.008515201 -0.014817538
-0.001278668 -0.004067831 -0.03969709 -0.0032449998 -0.013728588 -0.01955432 -0.0074394257 -0.013444388
-0.016933398 -0.008046331 -0.0061934143 -0.009063631 -0.010141331 -0.013620171 -0.021477995 -0.022564305
-0.0005316644 -0.00378657 -0.0063857306 0.007744289 -0.01012181 0.0026055707 -0.0030339763 -0.016123062
00000000: 343d debb 5eba 48bc 7f87 30bc 0452 c9bb
00000010: af86 9abb 0756 e9ba dfc4 88bc 543f e0bb
00000020: e80c 42bb 9701 2cbb b2bf 64bc d6c5 473c
00000030: 9d05 82bb e10a 8dbb a8e2 3fba 1d38 f33b
00000040: 1dbd 45bb 8776 d33b bce4 2bbb 5e39 eabb
00000050: 5837 463a 7585 f9bc 70a3 cbbc 1fa1 363c
00000060: e894 323c 3e86 2bbb 88ac b6bc 9b09 9dbc
00000070: 66dc f2bc 134a bebc 7f72 883b f268 d53c
00000080: a0c9 de3b 0751 52bc cb48 84bc 10f9 5ebc
00000090: 03de 11bc f4e2 af3a 7f08 35bc c235 cdbc
000000a0: 67f6 94bc 51fe 87bc 06e0 663c d500 5ebc
000000b0: 877a 45bc beb8 9ebc 58a1 9ebc 8544 02bc
000000c0: c5e9 b9bb 7196 47bb 8641 f53b 2e44 b2bc
000000d0: 44a7 a1bb 3b73 8cbb aaa9 0ebc 3961 d5bc
000000e0: 5e21 4fbb 93e2 f43b 0961 00bc 8e3f 05bc
000000f0: 2e6a 703c 8e68 fabb 669a 14bc 4524 33b8
00000100: 5458 3c3b 9734 5abb 4dc2 9c3b 5b92 efbb
00000110: c27c 76bb 48a8 f0ba 340f 9c3c 30ea 23bc
00000120: 9ce4 73ba e188 3bbc fc18 ba3b 23bf f7bb
00000130: 5304 78bc 9537 c43b 3366 4f3c 4beb 713c
00000140: 0a46 24bc d50f a9bc 31a3 2bba c475 323c
00000150: a03f 84bc e51c 8a3c eed2 e1ba 3177 1abc
00000160: 3910 8bbc 1d62 74bb bd20 82bb ee05 cfba
00000170: 7f55 c0ba 9674 dabb 1068 af3b be90 fbba
00000180: 0be7 c43b 3be2 abbc dc97 0b3b a154 82bb
00000190: 018a 843c 1849 98bb 5783 0bbc 42c5 72bc
000001a0: fa98 a7ba 714b 85bb 6a99 22bd 10aa 54bb
000001b0: dfed 60bc 6230 a0bc 6dc6 f3bb da45 5cbc
000001c0: e9b7 8abc c2d4 03bc 20f2 cabb a07f 14bc
000001d0: d327 26bc 2327 5fbc 9ff2 afbc c7d8 b8bc
000001e0: 655f 0bba 1a28 78bb 643f d1bb cec3 fd3b
000001f0: f3d5 25bc 39c2 2a3b add5 46bb 8314 84bc

action_model._continuous_distribution.log_sigma f4 [1, 2]
-0.111256994 -0.07205245
00000000: b5da e3bd 3c90 93bd

action_model._continuous_distribution.mu.weight f4 [2, 128]
0.009983179 0.0031337352 -0.0036489202 -0.00947872 -0.0012839363 0.0038083142 -0.016021019 0.011585902
0.009465304 -0.013378939 -0.02124603 0.023322055 0.013933899 -0.0076245056 -0.0069831978 0.015215384
0.014274276 0.009998348 0.0028791016 0.0030889479 0.004260474 -0.003497816 -0.008697145 -0.021432994
0.010424842 0.026930105 0.0055462904 -0.007422534 -0.002273045 -0.030957658 0.014305188 0.015560243
0.0059377165 -0.030560724 -0.015221005 0.003748366 0.0037381246 0.03476507 0.0036891666 -0.0021847754
-0.0054399977 -0.0087907 0.014394927 -0.0022275408 0.0029668082 -0.038058873 -0.010627186 -0.007893147
0.0030837771 0.010568697 0.027390888 -0.013828538 0.0020702993 -0.0041685128 0.022089487 -0.016626365
-0.006253498 -0.042188767 -0.06466162 -0.017225817 -0.012486671 -0.011224948 -0.013518655 0.024537325
0.0029216567 -0.05651736 -0.024624746 -0.0055240076 0.0053737466 0.0054896194 0.021420103 0.0027343957
-0.0050226725 -0.0047256085 0.009265604 -0.010099877 -0.013086672 0.015293812 0.00056562363 0.023979492
-0.009165924 0.0019487967 0.011692181 0.013622949 0.008972998 -0.01580799 0.0031206175 -0.012776167
0.017900627 0.0069695343 0.022599045 0.011280074 0.021551069 -0.00968086 0.017002013 0.026006635
-0.011745437 -0.011245091 0.01094719 0.013714464 0.035242263 0.00076591293 -0.0048388112 0.004556765
0.010654014 -0.011585642 -0.034695692 0.009730439 0.0100349765 -0.013602835 0.008132172 -0.04016142
-0.039212197 -0.011489752 -0.013209379 0.026070606 0.0008006389 -0.01316305 -0.02501334 0.0024268217
0.024300952 -0.014309412 -0.004539886 0.016726704 0.001961386 0.020765858 -0.030497951 0.00063636556
0.017749589 -0.002623394 0.036544763 0.002518331 0.032687686 0.019543404 0.0036346605 0.007894673
-0.01566917 -0.00645885 -0.008318739 0.0075500663 0.034583863 0.0033166585 0.030226376 -0.023981532
0.009442477 0.0033454217 0.0008879008 0.0038647011 -0.00012352345 -0.0019577744 -0.0034894508 0.043756362
0.002790143 0.023268731 0.018390223 0.008289303 -0.001673453 0.018084107 -0.024116354 -0.01894138
0.028593777 -0.0095104 -0.0025463772 0.017307209 -0.006388074 -0.009948399 0.004897182 0.003964171
0.0023621107 -0.008666554 -0.012324999 0.021333149 -0.0015153976 0.0007733955 0.003534311 -0.00018128305
0.0072698127 -0.009230035 -0.038948618 0.008981267 0.0006308921 -0.008300176 0.01417661 0.011155034
-0.01749704 -0.03554537 0.0051763076 0.012053123 -0.008842862 0.008648481 0.00046497895 -0.01899676
-0.0006066728 0.0066025364 0.048876 0.0064053955 -0.0047490858 -0.022635723 0.0003851379 0.01758648
0.012119617 -0.003953367 -0.018392717 -0.013792066 0.004427513 0.004209803 0.044480115 -0.014394786
0.00390069 0.012596322 0.0033549215 -0.021476628 0.016559497 -0.037806053 -0.0017814338 0.005528068
0.0099921245 0.0017202689 -0.008445059 0.0022490274 -0.001739355 0.039260052 -0.022533273 0.015486584
0.009313295 0.0057037207 -0.020508472 -0.0064525134 -0.0101129515 0.027932469 -0.009490407 -0.0008777524
-0.010325834 0.034720823 0.03944413 -0.0077876397 0.011921928 0.009715787 0.017247103 0.025422337
0.037724685 -0.04700644 -0.012623824 0.020372497 0.02070753 0.037382808 0.007964372 0.0010543455
0.023720799 0.00018842482 -0.0014195273 -0.005996423 0.024357056 0.0050314027 0.030661933 0.0109704835
00000000: 7d90 233c 5a5f 4d3b b922 6fbb a24c 1bbc
00000010: c149 a8ba e994 793b 833e 83bc ccd2 3d3c
00000020: 5d14 1b3c 5633 5bbc 280c aebc e50d bf3c
00000030: 024b 643c fdd6 f9bb 4fd3 e4bb f249 793c
00000040: a7de 693c 1cd0 233c 4faf 3c3b f26f 4a3b
00000050: 729b 8b3b 9d3b 65bb 787e 0ebc 3f94 afbc
00000060: f5cc 2a3c 869c dc3c a8bd b53b ba38 f3bb
00000070: 5ef7 14bb ea9a fdbc 4f60 6a3c 64f0 7e3c
00000080: 2d91 c23b 7c5a fabc 8661 79bc 25a7 753b
00000090: 53fb 743b d165 0e3d f2c5 713b 732e 0fbb
000000a0: 0242 b2bb de06 10bc b3d8 6b3c effb 11bb
000000b0: c86e 423b 9fe3 1bbd a61d 2ebc 4252 01bc
000000c0: 3219 4a3b 5428 2d3c db62 e03c 1891 62bc
000000d0: dcad 073b 0598 88bb 03f5 b43c 0434 88bc
000000e0: 25ea ccbb 21ce 2cbd 506d 84bd 281d 8dbc
000000f0: e594 4cbc d8e8 37bc 597d 5dbc 8002 c93c
00000100: 4479 3f3b bf7e 67bd d6b9 c9bc bc02 b5bb
00000110: 4116 b03b 44e2 b33b 3679 af3c 8c33 333b
00000120: 3b95 a4bb 47d9 9abb c3ce 173c f479 25bc
00000130: 7b69 56bc e692 7a3c 5c46 143a a470 c43c
00000140: ac2c 16bc c46e ff3a 9090 3f3c ca32 5f3c
00000150: 7b03 133c c27f 81bc 4683 4c3b 2153 51bc
00000160: 56a4 923c b160 e43b a221 b93c 0fd0 383c
00000170: de8b b03c 789c 1ebc ce47 8b3c de0b d53c
00000180: ef6f 40bc 553d 38bc d85b 333c a2b2 603c
00000190: 315a 103d 8cc7 483a e48e 9ebb ea50 953b
000001a0: 2c8e 2e3c b4d1 3dbc 121d 0ebd 6b6c 1f3c
000001b0: be69 243c 6dde 5ebc cd3c 053c 4d80 24bd
000001c0: f89c 20bd 833f 3cbc 276c 58bc 0692 d53c
000001d0: f8e1 513a d5a9 57bc c7e8 ccbc 500b 1f3b
000001e0: ca12 c73c 0672 6abc 53c3 94bb 7106 893c
000001f0: 998a 003b 291d aa3c d7d6 f9bc c5d1 263a
00000200: 9667 913c 3fed 2bbb f6af 153d 950a 253b
00000210: 86e3 053d 7d19 a03c 7c33 6e3b a958 013c
00000220: a25c 80bc c3a4 d3bb 524b 08bc 8c66 f73b
00000230: cfa7 0d3d 4c5c 593b 4e9d f73c eb74 c4bc
00000240: 9eb4 1a3c dd3e 5b3b 04c2 683a ed46 7d3b
00000250: 1386 01b9 014e 00bb 45af 64bb df39 333d
00000260: d5da 363b 119e be3c 18a7 963c dbcf 073c
00000270: c457 dbba 1f25 943c a98f c5bc f42a 9bbc
00000280: 7f3d ea3c 82d1 1bbc 1fe1 26bb d9c7 8d3c
00000290: 0c53 d1bb 9cfe 22bc 8a78 a03b e0e5 813b
000002a0: a4cd 1a3b 29fe 0dbc cbee 49bc dbc2 ae3c
000002b0: 4ea0 c6ba b2bd 4a3a e69f 673b cc16 3eb9
000002c0: 9c37 ee3b 9339 17bc 9688 1fbd 2a26 133c
000002d0: 7462 253a 76fd 07bc 0345 683c 9bc3 363c
000002e0: f455 8fbc 0698 11bd 049e a93b 767a 453c
000002f0: a7e1 10bc 5cb2 0d3c 6bc8 f339 189f 9bbc
00000300: 1f09 1fba 175a d83b 3332 483d 5ae4 d13b
00000310: 389e 9bbb 8d6e b9bc 55ec c939 8611 903c
00000320: 5c91 463c 3f8b 81bb 53ac 96bc 1ef8 61bc
00000330: ac14 913b 63f2 893b c830 363d 1cd8 6bbc
00000340: b8a2 7f3b ce60 4e3c 3ede 5b3b c1ef afbc
00000350: c8a7 873c 85da 1abd 007f e9ba cc24 b53b
00000360: 02b6 233c a57a e13a 255d 0abc 6b64 133b
00000370: 12fb e3ba 26cf 203d b397 b8bc 71bb 7d3c
00000380: ca96 183c 47e6 ba3b 6201 a8bc 9b6f d3bb
00000390: cbb0 25bc a2d2 e43c a77d 1bbc f718 66ba
000003a0: b02d 29bc 6c37 0e3d 2b90 213d 752f ffbb
000003b0: 3154 433c f72e 1f3c cc49 8d3c 8142 d03c
000003c0: 3385 1a3d d389 40bd 28d4 4ebc 39e4 a63c
000003d0: d7a2 a93c b71e 193d ff7c 023c f731 8a3a
000003e0: 1f52 c23c e793 4539 6f0f baba a47d c4bb
000003f0: 7388 c73c 77de a43b bc2e fb3c 8bbd 333c

action_model._continuous_distribution.mu.bias f4 [2]
0.015335082 -0.01278739
00000000: ff3f 7b3c 3382 51bc
