Goodminton/Assets/results/Badminton/Badminton/Badminton-635.pt (torch, 438968 bytes, 36 tensors)

network_body._body_endoder.seq_layers.0.weight f4 [128, 5]
0.26714322 -0.72465724 0.41389441 0.4883195 0.01482419 0.405854 0.10061887 0.38328007
0.14877464 -0.36916456 -0.09557479 0.06585827 -0.07209563 -0.5520797 0.1365435 0.002598798
0.0589467 0.5710449 -0.49309006 -0.20992789 -0.43700558 -0.38258913 0.13572882 -0.9011268
-0.35559818 -0.421746 -0.5275096 0.027217293 -0.0116643915 0.21430877 -0.18303981 -0.6134846
0.09991808 0.13608548 -0.052972082 -0.33136386 -0.025712505 -0.6048411 0.04267437 0.4477581
0.33371857 -0.13152936 0.27731803 0.22438818 -0.98185664 0.01768936 0.6489342 1.0730662
-0.50399894 -0.595642 0.34681892 -0.4443919 0.3459498 -0.2249957 0.97983366 0.06692938
-0.42451084 0.39779785 0.86012197 -0.40283334 -0.7519609 0.4754016 0.5228512 -0.34206212
-0.18501197 -0.25973716 -0.29247832 0.0997154 0.17385624 -0.07701544 -0.32018307 0.14429203
0.22531778 0.24440655 0.8790479 0.69818485 0.3834263 -0.26249376 0.13071322 0.024814324
-0.025621923 0.13573018 -0.6327665 0.23308519 0.47206536 0.39175704 -0.23494773 -0.43373013
0.30739146 0.19082259 0.48456746 -0.6259956 -0.22721685 0.41358414 0.10370815 -0.09198374
-0.13129929 0.043430362 0.61091083 -0.38962597 -0.18156718 0.11709371 0.2750685 0.27233475
0.38339433 0.40374622 -0.11547567 -0.2857275 -0.48556557 0.31593573 0.9246438 0.28210944
0.3185104 0.08061719 0.20654717 -0.57868683 0.20318013 -0.4792271 -0.004361353 -0.5646952
0.37054485 0.3077029 -0.66300905 -0.03351624 -0.9679198 -0.23807485 -0.86638165 0.11997447
0.21334712 0.6623577 0.74419427 0.08481278 0.103957206 -0.025651712 -0.06998132 -0.16991374
0.28360286 0.40610898 0.71750414 0.62174 -0.13890012 -0.74488443 -0.1973806 -0.015290245
-0.5671097 0.42661586 0.10601148 -0.56688946 -0.34267902 0.16985075 -0.3916235 -0.21456459
0.06869975 0.11877552 0.28390637 0.21912464 -0.13186957 -0.9937242 -0.5458564 -0.33996212
1.3240439 -0.94575465 -0.16847824 -0.034516986 0.5106364 -0.8437885 -0.38134423 -0.37511986
-0.54348046 0.3043717 -0.44149566 -0.079601586 -0.22818801 0.47097012 -0.0070806276 -0.5530235
-0.34140113 -0.11054246 0.5289359 0.69069386 -0.3784138 -0.0044075716 -0.4764332 -0.10825177
0.1794414 -0.14036243 0.15084605 0.16822074 0.18790874 0.20195302 0.03305975 -0.1680249
0.06334129 -0.047056884 -0.31129137 0.26247802 0.1343118 0.19295718 -0.5275986 0.17397767
0.77599984 -0.22108321 -0.11589095 0.12159952 -0.25738534 0.1705449 -0.055431385 0.799004
0.1941123 0.2299051 0.17383395 -0.12535022 -0.2970448 0.11566323 -0.31127167 0.28727046
-0.4032429 1.0889504 -0.65460163 -0.41487166 0.32530263 0.4970996 -0.4089029 0.3259328
-0.008296251 -0.5547858 -0.010173143 -0.08486087 -0.41817316 -0.4049334 -0.47160578 -0.2754756
-0.49718025 0.19633813 0.74922585 -0.14865118 -0.03433677 -0.24289219 -0.1822952 -0.23162149
0.003408665 -0.3085295 0.26396137 0.2463957 -0.46573114 -0.07672948 -0.7787565 0.36172512
0.3313325 0.11203103 0.71711546 -0.31120005 -0.7827685 0.041142073 0.43118382 -0.10901285
00000000: ffc6 883e 2383 39bf f8e9 d33e 0305 fa3e
00000010: 29e1 723c 18cc cf3e 4411 ce3d 493d c43e
00000020: 6158 183e 2303 bdbe b7bc c3bd b3e0 863d
00000030: e0a6 93bd 1855 0dbf 0fd2 0b3e 9850 2a3b
00000040: 1872 713d 0030 123f 4d76 fcbe 56f7 56be
00000050: 32bf dfbe b9e2 c3be 7ffc 0a3e 3fb0 66bf
00000060: f710 b6be 17ef d7be df0a 07bf cdf6 de3c
00000070: 011c 3fbc c273 5b3e ca6e 3bbe 540d 1dbf
00000080: daa1 cc3d fe59 0b3e 41f9 58bd 86a8 a9be
00000090: 08a3 d2bc ded6 1abf 52cb 2e3d 8d40 e53e
000000a0: 29dd aa3e a2af 06be a1fc 8d3e 04c6 653e
000000b0: f55a 7bbf 47e9 903c 8d20 263f 3c5a 893f
000000c0: 1306 01bf fe7b 18bf 4092 b13e 5687 e3be
000000d0: 5520 b13e 4665 66be 61d6 7a3f 4512 893d
000000e0: 7c59 d9be 29ac cb3e f430 5c3f 2c40 cebe
000000f0: 8280 40bf d767 f33e 94d9 053f c422 afbe
00000100: c773 3dbe 45fc 84be b8bf 95be 9637 cc3d
00000110: 5f07 323e 45ba 9dbd 09ef a3be 4ac1 133e
00000120: b4b9 663e b645 7a3e 4809 613f 3ebc 323f
00000130: 7450 c43e 9565 86be b0d9 053e 6947 cb3c
00000140: 11e5 d1bc dafc 0a3e fcfc 21bf e2ad 6e3e
00000150: 8db2 f13e 6194 c83e 2396 70be e011 debe
00000160: 6a62 9d3e ff66 433e 3a19 f83e 3f41 20bf
00000170: 89ab 68be 4dc1 d33e f064 d43d f961 bcbd
00000180: 5273 06be 09e4 313d a764 1c3f 0e7d c7be
00000190: bfec 39be d4ce ef3d c7d5 8c3e 766f 8b3e
000001a0: 434c c43e d3b7 ce3e 827e ecbd e04a 92be
000001b0: 0d9c f8be 54c2 a13e 75b5 6c3f a670 903e
000001c0: cc13 a33e a01a a53d 1a81 533e d224 14bf
000001d0: 740e 503e 415d f5be aee9 8ebb dd8f 10bf
000001e0: 0eb8 bd3e 3c8b 9d3e f6ba 29bf 5348 09bd
000001f0: 98c9 77bf e5c9 73be 30cb 5dbf 2db5 f53d
00000200: ab77 5a3e 4690 293f 8483 3e3f 53b2 ad3d
00000210: 84e7 d43d 8a23 d2bc 5e52 8fbd defd 2dbe
00000220: 6534 913e 84ed cf3e 5aae 373f 5a2a 1f3f
00000230: d53b 0ebe bfb0 3ebf 241e 4abe f083 7abc
00000240: 1a2e 11bf 656d da3e 8c1c d93d ab1f 11bf
00000250: a073 afbe 5bed 2d3e e082 c8be d2b6 5bbe
00000260: 74b2 8c3d 9440 f33d 2d5c 913e 3662 603e
00000270: d108 07be b664 7ebf 3fbd 0bbf 840f aebe
00000280: 457a a93f fa1c 72bf 8f85 2cbe af61 0dbd
00000290: 11b9 023f 8602 58bf 8d3f c3be b60f c0be
000002a0: 8921 0bbf 9cd6 9b3e b80b e2be 2806 a3bd
000002b0: 1eaa 69be ff22 f13e 9c04 e8bb f392 0dbf
000002c0: 21cc aebe 1664 e2bd 5868 073f 50d1 303f
000002d0: 74bf c1be 646d 90bb 0def f3be 1bb3 ddbd
000002e0: 7dbf 373e 2bbb 0fbe 6377 1a3e 0f42 2c3e
000002f0: 266b 403e c6cc 4e3e a969 073d b80e 2cbe
00000300: 14b9 813d b8be 40bd 9561 9fbe 8563 863e
00000310: 0889 093e 9196 453e b410 07bf 3427 323e
00000320: eda7 463f a363 62be 3c58 edbd 2b09 f93d
00000330: 03c8 83be 52a3 2e3e 050c 63bd 878b 4c3f
00000340: 60c5 463e 3e6c 6b3e 8701 323e cf5b 00be
00000350: 4216 98be d8e0 ec3d 005f 9fbe 1d15 933e
00000360: da75 cebe ba62 8b3f f993 27bf 0f6a d4be
00000370: 118e a63e d783 fe3e b95b d1be aae0 a63e
00000380: 00ed 07bc 7106 0ebf 41ad 26bc 89cb adbd
00000390: cb1a d6be 6e53 cfbe 5076 f1be 230b 8dbe
000003a0: 698e febe dd0c 493e 44cd 3f3f 0438 18be
000003b0: b7a4 0cbd bbb8 78be 98ab 3abe 2f2e 6dbe
000003c0: e963 5f3b 94f7 9dbe f225 873e 284f 7c3e
000003d0: 5074 eebe 5824 9dbd 965c 47bf 0934 b93e
000003e0: 6aa4 a93e 8670 e53d e194 373f 9d55 9fbe
000003f0: 8463 48bf 9784 283d 20c4 dc3e 2142 dfbd

network_body._body_endoder.seq_layers.0.bias f4 [128]
0.0037820898 0.0042031542 0.00085968146 0.007552172 -0.0033508756 -0.0039573265 -0.004170513 0.0034072853
-0.0008879046 0.005525693 0.0009598623 0.0013374863 0.0034223231 0.001247259 -0.0061218366 0.00090278237
-3.82668e-05 -0.0011599265 -0.0030613057 -0.0014987946 -0.0045094755 -0.0028558455 -0.0014122142 0.0037559604
0.0037521482 -0.00789232 0.0033614 0.00014368074 -0.0037454076 -0.0016954059 -0.002268969 0.0001604521
-0.0017814424 -0.0068721473 0.0016508126 -0.00013751815 -4.5320536e-05 0.00042736164 0.0001519752 0.00060121634
-0.00025115488 0.0020012204 0.0014223935 -0.00532926 0.0023546345 -0.0014506025 -0.002833507 -0.0010207342
0.0011875683 0.00520491 0.0057468843 -0.00070276414 0.008496455 -0.0058803265 -0.0032046668 0.0056873574
0.002133619 0.0020678185 0.007004374 -0.002814108 0.0027901554 -0.0009576233 -0.0026974794 0.001629054
-0.0024768389 -0.0040474823 -0.00048463893 0.0060012857 0.001206009 -0.00084417925 0.0040356843 0.0057991925
-0.0028649524 -0.0031398062 0.0027088467 0.004086022 -0.0014388111 0.00025038247 0.004538941 0.0041034743
-0.009580447 0.003855701 0.007871931 0.0035681645 0.0037959141 0.007270413 0.00088796974 0.009532529
-0.0038976169 -0.0015169758 -0.0030410471 0.001873505 4.0507264e-05 0.0038467688 -0.00044592514 -0.0021967248
-0.0018382701 0.0012890641 0.0038175872 0.0001266592 0.0049596746 0.0019808132 0.0027317663 0.0025074207
0.0058525344 0.0017265565 0.0049836747 -0.0016060229 -0.0062832474 0.0014349807 -0.00084141205 0.005660944
0.0049697184 0.0048072245 0.000107263186 -0.0031679322 -0.002467107 -0.005456301 -0.00011364219 -0.006222489
-0.0020815055 -0.0010718525 -0.0034671088 -0.0040316964 0.0018162692 0.0028958048 0.0037370916 0.00416754
00000000: f0dc 773b 9dba 893b 3f5c 613a 3678 f73b
00000010: 5d9a 5bbb 76ac 81bb cca8 88bb c34c 5f3b
00000020: 45c2 68ba df10 b53b 459f 7b3a 984e af3a
00000030: 0e49 603b 117b a33a b099 c8bb b3a8 6c3a
00000040: aa80 20b8 ad08 98ba 30a0 48bb 3473 c4ba
00000050: 39c4 93bb 2329 3bbb 0c1a b9ba 8f26 763b
00000060: 9ae6 753b ca4e 01bc ef4a 5c3b 01a9 1639
00000070: 8375 75bb 6238 deba fcb2 14bb 083f 2839
00000080: 4a7f e9ba c02f e1bb 1460 d83a bf32 10b9
00000090: 8e16 3eb8 820f e039 885b 1f39 f29a 1d3a
000000a0: 70ad 83b9 e826 033b 9b6f ba3a 13a1 aebb
000000b0: 3650 1a3b 2522 beba 5cb2 39bb 28ca 85ba
000000c0: 2ea8 9b3a f38d aa3b 5c50 bc3b b439 38ba
000000d0: b734 0b3c c1af c0bb 6305 52bb 035d ba3b
000000e0: 30d4 0b3b 3d84 073b f384 e53b e66c 38bb
000000f0: 0adb 363b 0309 7bba 32c8 30bb fb85 d53a
00000100: 7652 22bb bea0 84bb 2317 feb9 6fa6 c43b
00000110: f212 9e3a e94b 5dba c63d 843b 2707 be3b
00000120: edc1 3bbb 35c5 4dbb e886 313b 09e4 853b
00000130: 7d96 bcba c445 8339 66bb 943b 7076 863b
00000140: 4ff7 1cbc eeaf 7c3b 46f9 003c ded7 693b
00000150: dfc4 783b a53c ee3b a4c6 683a 532e 1c3c
00000160: 296f 7fbb 43d5 c6ba 4e4c 47bb 6590 f53a
00000170: 58e6 2938 121a 7c3b 0fcb e9b9 edf6 0fbb
00000180: 1cf2 f0ba d0f5 a83a 7c30 7a3b d2cf 0439
00000190: c484 a23b 88d0 013b 6f07 333b 8a53 243b
000001a0: 9ec6 bf3b 9f4d e23a 184e a33b 3081 d2ba
000001b0: b3e3 cdbb f615 bc3a 3592 5cba 717f b93b
000001c0: 05d9 a23b ec85 9d3b 7cf2 e038 159d 4fbb
000001d0: 30af 21bb c5ca b2bb 3053 eeb8 05e6 cbbb
000001e0: de69 08bb 677d 8cba 6f38 63bb 521c 84bb
000001f0: e20f ee3a 8bc7 3d3b fee9 743b dc8f 883b

network_body._body_endoder.seq_layers.2.weight f4 [128, 128]
-0.10593611 0.07503034 0.015242425 0.014481629 -0.15319838 0.18415828 0.18029782 0.02861873
-0.06709587 0.07106187 0.037268296 0.20832722 -0.24213913 0.06546378 -0.008637292 -0.13077024
0.18965308 0.20386198 -0.104227245 -0.14149939 0.14975749 -0.11111448 0.04790112 0.047835007
-0.14561163 -0.035888776 0.10851816 -0.056710795 0.105276324 -0.014691247 -0.020087978 0.05775605
-0.095381886 -0.01394803 0.028853616 0.14353923 0.07564686 0.019811306 0.101070784 -0.19138128
-0.13865942 0.11116739 -0.030701082 -0.051156413 -0.0696551 -0.056419883 0.11523109 0.1152287
-0.070137344 0.13102716 -0.11042538 -0.058790427 0.044698488 0.01413834 -0.11434607 -0.14756812
-0.07041645 0.03127172 -0.0575465 0.0159649 -0.12444556 -0.020927768 -0.0018941315 0.08428256
0.02093081 0.1239816 -0.051193323 -0.11302005 -0.008132655 0.013071823 -0.006894981 0.077801436
-0.09891114 -0.016452722 0.021912076 -0.08604429 0.034953207 0.030439831 -0.17985854 -0.07910248
0.11158001 0.109373346 -0.15637876 0.013146862 0.029162174 0.1587097 0.004601432 0.017741375
-0.039974146 0.06929688 -0.087456554 0.13259801 -0.0013996542 0.04389999 0.01948895 -0.043629486
0.013235578 -0.09897462 0.10801643 -0.032079034 -0.019727234 -0.032049738 -0.10777767 -0.041727524
0.10074325 0.16309838 0.010350155 -0.024001937 0.20098685 0.0980396 -0.056616917 0.06230019
-0.038424484 -0.017607654 -0.04226442 0.06868537 0.09310723 0.14481744 0.03495039 -0.09816283
-0.017786967 0.03784656 -0.07708646 -0.04333892 0.11461395 -0.045399945 -0.111435205 -0.05746634
-0.019021846 -0.11813615 -0.06750015 -0.088549376 -0.106209606 0.11633381 0.09998598 -0.10564946
-0.060572837 -0.010718459 0.05173881 -0.043682627 -0.09418989 -0.10048686 0.11405597 -0.06775527
-0.11192361 -0.046872545 0.00428346 -0.02971829 -0.026584957 0.06825805 0.08575301 0.055130612
-0.06955554 0.15279977 -0.017336976 -0.035122655 0.104933836 -0.12203535 0.10748471 -0.12289524
-0.1487673 -0.08194412 0.08175261 0.09677593 -0.16405796 0.031273447 0.005974395 -0.13544142
-0.13086699 -0.1048821 -0.048817948 -0.047891337 -0.007444032 0.074329786 0.015209436 0.020253971
-0.0576335 -0.08925717 -0.14681724 0.17726237 -0.025334777 -0.089805126 -0.15727086 -0.037117906
-0.21815018 -0.06939024 -0.084983744 -0.057475444 0.02370016 -0.05153625 0.026976924 0.13424385
0.15966931 -0.18064684 0.029716155 -0.12917688 0.062467646 0.1133312 0.060749874 -0.009474569
0.05602412 -0.10748386 0.073181674 0.09190319 -0.08023209 0.029591985 -0.11686996 0.040930282
-0.05466142 -0.023887316 -0.055525437 -0.16436662 -0.05787576 -0.2193219 -0.10668902 0.01866012
-0.13190378 -0.010739724 0.02684476 0.07850262 0.059196185 0.09410051 -0.0062075523 -0.12943636
-0.0463506 -0.020801093 -0.12341775 0.047504883 -0.006516368 -0.070626624 -0.09460274 0.0026622138
-0.0306075 -0.112022825 0.023371559 0.08942838 -0.026156899 -0.1087776 0.28261974 0.058328684
0.05886496 -0.0823389 0.040812735 0.022010986 0.11084101 0.061852112 -0.10736687 0.0041570617
-0.014080352 0.05393989 -0.13371979 0.16581705 -0.14036366 -0.058231782 0.06726016 -0.09656271
00000000: 08f5 d8bd 82a9 993d 5dbb 793c 5b44 6d3c
00000010: 09e0 1cbe fd93 3c3e fe9f 383e d471 ea3c
00000020: 8f69 89bd e388 913d a4a6 183d bb53 553e
00000030: 52f3 77be e011 863d 6e83 0dbc a2e8 05be
00000040: 6b34 423e 32c1 503e 1875 d5bd 37e5 10be
00000050: 075a 193e fd8f e3bd f733 443d a4ee 433d
00000060: 371b 15be 1c00 13bd c53e de3d 9449 68bd
00000070: 1d9b d73d 8eb3 70bc 8b8f a4bc 9c91 6c3d
00000080: 9457 c3bd 4786 64bc 6b5e ec3c f3fb 123e
00000090: beec 9a3d 524b a23c 33fe ce3d 74f9 43be
000000a0: bcfc 0dbe bbab e33d d680 fbbc 6389 51bd
000000b0: 55a7 8ebd 8918 67bd 47fe eb3d 06fd eb3d
000000c0: 2ba4 8fbd fc2b 063e b426 e2bd 3bce 70bd
000000d0: c315 373d 7fa4 673c 462e eabd 191c 17be
000000e0: 8036 90bd c616 003d e1b5 6bbd d2c8 823c
000000f0: 50dd febd b670 abbc 8244 f8ba 569c ac3d
00000100: 1777 ab3c 11ea fd3d 17b0 51bd 0e77 e7bd
00000110: d43e 05bc 332b 563c 4bef e1bb 5c56 9f3d
00000120: ec91 cabd dcc7 86bc f480 b33c fd37 b0bd
00000130: 182b 0f3d f45c f93c d62c 38be 7b00 a2bd
00000140: 0f84 e43d 22ff df3d c121 20be f065 573c
00000150: 83e5 ee3c cc84 223e 9cc7 963b 5c56 913c
00000160: eebb 23bd 86eb 8d3d 6c1c b3bd c6c7 073e
00000170: 9a74 b7ba 7ad0 333d 4aa7 9f3c d5b4 32bd
00000180: 0ada 583c 35b3 cabd b837 dd3d 4e65 03bd
00000190: 029b a1bc 9646 03bd 8aba dcbd 7bea 2abd
000001a0: 7a52 ce3d 4303 273e b293 293c b69f c4bc
000001b0: 7fcf 4d3e fcc8 c83d 24e7 67bd 7c2e 7f3d
000001c0: fe62 1dbd ed3d 90bc 751d 2dbd eaaa 8c3d
000001d0: 01af be3d 064b 143e 2428 0f3d 9809 c9bd
000001e0: f9b5 91bc ff04 1b3d 82df 9dbd 2784 31bd
000001f0: b8ba ea3d 4bf5 39bd 2438 e4bd d361 6bbd
00000200: b4d3 9bbc 5ef1 f1bd 853d 8abd 6059 b5bd
00000210: 6c84 d9bd 6c40 ee3d 73c5 cc3d be5e d8bd
00000220: 391b 78bd 7a9c 2fbc 13ec 533d 8eec 32bd
00000230: a1e6 c0bd 0ecc cdbd 2d96 e93d 46c3 8abd
00000240: 3538 e5bd 6dfd 3fbd 445c 8c3b c573 f3bc
00000250: b2c8 d9bc e0ca 8b3d 469f af3d a3d0 613d
00000260: 2373 8ebd 8b77 1c3e 4606 8ebc c6dc 0fbd
00000270: 8de7 d63d abed f9bd f220 dc3d 80b0 fbbd
00000280: 7556 18be 52d2 a7bd ea6d a73d 7532 c63d
00000290: cffe 27be 9618 003d dcc4 c33b 28b1 0abe
000002a0: ff01 06be 6dcc d6bd 54f5 47bd b529 44bd
000002b0: 11ed f3bb 373a 983d 0031 793c a8eb a53c
000002c0: 1b11 6cbd 77cc b6bd 4257 16be 4484 353e
000002d0: e18a cfbc c0eb b7bd 9d0b 21be f208 18bd
000002e0: c362 5fbe 781c 8ebd f50b aebd 5f6b 6bbd
000002f0: d726 c23c ad17 53bd b6fe dc3c 3877 093e
00000300: 5a80 233e 7cfb 38be 4b6f f33c f246 04be
00000310: 13de 7f3d 301a e83d dcd4 783d 393b 1bbc
00000320: 8c79 653d 7f20 dcbd 46e0 953d bd37 bc3d
00000330: b950 a4bd e46a f23c 8559 efbd 83a6 273d
00000340: a7e4 5fbd 55af c3bc a46e 63bd b94f 28be
00000350: 220f 6dbd ec95 60be c67f dabd 1cdd 983c
00000360: c911 07be abf5 2fbc 8be9 db3c fbc5 a03d
00000370: b377 723d c5b7 c03d b968 cbbb f78a 04be
00000380: 20da 3dbd 0e67 aabc 72c2 fcbd 7b94 423d
00000390: 4287 d5bb b1a4 90bd 15bf c1bd 8978 2e3b
000003a0: 94bc fabc 396c e5bd b675 bf3c 3a26 b73d
000003b0: fe46 d6bc cac6 debd 89b3 903e 0fea 6e3d
000003c0: 621c 713d 4ca1 a8bd 412b 273d 6250 b43c
000003d0: 9d00 e33d a458 7d3d 29e3 dbbd f637 883b
000003e0: 47b1 66bc 13f0 5c3d d7ed 08be f2cb 293e
000003f0: 7ebb 0fbe 7384 6ebd b2bf 893d acc2 c5bd

network_body._body_endoder.seq_layers.2.bias f4 [128]
-0.0018735529 -0.0043993667 -0.005524318 0.007816127 -0.004508923 -0.000713286 -0.0007718854 -0.0015979554
0.0017605171 0.0023778335 0.0023754667 -0.0015845331 -0.0015753119 0.0017227773 -0.001611297 0.0013101061
0.0040244106 0.0045635146 0.0020657578 -0.0009931175 0.0016868508 -0.0019600345 0.005599557 -0.0035273372
0.001311995 -0.0016826242 -0.0012589142 -0.0002945119 -0.004832647 -0.0019651067 -0.00049142673 -0.004124497
0.0023001384 -0.000981025 0.0045552547 0.0032137642 0.004462114 0.0065631364 0.010308003 -0.0032195435
-0.00428114 0.002828362 -0.0010288463 0.0028980686 -0.0012151136 0.004297658 0.00061865314 -0.0075849895
-0.0045248177 -0.00219034 0.0061545153 -0.00064205425 0.0032512972 -0.003673273 -0.005310231 0.0034731636
-0.00037919442 -0.004095325 0.0041208444 -0.0012731369 0.002486871 0.00091527164 0.0038610632 0.0033271702
0.0017266914 -0.004655485 -0.0022229166 0.0058000153 0.00048101673 0.0008624541 0.0029392526 0.008257259
0.003879539 0.0028404049 0.0025967574 0.0015512089 -0.0036071027 0.0008912574 -0.0025372999 -0.0031403492
0.0039969548 0.0008414911 -0.0017263752 0.001304934 -0.0011062704 0.002339101 0.008427711 0.0068520005
-0.0012731743 0.0019505881 -0.0045608096 0.0001377424 0.0019527277 0.00066713546 0.0033096983 -0.00013707901
0.0018046303 -0.00048472927 0.0029017178 -0.0025710973 -0.00031778662 4.9789014e-05 0.000862862 0.003762194
0.0027344993 0.0017508179 0.0018529062 -0.0017776847 0.0041975677 -0.0013758937 0.002092622 0.0026978722
-0.00040744725 0.00069074513 -0.00015460819 0.004249816 -0.0018773827 -0.0027167238 0.0031872252 0.0078077037
0.0027265374 -0.0049357438 -0.004190516 0.0003654555 -0.0026506698 0.0017152877 -0.003120631 -0.007044851
00000000: 0192 f5ba 9028 90bb 5705 b5bb 360f 003c
00000010: 96bf 93bb d0fb 3aba 5a58 4aba 7c72 d1ba
00000020: 27c1 e63a 6dd5 1b3b b8ad 1b3b 1cb0 cfba
00000030: b27a ceba d0ce e13a 2832 d3ba deb7 ab3a
00000040: 34df 833b 8989 953b aa61 073b 7e2b 82ba
00000050: 5219 dd3a ec73 00bb 7d7c b73b e62a 67bb
00000060: 3ff7 ab3a 808b dcba 2702 a5ba b868 9ab9
00000070: 2e5b 9ebb 05c9 00bb 17d3 00ba ca26 87bb
00000080: ebbd 163b bd95 80ba 3f44 953b 049e 523b
00000090: ed36 923b 940f d73b e6e2 283c fafe 52bb
000000a0: ce48 8cbb 0a5c 393b 5ada 86ba 86ed 3d3b
000000b0: 7244 9fba 5ed3 8c3b 1c2d 223a 818b f8bb
000000c0: ec44 94bb cf8b 0fbb d1ab c93b 884f 28ba
000000d0: b713 553b 4bbb 70bb 7201 aebb 049e 633b
000000e0: 9dce c6b9 1332 86bb 2608 873b 63df a6ba
000000f0: c6fa 223b d7ee 6f3a e409 7d3b a70c 5a3b
00000100: 2652 e23a 0a8d 98bb 5aae 11bb 0e0e be3b
00000110: f930 fc39 5116 623a 7aa0 403b 7449 073c
00000120: dd3f 7e3b 1626 3a3b 5c2e 2a3b ef51 cb3a
00000130: 2465 6cbb 46a3 693a d448 26bb 51ce 4dbb
00000140: e3f8 823b 8397 5c3a 8a47 e2ba 520a ab3a
00000150: 4600 91ba 9a4b 193b 6214 0a3c bf86 e03b
00000160: a4e0 a6ba e0aa ff3a d872 95bb f26e 1039
00000170: abf2 ff3a b4e2 2e3a 86e7 583b debc 0fb9
00000180: 5889 ec3a 4323 feb9 bf2a 3e3b db7f 28bb
00000190: 999c a6b9 8cd4 5038 b031 623a 248f 763b
000001a0: 4935 333b b37b e53a 37dd f23a 3301 e9ba
000001b0: c08b 893b 5557 b4ba 5f24 093b c9ce 303b
000001c0: a59e d5b9 1f13 353a 521e 22b9 0a42 8b3b
000001d0: 8312 f6ba 100b 32bb c4e0 503b c4d7 ff3b
000001e0: b5af 323b 05bc a1bb 9950 89bb 9b9a bf39
000001f0: dcb6 2dbb 81d3 e03a 8083 4cbb 7ed8 e6bb

action_model._continuous_distribution.log_sigma f4 [1, 2]
0.00059634703 0.0033910996
00000000: 2c54 1c3a 363d 5e3b

action_model._continuous_distribution.mu.weight f4 [2, 128]
0.021826804 0.017635848 0.037233632 -0.023375703 0.007715325 0.0028625582 0.0044682766 -0.0061369445
0.0014324368 -0.010323757 -0.00618519 -0.0152094215 0.02372663 0.008928056 -0.0067602056 -0.019313125
-0.020007271 -0.02062778 -0.009839657 -0.03446562 -0.032961063 0.011563863 0.0027432828 0.009593707
-0.0029817235 -0.008792497 -0.012078847 0.013636334 0.035724662 -0.01047509 -0.01869509 0.023687802
-0.008067689 0.03558812 -0.039379478 -0.0038709436 -0.029943049 0.0025259957 0.00015107958 0.02095086
0.008991354 -0.014077029 0.008422228 -0.021385856 0.016745659 0.0021858118 -0.03345897 0.0016464159
0.02217224 0.00592861 -0.0002915052 -0.011747495 -0.0017584559 0.011075884 0.0030221955 0.0038271232
-0.006222708 -0.0014999555 -0.023957055 0.012745866 -0.03817966 -0.039480124 0.011132196 -0.030874657
-0.052811813 0.024148777 0.011253251 -0.011532633 -0.04194762 -0.009089072 -0.011698968 0.0012951302
-0.022644067 -0.023162981 -0.0047784187 -0.030417373 0.012285874 0.0076178056 -0.009038161 0.0030947584
-0.0129335625 -0.012532824 0.0071168486 -0.03303137 -0.01361625 -0.01845212 -0.0072262078 -0.001103852
-0.003496023 0.019557487 0.011598311 -0.005119257 -0.037407566 0.009684942 0.0089671165 -0.016424991
0.020187331 -0.00802999 -0.01398442 0.01196136 -0.015892217 0.0076832636 -0.019582443 -0.0040588686
-0.020151101 -0.00998449 -0.024996309 0.0019062185 -0.0018877485 -0.0043069096 0.0028103683 0.006458901
-0.01406957 -0.019881107 -0.004281641 -0.0221546 0.014138437 -0.005015072 0.0076756994 -0.007633929
0.013192555 0.010424368 0.0091103045 -0.015253352 -0.023090916 0.023150003 0.029687 0.013701006
-0.02511984 0.020115608 0.0055254973 -0.033399362 0.014239498 0.013912325 -0.0057249865 0.024105037
-0.018501943 0.010927497 -0.008258715 0.022326108 0.019410798 0.0071238787 0.0001954104 -0.0013386125
-0.02991055 -0.036113877 0.008350666 -0.027155198 -0.006386515 -0.028535359 -0.013492 0.0024296637
-0.03153281 -0.0068794657 0.003735406 -0.0065831984 0.016592572 0.01872015 0.01305606 -0.020143421
-0.039362133 0.018564692 -0.015147269 -0.023956355 -0.023894262 -0.013009227 -0.017760655 0.020567093
0.00470281 0.017439371 -0.004667887 -0.0065828892 0.016211908 -0.018860424 -0.012525956 0.0027502822
0.02119666 -0.014520966 0.030185351 0.0041183005 0.016259633 -0.0013188726 0.0055168937 0.03365068
-0.009775189 -0.02882703 -0.01926316 0.0151237985 0.00044866782 -0.009919697 -0.04667736 -0.019340564
-0.009432936 -0.0044646184 0.005077094 -0.01143644 0.020178754 -0.008017329 0.013072165 0.01113235
0.041154325 0.018817104 -0.02860381 -0.011900007 0.0034965945 0.020971233 0.009399322 0.0037467466
-0.021182418 -0.0059907343 0.0086399745 0.0037831594 0.00860693 -0.038354047 -0.023752665 -0.023201905
0.015829368 -0.027617455 0.0028472247 0.007240928 0.017710729 0.027771939 0.014012747 -0.0040937155
-0.027981132 -0.0070690727 0.024057671 0.034087837 -0.026949987 0.016637532 0.0003354804 -0.012430591
0.01116322 -0.028163921 0.04036546 -0.002860843 0.028680712 -0.010802033 -0.005982035 0.044326734
0.03717544 -0.005796572 -0.028043313 -0.040657125 -0.0032726908 0.019087067 0.032379627 0.026476402
0.0221767 0.010069073 -0.015002782 0.0012860106 0.016093126 0.036546882 -0.0009125895 0.02228004
00000000: 20ce b23c 0e79 903c 4b82 183d 677e bfbc
00000010: d6d0 fc3b c299 3b3b 9f6a 923b 6c18 c9bb
00000020: 9ac0 bb3a fa24 29bc 22ad cabb f030 79bc
00000030: 595e c23c fb46 123c b784 ddbb 8f36 9ebc
00000040: 4ae6 a3bc 97fb a8bc 8336 21bc d22b 0dbd
00000050: 2e02 07bd 5b76 3d3c a6c8 333b ec2e 1d3c
00000060: 0569 43bb 680e 10bc 5be6 45bc ee6a 5f3c
00000070: 0654 123d b69f 2bbc 7226 99bc ec0c c23c
00000080: 572e 04bc d9c4 113d 604c 21bd a8af 7dbb
00000090: 204b f5bc 2d8b 253b 1e6b 1e39 23a1 ab3c
000000a0: 7950 133c 57a3 66bc 62fd 093c 6431 afbc
000000b0: 312e 893c d63f 0f3b 460c 09bd 8dcc d73a
000000c0: 8fa2 b53c c944 c23b 2ad5 98b9 9178 40bc
000000d0: fd7b e6ba a077 353c 0710 463b 79d0 7a3b
000000e0: dce7 cbbb 289a c4ba 9641 c4bc 09d4 503c
000000f0: 4662 1cbd e9b5 21bd d063 363c d9ec fcbc
00000100: 3351 58bd a8d3 c53c 8e5f 383c 5ef3 3cbc
00000110: 45d1 2bbd 55ea 14bc 07ad 3fbc 5cc1 a93a
00000120: 0d80 b9bc 4bc0 bdbc 4894 9cbb db2d f9bc
00000130: b14a 493c c99e f93b cb14 14bc 6ed1 4a3b
00000140: 4be7 53bc 7956 4dbc 7434 e93b e74b 07bd
00000150: b116 5fbc e628 97bc d3c9 ecbb 20af 90ba
00000160: 881d 65bb 0637 a03c d806 3e3c 71bf a7bb
00000170: ad38 19bd 97ad 1e3c d0ea 123c b48d 86bc
00000180: e75f a53c 3890 03bc e91e 65bc 95f9 433c
00000190: 6530 82bc e3c3 fb3b 5c6b a0bc 4200 85bb
000001a0: ec13 a5bc fd95 23bc 0fc5 ccbc 14da f93a
000001b0: 546e f7ba fa20 8dbb 282e 383b 30a5 d33b
000001c0: 0e84 66bc b4dd a2bc 024d 8cbb 907d b5bc
000001d0: e7a4 673c 7955 a4bb 6f84 fb3b 0a26 fabb
000001e0: 9625 583c f8ca 2a3c 6343 153c 32e9 79bc
000001f0: 2929 bdbc 13a5 bd3c 2732 f33c 2f7a 603c
00000200: 1fc8 cdbc 7dc9 a43c 3b0f b53b c5cd 08bd
00000210: c94c 693c 85f0 633c ab98 bbbb ed77 c53c
00000220: 6391 97bc 3f09 333c 904f 07bc 3ee5 b63c
00000230: 6503 9f3c 6d6f e93b 14e7 4c39 6274 afba
00000240: f806 f5bc 25ec 13bd 3bd1 083c 9474 debc
00000250: f945 d1bb fcc2 e9bc 8d0d 5dbc fe3a 1f3b
00000260: 8c28 01bd 246d e1bb b7cd 743b dfb7 d7bb
00000270: 25ed 873c 005b 993c 16e9 553c d103 a5bc
00000280: 303a 21bd fb14 983c 402c 78bc 1e40 c4bc
00000290: e6bd c3bc a724 55bc cb7e 91bc 527c a83c
000002a0: 081a 9a3b 03dd 8e3c 13f5 98bb 47b5 d7bb
000002b0: d6ce 843c 2d81 9abc ab39 4dbc 143e 343b
000002c0: 9ea4 ad3c 59e9 6dbc 4547 f73c cff2 863b
000002d0: ec32 853c 05de acba 0fc7 b43b 4cd5 093d
000002e0: 1d28 20bc aa26 ecbc c6cd 9dbc cfc9 773c
000002f0: 2d3b eb39 3a86 22bc c230 3fbd 1a70 9ebc
00000300: 9a8c 1abc ef4b 92bb c05d a63b e85f 3bbc
00000310: ea4d a53c 1d5b 03bc a22c 563c 7664 363c
00000320: 7091 283d 5426 9a3c 8a52 eabc 3ff8 42bc
00000330: 1f27 653b ddcb ab3c 9dff 193c fa8b 753b
00000340: c086 adbc ec4d c4bb ae8e 0d3c e2ee 773b
00000350: 1504 0d3c 2219 1dbd f394 c2bc ec11 bebc
00000360: 97ac 813c 003e e2bc 8198 3a3b 4e45 ed3b
00000370: 1716 913c fa81 e33c b995 653c 9324 86bb
00000380: b038 e5bc aea3 e7bb 9814 c53c b09f 0b3d
00000390: 38c6 dcbc 6f4b 883c 6be3 af39 ada9 4bbc
000003a0: f0e5 363c 06b8 e6bc 4156 253d fb7c 3bbb
000003b0: d0f3 ea3c 03fb 30bc f204 c4bb f38f 353d
000003c0: 4645 183d 2cf1 bdbb 17bb e5bc 1688 26bd
000003d0: a47a 56bb 7b5c 9c3c 80a0 043d 0ae5 d83c
000003e0: e9ab b53c c1f8 243c 3bce 75bc 5b8f a83a
000003f0: bbd5 833c 2fb2 153d d83a 6fba a184 b63c

action_model._continuous_distribution.mu.bias f4 [2]
-0.0033248547 -0.0013999542
00000000: cee5 59bb ab7e b7ba

exp_avg f4 [128, 5]
-0.0004170575 -4.8448608e-05 -0.00067164307 0.0 7.0121767e-25 -0.0011582632 -0.00016183047 -0.0013739155
0.0 -7.845278e-24 0.0013537087 -6.684819e-05 -0.00045619006 0.0 1.5014408e-24 -0.0017265546
-7.7952696e-05 -0.0019440878 0.0 4.158722e-24 0.0004956873 6.796728e-06 -3.3027875e-06 0.0
3.9708134e-24 -0.00027653054 4.4432396e-05 -0.0002417959 0.0 -3.314992e-24 -0.0016444976 9.651913e-06
0.0001483639 0.0 3.6291727e-24 0.0023831257 -7.523718e-05 -0.0025125754 0.0 -7.4952485e-25
-0.0002166955 1.7149023e-05 0.00015924127 0.0 4.0074532e-24 -0.001782611 -1.6165543e-05 -0.0009280511
0.0 5.0865215e-24 1.4775643e-05 -9.8181365e-05 -0.00085776753 0.0 -2.3932618e-24 0.000785075
2.9044063e-06 -4.499924e-06 0.0 2.8202477e-25 1.8565892e-05 4.6880956e-05 -0.00047405585 0.0
-5.1016826e-24 0.000703088 1.2242396e-05 -0.0009110374 0.0 -2.67651e-24 0.00038901542 -7.1738787e-06
0.0007450803 0.0 1.8543237e-25 0.00040796548 2.927098e-05 8.716512e-05 0.0 -1.055911e-24
7.8552745e-05 -3.113568e-06 -0.00015715377 0.0 4.7238162e-24 0.00033681467 8.814211e-05 0.0016122853
0.0 3.1817575e-24 0.0011753513 5.442053e-05 0.0017945786 0.0 1.8815492e-24 -0.000911133
5.3941796e-05 -0.00034624446 0.0 6.6167025e-25 -0.0012352531 1.611329e-05 7.601976e-05 0.0
-1.3496102e-25 0.0013406506 3.8998147e-05 -0.00043792333 0.0 -4.5515235e-24 0.0008117414 -1.6179949e-05
-0.0007647376 0.0 -3.4333546e-24 6.026205e-05 -4.0544714e-05 -0.0015804387 0.0 -6.2722153e-24
0.00060070073 0.00015773177 0.0008577796 0.0 5.0145596e-24 -7.561172e-05 8.931244e-06 -8.185114e-05
0.0 -5.8348516e-26 -0.0007243147 -1.4788926e-05 4.0383933e-05 0.0 1.3381982e-24 0.00016023219
-1.7139946e-05 0.00037467582 0.0 9.5613245e-25 -0.0010308048 3.595731e-05 0.00042017986 0.0
6.7558847e-25 0.0008362708 4.0512605e-05 0.0019117107 0.0 6.1287554e-24 -0.00013808825 1.8216775e-05
0.00013350969 0.0 -4.968919e-24 0.0002822577 4.1879906e-05 -1.7463926e-05 0.0 6.2019534e-24
0.0007788029 -2.5248555e-05 -0.001293825 0.0 -9.601629e-25 0.00014482367 2.616169e-06 0.00029310497
0.0 -2.9837173e-24 0.0013584475 -0.00010219116 -0.0007886816 0.0 1.982131e-24 0.0023725592
2.4119703e-05 -0.00058983365 0.0 -1.2306736e-23 0.0011307638 -5.6427238e-05 -0.0006240985 0.0
1.164307e-24 0.00023863745 3.2576772e-05 0.00058828323 0.0 -5.4821987e-24 0.00057558384 6.35713e-06
0.00032908295 0.0 -2.5031064e-25 -0.00083177787 -3.0212015e-05 -0.00015027741 0.0 -2.9332978e-24
-0.00014554935 -6.3970925e-05 -0.0018610174 0.0 1.8732317e-24 -7.360071e-05 -9.388542e-06 0.00017975082
0.0 6.9565226e-25 -0.0010730082 1.943839e-05 -0.00029658413 0.0 4.795326e-25 -0.00203819
5.411683e-05 0.0009167568 0.0 -4.1124983e-24 7.6428936e-05 2.8976125e-05 -0.002146907 0.0
-8.678458e-24 -0.0008478067 6.2567204e-05 -0.00021282223 0.0 -9.5946186e-24 -0.0009014872 0.000104898725
-0.001357633 0.0 -5.150664e-24 0.00010025076 -4.249689e-05 0.0011314995 0.0 5.0136974e-24
-0.0009885939 2.327206e-06 -0.00078142603 0.0 -3.2879816e-25 -0.0011149734 -7.0277742e-06 -0.00037711722
0.0 -3.1092358e-25 -0.00054412446 3.637115e-05 -0.00040442296 0.0 -7.754123e-24 0.0006643651
00000000: 83a8 dab9 4c35 4bb8 3411 30ba 0000 0000
00000010: 3004 5917 ddd0 97ba 09b1 29b9 f414 b4ba
00000020: 0000 0000 efbf 1799 ed6e b13a d930 8cb8
00000030: cb2c efb9 0000 0000 3356 e817 8f4d e2ba
00000040: 897a a3b8 c3d0 feba 0000 0000 fde1 a018
00000050: 03f1 013a 730f e436 75a5 5db6 0000 0000
00000060: 089d 9918 4dfb 90b9 ec5c 3a38 988a 7db9
00000070: 0000 0000 173e 8098 2f8c d7ba a7ee 2137
00000080: 2292 1b39 0000 0000 9665 8c18 372e 1c3b
00000090: a7c8 9db8 05aa 24bb 0000 0000 7af7 6797
000000a0: c138 63b9 3fdb 8f37 01fa 2639 0000 0000
000000b0: e507 9b18 80a6 e9ba 3d9b 87b7 7448 73ba
000000c0: 0000 0000 78c6 c418 e7e4 7737 b8e6 cdb8
000000d0: cedb 60ba 0000 0000 6f2b 3998 7ecd 4d3a
000000e0: 52e9 4236 0efe 96b6 0000 0000 9c90 ae16
000000f0: f3bd 9b37 0ba2 4438 b38a f8b9 0000 0000
00000100: 9e5c c598 704f 383a b164 4d37 afd2 6eba
00000110: 0000 0000 be15 4f98 c4f4 cb39 26b7 f0b6
00000120: 7e51 433a 0000 0000 dd8d 6516 33e4 d539
00000130: f38a f537 6bcc b638 0000 0000 f264 a397
00000140: afbc a438 b1f2 50b6 a5c9 24b9 0000 0000
00000150: 69be b618 8096 b039 efd8 b838 5153 d33a
00000160: 0000 0000 332d 7618 3f0e 9a3a 9941 6438
00000170: 1138 eb3a 0000 0000 ec93 1118 1ad9 6eba
00000180: 903f 6238 2588 b5b9 0000 0000 ebc6 4c17
00000190: 37e8 a1ba 072b 8737 cc6c 9f38 0000 0000
000001a0: db12 2796 c5b8 af3a f191 2338 1399 e5b9
000001b0: 0000 0000 1b14 b098 0bcb 543a 2dba 87b7
000001c0: ac78 48ba 0000 0000 4cd2 8498 e2c1 7c38
000001d0: 8e0e 2ab8 b926 cfba 0000 0000 03a5 f298
000001e0: 5878 1d3a cd64 2539 9ddc 603a 0000 0000
000001f0: cbfd c118 bc91 9eb8 67d7 1537 7fa7 abb8
00000200: 0000 0000 c476 9095 f0df 3dba f41d 78b7
00000210: eb61 2938 0000 0000 7e13 cf17 0004 2839
00000220: c1c7 8fb7 2370 c439 0000 0000 4ff4 9317
00000230: 121c 87ba ded0 1638 964b dc39 0000 0000
00000240: a215 5117 2f39 5b3a 14ec 2938 5e92 fa3a
00000250: 0000 0000 4118 ed18 c8cb 10b9 3ad0 9837
00000260: bcfe 0b39 0000 0000 ca39 c098 fdfb 9339
00000270: 35a8 2f38 7f7f 92b7 0000 0000 2ced ef18
00000280: 9428 4c3a dccc d3b7 9095 a9ba 0000 0000
00000290: f993 9497 cfdb 1739 7191 2f36 e2ab 9939
000002a0: 0000 0000 9cda 6698 ef0d b23a 764f d6b8
000002b0: 87bf 4eba 0000 0000 265c 1918 f07c 1b3b
000002c0: ab54 ca37 119f 1aba 0000 0000 010c 6e99
000002d0: 2336 943a 49ac 6cb8 8b9a 23ba 0000 0000
000002e0: f42a b417 c13a 7a39 0ba3 0838 0537 1a3a
000002f0: 0000 0000 1115 d498 c7e2 163a 554f d536
00000300: c488 ac39 0000 0000 4eef 9a96 ab0b 5aba
00000310: cf6f fdb7 c993 1db9 0000 0000 f3f3 6298
00000320: 9b9e 18b9 2128 86b8 62ed f3ba 0000 0000
00000330: 2def 1018 155a 9ab8 7b83 1db7 7e7b 3c39
00000340: 0000 0000 404b 5717 2ea4 8cba a00f a337
00000350: d97e 9bb9 0000 0000 7d68 1417 2793 05bb
00000360: 81fb 6238 8252 703a 0000 0000 3618 9f98
00000370: 7948 a038 c111 f337 1fb3 0cbb 0000 0000
00000380: a4dd 2799 583f 5eba 8336 8338 0829 5fb9
00000390: 0000 0000 4096 3999 c851 6cba 13fd db38
000003a0: 9bf2 b1ba 0000 0000 b541 c798 b83d d238
000003b0: b03e 32b8 d34e 943a 0000 0000 41f5 c118
000003c0: b593 81ba 182d 1c36 9dd8 4cba 0000 0000
000003d0: 2684 cb96 4d24 92ba 1fd0 ebb6 d1b7 c5b9
000003e0: 0000 0000 cf73 c096 93a3 0eba 3a8d 1838
000003f0: bb08 d4b9 0000 0000 8ffc 1599 ca28 2e3a

exp_avg_sq f4 [128, 5]
1.8298499e-06 2.8077014e-09 7.384395e-07 0.0 0.0 1.890554e-05 3.1354336e-08 1.0162149e-05
0.0 0.0 6.830962e-06 5.619566e-09 3.0825e-06 0.0 0.0 1.0706545e-05
3.212713e-08 1.0722193e-05 0.0 0.0 1.3669951e-06 3.511606e-09 1.5177263e-06 0.0
0.0 8.866914e-06 1.062633e-08 4.2629736e-06 0.0 0.0 2.6121843e-05 3.8545462e-08
1.1597844e-05 0.0 0.0 1.0201321e-05 4.2930233e-09 5.8612422e-06 0.0 0.0
2.7309038e-06 2.574751e-09 8.7862253e-07 0.0 0.0 9.16605e-06 2.3326413e-08 6.2694585e-06
0.0 0.0 6.0094626e-06 7.413063e-09 2.1180974e-06 0.0 0.0 3.0372814e-06
1.0006043e-08 3.3562485e-06 0.0 0.0 1.088121e-05 1.4038653e-08 4.7596627e-06 0.0
0.0 1.347923e-05 8.530255e-09 6.2501877e-06 0.0 0.0 6.5095237e-06 1.4018903e-08
4.9115215e-06 0.0 0.0 3.7508355e-06 4.754137e-09 1.0100131e-06 0.0 0.0
2.540433e-06 3.1673347e-10 1.5311915e-06 0.0 0.0 1.0792033e-05 9.247009e-09 3.7989194e-06
0.0 0.0 4.9691002e-06 6.3388312e-09 2.188295e-06 0.0 0.0 1.2825722e-05
1.5246604e-08 6.202067e-06 0.0 0.0 5.0281096e-06 1.0496715e-08 2.884098e-06 0.0
0.0 5.613145e-06 4.3867514e-09 2.2552858e-06 0.0 0.0 1.5223973e-05 1.6849565e-08
4.169337e-06 0.0 0.0 2.5146333e-06 9.751903e-10 3.3756519e-06 0.0 0.0
2.9594961e-05 1.21491075e-08 1.7134354e-05 0.0 0.0 1.0020376e-06 5.96179e-10 8.273417e-07
0.0 0.0 1.0149114e-06 1.2247102e-09 1.0216895e-06 0.0 0.0 3.0012673e-06
7.1201893e-09 2.2461786e-06 0.0 0.0 8.876464e-06 3.5962084e-09 4.046128e-06 0.0
0.0 3.007288e-06 1.8911293e-09 3.6646693e-06 0.0 0.0 3.8488533e-06 2.7100262e-09
3.094394e-06 0.0 0.0 1.1275713e-05 6.9984896e-10 5.9469166e-06 0.0 0.0
6.057797e-06 8.4055225e-09 2.4827218e-06 0.0 0.0 1.399635e-06 1.8196736e-09 1.2845757e-06
0.0 0.0 1.7631672e-05 7.050617e-09 1.0781763e-05 0.0 0.0 9.302757e-05
8.4511434e-08 5.0325692e-05 0.0 0.0 1.1852834e-06 1.0209388e-09 6.897409e-07 0.0
0.0 7.2155817e-06 1.2336898e-08 3.337368e-06 0.0 0.0 3.7082877e-06 7.636485e-09
2.672661e-06 0.0 0.0 2.7172164e-06 7.774214e-09 2.3563418e-06 0.0 0.0
6.026665e-06 1.1674638e-08 3.9865286e-06 0.0 0.0 3.7617313e-06 1.3387701e-08 4.244087e-06
0.0 0.0 2.4083993e-06 2.9983388e-10 1.976945e-06 0.0 0.0 2.487542e-06
7.9558165e-09 2.8736629e-06 0.0 0.0 7.216088e-06 3.58594e-09 6.600976e-06 0.0
0.0 1.563525e-05 2.7728244e-09 1.284273e-05 0.0 0.0 2.9347219e-05 2.0250463e-08
1.1293334e-05 0.0 0.0 1.500374e-05 4.4726973e-09 9.2538485e-06 0.0 0.0
4.6662226e-06 8.293981e-09 2.053288e-06 0.0 0.0 7.113132e-06 2.6106894e-08 8.905576e-06
0.0 0.0 9.560432e-06 7.349656e-09 7.858525e-06 0.0 0.0 1.1735754e-05
00000000: 2a99 f535 9bf1 4031 2d39 4635 0000 0000
00000010: 0000 0000 5797 9e37 75aa 0633 197e 2a37
00000020: 0000 0000 0000 0000 8435 e536 3a16 c131
00000030: f2dc 4e36 0000 0000 0000 0000 43a0 3337
00000040: 27fc 0933 78e3 3337 0000 0000 0000 0000
00000050: 9879 b735 d350 7131 aeb4 cb35 0000 0000
00000060: 0000 0000 1bc3 1437 188f 3632 aa0a 8f36
00000070: 0000 0000 0000 0000 3b20 db37 2f8d 2533
00000080: 5c94 4237 0000 0000 0000 0000 5726 2b37
00000090: d581 9331 b0ab c436 0000 0000 0000 0000
000000a0: 9244 3736 80ef 3031 7bda 6b35 0000 0000
000000b0: 0000 0000 e3c7 1937 535f c832 3d5e d236
000000c0: 0000 0000 0000 0000 e4a4 c936 feb5 fe31
000000d0: a324 0e36 0000 0000 0000 0000 19d4 4b36
000000e0: 0be7 2b32 e93b 6136 0000 0000 0000 0000
000000f0: 718e 3637 a62e 7132 31b5 9f36 0000 0000
00000100: 0000 0000 da24 6237 758c 1232 b4b8 d136
00000110: 0000 0000 0000 0000 626c da36 cad7 7032
00000120: a6cd a436 0000 0000 0000 0000 ddb6 7b36
00000130: d559 a331 c98f 8735 0000 0000 0000 0000
00000140: 4e7c 2a36 4620 ae2f 5783 cd35 0000 0000
00000150: 0000 0000 6e0f 3537 c7dc 1e32 f0f0 7e36
00000160: 0000 0000 0000 0000 3fbc a636 f3cc d931
00000170: 9fda 1236 0000 0000 0000 0000 0e2e 5737
00000180: a3f7 8232 5a1b d036 0000 0000 0000 0000
00000190: 22b7 a836 0a55 3432 6d8c 4136 0000 0000
000001a0: 0000 0000 8c58 bc36 46ba 9631 8459 1736
000001b0: 0000 0000 0000 0000 776a 7f37 96bc 9032
000001c0: 55e6 8b36 0000 0000 0000 0000 12c1 2836
000001d0: 7507 8630 4289 6236 0000 0000 0000 0000
000001e0: b242 f837 57b8 5032 bfbb 8f37 0000 0000
000001f0: 0000 0000 c07d 8635 5ee0 2330 7d16 5e35
00000200: 0000 0000 0000 0000 1738 8835 a952 a830
00000210: fc20 8935 0000 0000 0000 0000 6169 4936
00000220: d9a5 f431 0ebd 1636 0000 0000 0000 0000
00000230: 1fec 1437 2b21 7731 fac3 8736 0000 0000
00000240: 0000 0000 d0d0 4936 19f5 0131 8aee 7536
00000250: 0000 0000 0000 0000 6625 8136 493b 3a31
00000260: 49a9 4f36 0000 0000 0000 0000 d22c 3d37
00000270: 7e5f 4030 a08b c736 0000 0000 0000 0000
00000280: 1444 cb36 e167 1032 d69c 2636 0000 0000
00000290: 0000 0000 18db bb35 1318 fa30 af69 ac35
000002a0: 0000 0000 0000 0000 bae7 9337 e241 f231
000002b0: 52e3 3437 0000 0000 0000 0000 cc17 c338
000002c0: a77c b533 cd14 5338 0000 0000 0000 0000
000002d0: 0716 9f35 1751 8c30 a226 3935 0000 0000
000002e0: 0000 0000 601d f236 40f2 5332 8cf7 5f36
000002f0: 0000 0000 0000 0000 e6db 7836 9e31 0332
00000300: f75b 3336 0000 0000 0000 0000 6c59 3636
00000310: 5b8f 0532 a521 1e36 0000 0000 0000 0000
00000320: a838 ca36 9a91 4832 05c4 8536 0000 0000
00000330: 0000 0000 0d72 7c36 bbff 6532 6e68 8e36
00000340: 0000 0000 0000 0000 fc9f 2136 ded5 a42f
00000350: a8ab 0436 0000 0000 0000 0000 a5ef 2636
00000360: 0dae 0832 27d9 4036 0000 0000 0000 0000
00000370: b921 f236 866c 7631 f47d dd36 0000 0000
00000380: 0000 0000 7228 8337 0b8c 3e31 1b77 5737
00000390: 0000 0000 0000 0000 ac2e f637 3df3 ad32
000003a0: 8078 3d37 0000 0000 0000 0000 93b8 7b37
000003b0: 43ae 9931 fa40 1b37 0000 0000 0000 0000
000003c0: 8c92 9c36 507d 0e32 38cb 0936 0000 0000
000003d0: 0000 0000 57ad ee36 ab41 e032 2869 1537
000003e0: 0000 0000 0000 0000 be65 2037 4288 fc31
000003f0: 1cd8 0337 0000 0000 0000 0000 aee4 4437

exp_avg f4 [128]
-0.00013528846 -0.00023876864 3.8798677e-05 -0.00034515822 -0.00018375485 9.199253e-06 0.00024450768 -4.1974752e-05
-0.00010891123 -0.00025778916 -0.00018823791 -7.522955e-05 3.6828533e-05 -0.00017346458 1.8481096e-05 7.478736e-05
7.408803e-06 -0.000105784224 -7.381103e-05 -1.2459064e-05 0.00022567516 0.00044218966 0.0001498144 0.00021471868
7.5267155e-05 -1.8458497e-05 -0.0001603764 -9.86479e-05 6.520063e-05 -0.00025183966 6.385997e-05 -7.60205e-05
0.00018433545 -1.5238819e-06 -7.928957e-05 -8.5779924e-05 -0.000114654504 2.8684337e-05 8.528765e-05 6.962137e-06
4.2651176e-05 -8.304162e-05 8.630726e-06 0.00024654137 0.00055744615 0.00020485016 0.00026790798 -0.00022976827
-7.376173e-05 -0.0001610767 0.00012436861 -0.00016424459 -0.0003371668 0.00029415384 6.294778e-05 5.113634e-05
-8.845609e-05 -0.0002472464 -3.3271048e-05 -0.0001876187 0.00038923722 -5.908144e-05 0.00010252219 5.765845e-05
-0.00020810019 -6.2657596e-06 0.0004375646 -0.0002766861 -0.000106718 -0.00013521173 7.053051e-05 1.0722124e-05
0.00052304263 0.00029617257 -0.00011328471 8.898211e-05 0.00018014028 -5.2255444e-05 -0.000148907 -9.1951864e-05
3.1162733e-06 -0.00040644777 9.341523e-05 -0.0003103396 0.00038341427 -0.0003387457 -0.00021317162 -6.724654e-05
0.00045660403 -1.8075574e-05 2.6411279e-05 0.00010838776 0.0002914803 1.1090894e-05 0.00017110042 -4.742747e-05
9.048174e-07 -0.0003349814 -5.3781194e-05 -0.00023096244 -0.00029608558 -6.0408172e-05 -0.00015097721 -0.00025128128
-0.0001925902 -2.4808292e-05 -3.7561713e-05 0.00038977497 0.00010049036 0.00017299128 5.0200888e-05 -5.105271e-05
5.4718563e-05 -0.00035820136 -7.0646674e-06 0.00018746927 9.3214396e-05 8.7466244e-05 -7.346149e-05 5.6785455e-05
-7.110393e-05 -1.9296882e-05 -0.00016869725 4.504273e-05 -0.0001456511 -0.0001438498 -0.00014461855 0.00016065725
00000000: 38dc 0db9 f85d 7ab9 c3bb 2238 5af6 b4b9
00000010: 51ae 40b9 7e56 1a37 4431 8039 0c0e 30b8
00000020: 4567 e4b8 e027 87b9 bb61 45b9 8fc4 9db8
00000030: 5678 1a38 0be4 35b9 da07 9b37 28d7 9c38
00000040: 2299 f836 79d8 ddb8 ffca 9ab8 4607 51b7
00000050: 37a3 6c39 b1d5 e739 7f17 1d39 1b26 6139
00000060: bfd8 9d38 52d7 9ab7 b62a 28b9 30e1 ceb8
00000070: 52bc 8838 5909 84b9 8fec 8538 326d 9fb8
00000080: 2c4a 4139 2f88 ccb5 4448 a6b8 bfe4 b3b8
00000090: ab72 f0b8 259f f037 75dc b238 4d9c e936
000000a0: 5ae4 3238 a126 aeb8 b0cc 1037 3942 8139
000000b0: 9421 123a 0ccd 5639 0076 8c39 f3ed 70b9
000000c0: 87b0 9ab8 b3e6 28b9 f268 0239 1239 2cb9
000000d0: c3c5 b0b9 a938 9a39 d502 8438 3a7b 5638
000000e0: 8081 b9b8 daa0 81b9 848c 0bb8 83bb 44b9
000000f0: 8912 cc39 37ce 77b8 2f01 d738 4ad6 7138
00000100: 7835 5ab9 773e d2b6 ed68 e539 2e10 91b9
00000110: cacd dfb8 9fc7 0db9 c7e9 9338 2ce3 3337
00000120: cc1c 093a 9c47 9b39 4493 edb8 e89b ba38
00000130: 0ae4 3c39 db2c 5bb8 eb23 1cb9 48d6 c0b8
00000140: 2b21 5136 7f18 d5b9 ebe7 c338 13b5 a2b9
00000150: fe04 c939 ae99 b1b9 d286 5fb9 b606 8db8
00000160: 5b64 ef39 00a1 97b7 ca8d dd37 3c4e e338
00000170: d3d1 9839 0713 3a37 6b69 3339 dcec 46b8
00000180: 94e2 7235 71a0 afb9 1e93 61b8 822e 72b9
00000190: ef3b 9bb9 c85e 7db8 a34f 1eb9 67be 83b9
000001a0: 0af2 49b9 671b d0b7 958b 1db8 b65a cc39
000001b0: 5abe d238 fe64 3539 cb8e 5238 6e21 56b8
000001c0: 9c81 6538 f9cc bbb9 080d edb6 6693 4439
000001d0: 197c c338 156e b738 560f 9ab8 eb2c 6e38
000001e0: a21d 95b8 bddf a1b7 53e4 30b9 43ec 3c38
000001f0: ebb9 18b9 63d6 16b9 bfa4 17b9 1a76 2839

exp_avg_sq f4 [128]
1.0526531e-07 1.159338e-06 3.7019836e-07 8.175273e-07 1.1781688e-07 5.297407e-07 1.4710654e-06 6.4394703e-07
1.4888484e-07 5.9352345e-07 3.1133632e-07 2.4798365e-07 5.9057663e-07 8.0382387e-07 4.6619923e-07 2.0419044e-07
1.711341e-07 5.4491596e-07 2.9336954e-07 7.351529e-07 3.2168307e-07 2.9098976e-07 7.7174906e-07 2.431859e-07
1.6711211e-06 7.5881395e-08 8.084167e-08 2.0554731e-07 5.0593013e-07 2.7055626e-07 2.7612018e-07 6.417816e-07
3.099609e-07 1.1069335e-07 1.2156369e-06 5.664701e-06 6.987145e-08 4.137631e-07 2.4871682e-07 2.3181153e-07
3.8876297e-07 3.4903076e-07 2.0423256e-07 2.002089e-07 5.436688e-07 1.1762155e-06 1.7135222e-06 9.894761e-07
2.3644313e-07 6.6127245e-07 7.176097e-07 7.092321e-07 5.05883e-07 2.7651947e-07 4.1572864e-07 3.3510835e-07
4.3181132e-07 1.45952e-06 1.8772609e-07 1.3610685e-07 1.0702936e-06 1.4347273e-06 1.944031e-07 3.1192874e-07
2.4811064e-07 5.623997e-08 1.1537044e-06 7.790011e-07 9.3987245e-07 1.4361733e-07 4.4654215e-07 2.2539172e-07
5.6182336e-07 4.552673e-07 2.1806349e-07 1.5856598e-07 9.963833e-07 1.0534785e-06 8.316708e-07 5.087623e-07
8.577739e-08 7.3723396e-07 3.637318e-07 3.963246e-07 5.267031e-07 5.817215e-07 2.7622283e-07 7.6222136e-08
6.087321e-07 4.986168e-07 1.4132648e-07 2.075353e-07 2.9740397e-07 4.139321e-07 1.5628505e-07 6.7603406e-07
1.4260029e-07 7.0892986e-07 6.774806e-07 9.4614506e-07 4.87676e-07 4.4169678e-07 1.2277229e-06 4.1642343e-07
6.3769346e-07 4.5638075e-07 4.4282814e-07 2.5302984e-07 8.158583e-08 2.1139431e-07 8.229007e-08 4.1455095e-07
1.2576228e-06 4.838377e-07 9.256617e-08 4.912643e-07 7.0974494e-07 2.4043257e-07 5.3866426e-08 3.6553345e-07
6.9966467e-07 7.368912e-07 6.4284615e-07 6.801588e-07 2.2163096e-07 6.810417e-07 1.4905692e-07 1.0666165e-07
00000000: 370e e233 8d9a 9b35 adbf c634 0c74 5b35
00000010: 8402 fd33 8133 0e35 6c71 c535 b4db 2c35
00000020: 27dd 1f34 9f52 1f35 bd25 a734 9d22 8534
00000030: 1e88 1e35 5bc6 5735 ef49 fa34 713f 5b34
00000040: fcc0 3734 5746 1235 6780 9d34 5357 4535
00000050: c9b3 ac34 5439 9c34 312a 4f35 378f 8234
00000060: 494b e035 3df4 a233 2e9b ad33 6ab4 5c34
00000070: 41cf 0735 f840 9134 ab3d 9434 e546 2c35
00000080: b468 a634 50b6 ed33 f728 a335 6913 be36
00000090: 3c0c 9633 2b23 de34 6187 8534 dee7 7834
000000a0: 2db7 d034 6c62 bb34 054b 5b34 01f9 5634
000000b0: a3f0 1135 75de 9d35 2dfc e535 24ce 8435
000000c0: fee0 7d34 4c82 3135 c3a1 4035 0f62 3e35
000000d0: 04cc 0735 8c74 9434 4f31 df34 f1e8 b334
000000e0: b2d3 e734 bae4 c335 c191 4934 c424 1234
000000f0: 02a7 8f35 db90 c035 1ebd 5034 2977 a734
00000100: 1134 8534 808c 7133 fbd8 9a35 8c1c 5135
00000110: 8b4b 7c35 3b35 1a34 49bc ef34 3403 7234
00000120: 35d0 1635 766b f434 d624 6a34 4942 2a34
00000130: 78bb 8535 3f65 8d35 fb3f 5f35 e191 0835
00000140: 9e34 b833 55e6 4535 eb46 c334 70c6 d434
00000150: c362 0d35 9927 1c35 c74b 9434 90af a333
00000160: c067 2335 b0d8 0535 87bf 1734 ded6 5e34
00000170: e4aa 9f34 653a de34 4fcf 2734 b578 3535
00000180: ab1d 1934 4a4d 3e35 1ddc 3535 98fa 7d35
00000190: d7e8 0235 5822 ed34 3dc8 a435 cd90 df34
000001a0: f62d 2b35 7e04 f534 d6bd ed34 28d8 8734
000001b0: 4934 af33 a0fb 6234 72b7 b033 738f de34
000001c0: 97cb a835 13e1 0135 cac8 c633 6ddf 0335
000001d0: 4d85 3e35 cd14 8134 c35a 6733 893e c434
000001e0: 97d0 3b35 c7ce 4535 0d90 2c35 2894 3635
000001f0: 74f9 6d34 d4d0 3635 740c 2034 dd0d e533
