Goodminton/Assets/results/Badminton/Badminton/Badminton-17024.onnx (onnx, 74586 bytes, 7 tensors)

network_body._body_endoder.seq_layers.0.weight f4 [128, 5]
0.029671527 0.07781527 -0.03004202 0.20271522 0.09399225 0.54059714 -0.29454407 0.042577744
-0.20120576 0.5015229 0.10611337 0.6446927 0.23881088 -0.52580553 0.14687659 0.4199107
0.5497877 0.023892486 0.4393415 -0.47828904 -0.4111373 -1.0293651 -0.5271862 0.363869
-0.42419592 0.24003075 -0.29097483 0.053059973 -0.49406037 0.9432497 -0.10837588 0.2918427
-0.080531724 -0.012775052 0.92721754 -0.13760564 0.38559428 -0.17331386 0.16811988 -0.19458705
-0.38749835 -0.24432103 -0.053890076 0.4762888 -0.015044865 -0.11903914 0.18887249 -0.0028384593
-0.83757806 0.39270133 -0.25118425 1.3410274 -0.14661632 0.28923973 -0.21296535 0.5314809
0.41038293 -0.38805526 -0.76905614 0.35434276 -0.18067364 0.20193101 0.22022538 -0.29473764
0.2561065 0.47591564 0.39681193 1.0721083 -0.4637484 0.14915045 0.19892405 0.562436
-0.2662203 0.57243574 -0.074894294 -0.5383734 -0.37069744 -0.20071264 -0.30589107 0.1576726
0.2530184 0.5694484 0.1721804 -0.14970304 -0.19442664 0.24313301 0.07585487 0.7541704
-0.33527845 -0.5076194 -0.36640963 0.4360177 -0.38041246 -0.18258025 -0.23039922 0.55193144
-0.6344831 0.08478109 -0.42301166 -0.7928871 0.033337403 0.070250526 -0.59581596 0.19575833
-0.42304352 0.23944542 -0.3564642 0.1292343 0.5466634 -0.40268388 0.12155331 0.72786736
-0.27296612 -0.42508036 -0.86573637 -0.18102072 -0.09329168 -0.014619926 -0.005212681 -0.35544008
-0.94563776 -0.34767577 0.053343706 -0.07647231 -0.43035084 -0.02464318 0.38438633 -0.60915685
-0.61742955 0.0959785 -0.77039635 0.30800152 -0.4364736 -0.19650935 1.0663484 -0.3911597
-0.04488772 -0.36125243 0.5123613 0.09697645 -0.2523963 0.94787043 0.12310093 0.6003337
0.33671638 -0.40652764 0.068711475 -0.4498343 0.3914488 0.61504453 -0.07703482 -0.24410151
-0.7069384 0.20768465 0.39628744 0.5471741 -0.18110552 -0.19672738 -0.12927373 0.07944783
-0.05597165 -0.27335793 -0.45712423 -0.15688394 -0.15371186 -0.33770782 0.17842841 0.6619846
-0.10105789 0.22981995 -0.032914374 -0.26719669 0.4534716 0.8285654 0.0066480665 -0.14716545
0.05971142 -0.37948412 -0.17054327 -0.6293088 0.41651723 0.6702137 -0.18210904 0.09631057
0.63622785 -0.6569615 -0.053405363 -0.34881896 0.69455963 0.42803416 0.4015145 -0.15978312
-0.4743948 0.28097644 -0.6742412 -0.2528944 0.6570408 0.5767097 0.69524306 0.11138913
-0.44408467 -1.1027731 -0.3086501 0.32963833 0.15097769 -0.2086323 -0.7531313 -0.506265
0.17258054 0.57995445 -0.1311986 -0.32919037 0.41892847 0.0017662055 -0.46001697 -0.68616855
-0.5880193 0.031569656 0.4747825 -0.28929114 -1.0416195 0.32061332 -0.0906065 -0.3428795
0.34710038 -0.0044886773 0.22719128 0.3532631 0.039036546 -0.27506164 0.15330964 0.30733016
0.85707295 -0.25132862 0.5345403 -0.66519356 -0.89376044 0.44543487 -0.25159454 0.4236467
0.46487567 -0.012037051 -0.66318405 -0.042655345 0.18811536 1.1298202 0.17297025 -0.27784246
-0.01905494 0.6049873 -0.22160755 0.0021909163 0.4035726 -0.023680829 -0.108053565 0.020898964
00000000: b411 f33c 9d5d 9f3d af1a f6bc 9494 4f3e
00000010: 027f c03d 9364 0a3f 7bce 96be 0066 2e3d
00000020: e208 4ebe ce63 003f f751 d93d 950a 253f
00000030: d78a 743e 319b 06bf d166 163e 89fe d63e
00000040: e3be 0c3f 2dba c33c 5ef1 e03e 4de2 f4be
00000050: 9780 d2be 3cc2 83bf adf5 06bf 0a4d ba3e
00000060: 3530 d9be 9fca 753e a7fa 94be 6a55 593d
00000070: 7bf5 fcbe d078 713f 2cf4 ddbd 686c 953e
00000080: d1ed a4bd 744e 51bc 215e 6d3f 7ee8 0cbe
00000090: 9d6c c53e 3079 31be 9e27 2c3e d441 47be
000000a0: 2f66 c6be 4b2f 7abe d7bb 5cbd 20dc f33e
000000b0: bd7e 76bc cbca f3bd ca67 413e 7205 3abb
000000c0: 846b 56bf 2610 c93e 399b 80be c9a6 ab3f
000000d0: 9722 16be 3b17 943e 9713 5abe 220f 083f
000000e0: b61d d23e 2eaf c6be dde0 44bf 6a6c b53e
000000f0: 8302 39be 01c7 4e3e c382 613e dae7 96be
00000100: 6420 833e 37ab f33e ef2a cb3e d83a 893f
00000110: 6e70 edbe e5ba 183e bfb2 4b3e cefb 0f3f
00000120: 074e 88be 268b 123f 2e62 99bd d7d2 09bf
00000130: 0ecc bdbe 9d87 4dbe c19d 9cbe ed74 213e
00000140: a18b 813e 5fc7 113f 0f50 303e c14b 19be
00000150: c717 47be dcf7 783e cc59 9b3d 5011 413f
00000160: 9ea9 abbe 58f3 01bf 0b9a bbbe b63d df3e
00000170: 6cc5 c2be 51f6 3abe c6ed 6bbe 614b 0d3f
00000180: 7c6d 22bf b5a1 ad3d fc94 d8be a6fa 4abf
00000190: cd8c 083d 82df 8f3d 6587 18bf df74 483e
000001a0: 2999 d8be 2e31 753e 7a82 b6be ff55 043e
000001b0: 22f2 0b3f 952c cebe f1f0 f83d 8455 3a3f
000001c0: 37c2 8bbe 22a4 d9be e6a0 5dbf 7f5d 39be
000001d0: b50f bfbd 6a88 6fbc 23cf aabb 3efc b5be
000001e0: 5115 72bf 8f02 b2be ee7e 5a3d 849d 9cbd
000001f0: f256 dcbe 7fe0 c9bc 49ce c43e b4f1 1bbf
00000200: dd0f 1ebf 6090 c43d b238 45bf 60b2 9d3e
00000210: 7879 dfbe bf39 49be 1b7e 883f 1646 c8be
00000220: 30dc 37bd 14f6 b8be 1c2a 033f 979b c63d
00000230: 163a 81be a3a7 723f 571c fc3d 78af 193f
00000240: 1766 ac3e 6424 d0be 9ab8 8c3d ae50 e6be
00000250: fa6b c83e 8f73 1d3f 6fc4 9dbd bff5 79be
00000260: eaf9 34bf 49ab 543e 30e6 ca3e 9a13 0c3f
00000270: ba73 39be e772 49be 5560 04be 8bb5 a23d
00000280: 8742 65bd 92f5 8bbe 300c eabe 2fa6 20be
00000290: a466 1dbe 0ae8 acbe f0b5 363e d377 293f
000002a0: 70f7 cebd ec55 6b3e 39d1 06bd 01ce 88be
000002b0: 6e2d e83e dd1c 543f 06d8 d93b 8ab2 16be
000002c0: f693 743d be4b c2be e5a2 2ebe 621a 21bf
000002d0: bf41 d53e 2093 2b3f cb7a 3abe 7a3e c53d
000002e0: d4df 223f a12e 28bf 95bf 5abd 6698 b2be
000002f0: a9ce 313f 4b27 db3e 4f93 cd3e 309e 23be
00000300: e0e3 f2be 25dc 8f3e 129b 2cbf 607b 81be
00000310: d333 283f 3fa3 133f 73fb 313f fc1f e43d
00000320: 115f e3be ab27 8dbf 6307 9ebe 5bc6 a83e
00000330: e599 1a3e b5a3 55be 36cd 40bf 959a 01bf
00000340: f4b8 303e e577 143f ed58 06be a48b a8be
00000350: cb7d d63e 0680 e73a 5887 ebbe bea8 2fbf
00000360: 6f88 16bf 2f4f 013d b116 f33e f81d 94be
00000370: ca53 85bf 6e27 a43e e78f b9bd e78d afbe
00000380: 24b7 b13e c115 93bb d5a4 683e e7de b43e
00000390: c9e4 1f3d e1d4 8cbe 34fd 1c3e 615a 9d3e
000003a0: 2269 5b3f 25ae 80be a2d7 083f 204a 2abf
000003b0: 7ccd 64bf 0a10 e43e 00d1 80be 38e8 d83e
000003c0: 2f04 ee3e 0d37 45bc 6ec6 29bf 5fb7 2ebd
000003d0: 50a1 403e f39d 903f 1d1f 313e 5e41 8ebe
000003e0: 1b19 9cbc 73e0 1a3f 17ed 62be 7a95 0f3b
000003f0: 11a1 ce3e 4cfe c1bc 304b ddbd 4e34 ab3c

network_body._body_endoder.seq_layers.0.bias f4 [128]
-0.031093393 -0.041816432 0.024501882 -0.010858847 0.02544808 0.050451964 0.013915881 -0.056146406
0.031651977 0.010875034 -0.0028817307 0.013818928 0.001093194 0.0120352665 -0.06145661 -0.01622733
-0.019387603 0.056683186 -0.050788157 0.066452876 -0.09183045 0.007999477 -0.004200242 0.0036624884
-0.00012618853 0.006698506 -0.042326353 -0.006130763 -0.011983126 0.014219739 -0.018309569 0.021004133
-0.030791832 0.0004366849 0.022063753 -0.024134234 -0.018366167 -0.003342961 -0.024786266 -0.0136544155
-0.031878363 -0.039866548 0.038818143 0.040956184 0.003536438 0.008142022 -0.06772496 -0.019649232
-0.023797514 0.015084531 -0.08093683 0.04021118 0.00528246 -0.018944774 0.05128629 0.009490934
0.0533802 -0.034494497 0.014190645 -0.03975164 -0.018133491 -0.005210656 0.041025188 -0.005450523
-0.009750056 -0.03469747 0.03931042 -0.030197343 0.016976725 0.023977846 0.03578101 -0.0014189011
-0.0037418008 -0.00849763 -0.038985807 0.01551952 -0.02211514 0.05366397 -0.037852835 0.018185927
0.03428226 0.023237182 0.015889194 0.07739039 0.028567731 -0.001882436 0.03483815 -0.022395507
-0.002387362 -0.0319292 0.020383876 -0.021219483 -0.076975584 -0.017128209 0.04017373 -0.08151311
-0.030742532 -0.049132824 -0.059024762 -0.040599536 0.008103298 -0.025804175 0.0061292886 0.016878244
0.044394847 0.005822694 -0.0022783703 0.0580288 -0.09132656 0.01674192 0.04022373 -0.06359183
-0.016399702 0.044897724 -0.027755018 -0.023086166 -0.015380753 0.0071588876 0.023145387 -0.04173961
-0.020203434 -0.027927766 0.008544143 0.010880196 0.020557243 -0.0075679426 0.0067297127 0.027186122
00000000: 92b7 febc b547 2bbd 2cb8 c83c 4ee9 31bc
00000010: 7e78 d03c b8a6 4e3d 6fff 633c c6f9 65bd
00000020: 81a5 013d 332d 323c 6bdb 3cbb c968 623c
00000030: 8149 8f3a 912f 453c edb9 7bbd 2def 84bc
00000040: c0d2 9ebc a12c 683d 3e07 50bd 7218 883d
00000050: 9a11 bcbd 3d10 033c 2fa2 89bb 5c06 703b
00000060: 7a51 04b9 247f db3b 665e 2dbd 91e4 c8bb
00000070: e054 44bc e8f9 683c f3fd 95bc dc10 ac3c
00000080: 273f fcbc dbf2 e439 0bbf b43c 28b5 c5bc
00000090: a574 96bc 9415 5bbb 910c cbbc c5b6 5fbc
000000a0: e392 02bd 1b4b 23bd c6ff 1e3d acc1 273d
000000b0: 96c3 673b 1e66 053c 62b3 8abd 6df7 a0bc
000000c0: 01f3 c2bc 1c25 773c 35c2 a5bd 7ab4 243d
000000d0: 7c18 ad3b 1232 9bbc 9311 523d dd7f 1b3c
000000e0: 32a5 5a3d 1a4a 0dbd e17f 683c 9ed2 22bd
000000f0: b08c 94bc 27be aabb 070a 283d 4d9a b2bb
00000100: b3be 1fbc ef1e 0ebd f703 213d 6b60 f7bc
00000110: c612 8b3c 306d c43c 1c8f 123d 6cfa b9ba
00000120: 0039 75bb a539 0bbc 95af 1fbd 9645 7e3c
00000130: cf2a b5bc c0ce 5b3d 930b 1bbd a7fa 943c
00000140: 8e6b 0c3d e75b be3c 0e2a 823c da7e 9e3d
00000150: e006 ea3c 12bc f6ba 73b2 0e3d c876 b7bc
00000160: 4a75 1cbb 31c8 02bd 16fc a63c 7bd4 adbc
00000170: 60a5 9dbd 7550 8cbc 368d 243d 58f0 a6bd
00000180: c3d7 fbbc 803f 49bd f3c3 71bd b34b 26bd
00000190: b2c3 043c 4763 d3bc 33d8 c83b 3e44 8a3c
000001a0: 5fd7 353d 4ccc be3b b650 15bb 9baf 6d3d
000001b0: 6b09 bbbd 5a26 893c a3c1 243d 6f3c 82bd
000001c0: ab58 86bc ade6 373d 7e5e e3bc 331f bdbc
000001d0: 8eff 7bbc 1a95 ea3b 659b bd3c 27f7 2abd
000001e0: ac81 a5bc c5c8 e4bc bcfc 0b3c d942 323c
000001f0: aa67 a83c 81fc f7bb ec84 dc3b 6eb5 de3c

network_body._body_endoder.seq_layers.2.weight f4 [128, 128]
-0.005992265 0.016862143 -0.0869917 0.090906896 0.052584305 0.010093209 0.06356501 0.014192256
-0.07857488 0.01010829 0.1326101 -0.2280477 0.120953985 -0.09693327 0.015398958 -0.07757335
-0.030989714 0.08649945 0.015907686 0.049890555 0.13979405 0.040962946 0.054018874 0.00604794
0.25500613 -0.04111468 -0.1744801 -0.014688962 -0.03627662 -0.0026533264 0.09891729 -0.12347557
0.13342504 0.14824833 0.04528474 -0.14874132 -0.10393964 0.17251903 -0.076643616 -0.020650674
-0.08495774 -0.016823195 0.08663201 0.123825446 0.041630447 0.018610803 -0.13031712 -0.011589168
-0.12652516 -0.11585762 0.07163355 0.08165013 0.047835317 -0.21226232 0.06208891 -0.09525813
0.039999858 -0.15939961 -0.02568477 -0.09700613 0.0126501545 -0.005520675 -0.01595613 -0.24344435
0.04498181 0.0509273 -0.17169547 -0.09229715 -0.019417772 0.3439465 -0.06479088 -0.053689282
0.013426312 -0.018902708 -0.01419035 0.1217471 -0.14878288 0.05720452 0.07707607 -0.05825278
0.01546462 -0.050567508 -0.042859834 -0.054503582 0.029962478 -0.038054727 -0.062523104 -0.06984805
0.05630246 0.12367813 -0.09790319 -0.08187789 0.09721047 -0.13814735 -0.16696273 -0.025142197
0.059914775 -0.13930851 -0.04338219 -0.0025530343 0.0011954634 -0.07623095 -0.07287717 0.037629627
0.06358221 -0.0644536 -0.011437632 -0.12409834 -0.06960402 -0.076605655 0.024437621 0.0036082175
-0.010539113 -0.14816336 -0.004055677 -0.058368865 0.018498339 0.045847576 0.097465 -0.088537954
0.029932091 0.00052143075 -0.1819331 0.06323459 -0.08430315 0.07888293 -0.080204986 0.038884725
0.17737983 -0.07302379 -0.08448366 -0.009252745 -0.085901566 0.0404963 -0.10081597 0.033428065
0.079137474 -0.02709296 -0.08718044 0.04608381 0.13716812 0.015539734 -0.0020592494 0.038214583
0.028872976 0.024692127 -0.02250685 0.049236726 0.009714617 -0.07383831 0.18004541 -0.03936942
-0.07152533 0.15979017 -0.2086489 0.010156985 -0.056467243 0.050203994 -0.041383464 -0.045972258
0.1295847 0.040347476 -0.0017408254 -0.0054772473 -0.050261214 0.009824075 -0.08638894 0.06682234
0.12299738 -0.0186483 0.0022959618 -0.031380482 -0.023375986 -0.16565119 -0.052323602 -0.045599263
0.0025716315 -0.09239617 0.042111475 0.0718026 0.12010807 -0.048802767 -0.06989755 0.12698276
0.019496031 -0.10793128 -0.006111632 0.052233674 0.09260673 -0.10057647 -0.039949983 5.4449323e-05
-0.027900467 0.003931183 0.13048047 -0.030832713 -0.100222565 0.0075440533 0.0035337647 -0.0007995377
-0.09066535 0.03296936 0.023417056 -0.04013778 -0.113216646 0.028409334 0.122706346 0.1407377
-0.03706928 -0.07758945 -0.07282972 -0.017486073 -0.064692445 -0.06843176 -0.11876488 0.01962248
0.04412246 0.17987032 0.24630255 0.062318403 0.06548064 0.061398145 0.2305351 -0.035601106
0.04358043 -0.02307564 0.116311915 0.08615435 -0.067649424 0.11625592 0.05588176 -0.03192668
-0.003994468 0.006324069 -0.09400024 0.049413126 -0.2552802 -0.19220608 -0.007837332 0.005116438
0.06922839 0.13218543 0.058584034 -0.022270832 0.025264466 0.015679166 -0.017061722 0.03329986
0.11763149 0.07466387 -0.0046959734 -0.018772887 -0.06952042 0.083338216 -0.039117184 0.0068183285
00000000: c35a c4bb 7a22 8a3c b428 b2bd 652d ba3d
00000010: a462 573d fd5d 253c 5f2e 823d a386 683c
00000020: deeb a0bd 3e9d 253c f1ca 073e 5685 69be
00000030: b9b6 f73d f384 c6bd e94b 7c3c c7de 9ebd
00000040: 24de fdbc a026 b13d d650 823c 0a5a 4c3d
00000050: 2c26 0f3e c3c8 273d e542 5d3d cc2d c63b
00000060: 2a90 823e de67 28bd e9aa 32be f9a9 70bc
00000070: cb96 14bd 6ee3 2dbb 2695 ca3d c2e0 fcbd
00000080: 93a0 083e 69ce 173e 7e7c 393d a54f 18be
00000090: 4ede d4bd d4a8 303e 54f7 9cbd 9a2b a9bc
000000a0: 53fe adbd ccd0 89bc 206c b13d 3298 fd3d
000000b0: b084 2a3d af75 983c da71 05be 7ee0 3dbc
000000c0: d08f 01be c346 edbd 9cb4 923d 2f38 a73d
000000d0: f7ee 433d 4b5b 59be f150 7e3d b216 c3bd
000000e0: e4d6 233d a739 23be de68 d2bc 26ab c6bd
000000f0: 9842 4f3c c7e6 b4bb 6eb6 82bc 7a49 79be
00000100: d93e 383d 2599 503d f0d0 2fbe 4a06 bdbd
00000110: 0512 9fbc c119 b03e 15b1 84bd 4be9 5bbd
00000120: 09fa 5b3c dad9 9abc a47e 68bc 8b56 f93d
00000130: 8a5a 18be 494f 6a3d 0fda 9d3d 789a 6ebd
00000140: 515f 7d3c e01f 4fbd cb8d 2fbd 263f 5fbd
00000150: df73 f53c 46df 1bbd 1d0c 80bd 7f0c 8fbd
00000160: 699d 663d f64a fd3d 7881 c8bd 98af a7bd
00000170: 4816 c73d 8076 0dbe 47f8 2abe 02f7 cdbc
00000180: 3269 753d e4a6 0ebe 86b1 31bd cf50 27bb
00000190: 18b1 9c3a f91e 9cbd a040 95bd 8621 1a3d
000001a0: 6437 823d 4000 84bd e864 3bbc 4527 febd
000001b0: 8d8c 8ebd 6de3 9cbd 6831 c83c d877 6c3b
000001c0: 3eac 2cbc 23b8 17be 7ce5 84bb 3114 6fbd
000001d0: d489 973c abca 3b3d bb9b c73d 6353 b5bd
000001e0: 2534 f53c a0b0 083a ac4c 3abe 2381 813d
000001f0: 21a7 acbd 608d a13d 8342 a4bd 9745 1f3d
00000200: 0fa3 353e 7f8d 95bd c505 adbd d398 17bc
00000210: 29ed afbd 73df 253d 9a78 cebd deeb 083d
00000220: d412 a23d 0ef2 ddbc a98b b2bd 61c2 3c3d
00000230: cd75 0c3e 5e9a 7e3c 79f4 06bb e586 1c3d
00000240: 0587 ec3c 2547 ca3c 4960 b8bc 73ac 493d
00000250: 0f2a 1f3c 8a38 97bd d35d 383e d441 21bd
00000260: df7b 92bd 09a0 233e 0fa8 55be 7c69 263c
00000270: 324a 67bd b4a2 4d3d b581 29bd 684d 3cbd
00000280: dab1 043e 6543 253d 682c e4ba 7b7a b3bb
00000290: b4de 4dbd 28f5 203c afec b0bd 27da 883d
000002a0: 0de6 fb3d 52c4 98bc d977 163b d288 00bd
000002b0: ff7e bfbc 77a0 29be 4651 56bd 4bc6 3abd
000002c0: d188 283b 343a bdbd 157d 2c3d 3e0d 933d
000002d0: 38fb f53d 69e5 47bd 7226 8fbd c507 023e
000002e0: 24b6 9f3c 130b ddbd 1644 c8bb faf2 553d
000002f0: 99a8 bd3d 09fb cdbd 98a2 23bd 8460 6438
00000300: 858f e4bc 27d1 803b ac9c 053e e394 fcbc
00000310: 7d41 cdbd 1b34 f73b bc96 673b 1198 51ba
00000320: c1ae b9bd e10a 073d 20d5 bf3c 8367 24bd
00000330: 21de e7bd b1ba e83c 774d fb3d 8b1d 103e
00000340: f5d5 17bd 38e7 9ebd c027 95bd f43e 8fbc
00000350: 797d 84bd f325 8cbd 003b f3bd 53bf a03c
00000360: c1b9 343d ed2f 383e bc36 7c3e 9541 7f3d
00000370: b71a 863d 9f7c 7b3d 6511 6c3e 77d2 11bd
00000380: 6581 323d 2009 bdbc f134 ee3d b171 b03d
00000390: c88b 8abd 9517 ee3d 46e4 643d 8dc5 02bd
000003a0: 07e4 82bb 233a cf3b 3383 c0bd 6b65 4a3d
000003b0: 16b4 82be acd1 44be 2768 00bc cba7 a73b
000003c0: 9dc7 8d3d 9e5b 073e d0f5 6f3d 5271 b6bc
000003d0: 6df7 ce3c 9871 803c 06c5 8bbc 6f65 083d
000003e0: c7e8 f03d 5fe9 983d aee0 99bb 99c9 99bc
000003f0: b960 8ebd 3aad aa3d 5739 20bd 496c df3b

network_body._body_endoder.seq_layers.2.bias f4 [128]
0.036383335 -0.00941341 0.005132714 0.044477474 0.021041775 0.0119097745 0.005686266 -0.015529904
0.013042665 -0.040511925 -0.012844804 0.037302755 -0.028781831 -0.024915129 -0.0032907743 0.07534212
-0.013782269 0.06413436 0.06125278 -0.049360752 0.0032735625 -0.030196989 -0.030426506 -0.04845805
-0.022526387 0.025249979 0.031177327 -0.00733047 0.021287994 0.025085678 0.044749487 0.039401703
-0.010295391 0.018656481 0.031197214 0.045528736 0.11363586 0.06188424 -0.0047493265 0.05125229
0.0443221 -0.036808383 -0.026748756 -0.013804961 -0.0014641865 0.053602517 -0.035756662 -0.0025419954
-0.009274392 0.06378935 0.022357965 5.622731e-06 -0.031451903 0.058201976 0.035215005 0.04886037
0.006045755 0.029192418 0.021724882 0.00858343 -0.01780498 -0.0023932378 0.045638986 0.02021659
0.01199186 0.025116008 -0.011329986 -0.0403955 -0.031707264 -0.03991712 0.0023131662 0.054199044
0.04482125 -0.047149364 0.068666056 -0.0122016035 0.049261343 0.06821264 -0.07107397 -0.013927387
0.011331191 -0.03121567 -0.009935623 0.015434284 0.040603537 0.04867428 0.009332978 0.03541094
-1.911441e-05 0.048606973 -0.004712527 -0.023449393 -0.047513142 0.0063297595 0.029425843 0.045409158
0.0734011 0.0377541 0.012870187 -0.0057203663 0.038512476 -0.025724657 0.010180953 -0.01747242
-0.032306183 0.0081012985 -0.009220146 -0.057059065 0.06329006 -0.029790081 0.061913256 0.039128587
-0.045794494 0.01470126 -0.043712337 -0.00020567037 -0.0021393734 -0.02720341 0.014882657 0.011461465
-0.0042268597 0.009496983 -0.014250785 -0.016688203 -0.010557007 0.060023926 0.01661294 -0.01602103
00000000: b106 153d b43a 1abc 5330 a83b 032e 363d
00000010: cd5f ac3c 3721 433c db53 ba3b 2371 7ebc
00000020: e7b0 553c d5ef 25bd 0373 52bc c6ca 183d
00000030: e0c7 ebbc d01a ccbc 08aa 57bb f84c 9a3d
00000040: 07cf 61bc e058 833d 32e4 7a3d 802e 4abd
00000050: 4489 563b ad5f f7bc 0241 f9bc f37b 46bd
00000060: 4289 b8bc 0bd9 ce3c 9867 ff3c 7034 f0bb
00000070: 2964 ae3c 7b80 cd3c 3d4b 373d ae63 213d
00000080: 00ae 28bc 7ad5 983c 4d91 ff3c 577c 3a3d
00000090: ebb9 e83d 547a 7d3d 3da0 9bbb eced 513d
000000a0: 178b 353d 63c4 16bd 3520 dbbc 342e 62bc
000000b0: f2e9 bfba 508e 5b3d 9475 12bd 9b97 26bb
000000c0: 9ff3 17bc fea3 823d 0d28 b73c e4aa bc36
000000d0: b6d3 00bd 3265 6e3d 9c3d 103d d021 483d
000000e0: 781b c63b f024 ef3c 61f8 b13c 84a1 0c3c
000000f0: c0db 91bc ded7 1cbb f2ef 3a3d 439d a53c
00000100: 8279 443c 16c0 cd3c 68a1 39bc c075 25bd
00000110: 7adf 01bd 2280 23bd 7d98 173b d1ff 5d3d
00000120: 7d96 373d b11f 41bd caa0 8c3d 3ce9 47bc
00000130: 43c6 493d 12b3 8b3d 3b8f 91bd b22f 64bc
00000140: 76a6 393c 01b8 ffbc 06c9 22bc 14e0 7c3c
00000150: e54f 263d af5e 473d 59e9 183c 100b 113d
00000160: e257 a0b7 1b18 473d 8b6b 9abb f118 c0bc
00000170: 249d 42bd df69 cf3b 770e f13c f4fe 393d
00000180: 5153 963d 0ba4 1a3d 7add 523c e971 bbbb
00000190: 42bf 1d3d 84bc d2bc 03ce 263c 5222 8fbc
000001a0: 7d53 04bd 4fbb 043c 1810 17bc c4b6 69bd
000001b0: 389e 813d 540a f4bc c198 7d3d 4c45 203d
000001c0: 0293 3bbd 8edd 703c b50b 33bd 38a9 57b9
000001d0: bb34 0cbb b0d9 debc 63d6 733c dec8 3b3c
000001e0: 7881 8abb 3c99 1b3c 207c 69bc b3b5 88bc
000001f0: 4cf7 2cbc a6db 753d dc17 883c 893e 83bc

action_model._continuous_distribution.log_sigma f4 [1, 2]
0.047753897 0.01924626
00000000: 9799 433d 55aa 9d3c

action_model._continuous_distribution.mu.weight f4 [2, 128]
-0.012658039 0.008354376 -0.01790158 -0.02546746 0.012719921 -0.053798076 -0.01697102 0.0034478465
-0.000803516 -0.01099729 0.0052782553 0.0069705923 -0.0046908637 -0.00057881116 -0.0049131527 0.037657343
-0.019101927 0.022014704 0.043478638 -0.022203352 0.015941795 -0.041074656 -0.013442674 -0.038963005
-0.03183243 0.02522804 0.0048633413 -0.0064555192 -0.072777525 0.023949845 0.0067799655 0.020801509
-0.0743422 0.0050163628 0.0062464345 0.0154653285 0.079101875 0.043281555 -0.025473071 0.040823907
-0.0040776418 -0.061968718 -0.019744618 -0.024627617 0.0005277704 -0.0036773323 -0.0036607627 -0.01507046
-0.04866218 0.037219305 -0.030304829 -0.049041055 -0.018533643 0.022146435 0.009752118 0.02844338
-0.0020646525 -0.018015007 -0.004208965 0.004326521 -0.027942901 -0.031214697 -0.057765447 0.0032249817
-0.06904615 -0.058919918 -0.06677303 -0.0068952637 -0.009095316 -0.015373437 -0.017381879 0.024776515
0.019809136 -0.033417743 0.018250082 0.0022773459 -0.02088188 -0.029267263 -0.015705142 0.0114864325
0.003982613 -0.013053713 0.009774255 -0.036649317 0.020563435 0.008135865 0.007473515 0.00810066
-0.028598847 -0.07646051 -0.0038291467 -0.04485613 -0.025726546 0.009775304 0.018145775 0.018160386
0.057509616 0.0335713 -0.04687539 0.0012433347 0.038067874 -0.00097431504 0.00878312 -0.011019271
-0.039380524 -0.010234755 -0.011957512 -0.015639206 0.021857794 -0.025264954 0.036757454 0.02297637
-0.016934238 -0.003548992 -0.008332317 0.0030698562 -0.006206577 -0.041321475 0.025875717 -0.013379612
0.021465493 -0.04473303 0.0017001452 0.0046052397 0.007930594 0.025512403 -0.06588303 -0.012316954
0.035485715 -0.0039597717 0.019099412 0.05340961 -0.0023358786 -0.031135855 0.036339555 -0.010172886
0.01134861 0.0016495452 -0.004435517 0.013932207 0.003411891 0.0016416793 0.014585735 0.028421694
0.031334817 0.016962575 -0.0066102003 -0.03568641 -0.009222034 -0.003696943 -0.0060966946 -0.0039599105
0.017950697 -0.006495159 0.028236944 0.006750046 0.01893607 0.0062890393 0.020329548 0.014930969
-0.011455424 -0.0058774618 0.009923555 0.02648796 0.03062328 0.035417218 0.012074414 0.01795258
0.011092266 -0.02588721 -0.015474294 -0.0144879725 0.014550809 0.05768402 9.216567e-06 0.023831617
0.01284969 0.0063498532 0.043838207 -0.053181425 0.017292777 0.013879191 0.0007453524 -0.0144080985
0.011453339 0.039078698 0.017557528 -0.0035128514 0.017140828 0.016485974 0.09786509 -0.017501269
0.049081083 0.06974117 -0.038486447 0.005971315 0.0056942953 -0.0053428956 0.022984354 0.00626916
0.0011268044 -0.027323265 0.010229741 -0.017088283 0.05951455 0.06268846 -0.018674912 -0.012150045
0.020680549 0.0060115284 -0.014107885 0.044590916 0.015822124 0.06381668 -0.029935174 0.00061821856
-0.023489956 0.041035593 0.01984514 -0.036927093 0.0046211085 -0.009065136 -0.00620896 -0.0028513428
0.04596424 0.011434704 0.03528531 -0.012662955 -0.02771554 -0.0077807065 -0.021813208 0.013463792
0.0076308944 0.022073679 0.024012282 0.00035902526 0.04553817 0.013047396 0.0345337 0.013966794
-0.00096608524 0.014983011 -0.003311624 0.008959399 -0.010503099 0.00086446 -0.008381486 0.041811153
-0.036942773 0.013993435 0.00415294 -0.025238926 -0.015521788 0.009216528 0.03676682 -0.020159919
00000000: aa63 4fbc cbe0 083c 56a6 92bc 22a1 d0bc
00000010: 3767 503c 5f5b 5cbd cf06 8bbc 44f5 613b
00000020: 0ca3 52ba fa2d 34bc 37f5 ac3b 9169 e43b
00000030: d1b5 99bb 5cbb 17ba 83fe a0bb 963e 1a3d
00000040: a57b 9cbc 2e58 b43c a816 323d cee3 b5bc
00000050: 5e98 823c e63d 28bd a93e 5cbc ac97 1fbd
00000060: b962 02bd 09ab ce3c aa5c 9f3b d288 d3bb
00000070: 620c 95bd 7732 c43c 792a de3b ed67 aa3c
00000080: b940 98bd 4d60 a43b e4ae cc3b 4a62 7d3c
00000090: 2a00 a23d 0048 313d e7ac d0bc f836 273d
000000a0: bd9d 85bb e9d2 7dbd 77bf a1bc dbbf c9bc
000000b0: 125a 0a3a 66ff 70bb 68e9 6fbb 17ea 76bc
000000c0: fe51 47bd 4573 183d d541 f8bc 46df 48bd
000000d0: ded3 97bc 716c b53c 59c7 1f3c 1702 e93c
000000e0: 1f4f 07bb 3594 93bc 5ceb 89bb 7dc5 8d3b
000000f0: 83e8 e4bc f7b5 ffbc 769b 6cbd 375a 533b
00000100: 1168 8dbd 0356 71bd 4cc0 88bd aaf1 e1bb
00000110: 8504 15bc dee0 7bbc 7164 8ebc 1ef8 ca3c
00000120: c546 a23c 0be1 08bd 3281 953c 863f 153b
00000130: 7a10 abbc e6c1 efbc 12a8 80bc 9731 3c3c
00000140: 9480 823b 3edf 55bc 3224 203c 981d 16bd
00000150: a674 a83c 4b4c 053c 63e4 f43b a1b8 043c
00000160: 2148 eabc 5497 9cbd 6cf2 7abb 10bb 37bd
00000170: 7ac0 d2bc 9928 203c 73a6 943c 17c5 943c
00000180: 348f 6b3d 0f82 093d 6900 40bd 64f7 a23a
00000190: 0fed 1b3d 2d69 7fba 13e7 0f3c 2c8a 34bc
000001a0: 794d 21bd adaf 27bc 71e9 43bc cb1d 80bc
000001b0: 1e0f b33c 73f8 cebc fc8e 163d f138 bc3c
000001c0: acb9 8abc 3596 68bb 4584 08bc a42f 493b
000001d0: 8b60 cbbb b540 29bd 50f9 d33c 2936 5bbc
000001e0: 67d8 af3c fb39 37bd 68d7 de3a 8de7 963b
000001f0: 52ef 013c 63ff d03c afed 86bd 0dcd 49bc
00000200: 7859 113d f9c0 81bb 5f76 9c3c 09c4 5a3d
00000210: 8a15 19bb 9f10 ffbc c9d8 143d 2dac 26bc
00000220: 85ef 393c 8d35 d83a d057 91bb e943 643c
00000230: 089a 5f3b 9e2d d73a 02f9 6e3c 9dd4 e83c
00000240: f058 003d 19f5 8a3c 619a d8bb ea2b 12bd
00000250: 0418 17bc 6948 72bb c8c6 c7bb 23c2 81bb
00000260: 570d 933c 58d5 d4bb 2a51 e73c 7d2f dd3b
00000270: d11f 9b3c 4914 ce3b 278a a63c 06a1 743c
00000280: 88af 3bbc b997 c0bb 6896 223c 47fd d83c
00000290: acdd fa3c a511 113d c3d3 453c 4a11 933c
000002a0: 56bc 353c 6a11 d4bc e587 7dbc f65e 6dbc
000002b0: 8466 6e3c 1446 6c3d dba0 1a37 863a c33c
000002c0: 8287 523c 6e12 d03b b18f 333d c4d4 59bd
000002d0: 95a9 8d3c 8c65 633c c163 433a f20f 6cbc
000002e0: c9a6 3b3c fc10 203d ced4 8f3c de37 66bb
000002f0: ec6a 8c3c 980d 873c 7e6d c83d d25e 8fbc
00000300: 3f09 493d 75d4 8e3d f7a3 1dbd 05ab c33b
00000310: 3697 ba3b 7513 afbb af49 bc3c 876d cd3b
00000320: 48b1 933a 0ad5 dfbc a59a 273c bafc 8bbc
00000330: 87c5 733d cf62 803d 21fc 98bc fb10 47bc
00000340: 416a a93c 5bfc c43b c224 67bc f7a4 363d
00000350: 669d 813c 52b2 823d 9c3a f5bc f20f 223a
00000360: 026e c0bc f014 283d 4692 a23c dd40 17bd
00000370: ab6c 973b f085 14bc 8874 cbbb 98dd 3abb
00000380: 0045 3c3d a058 3b3c 5487 103d 4878 4fbc
00000390: b30b e3bc 4cf5 febb 9db1 b2bc 3d97 5c3c
000003a0: 950c fa3b dcd3 b43c 68b5 c43c 8e3b bc39
000003b0: 3b86 3a3d bfc4 553c 3673 0d3d fbd4 643c
000003c0: e240 7dba 4e7b 753c d507 59bb 71ca 123c
000003d0: 3115 2cbc ee9c 623a 8052 09bc 2c42 2b3d
000003e0: 4e51 17bd b844 653c 6315 883b ddc1 cebc
000003f0: 194f 7ebc ec00 173c ce98 163d 6a26 a5bc

action_model._continuous_distribution.mu.bias f4 [2]
0.04333895 0.02479677
00000000: 2f84 313d 9922 cb3c
