Goodminton/Assets/results/Badminton/Badminton/Badminton-354.onnx (onnx, 74586 bytes, 7 tensors)

network_body._body_endoder.seq_layers.0.weight f4 [128, 5]
00000000: b6f5 f5bd d29b 16bf c38e cd3e dc9a e0bd
00000010: b506 73bf 9335 84bd 8882 c2be 9101 933f
00000020: 5fda 77bf ea14 88bd e58d 21bf 2642 903e
00000030: 743e d1bd 1d32 043d dbaa da3d 9dd5 623f
00000040: 8dce e33e 34c6 06bf abdd d6be 0cda b0be
00000050: c1fc 83bd 542d f83a 5323 433e f2f7 05be
00000060: 38f7 b0bd 627a 093f ad66 9b3d cdb9 a2be
00000070: 62b1 1f3e 6eab 4e3d 11aa 19bf 3fe8 263f
00000080: 61de 57bf 3fdc c73d c1dc bcbd ce4e 63bf
00000090: 7d3b b6be bbac 1fbf 78ca 1dbf 9c61 babe
000000a0: bf52 633e 038c dbbc a32a 273f c04e 693e
000000b0: d0a9 cebe 29cc 1abf cc83 23bf c172 12bf
000000c0: ebe3 273f 9a5e 413e 99d3 26bd 9028 9c3e
000000d0: e000 8c3e 47da c13e 70f1 0a3f b9e8 203d
000000e0: 3cce 1ebf 6a66 45be f0d0 f4be ad8a 8bbd
000000f0: 846b 51bd 944c d93e bcce 823e f0dc 0b3f
00000100: ed6f febd 369d 80be cbbe 58bd 6024 283e
00000110: 7373 4fbf f183 d33e c33c 52bf 4768 5ebe
00000120: 4fc0 8abd e3aa 353f b003 7ebe 117a afbd
00000130: 7154 ddbe ced7 a63d b3a9 4c3f 86a0 a93e
00000140: 2e38 4ebf 8dd2 3d3e 096c 243e fcb0 af3e
00000150: 026a 8dbe 769e 70be 78e7 4d3f 3c07 7f3e
00000160: 89d4 cbbe cf51 0bbd 03d3 4bbf 6e39 4a3e
00000170: 2987 0d3d 5f42 edbe 1b25 f9be b485 893e
00000180: 54eb c93e 4a9c 2d3e fb0c 00bf fa74 143e
00000190: c318 073f bf8f 223e 08d5 38be 47ca 76be
000001a0: 2c1c 543f cf4d 673e 0380 e63e 1575 9a3e
000001b0: 6e66 83be ff1f 483f 45b1 8d3e aabd 54be
000001c0: e493 043f 8615 86bc f20f 81bf 030b b0be
000001d0: fd46 efbe a3a3 83be a0e4 183f 4706 dabe
000001e0: 160b 86be 7ee9 30be 3713 7d3e 5e18 57be
000001f0: 64f1 22be 28f0 cd3c daa4 dabd b194 693e
00000200: 3d69 c03e a619 5ebd 182b 8bbe 8877 8d3e
00000210: 49d2 0cbf 5411 9fbe a1a7 75be 012d 423e
00000220: cb11 06bf bf57 6ebc 01f9 e23d 74d7 5ebe
00000230: c1dd 6a3e 90fa 8dbd 5aba 053f 041a 833f
00000240: 074f 57be e230 9f3e f799 483e 2604 6b3e
00000250: 508d 52be 3144 fcbd 3481 2b3f 782e 79bd
00000260: c706 ddbd 0e16 8f3e a199 333e 222e d4be
00000270: 6953 083d e47b 2d3e a93d 5bbf fcaa 2dbe
00000280: 9aa9 85be 8430 663e c5b1 fc3d 68d3 1ebe
00000290: 7edb 18bf d1f4 87be 7edc 48bc 4e59 943e
000002a0: 6914 013e 230e 953f a301 213f 9451 de3e
000002b0: 9fd8 98be 5141 273e a286 993e ab83 833d
000002c0: 8d7e e0bd 37a3 27be c419 223f 2511 eabe
000002d0: 1e4d 7fbe e8f4 253e 352a 43be b174 5bbe
000002e0: a031 1d3e c698 053f 965d 0a3e a3b4 273e
000002f0: cb0f 2d3f 5207 a9be d445 04bf d3e2 60bf
00000300: 9eb9 9fbf 40c1 8a3e f1a8 68bf 8d99 8d3f
00000310: 2798 423f ee56 4ebf f221 b4be 0da3 513e
00000320: 8ccd b23c 3b21 febd 3c3a a0be c587 ae3c
00000330: d667 553e 6870 ef3e e0b4 73be 679f 9b3e
00000340: 2cd5 68be c75f f3bd 36f0 95be 3ba8 2e3f
00000350: 4c11 6bbf 5b80 6cbe 3c01 61bf 80ea a33e
00000360: 7419 2abe 9e2f 19bd 339e f7be 48f9 813e
00000370: cb43 68bc 382e afbd 224d 5cbf 4ba2 6f3f
00000380: 431a aa3e 1384 5bbf 2a0b adbe fa01 9d3e
00000390: 363e 913f 152b 5d3e 13d9 3ebf dae0 bf3e
000003a0: 7e05 6fbf eea3 42be 0a49 ea3e bc0e 17be
000003b0: 5919 a8be ff00 8f3e 4b7f ecbe aa69 62be
000003c0: 045b a6bf 15c2 0e3f 1bf2 7ebf e1e9 4ebe
000003d0: 29f5 e13b a7e3 213f b7a9 353f b0f4 6dbd
000003e0: 0396 57bd ded9 08bf ba8d 0dbd b1e3 c8be
000003f0: 5621 e03e 1fae 25bd 7c85 adbe c198 163f
-0.12009756 -0.5883151 0.4014798 -0.10967037 -0.9493211 -0.06455531 -0.37990212 1.1484853
-0.9681758 -0.06644614 -0.6310714 0.28175467 -0.1021699 0.032274354 0.10677119 0.886072
0.44493523 -0.52646184 -0.41965994 -0.34541357 -0.06444693 0.0018934407 0.19056444 -0.13082865
-0.08640903 0.53702366 0.07587943 -0.3178238 0.1559501 0.050456457 -0.60025126 0.6519813
-0.843237 0.097588055 -0.09221793 -0.8879212 -0.3559226 -0.6237294 -0.6163707 -0.36402595
0.22199534 -0.026800161 0.65299433 0.22783947 -0.40363932 -0.60467774 -0.6387298 -0.5720635
0.6558215 0.18883744 -0.04072914 0.30499697 0.27344418 0.37861845 0.54274654 0.03928444
-0.6203344 -0.19277349 -0.47815657 -0.0681356 -0.051127926 0.42441237 0.2554835 0.54634
-0.12423692 -0.25119942 -0.05291633 0.16420126 -0.81035537 0.413116 -0.82123965 -0.21719466
-0.06774961 0.7096388 -0.24806094 -0.08568204 -0.43228486 0.0814663 0.7994644 0.33130282
-0.80554473 0.1853735 0.16056837 0.34314716 -0.2761994 -0.23497948 0.8043132 0.24905103
-0.3981059 -0.034013566 -0.79618853 0.1974847 0.034552727 -0.463397 -0.48661122 0.2685982
0.39437354 0.16954151 -0.50019807 0.14497748 0.5277216 0.15875147 -0.18050015 -0.241006
0.82855487 0.22588275 0.4501954 0.30167452 -0.25664085 0.7817382 0.27674308 -0.20775476
0.51788163 -0.016367685 -1.0082991 -0.343834 -0.46733847 -0.25710782 0.59723854 -0.42582914
-0.26180333 -0.1727657 0.24714361 -0.21005389 -0.15912396 0.02513893 -0.10675974 0.22810628
0.3758029 -0.05422368 -0.27181315 0.27630258 -0.5500837 -0.31067908 -0.23989727 0.1896248
-0.523709 -0.0145472875 0.1108265 -0.21761876 0.22936155 -0.06932557 0.52237475 1.0242314
-0.2102624 0.31091982 0.19589983 0.22950801 -0.20561719 -0.12317694 0.66994023 -0.06083533
-0.10792308 0.27946514 0.17539074 -0.41441447 0.03328267 0.16941792 -0.8564096 -0.16959757
-0.26105958 0.22479445 0.12338594 -0.15510333 -0.5970992 -0.26553968 -0.012259601 0.28974384
0.12605442 1.1644939 0.6289312 0.43421614 -0.2985277 0.1633351 0.2998553 0.06421598
-0.10961638 -0.16370855 0.63320565 -0.45716205 -0.24931762 0.16206706 -0.1905907 -0.21431233
0.15350962 0.5218624 0.13512263 0.16377501 0.67602223 -0.33013397 -0.5166905 -0.87846106
-1.2478521 0.27100563 -0.90882784 1.1062485 0.76013416 -0.80601394 -0.35182148 0.20472355
0.021826528 -0.12408682 -0.3129443 0.021304974 0.20840392 0.46765447 -0.23799467 0.30395052
-0.22737569 -0.118835025 -0.2928483 0.6822545 -0.9182327 -0.23095839 -0.8789251 0.32014847
-0.16611272 -0.037398927 -0.48362884 0.253855 -0.014176319 -0.085537374 -0.86055195 0.93607014
0.3322316 -0.85748404 -0.3379758 0.3066557 1.134711 0.21598466 -0.7454998 0.37476236
-0.93367755 -0.19007847 0.4575885 -0.14751714 -0.3283184 0.27930447 -0.46190867 -0.2211062
-1.2996526 0.55764896 -0.99588174 -0.20206405 0.0068956804 0.63237995 0.7096209 -0.05809468
-0.052633297 -0.5345744 -0.03455899 -0.39236215 0.43775433 -0.040449258 -0.33890903 0.58826834

network_body._body_endoder.seq_layers.0.bias f4 [128]
00000000: 163c 14ba 8d7d 64bb 5d36 a23a f40a 5fbb
00000010: 85ff ae3a 6cde 033b 2369 97ba f2a4 d2b9
00000020: bef2 b83a 7e40 26ba fb1c 8c3a 845c 1439
00000030: bdd0 513a 6110 2a3a d028 23bb 5654 c9ba
00000040: eaaa 633b c1ab a9bb a184 aa3a 254b f5b9
00000050: 6c34 d1b9 e943 04bb 679f 2bbb 0d73 94bb
00000060: 3568 9cbb 261e b9ba a978 2f3b 8a14 44ba
00000070: 9e2a 563b 5413 b7ba 3310 c9ba d371 fc3a
00000080: 91f4 c63a 8e06 963a 7f6c 283a 4dda 19b9
00000090: 0628 5abb 761f e938 265b 14ba f023 4bbb
000000a0: 0b45 6a3a aa4e d2ba 7059 253a f931 8c3a
000000b0: 888e 273a 4ef4 8cba 7ea2 11bb b334 733a
000000c0: 3a9c 133a 2a1e d6ba 0695 b03a 5777 0bbb
000000d0: 4438 e3b8 f169 1fb9 21a2 c3ba 71a8 3abb
000000e0: aa3a 4d3a 5e8d 2dba f829 b5ba 63d0 083b
000000f0: dbfc ca3a ddae c8bb 19aa 87ba 9a92 11bb
00000100: 283d 0b3b 6eb5 093b 0117 c83a 96fa 8cba
00000110: c14c 69ba e568 b239 9987 42bb 92ab 813a
00000120: 7d22 e63a b2d0 3d3b d6da 83bb 932f 2d39
00000130: 9fdf 84bb 1a97 f739 a7a3 c7ba 6cb7 21b9
00000140: 5f9e 893a 4154 f43a 4e8e 9139 1439 b6ba
00000150: 5106 88ba 7f56 90ba 3556 f9b9 b476 8c3a
00000160: 7cd8 c03a 3f4f d23a c36d de3a bcbe 6539
00000170: e30b 5dbb be51 c33a 5b3f 1abb 371b 83bb
00000180: 8bcc 4cbb a732 ea3a beee 4aba a990 62bb
00000190: 048f 45ba b019 3eba 6f9e 0cbb 6146 82ba
000001a0: 68f9 19ba 4315 8aba df5a 793a 38ce 173b
000001b0: 505a bcba e6a1 073a b7ba 0b3b 628b 243b
000001c0: 560d 3fba 5f36 b63a d49f 1dbb 3637 8937
000001d0: a1c2 5cba 041d b03a 8b1e aaba 3927 0b3b
000001e0: 01a1 7eba 2af2 06ba 783d 6539 2e34 d5ba
000001f0: 3607 eaba 2b74 fbba 6d68 fe3a 40a0 98b8
-0.00056547055 -0.0034864873 0.0012375821 -0.0034033628 0.0013351297 0.0020121587 -0.0011551719 -0.00040177215
0.0014110429 -0.00063420075 0.0010689789 0.00014148845 0.0008003822 0.0006487426 -0.0024896152 -0.0015360217
0.0034739324 -0.0051779454 0.0013009497 -0.00046786029 -0.00039902644 -0.002018208 -0.002618754 -0.0045303167
-0.0047731646 -0.0014123365 0.00267748 -0.0007479867 0.003267921 -0.0013967552 -0.0015339911 0.0019259996
0.0015179088 0.0011446045 0.00064248586 -0.0001467254 -0.0033288016 0.00011116166 -0.0005659334 -0.0030996762
0.000893668 -0.0016045172 0.0006307578 0.0010696045 0.0006391783 -0.0010753961 -0.0022222097 0.0009277567
0.00056308846 -0.0016335894 0.0013472147 -0.002128085 -0.00010834684 -0.00015202888 -0.0014925638 -0.0028481747
0.0007828871 -0.00066204916 -0.0013821712 0.0020876161 0.0015486734 -0.006124361 -0.0010350376 -0.0022212625
0.0021246169 0.0021012682 0.0015265645 -0.0010755833 -0.0008899682 0.00034028958 -0.0029682873 0.0009893051
0.0017557886 0.0028963503 -0.00402389 0.00016516288 -0.004054978 0.0004722409 -0.0015231267 -0.00015422486
0.0010499469 0.0018640832 0.0002776258 -0.0013902509 -0.0010377859 -0.0011012106 -0.0004755721 0.0010716529
0.0014712955 0.0016045346 0.0016969967 0.00021910196 -0.003372901 0.001490168 -0.0023536298 -0.004001047
-0.0031249847 0.0017867879 -0.0007741264 -0.0034571087 -0.00075362646 -0.00072517525 -0.0021456738 -0.0009939187
-0.0005873651 -0.0010534901 0.0009512137 0.0023163687 -0.0014370177 0.0005173966 0.0021321008 0.0025107493
-0.0007288059 0.0013901702 -0.0024051564 1.6357382e-05 -0.0008421336 0.0013436382 -0.0012979073 0.0021233095
-0.00097133225 -0.00051477796 0.00021862041 -0.0016266161 -0.0017854932 -0.0019184401 0.0019409783 -7.277774e-05

network_body._body_endoder.seq_layers.2.weight f4 [128, 128]
00000000: 7f02 b63b f799 d93c 6a25 8bbd cab1 c73d
00000010: dc1c 23be 0324 fb3c 2d04 233e d956 493d
00000020: 1f9d 76bd dc25 e43d 0a23 34be 9912 c7bc
00000030: 2a43 e23c ec22 533c 7981 e13d dd9c 293d
00000040: ce24 9dbd e09e 64bd 93a4 bd3c ef2a 013e
00000050: 1926 e03d d12f e43d fe2b d9bd 757a ca3d
00000060: d995 dbbd dafe 7cbd 850c b23d 377c dd3c
00000070: d32f d43d 1253 9abc 28b1 31be f4a6 57bc
00000080: 7d1b 0d3e 325c 2a3e 9759 8b3d aa8d 3ebe
00000090: 5acf 5b3e c8cd 4c3e 2da8 4e3e 80d3 f53d
000000a0: ffb1 e6bc 6297 463c 48ba fabc 38bd 3d3c
000000b0: d245 b7bd 7e78 553e 25cd 143d 15d2 54be
000000c0: aec4 bf3d d11b 26be 6e9e 1e3e cb7a e83d
000000d0: 9b65 44bc 05f1 97bd be0b b2bc 41f3 f93d
000000e0: 742c dbbd a94f 85bd 655d 84bd e9dd 30bd
000000f0: 639d f43c b003 eb3c 7e6e 53be f45a 66bd
00000100: 5a6d 74bd a46c fc3d 8f98 16be 9f57 d83d
00000110: a195 a1bd b923 0e3c c3f2 19bd 1d36 41bd
00000120: 861d 2a3d 158e c5bd 04f3 483b e555 cfbd
00000130: dffe 6fbd e1a2 35be 7a0c a73d 160b 333b
00000140: 1ffc 953c abf5 f1bd e021 383d 8aa2 dcbd
00000150: 9e45 073e 97d6 983d 5fe1 cbbd f394 08be
00000160: ded5 d8bb 9470 a33d 8fcf 1f3e ffd2 2d3c
00000170: 3209 14be 5374 00bd 3e87 eebd d32a 2d3d
00000180: eafb dc3d 8dbf 7e3b 685f 10be 5ed4 06bc
00000190: 231e 013e 763a dd3d 7202 e6bc 8b80 893d
000001a0: 4b9d 023c d8d6 a4bd c22d bbbc db25 c33d
000001b0: 6c4e dabd 1b2d 58bd 97d0 24bd dd9b d13d
000001c0: 961f b1bd d20c 6cbd ee85 9fbc b3a8 8abd
000001d0: cc5f b13a 8bd4 d93c ac59 3dbd d7f9 ad3d
000001e0: cc3b 103d 6adf 5a3d 8472 b1bd 8fd0 113d
000001f0: 387a cf3c 242d 4e3d 13d1 14bd dd2c 923c
00000200: 9bcd 1e3d 060d 25bc c18d 033e 0cd3 69bd
00000210: e1a5 e03c 4b15 9b3c a38d 083e ceab 55bc
00000220: 5144 073e acae 7abd 209f 883d eadc a73c
00000230: c848 713d c5a6 c03d f551 973c b055 053e
00000240: 8e15 4cbd f960 703d cf09 dd3d 0b49 fcbc
00000250: 3579 ddbc 2a21 5939 5f82 5d3d f230 0f3e
00000260: be20 893d 4772 02be 3ac1 e6bc c38b be3c
00000270: 9bde 93bd 8ad7 bebd 232a 7cbd fba3 04bd
00000280: 106a b3bd 098f 59bd 56ba 123c a7e3 b6bb
00000290: 685b 7ebd 91f4 243d ebe4 82bd 71e8 3e3c
000002a0: 96c1 8e3c e10d 0fbd 8ff9 d23d aa64 363d
000002b0: b512 5c3d ce2e ba3c 5961 443e 21ba 4e3d
000002c0: 2f6c 873d 6606 a23c 5087 99bd 20d9 e8bd
000002d0: 9e94 0d3a 152d e63c 5d68 903b aeac 2cbc
000002e0: a740 833d ffbc dfbd ed93 993c f1de ce3c
000002f0: 515c a4bc 0721 e0bc 0ced 533d 4463 603d
00000300: d673 7ebd 1f2f 903c c6c9 043e ec7a bcbb
00000310: 06b1 ccbc e038 31bd fa55 ce3d 8751 273d
00000320: b654 6cbe 3eea 6e3d 5886 103e a81f f63b
00000330: f8cc 273e 95df e0bc cbd0 683d ea3a f73d
00000340: cff6 533d f3e9 1bbe 946e a23d 1ef3 74bc
00000350: 4926 063d 766a 1fbb 5aab 973d 8f0b 01be
00000360: 30b3 13bd 2cf4 623d 8299 b33d 2f1e 893d
00000370: 1c8f 0f3d 7a48 d03c aa8c 5c3d aa6b 9c3d
00000380: 42ff e7bc f3e4 15be 9a20 42bc 29bc 85bd
00000390: 2489 2abc ee81 03bc d845 7c3d 429f 6cbd
000003a0: 28b2 be3d 2969 e3bd 49e0 dfbd 55f8 93bd
000003b0: bec6 6c3d 3247 14be 75cf 583d 26f7 cfbc
000003c0: 5da3 133d c04a 6abc 02ae 873c 49b2 0ebe
000003d0: 0320 9abb 11fa 2ebe ff2c 5c3d 891f 733d
000003e0: ae09 1bbd c337 543c ba0a e33d 4a4e f0bd
000003f0: 0638 0abe d54f 80bc 5bf1 f6bd 382e ce3d
0.005554497 0.026562674 -0.067942455 0.097507074 -0.15928978 0.03065682 0.15919562 0.04915509
-0.060208436 0.111400336 -0.17591491 -0.02430086 0.027619917 0.012886744 0.11011023 0.041409362
-0.076730356 -0.055815578 0.023149764 0.12614034 0.109447666 0.11141933 -0.10604094 0.09886638
-0.107219405 -0.061766483 0.08693794 0.02703677 0.10360684 -0.01883844 -0.17352736 -0.013162363
0.13780017 0.16636732 0.06804197 -0.18608728 0.21465817 0.20000374 0.20181341 0.12003231
-0.028161047 0.012121053 -0.030606404 0.011580758 -0.08948864 0.20846745 0.036328454 -0.20783265
0.093636855 -0.16221549 0.15490124 0.11351546 -0.011987115 -0.07419018 -0.021734115 0.122046
-0.10701838 -0.065093346 -0.06463126 -0.04318038 0.029860204 0.028688282 -0.20647618 -0.056239083
-0.0596746 0.12325409 -0.14706634 0.105635874 -0.078898676 0.008675509 -0.03758503 -0.047170747
0.041532062 -0.096462406 0.0030662427 -0.10123805 -0.058592673 -0.17737915 0.081566766 0.002731984
0.018308697 -0.118144356 0.04495418 -0.10773189 0.1321015 0.07462805 -0.099550955 -0.1333807
-0.006617292 0.07980457 0.15606521 0.010609387 -0.14456633 -0.031360935 -0.11646889 0.04227717
0.10790236 0.0038871497 -0.14098895 -0.008229343 0.12609152 0.10802166 -0.028077338 0.06713971
0.007972072 -0.08048791 -0.022848967 0.09528705 -0.10659489 -0.05277739 -0.04023799 0.10234807
-0.08648603 -0.057629414 -0.019473042 -0.06770458 0.0013532578 0.026590606 -0.046228096 0.08494919
0.035213277 0.05343572 -0.0866442 0.035599288 0.025326833 0.05033602 -0.0363322 0.017843658
0.0387703 -0.010073906 0.12847044 -0.057086036 0.027422847 0.018931052 0.1333528 -0.01304145
0.13209654 -0.061201736 0.06670976 0.020491082 0.0589073 0.09406809 0.018471697 0.13020968
-0.049825244 0.05868623 0.107928865 -0.030796548 -0.027035335 0.00020707087 0.05407941 0.13983515
0.06695698 -0.12738906 -0.02816831 0.023260003 -0.07220193 -0.093184546 -0.061563622 -0.032382946
-0.08760464 -0.053114925 0.008955559 -0.0055813375 -0.06209889 0.0402723 -0.06391319 0.011652098
0.017426293 -0.034925345 0.10301506 0.044529594 0.053728778 0.022727396 0.1917776 0.050470475
0.06612431 0.019778442 -0.07496512 -0.11369538 0.0005400869 0.028097669 0.0044069723 -0.010539217
0.06408816 -0.1092472 0.018747294 0.025252791 -0.020063551 -0.027359499 0.051739737 0.054782167
-0.06212219 0.017600594 0.12967595 -0.005751958 -0.024986755 -0.04326713 0.100749925 0.040849235
-0.2307919 0.05832886 0.14113748 0.007511098 0.16386783 -0.027450362 0.056839745 0.12071784
0.051749047 -0.15225963 0.07931247 -0.014950542 0.032751355 -0.002432493 0.074057296 -0.12602066
-0.03605956 0.05540864 0.08769514 0.0669521 0.03504859 0.025425185 0.053845085 0.07637723
-0.028319959 -0.14638118 -0.011848593 -0.06530029 -0.010408673 -0.008026583 0.061590046 -0.057769068
0.09311324 -0.11104042 -0.10931451 -0.072251 0.057806723 -0.14480284 0.05293222 -0.025386404
0.036044467 -0.014300048 0.016562466 -0.13935198 -0.004703523 -0.1708758 0.05375385 0.059356246
-0.03785103 0.012952748 0.1108603 -0.117336825 -0.13497934 -0.015663067 -0.12057754 0.10067409

network_body._body_endoder.seq_layers.2.bias f4 [128]
00000000: f10d 27ba 8031 d2b9 2dd1 163a 0cb6 9fba
00000010: 269b f9b8 a74d af39 f919 773a b893 05bb
00000020: f2dd 15bb ba26 36bb 8431 263a 67e8 47ba
00000030: 5714 ddb9 fed4 803a 79a4 acba 28df b2ba
00000040: 0492 0b39 31da 45bb 3415 02b9 1ab1 27ba
00000050: 98aa ccba e56f a33a 54b9 0038 9873 31ba
00000060: 01df b2b9 ba65 523a 0058 7fb6 8749 ad3a
00000070: 587a 453b e454 853a 37d0 eeba 3448 993a
00000080: 4b99 beba 9026 0f3a c0e2 bf3a 72cb ae3a
00000090: b5c6 563b 5b26 87ba 2a97 703a deaf 9ab9
000000a0: e29e fb3a b706 433a 14e3 a7ba 489b f639
000000b0: 490c 43bb abf7 52bb 4289 0c3b 86bd d839
000000c0: 7a85 723a d801 dbba 9450 d6b9 aeba 7bba
000000d0: 8041 383b edbb 6b3a 203c 6e39 ea4c 8a3a
000000e0: d421 0fba c0b8 023b 0852 ddb9 3785 28bb
000000f0: cdc6 b53a 3a8b 15b9 431d e039 f9cc e7b8
00000100: 6e3c 6b38 5826 9fba 65b4 65ba 372b 493a
00000110: 6e27 95ba ac38 c23a dcfc dfb9 2eb2 5db8
00000120: c8dc bf3a 54a4 7bba b8bb 63ba 7d83 62bb
00000130: 2c67 133a a204 0837 f809 dcb9 c196 58ba
00000140: 241a 0139 4545 59bb 752f cfba cc1a 65ba
00000150: 4aa2 1d39 cd21 85ba e37e a23a bcd8 1aba
00000160: 476e d53a e6aa d2b9 70d2 5339 b215 c139
00000170: 7461 d73a 0852 1c39 5513 893a 67e8 a7ba
00000180: 3ef7 92b9 d73b 5aba ea67 5139 c3eb a13a
00000190: 7ac1 0d3a 000f 813a f4ea dc3a fc18 3439
000001a0: 7c25 2dba 5b1d 25ba fcaf 0e39 ed00 fc3a
000001b0: 94f5 cdba 03b8 853a b800 0cbb 080f e438
000001c0: 3838 d73a 60e7 19bb 9d08 08bb df86 4739
000001d0: 8ce6 0a3a e47b 52ba 83b8 68ba e168 363b
000001e0: 68c6 8ab9 8764 1ebb 0c30 aeba 7c69 4939
000001f0: 0cc8 3139 5c41 ddb9 3f4b 04bb 8a7d 86ba
-0.0006372622 -0.00040091202 0.00057532155 -0.0012184992 -0.00011902144 0.00033436457 0.00094261725 -0.0020382237
-0.0022867885 -0.002779408 0.0006339776 -0.0007625878 -0.0004216756 0.0009829102 -0.0013171575 -0.0013646828
0.00013310468 -0.0030189867 -0.00012405665 -0.00063969346 -0.0015614806 0.001246926 3.069018e-05 -0.0006769239
-0.00034116957 0.00080260227 -3.8049184e-06 0.0013220765 0.0030132737 0.0010172394 -0.0018220012 0.0011694492
-0.0014541534 0.00054607634 0.001463972 0.0013335778 0.0032772247 -0.0010311113 0.00091777986 -0.000295042
0.0019197131 0.000743966 -0.0012808763 0.0004703647 -0.0029761961 -0.0032191079 0.0021444117 0.00041339936
0.0009251457 -0.0016708924 -0.00040877296 -0.00096027076 0.0028115213 0.00089925417 0.00022719847 0.0010551487
-0.0005460058 0.0019946545 -0.00042213523 -0.0025714168 0.0013868451 -0.00014261613 0.0004274641 -0.000110531175
5.6084646e-05 -0.0012142165 -0.00087625376 0.0007673981 -0.0011379549 0.0014817915 -0.0004272227 -5.285645e-05
0.0014637941 -0.0009599377 -0.0008687335 -0.0034563236 0.0005622979 8.10731e-06 -0.00041969097 -0.000826221
0.00012312137 -0.003315286 -0.001580699 -0.000873965 0.00015033144 -0.0010157168 0.0012397434 -0.000590693
0.0016283476 -0.0004018165 0.00020200922 0.00036827993 0.0016432242 0.00014907878 0.0010458032 -0.001281035
-0.000280315 -0.0008324957 0.00019970504 0.0012353588 0.00054075534 0.0009846389 0.001685469 0.00017175445
-0.0006605012 -0.0006298625 0.00013607735 0.001922635 -0.0015713447 0.0010201934 -0.0021362733 0.00010874687
0.0016419953 -0.0023483858 -0.0020757087 0.00019028362 0.00052986364 -0.00080293254 -0.0008877592 0.0027833509
-0.00026469235 -0.0024168806 -0.0013289466 0.0001920815 0.00016954559 -0.000422011 -0.0020186452 -0.0010260802

action_model._continuous_distribution.log_sigma f4 [1, 2]
00000000: f5f6 00bb 108f b5bb
-0.0019678448 -0.005540736

action_model._continuous_distribution.mu.weight f4 [2, 128]
00000000: 2638 533b 076c 5d3c 1997 06bc bb71 2c3b
00000010: 0756 e9bb 478e 37bb 4318 97bc df67 a8bc
00000020: b1ca 423b b5fb 91bc a40b a0bb 6777 93bc
00000030: a630 e7bb 3280 cb3c c469 c8bc f62c 04bc
00000040: 1fca 01bc 0aa3 91bc 6be6 743c aa8a bf3b
00000050: 7731 e8ba 9dc2 ad3c 542c 433c ad26 d13c
00000060: 1ae2 e23c 48dd f6bc 9411 463c f3d9 0dbd
00000070: d99a 4f3d 466e 3639 f2d4 efbb 28df 043c
00000080: 25e3 0cbc 7dc0 a73c 542d c33b 7277 433c
00000090: 7936 d73b beb7 ac3c ab1b 02bc 7d53 093b
000000a0: 3df1 d53c fb34 c7bc f289 9abc f865 9d3c
000000b0: af0d 12bc 4cb8 36bc e07d d83c d2ef 453c
000000c0: 4fee f3bb 2b9a 86bc b338 573b fb84 edbb
000000d0: db26 7e3c ffe1 3d3b 7f9b dc3c a129 aa3c
000000e0: c5fe 573a 52d9 ee3b 2a69 993c 2c4b cbbc
000000f0: 6b50 873c 9b5a b53b b4dc 973b 31e5 0abb
00000100: aa2f ba3c fec2 61ba b5cb d73c b1fa bcba
00000110: 3dd6 203a 509f 2c3d a56f a73c 9aad 913c
00000120: 2b6b df3b 2b95 b4bc 68a7 0f3c e27f 2dbc
00000130: 3339 f5bb 3c01 81bb 27ea bfbb 7d8c 1fbc
00000140: cb42 013d 0147 debb a411 973c 31b8 a23c
00000150: 8b36 b73b 8275 313a 5144 ba3c 0a41 1abc
00000160: 3198 783c 5815 863b 0c29 dd3c 7e12 42bc
00000170: 2750 113c 915e cb3c aa16 933b 3c0f c1bc
00000180: 7a64 02bc 244e ecbb b81f 3139 0de4 9cbc
00000190: 7e89 c23b 68dd 9a3c 5e6a e53c 2397 d83c
000001a0: 3342 b83b 4d16 9fbc 73df ee3b b081 3fbb
000001b0: 5105 c5bc 1c9f d23c 77f1 25bc a7c6 a13c
000001c0: e0ff 9e3b 699d 0ebc 9796 a1bc 2b29 433b
000001d0: 0c3a b1bc 8fb6 9abc 177b 393b 7e72 ac3c
000001e0: 4caa 0d3c 0a51 afbc d9a3 3ebb a3a0 163c
000001f0: 4787 c4bc a3eb f1bb 7f91 233b fef6 153c
00000200: 271b 303c 1a72 c8bc a1d2 a13c 5feb f03b
00000210: c130 903c dfc6 96bc 9bf5 9a3b 3fd3 68bb
00000220: bb64 87bb f38d 47bd 90f0 d3bc 9e6a c8bc
00000230: b352 003c 7e4f 593c f530 923c 01ff 273c
00000240: 76d3 c1bc 27b8 70bb 3b67 5b3c e14d bd3c
00000250: efc1 17bb f984 643c f5f5 153c c821 55b9
00000260: 7b5e 6cbc 823d a9bb b854 1f39 b9c8 19bc
00000270: 1915 fe3a b449 323d 5cfb 0dbc 41b8 fc3b
00000280: 5b32 c8bb b8d6 0f3c fae4 423a 1c2d 61bb
00000290: 9d8c f03c 0556 29bc ea10 02bd aa62 a0bb
000002a0: 8414 02bc 22d9 003b f958 ec3b 1036 413c
000002b0: 4fd9 90bb 4170 443b 7923 993c a4dd 0f3a
000002c0: 65e9 33bc 4033 d83b 0f8a a03c d312 50bc
000002d0: 5291 dbbb 2f0a 123c 8481 80bc 11b3 c2bb
000002e0: b4cc 003d eb0a d83b e522 e13c ad14 113c
000002f0: c4cb 083d c09f 9abc 5a1d c9bc 59c7 5abc
00000300: 6d69 623b 6056 733c 31aa 5bbc 71fa 6ebc
00000310: e7db 78bc da47 df3c 4e30 97bc 4fa5 5f3c
00000320: 0d79 5dba 840c d5bc b4db 68bb aa93 4abb
00000330: e48a 123c 0d60 87bc fbca ed3b 3864 cebc
00000340: 769f cdbb 71b0 b4ba f9ae 22bc 1a59 75bc
00000350: d5d8 3abd 83d5 1cbc a6a7 823b 59c4 d13c
00000360: 525f 833a ee52 1e3b 268d 51bc da4d bf3c
00000370: 6901 0e3c 971f 63bc 63a6 e0bc abb8 a33b
00000380: 08a3 473c 73e6 f0bc 49c1 5c3c f9a6 223c
00000390: 446d 4939 5fdf a83b 7ca0 31bc f821 35bc
000003a0: 984a 51bb 0f4c 9bbc 308a debc 99ad ec3c
000003b0: 4f0f a3bb d7ed e63b f964 8838 f03f 30bc
000003c0: efef 82bb cafd f23b 44e3 7c3b 99eb aa3a
000003d0: b0c9 dfb9 2c7e 853c 4559 4fbc c785 e73c
000003e0: d650 02bd e8a2 48bc afce 333c 3e2c 9d3c
000003f0: 560c 90bc 0295 5b3b 93d4 22bc aa63 75bc
0.0032229512 0.013514525 -0.008214735 0.0026312906 -0.007120851 -0.0028008388 -0.018444186 -0.020557342
0.0029722864 -0.017820219 -0.0048842 -0.018001271 -0.00705536 0.024841402 -0.024464495 -0.00806736
-0.007921725 -0.017777938 0.014947514 0.0058453875 -0.0017714937 0.021210963 0.011912424 0.025531137
0.027695704 -0.030134812 0.012089152 -0.03463168 0.050684784 0.00017397953 -0.007319086 0.008109845
-0.008599077 0.020477528 0.0059563313 0.011930333 0.006567773 0.021083709 -0.007941167 0.0020954304
0.026116008 -0.024317255 -0.018864606 0.019213662 -0.008914395 -0.011152338 0.02642721 0.012081103
-0.00744418 -0.016430935 0.0032840192 -0.0072485185 0.015512194 0.0028973815 0.026929615 0.020771803
0.0008239563 0.00728909 0.018726904 -0.024816118 0.016517838 0.0055344827 0.004634464 -0.0021193738
0.022727806 -0.0008612125 0.026342252 -0.0014417974 0.00061354396 0.04214412 0.020438978 0.017782975
0.0068181953 -0.022043785 0.00876794 -0.010589572 -0.0074836253 -0.0039369147 -0.0058567706 -0.009738085
0.03155784 -0.0067833667 0.018441029 0.01986322 0.005591219 0.0006769524 0.022737654 -0.009414921
0.015173004 0.0040919 0.026997112 -0.011845229 0.008869207 0.024825366 0.0044887858 -0.023566835
-0.007958526 -0.0072114635 0.00016891852 -0.019151712 0.0059368005 0.018904403 0.028004821 0.026439255
0.005623126 -0.019419814 0.007289821 -0.0029221587 -0.024050387 0.025710635 -0.0101283705 0.019748045
0.00485228 -0.008704522 -0.019725127 0.0029779177 -0.021634124 -0.018885879 0.0028302127 0.021050688
0.008646559 -0.021400947 -0.002908936 0.009193572 -0.023990287 -0.0073828264 0.0024958549 0.009153126
0.010748661 -0.02446847 0.019753756 0.007352277 0.017601373 -0.018405376 0.0047289855 -0.0035526303
-0.004131881 -0.048719358 -0.025871545 -0.024464902 0.007832217 0.013263581 0.01784561 0.010253669
-0.023660403 -0.0036730857 0.013391311 0.023108425 -0.0023156365 0.013947719 0.009152879 -0.00020325847
-0.014426823 -0.005164803 0.00015194982 -0.009386235 0.001938495 0.04352732 -0.008665886 0.0077123945
-0.0061095185 0.00877922 0.0007434633 -0.0034359163 0.029363925 -0.01033545 -0.03175441 -0.004894574
-0.007939462 0.0019660671 0.007212755 0.011792675 -0.0044204365 0.0029974135 0.018693672 0.0005488044
-0.010980939 0.0065979064 0.019597081 -0.012699801 -0.006700673 0.008913561 -0.015686758 -0.0059417565
0.03144522 0.0065930984 0.02748246 0.008855027 0.03339745 -0.018875003 -0.024550129 -0.013353192
0.0034547702 0.014852136 -0.013407276 -0.014586077 -0.015189148 0.027255941 -0.01845565 0.0136502525
-0.0008448519 -0.026006944 -0.0035531344 -0.0030910769 0.008944247 -0.016525293 0.007256863 -0.025194272
-0.0062751127 -0.0013785494 -0.009929412 -0.014974857 -0.045616943 -0.00957239 0.0039872704 0.025606321
0.0010022915 0.0024158317 -0.01279 0.023352552 0.008667328 -0.013862512 -0.02742309 0.0049963794
0.012184866 -0.029406762 0.013473817 0.009927505 0.00019209558 0.005153581 -0.010841485 -0.011055462
-0.003193533 -0.018957166 -0.027165502 0.028891372 -0.00497619 0.0070473957 6.503793e-05 -0.010757431
-0.0039958875 0.007415508 0.003858761 0.0013040184 -0.00042684143 0.016295515 -0.012655561 0.028262032
-0.031815372 -0.012245871 0.01097457 0.019186135 -0.017584007 0.0033505564 -0.009938377 -0.014977375

action_model._continuous_distribution.mu.bias f4 [2]
00000000: a007 f83a 85c3 0c3a
0.0018923171 0.0005369711
