Goodminton/Assets/results/Badminton/Badminton/Badminton-324.onnx (onnx, 74586 bytes, 7 tensors)

network_body._body_endoder.seq_layers.0.weight f4 [128, 5]
000000 d0 13 ac 3e c1 f3 64 bc 1f 81 de 3e be 3e 79 3c
       0.33608866 -0.013974131 0.43457887 0.015212713
000010 5d 15 97 3e 46 8a 00 3f 26 9d f4 3e 02 c6 06 bf
       0.29508486 0.5021099 0.47776145 -0.52645886
000020 20 85 24 3e 40 1b 6d bd b4 09 a5 bd 00 9e 02 bf
       0.16066408 -0.057887316 -0.08058491 -0.5102234
000030 c7 b7 ce bd fb ff 52 3f a1 3f 05 bf 22 f6 74 bd
       -0.100936465 0.82421845 -0.52050215 -0.059805043
000040 f9 11 95 3e 61 bf 6b 3e 4a 4d 80 3e 85 43 92 be
       0.29115275 0.23022224 0.25058967 -0.28567138
000050 48 57 32 be 6f ff 54 3f 37 0c 6c 3f f9 dd 53 3e
       -0.17416108 0.8320226 0.9220614 0.20690145
000060 e5 e0 09 3e c6 22 ca be e0 e7 21 3d df 7a 70 bf
       0.13464697 -0.39479655 0.039527774 -0.93937486
000070 8c fc ce be 27 0b 78 be 9f 49 ab be f1 e0 b6 be
       -0.40427053 -0.24223004 -0.33454606 -0.35718492
000080 5e 51 b8 bc e9 47 c2 be 24 ce 23 3f 52 c6 82 be
       -0.022499736 -0.37945488 0.6398642 -0.2554193
000090 72 67 2f 3f a1 6b 1f 3f be 40 8f 3e 97 44 3e 3f
       0.6851722 0.62273604 0.27979082 0.7432341
0000a0 04 75 9d 3e 60 76 1f bf 0b 1d 13 3d 38 27 05 3f
       0.30753338 -0.6229 0.03591637 0.5201297
0000b0 25 13 83 3e 07 16 a1 be 35 a4 2e 3e d4 31 5c 3e
       0.25600544 -0.31462118 0.17054828 0.21503383
0000c0 23 1a 98 3e 68 0a 7e 3e 0d 63 1a bd cb 45 24 3f
       0.2970744 0.24808657 -0.03769212 0.64168996
0000d0 35 8f a8 3e 62 88 62 3f e2 ef 90 be 15 05 e3 3d
       0.32921758 0.88489354 -0.28308016 0.11084954
0000e0 ff 58 95 be 59 79 ae bd 36 7d b8 3e be fb b0 bd
       -0.2916946 -0.08519239 0.36033028 -0.08641766
0000f0 e6 b9 b1 be ef 9c a0 bd bf f6 86 3c eb 86 1d bf
       -0.34712142 -0.07842433 0.01647508 -0.61533993
000100 5b 73 38 be 4b 5c f3 3d 3f fc db 3e ea b0 48 3d
       -0.18012755 0.11882838 0.42965886 0.048996843
000110 67 03 f9 3e 34 ec d7 3e 7f 22 da be cb 26 08 bf
       0.48635408 0.42172396 -0.42604443 -0.53184193
000120 c5 f5 bd 3d aa aa 6f bc be b4 89 3e 5a 9c df 3e
       0.092753924 -0.014628092 0.26895708 0.43673974
000130 c6 76 61 be cf af b2 3c e3 4e f6 3e 39 5c 05 be
       -0.22017965 0.021812348 0.4810706 -0.13023461
000140 ec 82 bc bd b8 87 14 3f 0f 6c a2 3e ee a4 a7 3e
       -0.09204659 0.5801959 0.31723067 0.3274302
000150 c0 47 e0 bd 41 4a 81 3e 21 57 43 3f cd 6f 09 3e
       -0.10951185 0.25251964 0.76304823 0.13421555
000160 4e 11 48 bd ef de 42 be 65 a7 9a 3e a4 7b 83 bf
       -0.048844628 -0.19030355 0.30205837 -1.0272107
000170 ff 9f b5 3e d8 48 f7 be fd d5 be 3e fa 77 3d 3e
       0.3547363 -0.48297763 0.37272635 0.18502799
000180 e5 f5 99 3d 1e 51 0b 3f 40 73 a1 3e 1b 09 c0 3e
       0.07517604 0.5442065 0.3153324 0.37506947
000190 35 31 17 3e f0 22 e7 be a7 10 17 3e 90 b5 15 3e
       0.14764865 -0.45143843 0.14752446 0.14620042
0001a0 e7 d0 b0 3d b2 0b b2 b9 b1 4c af 3e 53 21 5f bf
       0.08633595 -0.0003395952 0.34238198 -0.87160224
0001b0 12 33 1a 3e d6 e3 c1 3e be 7f bb be 96 5d 18 3e
       0.15058544 0.37869138 -0.36620897 0.1487945
0001c0 4b 04 ce 3c d4 e5 b2 bd ef c2 88 bf 71 0e 32 3e
       0.025148531 -0.087352425 -1.0684489 0.17388321
0001d0 d0 ab 9f 3e c6 95 f0 3e 57 4d d5 bd fa 97 c5 3b
       0.3118577 0.46989268 -0.10415142 0.00603008
0001e0 48 f4 ae bd 34 01 61 be 8b e2 84 bb 4a 80 1a 3e
       -0.08542687 -0.21973115 -0.0040553263 0.15088001
0001f0 85 c8 91 3e 23 73 02 3e 51 8b 85 be d0 01 4d 3e
       0.28473297 0.12739234 -0.26082852 0.20020223
000200 e5 a0 1f be b5 da 21 bf 94 e4 d1 bd 37 6b 03 3f
       -0.1558872 -0.63224345 -0.10248676 0.5133547
000210 98 7b d5 3d f9 29 28 3f 40 cd 1b bf 56 50 54 3f
       0.10423964 0.65689045 -0.6086006 0.8293508
000220 e9 1b 29 3f b9 af a0 be 33 b9 b0 be 4a f2 03 3f
       0.6605821 -0.31384066 -0.34516296 0.5154158
000230 eb 3c 04 3f e4 7c 9b be 94 cf 68 3e 35 d0 fc be
       0.51655453 -0.3036872 0.22735435 -0.493776
000240 cc ea b1 bd 70 09 7f bf 11 71 0b bf b8 bb 0a bf
       -0.08687362 -0.99623775 -0.544694 -0.54192686
000250 e0 fa 84 be 30 1d 86 3e 42 71 0f bf 77 b0 93 3e
       -0.25972652 0.26194143 -0.5603219 0.2884557
000260 79 e6 4f bf df bd 10 be 89 03 e8 3e 64 70 55 3e
       -0.8121105 -0.1413493 0.45315197 0.20843655
000270 9e 36 2d 3f 89 7f 3f bf 08 ad 54 ba cd fc 1c 3f
       0.67661464 -0.7480398 -0.0008112942 0.61323243
000280 29 a8 af be 54 c1 02 be fe 5a b7 3d fb cd 89 be
       -0.34307984 -0.12769061 0.08952902 -0.26914963
000290 60 27 60 be 20 af be bb cc cf b7 be 16 a9 05 bf
       -0.2189002 -0.0058192164 -0.35900724 -0.5221113
0002a0 ea 09 c7 3e 81 c5 f7 be 05 a3 71 be fa 1c 99 3e
       0.3887475 -0.4839287 -0.23597343 0.2990492
0002b0 ee f0 2c bf 5e 15 1f bc dd 3c a8 be 5c 0d c3 bc
       -0.6755513 -0.009709684 -0.32858935 -0.023810081
0002c0 fe 41 54 3e 65 68 94 3e 8f 2a 77 3e c4 be 05 3f
       0.20728299 0.28985897 0.24137329 0.5224421
0002d0 60 a5 40 3f df cf 8e be 0d ef 08 bf a9 5a cd be
       0.7525234 -0.27892968 -0.5348976 -0.4010823
0002e0 04 64 3f 3e ea b6 98 3e d4 5d 15 be b4 fd 5d 3e
       0.18690497 0.29827052 -0.14586574 0.21678811
0002f0 af 55 00 3e ef 71 a6 be 6a 1e 83 be 19 6c 97 be
       0.12532686 -0.325088 -0.25609142 -0.2957466
000300 e7 45 6f bf 7d 6b de be 70 c0 7c 3e e0 aa 3c bd
       -0.9346604 -0.43441382 0.24682784 -0.046061397
000310 55 9a 2b be 9e e9 30 be 8b 0b 04 3f 76 1b 1f bf
       -0.16758092 -0.17276618 0.51580113 -0.6215128
000320 46 1c 0b be 22 73 e8 3d 93 82 95 bd db 83 1e 3f
       -0.13585004 0.11350085 -0.07300296 0.61919945
000330 ec 83 dd be 82 fa 95 3e c2 73 ea 3e 30 d0 95 be
       -0.4326471 0.29292685 0.4579144 -0.29260397
000340 8c 6f 32 3f f7 23 26 bf 7d b6 be be 2a d1 8f 3e
       0.6970146 -0.6489863 -0.37248603 0.28089267
000350 6b 18 e0 3d fe 38 be 3e f8 47 e3 be 82 3e 11 bf
       0.10942157 0.37152857 -0.44390845 -0.56736004
000360 39 53 54 be 3d 99 21 3f 27 5f 17 3f 8d 55 e3 3e
       -0.20734872 0.6312445 0.59129566 0.44401208
000370 11 18 b5 3c 93 0a f5 3e 18 86 4e bd 5f ab 28 bf
       0.022106202 0.4785963 -0.05042085 -0.6588649
000380 c4 81 3a 3e 87 aa 74 3c 3d e6 41 be 2d 3c 80 3e
       0.18213564 0.014933235 -0.18935485 0.2504591
000390 b5 0e c1 3e d7 ac dc be 6d 47 4f 3f a5 24 be 3d
       0.37706533 -0.43100616 0.8096836 0.09284333
0003a0 dc 20 12 3f 51 81 46 3f 0c dc d4 3d 19 e9 08 be
       0.5708139 0.7754107 0.10393533 -0.1337017
0003b0 db 2f 15 be 0e 4e 17 ba 08 b8 00 3f 83 a7 6e 3f
       -0.14569037 -0.0005771824 0.5028081 0.9322435
0003c0 e7 2a 7b 3f f3 fb 1f 3f 8f 32 5b 3e b5 c6 53 3f
       0.9811234 0.6249382 0.21406005 0.8272508
0003d0 2e d7 71 be 52 f0 08 3f 7b 60 a1 bb b5 da b5 3e
       -0.23617241 0.534917 -0.0049248314 0.35518423
0003e0 0a 35 f6 be f0 e7 ac be f4 7d 6b 3e 9b 71 66 be
       -0.4808734 -0.33770704 0.22997266 -0.22504275
0003f0 2e 80 37 3e f2 52 9c bd 6e 09 be bd 43 fb 01 be
       0.1791999 -0.07633008 -0.09279142 -0.12693505

network_body._body_endoder.seq_layers.0.bias f4 [128]
000000 70 ad 9b ba 41 18 4c bb 39 62 a7 b9 8e e1 31 bb
       -0.001187725 -0.0031142386 -0.00031925904 -0.0027142498
000010 b9 af 5a bb 9c 91 6b bb 6c 86 22 bb b2 e0 8e bb
       -0.00333689 -0.0035944944 -0.002479936 -0.004360282
000020 fd 62 8a 3a 47 54 6b 3b 12 b4 e5 3b 67 7d c1 b9
       0.0010558065 0.0035908388 0.0070099914 -0.0003690526
000030 e4 62 c2 38 cc a6 9f 3b d9 11 d5 ba b5 b7 c8 b8
       9.269061e-05 0.0048721787 -0.0016255929 -9.570961e-05
000040 32 38 b0 3b 65 b3 c4 38 a6 18 22 3a 6f d3 1a 3b
       0.0053777928 9.379423e-05 0.00061834825 0.002362456
000050 da 24 da b9 3c 7d 24 bb fc 87 6b bb 41 6a 8e ba
       -0.00041607657 -0.002509906 -0.0035939207 -0.0010865406
000060 61 b3 c5 3a 0d 7a e9 ba 58 9d 40 bb 77 10 a7 39
       0.0015083366 -0.0017812863 -0.002939066 0.0003186499
000070 9c d3 5e 3a c8 e0 4b 3b 75 ad d1 3a 6b bc ea 39
       0.000850016 0.0031109322 0.0015997129 0.0004477234
000080 20 bf ac bb c1 fe b8 ba d8 ed 04 bb 00 19 7e 3b
       -0.0052718073 -0.0014114009 -0.0020283367 0.0038772225
000090 cf 15 b8 ba b5 4c 0f ba 34 1d 23 bb b0 2d c2 3a
       -0.0014044585 -0.00054664473 -0.0024889233 0.0014814641
0000a0 3a 7f bc 39 9e 66 7f ba 76 8d 46 3b 9d a4 7f 3a
       0.00035952945 -0.0009742769 0.003029672 0.00097520073
0000b0 94 0e 5f 3a 80 7f 07 3b 86 f3 0b 3b ca f8 ff 3a
       0.0008508947 0.002067536 0.0021354868 0.0019529101
0000c0 1d c2 19 3a ef 97 1c 3b 07 9b ae bb 12 ba ff 3a
       0.0005865412 0.002389427 -0.0053285393 0.0019510409
0000d0 cc 8f 6c 3b f3 63 3d 3b 31 26 7d ba d8 f2 1e 3a
       0.0036096452 0.0028898686 -0.0009656875 0.0006063408
0000e0 72 5f 40 3b 95 ef 0f ba ba 95 a1 bb 2a e9 d1 3a
       0.0029353765 -0.00054907176 -0.004931179 0.0016014923
0000f0 2c d2 1e b8 00 0a 87 bb da 80 f3 b8 28 2e 54 39
       -3.7865873e-05 -0.004121065 -0.000116111434 0.0002023509
000100 2b 61 84 ba 52 63 bf 3a 00 82 2c 39 22 d4 d5 bb
       -0.0010099759 0.0014601743 0.00016451627 -0.0065255323
000110 68 49 0b bb a0 0c 02 bc ef 54 25 bb 40 55 25 bb
       -0.002125347 -0.00793758 -0.0025227626 -0.0025227815
000120 0e 9e 6a bb 26 24 f7 b9 67 43 10 bb 48 f2 db b9
       -0.0035799774 -0.00047138444 -0.0022012831 -0.0004195145
000130 9e b7 23 3b c1 b5 73 3b 5d d3 8d 3a 37 70 9f bb
       0.002498127 0.0037187191 0.0010820437 -0.004865672
000140 6a f6 80 b9 cc c0 39 3a bb e9 fa b9 b7 34 04 3b
       -0.00024597655 0.0007085919 -0.0004785786 0.0020173022
000150 a1 c6 8c ba 54 e8 a9 ba cd 32 04 3b 58 eb af bb
       -0.0010740348 -0.0012962916 0.0020171881 -0.0053686313
000160 56 51 a5 b9 06 5b bd ba 35 d0 d1 bb 9f ee 82 3a
       -0.00031531852 -0.0014446683 -0.006402994 0.0009989328
000170 78 c9 0a bb 1c 6a d0 39 3f b4 fe ba 79 f9 64 ba
       -0.0021177214 0.0003975191 -0.001943238 -0.0008734684
000180 04 6d 82 3a 3a 63 b1 b9 5b 45 e3 3a 57 33 80 ba
       0.0009950702 -0.00033834 0.0017339395 -0.0009780925
000190 7a 56 a8 bb 10 b1 45 38 3d 61 63 bb ea aa 3c bc
       -0.005137262 4.7133362e-05 -0.003469541 -0.011515358
0001a0 32 09 12 ba 45 7c 95 ba 44 62 b2 bb ea 8a ba 39
       -0.0005570828 -0.0011404833 -0.005443843 0.00035580184
0001b0 5f de ff ba 2a f7 11 bb 68 b8 6f 3b 3d 2a e6 3a
       -0.0019521228 -0.0022272565 0.003657842 0.0017560195
0001c0 ae de dc 39 b0 8c 43 bb 54 3c 43 3b d2 53 8f 3b
       0.0004212758 -0.0029838495 0.0029790597 0.004374006
0001d0 83 7e 8b 38 a7 c7 42 3a f8 09 00 bb c7 5e 76 ba
       6.651601e-05 0.0007430263 -0.0019537192 -0.0009398278
0001e0 80 28 13 bb e5 cb de 3b b0 70 80 b8 5d 7b 87 3a
       -0.002245456 0.0067992085 -6.124505e-05 0.0010336448
0001f0 e7 bf 9d bb 98 12 ff bb 86 c7 f0 b9 47 55 89 ba
       -0.0048141363 -0.007784199 -0.00045925024 -0.0010477685

network_body._body_endoder.seq_layers.2.weight f4 [128, 128]
000000 cd df fd 3d 93 08 11 3d 83 6a c1 bb 1d 8c ca bd
       0.12396202 0.035408568 -0.0059025898 -0.09890006
000010 36 ab 82 bd d4 13 c0 3b 3f 69 8e bd 35 95 0e 3d
       -0.06380312 0.0058617387 -0.06953668 0.034810264
000020 ac e3 d3 bd b7 08 e5 3d ca b3 72 bd ee d3 26 be
       -0.10346159 0.11183303 -0.05925349 -0.16291782
000030 1b 26 a1 bd 9f b1 08 3d ab b6 06 3d ae 0b b9 3d
       -0.07868596 0.033372518 0.03288905 0.09035431
000040 ba 1e 17 be 78 31 c5 bd 0d b5 9b bb 7a 46 8c bd
       -0.14757815 -0.09628576 -0.0047518075 -0.0684938
000050 b6 65 ae 3d a9 b4 8f bd 10 39 35 3e a5 9e 9f bc
       0.085154936 -0.0701688 0.17697549 -0.019484827
000060 85 5e 95 3d 88 9b 62 3d 45 b3 96 3d fc 8e d0 bd
       0.07293419 0.055324107 0.07358412 -0.10183522
000070 90 32 02 bd 62 fa 04 3c 0f ca 8d bd 6a b2 af 3c
       -0.0317865 0.008116337 -0.06923305 0.02144738
000080 5c 9a 31 bd 68 4c 9a bd 91 83 ca bd 63 31 b3 3d
       -0.0433601 -0.075341046 -0.098883756 0.08749654
000090 63 5f 35 3e 9c d2 5e bd de 6f a1 bd d9 8f 08 3e
       0.17712168 -0.05440007 -0.07882665 0.13336124
0000a0 de 7a cc bd e7 01 f6 3d 73 ec f3 3c 21 54 c3 bd
       -0.099843726 0.120120816 0.029775834 -0.09537531
0000b0 02 5e 7c 3d f8 d7 cc 3d 96 9b 49 be 8f 6d 9c bd
       0.06161309 0.1000213 -0.19688258 -0.07638084
0000c0 73 ea c8 bc 8d 66 2d 3d a0 e9 00 3e b5 de 06 3d
       -0.024525857 0.04233413 0.12589121 0.032927234
0000d0 79 08 e0 bd d1 d8 8e bd dd 54 53 bd 71 a5 20 3b
       -0.10939116 -0.06974948 -0.051594604 0.0024512673
0000e0 f5 ec b9 3d b7 81 1f 3e 36 7a b6 3b 36 9d b1 bd
       0.09078399 0.15576826 0.005568768 -0.08672564
0000f0 88 87 d4 bd 02 29 4c 3d 01 7b 08 3d 85 16 93 bd
       -0.10377413 0.049843796 0.03332043 -0.0718203
000100 7f 0f 3e bd c8 88 27 bd 18 59 0a be 18 11 94 bc
       -0.046401497 -0.04090193 -0.13510549 -0.018074557
000110 24 99 0b be 9d 56 76 bd 96 75 8c 3c 99 8f 29 3d
       -0.13632637 -0.060141195 0.017145913 0.04139671
000120 13 b7 c1 bc c1 b6 df bd 0f 20 ad bd 42 ed df bd
       -0.023646867 -0.109235294 -0.0845338 -0.10933925
000130 f6 9e 3e 3d b8 2c a9 bb 45 65 4f bd c8 f1 ec bd
       0.046538316 -0.0051628016 -0.050633688 -0.115695536
000140 b3 2c be bd 24 55 a4 3c 6d 57 bc bd 69 fc b9 bd
       -0.092858694 0.02006013 -0.09196363 -0.090813465
000150 e6 51 b4 bd c9 15 13 3d dd a6 2b 3e b3 fc e5 3c
       -0.088046834 0.035909448 0.16762872 0.028074598
000160 fc 32 28 3d fd 8a 53 be 42 dc 81 3d d4 c6 7d bd
       0.041064247 -0.20658489 0.06340839 -0.061957195
000170 7d 22 94 bd 9e 04 2e 3d 84 11 84 bd 7d 88 f6 bc
       -0.072331406 0.042484872 -0.06448653 -0.03009438
000180 fd 8d 05 be ad 47 b3 bd 6c 32 da bd ee 18 19 3d
       -0.13042445 -0.087539054 -0.106541485 0.03737729
000190 9b 4a 16 bd 34 4b c3 bd 4e c7 16 3d 39 fe 1e 3e
       -0.036692243 -0.09535828 0.036811166 0.15526666
0001a0 37 bb 73 bd 30 79 34 3c 63 be 89 3d 86 49 e4 3b
       -0.059504714 0.0110152215 0.067257665 0.0069667725
0001b0 54 a6 4a ba e8 39 8f bd 1a 2d 48 bd f5 04 e0 bd
       -0.00077304733 -0.069934666 -0.048871137 -0.109384455
0001c0 5f e6 97 3c 5c fe 18 bd 3c 31 16 3c 4e 2f b6 3b
       0.018542467 -0.03735195 0.009167012 0.0055598384
0001d0 99 da a8 3d a3 58 0d 3d 90 db ad bd 62 6b 00 bc
       0.08244819 0.03450836 -0.08489144 -0.007838102
0001e0 e3 b9 56 be 44 12 6a bc a8 14 b6 3c d9 ea f8 bd
       -0.20969348 -0.014286581 0.022226647 -0.12154169
0001f0 db fc 1c be 71 60 7d bd 4c 4c f0 bd 19 14 ec 3c
       -0.15330832 -0.06185955 -0.117333025 0.028818177
000200 90 df 31 3e 30 c7 b1 bd fe f5 a0 3d 8f 31 0c bc
       0.17370439 -0.0868057 0.07859419 -0.008556738
000210 07 49 32 bd 58 2f e5 bd da 25 98 3d 71 75 72 bd
       -0.043526676 -0.11190671 0.074290946 -0.059194032
000220 0b 86 b6 bd 0e 99 af 3d 27 38 e1 3d 63 b1 26 3c
       -0.089122854 0.08574115 0.10997038 0.010174128
000230 bd c2 85 3d 86 89 d7 3d 61 98 21 3e 97 12 1b 3e
       0.06531284 0.105242774 0.15780784 0.1514381
000240 f7 1a 44 be ec df 60 3d 5f 65 bc 3d 59 b3 fd bd
       -0.19150911 0.05490105 0.091990225 -0.123877235
000250 aa 8b 75 bd e0 77 2a be 69 87 25 3d 4a ff 9e 3c
       -0.059947647 -0.16647291 0.04041234 0.01940884
000260 6a ff f7 bc 67 9f e4 bc 40 0d 82 be ba 92 7b bd
       -0.030273158 -0.02790804 -0.25400734 -0.061419226
000270 be 8e d5 3d 4a 64 bd 3c 80 80 0e 3d 2a a6 52 3d
       0.104276165 0.02311911 0.034790516 0.051427998
000280 57 25 6c bd 75 c0 14 bd 8e 43 58 3b ac ae c8 bd
       -0.057652798 -0.036316354 0.003299925 -0.09798941
000290 f3 4c 45 bd 19 e3 4d 3d ad 4c 64 3d 1c d8 f2 bd
       -0.048169088 0.050265405 0.055737186 -0.11857626
0002a0 8b 12 0d 3d 53 72 72 3c c4 78 d4 bd 70 f4 a7 3d
       0.034441512 0.014797765 -0.10374597 0.0820092
0002b0 70 ea d8 3d 70 a4 2b bd 89 7a ae 3c 17 47 f2 bc
       0.105915904 -0.041904867 0.021298664 -0.029574914
0002c0 c9 9b 4d 3e 80 6d 92 3c b1 83 6f 3d 02 7c 54 bd
       0.20078959 0.01787448 0.0584752 -0.051876076
0002d0 b6 33 4b 3d 34 c2 b5 3c 60 96 63 bd d7 09 1b be
       0.049609862 0.02218733 -0.05556333 -0.15140472
0002e0 40 fb 87 3b 73 b0 b5 3d 1a 06 76 bd a6 d7 aa bd
       0.0041498244 0.08871546 -0.060064413 -0.08341913
0002f0 9d 3a 52 bd 66 85 3c 3e dd e9 9c 3d b3 f2 01 3e
       -0.05132543 0.18410262 0.076617934 0.12690239
000300 23 68 ea bc 78 38 29 be de 93 1d be 8b ec 31 bd
       -0.02861411 -0.16525447 -0.15388438 -0.043438476
000310 6c 05 bf bd 87 e1 52 bd 2d 1d cf 3d 02 53 cf bd
       -0.09327206 -0.05148461 0.10112987 -0.10123254
000320 e7 c6 48 bc 84 01 91 3d b3 2e 87 bd 60 cc 03 bd
       -0.012254453 0.07080367 -0.06600704 -0.03217733
000330 22 7d 64 3d d7 41 2a 3e f5 5c 34 3e 36 1f 2d 3e
       0.0557834 0.16626678 0.17613585 0.16906437
000340 ed d6 01 3e ac 33 f1 bd 88 35 93 bd 44 6f 8a bd
       0.12679644 -0.11777434 -0.07187945 -0.067595035
000350 af c8 0c bd 06 fe cb bc 1d 50 42 bd 6f 09 c6 3d
       -0.034371074 -0.024901401 -0.047439683 0.09669768
000360 d0 90 be 3d 70 38 74 3d 87 23 22 bc f1 3a 0c be
       0.093049645 0.059624135 -0.009896166 -0.1369436
000370 62 88 1e 3c f4 b5 cd bd b7 03 08 3b 1c 07 99 3d
       0.009676071 -0.100444704 0.0020754167 0.07472059
000380 bb 35 d9 bc f4 fd e3 3d 9f 46 86 bd c3 7c de bb
       -0.026514878 0.11132422 -0.06556439 -0.006789775
000390 89 60 f3 3d 0c 32 94 bb fb 30 1e 3e 8b 03 ce 3c
       0.11883647 -0.0045225676 0.15448372 0.025148174
0003a0 f7 fc 98 3b 84 27 a4 bc 10 c0 08 be cc b0 64 bd
       0.0046688276 -0.020038374 -0.13354516 -0.05583267
0003b0 12 0b 33 3c fe 4a b9 bd 6e 53 14 3e e6 c9 f9 bc
       0.010927932 -0.09047507 0.14484951 -0.03049178
0003c0 d5 8a 10 bd 25 81 5e bd c0 06 f0 bd c2 42 01 be
       -0.03528865 -0.05432238 -0.117200375 -0.12623122
0003d0 61 94 20 bd 9a bc 72 be c8 b5 1a bb 6a 51 c0 3d
       -0.039204005 -0.23704758 -0.0023606885 0.093905285
0003e0 d2 f1 88 3d 66 71 4d bd 32 f2 d3 bd 3e 0d ef bc
       0.066867486 -0.050156973 -0.103489295 -0.029181119
0003f0 ba 2e 6b be f9 f0 2f be 3c 7d 64 3d bb 40 57 3d
       -0.22967044 -0.17181768 0.055783495 0.052551966

network_body._body_endoder.seq_layers.2.bias f4 [128]
000000 a2 2a ad bb ce b9 b7 ba c8 ae 85 3a 35 35 86 3b
       -0.0052846232 -0.0014017166 0.0010199184 0.0040956982
000010 e4 85 5a bb 1d 3f 0b bb 98 10 1e bb 39 e5 08 3c
       -0.0033343965 -0.0021247335 -0.0024118777 0.008355432
000020 51 0b 04 bb 59 b6 cd 3b b8 39 05 3a 6b e8 32 3a
       -0.0020148347 0.006277841 0.0005082148 0.0006824794
000030 6a 04 d6 b8 12 87 a7 3a bb 7f d1 3a c6 03 1e bb
       -0.000102051374 0.0012781343 0.0015983501 -0.0024111136
000040 56 cc b4 ba 77 8d f0 39 14 d3 c1 39 e3 4e 89 ba
       -0.0013793807 0.00045881767 0.00036969094 -0.001047578
000050 07 4c eb 3b 76 94 21 bb b7 8d 2c 3b 27 b9 32 ba
       0.007180694 -0.002465514 0.0026329586 -0.0006817751
000060 ee 8c c5 ba 70 71 e5 3b 1a 73 96 ba 81 85 92 b9
       -0.0015071908 0.007002048 -0.0011478395 -0.00027946758
000070 d2 62 c9 ba e8 37 90 ba 59 06 6c ba 19 fa 32 3a
       -0.0015364534 -0.001100299 -0.00090036314 0.00068274286
000080 38 6a e0 bb 06 f5 d1 3a 3b b4 1b 3b 5a 40 6b b9
       -0.0068485998 0.0016018457 0.0023758549 -0.00022435319
000090 f1 9e 7c 3a e4 88 0e 3a 4f be 27 bb 25 5b cc 3a
       0.0009636721 0.00054372684 -0.002559561 0.0015591128
0000a0 51 33 a2 bb fb c5 f0 3a b6 26 6d bb b2 9c 83 3b
       -0.004949965 0.001836955 -0.0036186404 0.0040164823
0000b0 b0 33 88 bb 69 c5 f5 3b f5 87 ce ba 3e c6 83 ba
       -0.0041565523 0.0075003398 -0.0015757071 -0.0010053588
0000c0 18 4f 46 3a f0 0a 89 bb 64 e7 86 bb 9f ec 50 bb
       0.00075648865 -0.004182212 -0.0041169394 -0.0031879318
0000d0 8d 0d 6d 3a 9c e5 f9 bb 6b b7 11 bb 3e e9 89 ba
       0.0009042852 -0.0076262485 -0.002223457 -0.0010521782
0000e0 a0 67 e7 bb 71 3c 84 ba e1 4c c4 3b 63 41 53 3b
       -0.0070619136 -0.0010088814 0.00599061 0.0032235018
0000f0 e7 2e 94 ba 9a b5 ab 3a 0e 69 a9 ba 6b 1e fe ba
       -0.0011305482 0.0013100386 -0.0012924985 -0.0019387727
000100 3b 7a 37 3b f6 9c 9b ba 17 69 2b 3c ae e7 c7 ba
       0.002799644 -0.001187234 0.010462067 -0.0015251541
000110 93 af 07 3b ca 1a 99 b9 08 38 00 3a 0b 2e 19 bc
       0.0020704016 -0.00029202393 0.0004891162 -0.009349356
000120 b3 8a bb bb 40 5a f3 3a 51 dd d1 ba 81 bf 5d bb
       -0.0057233213 0.0018566325 -0.0016011392 -0.003383607
000130 38 a5 ca 3b 9e 2c f7 3a 84 80 8a bb 06 94 45 3a
       0.0061842464 0.0018857901 -0.004226746 0.0007537011
000140 d7 7b ad ba 88 ac 46 bb e9 f0 42 bb 2d 09 c6 38
       -0.001323576 -0.003031524 -0.0029745644 9.443085e-05
000150 10 fd 8e bb 38 07 43 ba 62 62 18 bb 02 96 95 ba
       -0.0043636635 -0.00074397353 -0.0023252 -0.0011412504
000160 88 78 11 39 c0 2a ca ba 05 9c 21 3b bc 9a ce ba
       0.00013873179 -0.0015424117 0.0024659645 -0.0015762667
000170 1f cd 2a 3b 51 56 ae 3a b0 7b c7 3b 19 35 ec 38
       0.0026062203 0.0013300871 0.0060877427 0.00011263247
000180 c9 06 42 3a 3a 5d 6d 3a 46 a7 3d bb f0 cd 88 ba
       0.0007401524 0.00090547244 -0.0028938814 -0.0010437351
000190 89 77 6e 3a 00 d5 00 3b 4a 2b ce b9 af fd 40 3b
       0.00090967916 0.0019658208 -0.00039323635 0.0029448082
0001a0 b5 7c 95 b9 29 78 5c bb 99 35 e3 bb af 0e 29 bb
       -0.0002851241 -0.0033640957 -0.0069338796 -0.0025796106
0001b0 d1 64 87 ba 93 07 75 bb 3b 57 10 bb 23 58 4b 3a
       -0.0010329728 -0.0037388548 -0.002202465 0.0007756969
0001c0 a2 c7 66 38 17 a5 44 3b e2 9f d9 3b 19 bb 9e 3a
       5.5022196e-05 0.0030005628 0.006641374 0.0012110203
0001d0 c0 ca 45 3b 5d b2 53 ba f0 58 37 ba 35 3c 50 bb
       0.0030180663 -0.00080755894 -0.0006994149 -0.0031774167
0001e0 9f 72 5e ba 9e 61 56 3a d8 f8 a4 ba 50 b4 46 bb
       -0.0008485708 0.0008177998 -0.0012586368 -0.0030319877
0001f0 82 c3 58 3b b4 e1 0c bb aa 55 15 bb 92 63 ca 3b
       0.0033075516 -0.0021496834 -0.0022786655 0.0061764205

action_model._continuous_distribution.log_sigma f4 [1, 2]
000000 29 4d 52 bb 56 03 24 bc
       -0.0032089448 -0.010010561

action_model._continuous_distribution.mu.weight f4 [2, 128]
000000 9b 01 62 3b 0f 46 cd 3c bb 1f 67 3b b1 74 2b bd
       0.003448582 0.02505782 0.0035266716 -0.041859332
000010 0e 9c 5f 3c fe df 96 bc 72 38 d9 3b d7 58 df bc
       0.013648046 -0.018417355 0.0066290433 -0.027264042
000020 01 b8 b8 3c 12 e8 27 bc 01 cc 22 3c b4 fd df 3c
       0.022548677 -0.010248201 0.009936334 0.027342655
000030 e7 1c 2a 3c 45 8a 24 bd a5 d5 30 bc b8 c3 43 bd
       0.010382867 -0.040170927 -0.010793124 -0.047794074
000040 27 7a 96 3c e4 22 1f bb 38 c9 8d bc e9 c0 6c bb
       0.018368794 -0.002428227 -0.017307863 -0.0036125726
000050 08 15 02 bd 83 bd 10 3c 4e 8f 2c 3c 09 16 14 3c
       -0.03175834 0.008834246 0.010532213 0.009038457
000060 d7 cb 95 3c f0 86 c1 3c 92 0f ce 3c c5 a8 46 3c
       0.018285675 0.023623914 0.025153909 0.012125199
000070 ed 24 46 39 68 c1 7c 3c 61 e3 f8 ba 13 0d c2 bb
       0.00018896507 0.015426971 -0.0018988663 -0.0059219687
000080 67 fa 21 3b 8b 78 4e 3b 2d 4b 96 3c 58 46 8a 3b
       0.0024715902 0.0031504955 0.018346393 0.0042198114
000090 1d 73 bc bb a3 7f 0d 3c a2 27 c6 bc 50 d4 95 bc
       -0.0057510273 0.008636388 -0.02418882 -0.018289715
0000a0 db f1 5d 3c 43 4b 9b bc 40 b1 a6 bc 30 c4 a9 3b
       0.013546432 -0.018956786 -0.020348191 0.005180858
0000b0 52 c1 bd 3c 02 59 d2 bc a2 a6 d0 bb e4 f7 90 3b
       0.023163471 -0.025677208 -0.0063675204 0.004424082
0000c0 46 de 99 3c 9d 44 13 bc 4f 30 93 3a 14 f2 b4 3b
       0.018782746 -0.008988527 0.0011229607 0.005522022
0000d0 77 67 a5 bc fb dd 3b bc 3c 39 44 bb 42 09 8b 3c
       -0.020190937 -0.0114664985 -0.002994134 0.016972188
0000e0 1e 97 1a 3c 99 a7 11 bd e6 5a 87 bc 7b 7f 9a 3c
       0.009435443 -0.035560224 -0.016522836 0.018859616
0000f0 a9 b2 2a bc 35 4b 07 3c 7b a8 55 3a 90 30 2e bd
       -0.010418572 0.008257677 0.0008150411 -0.04252678
000100 fe db 62 bb 00 45 7d bc c3 37 df bc cd 47 c4 bc
       -0.003461599 -0.015458345 -0.027248269 -0.023960019
000110 ba 58 4b bb 91 6c 97 3b 29 b9 e4 bc 28 6f 8a 3b
       -0.0031028227 0.0046210964 -0.027920322 0.0042246766
000120 25 8b 3a bc 57 6e 8f bc 6b 2e 65 bc 5d f9 b3 3b
       -0.011385714 -0.017508669 -0.013988118 0.005492373
000130 e1 da 01 3c 5f 3d 0e 3d 09 dc 5b 3c e4 6d e3 bc
       0.00792572 0.034726497 0.01341916 -0.02776236
000140 5e 7c d5 3b 40 81 a4 bc b8 a4 40 bc 8a 1b 5c bc
       0.00651507 -0.020081162 -0.011758022 -0.0134343
000150 60 f5 a1 3c 5b f2 27 bc 3e e4 52 3b fb 77 bd 3b
       0.019770324 -0.010250653 0.00321795 0.005782125
000160 be 3c db 3c bb 04 57 bc 95 49 59 3c 08 df 7d 3c
       0.026762363 -0.013123686 0.013262172 0.015495069
000170 da b1 11 3c 4d 93 bc bc f5 e7 aa bc 4b 1e 02 bd
       0.008892501 -0.023019457 -0.020862559 -0.03176717
000180 6f e2 e5 b9 fd 2c 15 3d 5f 40 c4 3b ec fd cc bb
       -0.0004384699 0.036419857 0.005989119 -0.006255856
000190 f9 09 fb ba 1b 2d 30 3d cb 46 d0 ba c4 3d d6 bc
       -0.0019152752 0.043011766 -0.0015890239 -0.026152499
0001a0 18 40 3e bc 35 3e 6e 3c 6d 16 ae 3c be 48 8a 3a
       -0.011611961 0.0145411985 0.021250928 0.0010550243
0001b0 c2 f9 b2 3b 64 95 08 bb b0 d9 16 3c 37 33 1c bc
       0.0054619024 -0.0020840997 0.009207174 -0.009533695
0001c0 fa d4 4c bc 61 23 12 3c 93 88 34 bc f4 fd b3 bc
       -0.012501949 0.008919568 -0.01101889 -0.02197168
0001d0 bf 02 15 bd 84 82 22 bb 15 6f 82 3c ba d6 81 bb
       -0.036379572 -0.0024797032 0.015922109 -0.003962365
0001e0 06 90 90 3c 40 75 71 bb 30 fe 8f 3b ad 87 71 bc
       0.0176468 -0.0036843568 0.004394315 -0.01474182
0001f0 a8 74 bd 3c 83 51 70 bb 8a 2f 80 ba 08 99 54 bc
       0.023126915 -0.0036669679 -0.0009779793 -0.012975939
000200 7f fb 5a bc dd 6a f2 bc 4f 4b 12 3c cd 8d d8 bb
       -0.013365625 -0.029591972 0.008929088 -0.006608701
000210 a2 29 98 bc dd 5b a2 bc b2 92 a7 bc b5 31 14 3b
       -0.01857454 -0.019819194 -0.020455692 0.0022612636
000220 01 c5 fc 3b 46 69 52 3c b7 b8 4e bc 0e 65 af bc
       0.0077139144 0.012842482 -0.012617282 -0.021410491
000230 cf 74 0e 3d 71 bd 5b bb e8 a8 7e 3b 09 02 0a bc
       0.034779366 -0.0033529664 0.0038858 -0.008423337
000240 0e 17 90 bc a8 14 81 3c b9 60 2b ba 55 91 24 3a
       -0.017589118 0.01575692 -0.0006537545 0.00062777597
000250 95 13 8f 3c f2 d9 1a 3c 35 81 f6 ba b7 8c 3a 3a
       0.017465392 0.009451376 -0.0018806817 0.0007116305
000260 a2 d0 97 bc 6b 4e a8 ba 99 6b 9d 3c 76 e7 c9 3a
       -0.018532101 -0.0012840753 0.019216346 0.0015404064
000270 72 f5 12 bc 74 43 8e bc fa 66 9e bc 14 10 fc ba
       -0.008969652 -0.017366149 -0.019336212 -0.0019230866
000280 09 04 15 bc 06 bb e3 3c 7f 4f 5f 3b bc ad 27 bd
       -0.0090952 0.02779914 0.0034074483 -0.04093717
000290 87 da e8 3b bd a2 62 bc 1c ad 12 bc d0 91 77 3b
       0.0071061286 -0.013832745 -0.008952405 0.003777612
0002a0 ff 05 6c bc 5c 4e 92 bc f4 eb 29 bd a4 24 35 3b
       -0.014405726 -0.01785963 -0.041484788 0.0027640248
0002b0 eb e2 1c bb 07 c2 89 3c 0d 87 48 bc 52 dd 29 bc
       -0.0023938965 0.016816152 -0.01223923 -0.010367708
0002c0 24 66 0d 3c 7d 4a 1f b9 bf fb 01 3c 20 8a 3c bc
       0.008630309 -0.0001519117 0.007933556 -0.011507541
0002d0 db 14 68 3c ee 3d 0f bc 02 ae 40 bc cd a6 f5 bc
       0.014165129 -0.0087427925 -0.011760237 -0.029986763
0002e0 cf 88 0d bd 08 6a 8c 3b 80 e5 89 3c b9 38 1c bc
       -0.0345543 0.004285101 0.016833067 -0.009535008
0002f0 33 5d 66 3c ed 08 49 3b fc 46 1d 3b ff 5d 8a 3c
       0.014060306 0.0030675486 0.0023998609 0.016890524
000300 a8 63 28 3c 77 65 57 bc 4a 42 b3 3c e7 3e 1a bd
       0.010277666 -0.01314675 0.021882195 -0.037657645
000310 b1 1d b3 3c 78 43 1b bd 17 ff a5 3c b3 c8 34 bc
       0.021864744 -0.03790614 0.020263238 -0.011034179
000320 6e 9f bf bb 3f d0 6c 3c 3f 4b 59 bc 6e e8 8b 3c
       -0.005847863 0.014453947 -0.013262569 0.017078605
000330 af 09 2a bb 99 ac 24 3c f1 fd 1c bc cd 83 35 3d
       -0.0025945713 0.010050916 -0.009582029 0.04431515
000340 59 2a 19 bc 58 48 5a 3b eb 6b 27 3b 3d b1 cc 3c
       -0.009348475 0.003330728 0.0025546502 0.024986858
000350 56 06 85 3c f7 1e b1 3c 4a b1 7d bb d7 a9 d7 ba
       0.016238373 0.02162121 -0.003871041 -0.0016453814
000360 2e 4c 8b 3b 88 04 00 bd 57 91 e0 3b ad 1b 59 3b
       0.0042510247 -0.03125432 0.0068532634 0.0033128068
000370 1a 10 7e 3c e5 85 06 3c 57 90 0d 3c 9d 42 aa bc
       0.015506769 0.008210634 0.00864037 -0.020783717
000380 87 96 d6 3c 4c 91 fb bb d1 ad 8a bb 8c 44 b7 3c
       0.026194824 -0.007677233 -0.0042321463 0.022371553
000390 c2 86 06 3d 1a 62 3e bc 2c 6e 27 bd 8c 71 1d 3c
       0.03284336 -0.011620069 -0.040876552 0.009609591
0003a0 a1 72 82 3c e6 a1 80 3c eb 68 8c bc 32 92 2b bc
       0.0159238 0.0157022 -0.017139873 -0.010471867
0003b0 a7 22 08 bc 87 2c 3b bb 67 08 48 bb 8d d2 32 3c
       -0.008309043 -0.0028560476 -0.0030522586 0.010914457
0003c0 5a 0b 93 3c b5 41 90 3c 6a d1 5c 3c 36 6d a5 3c
       0.017949749 0.017609457 0.013477663 0.020193677
0003d0 da 9d fc bb 60 7d 41 bc bd 7e 0d 3d 91 79 de bc
       -0.007709247 -0.011809677 0.034544695 -0.027157577
0003e0 d5 03 c2 3b 00 56 66 3c 0c 0f a4 3a b9 e9 50 bc
       0.005920867 0.01405859 0.0012516691 -0.012751036
0003f0 6e 9f 08 bb 68 c4 17 bc 9a 40 2a bc aa 55 17 bc
       -0.002084698 -0.0092631355 -0.010391379 -0.0092367325

action_model._continuous_distribution.mu.bias f4 [2]
000000 60 48 5e 39 d0 f9 d2 3a
       0.00021198532 0.0016096178
