Goodminton/Assets/results/Badminton/Badminton/Badminton-514.pt (torch, 438968 bytes, 36 tensors)

network_body._body_endoder.seq_layers.0.weight f4 [128, 5]
0	0x3e9a9260	0.301898
1	0xbddd1339	-0.10794682
2	0x3f503761	0.813345
3	0x3f12e04a	0.5737349
4	0x3f83c293	1.0293754
5	0x3e0355a2	0.12825635
6	0x3f2b5f29	0.6694208
7	0xbe722fc0	-0.23651028
8	0xbe9a4c92	-0.30136544
9	0x3deac29c	0.114629
10	0x3f312465	0.6919616
11	0x3e5cafe7	0.21551476
12	0xbec5a73d	-0.38604155
13	0xbf914657	-1.1349591
14	0x3eaac662	0.3335448
15	0x3f5e7c72	0.8690864
16	0x3f10a15f	0.5649623
17	0x3eccd135	0.40003362
18	0x3f0d93c0	0.55303574
19	0xbcfa56be	-0.03055894
20	0x3e81d40f	0.253571
21	0xbd8f7c5f	-0.07006144
22	0xbdc85a6e	-0.09782873
23	0xbf36469a	-0.7120148
24	0xbe7e65b9	-0.24843492
25	0x3ebb716c	0.36609972
26	0x3e5981f9	0.21240987
27	0xbca2ac19	-0.019857453
28	0xbd83f303	-0.06442835
29	0x3f581fd5	0.8442357
30	0xbe63f762	-0.22262338
31	0x3ec325d0	0.38114786
32	0xbf168e36	-0.58810747
33	0xbdf0b44e	-0.117531404
34	0xbecb2055	-0.39673105
35	0xbf2388fe	-0.6388091
36	0xbe794c84	-0.24345595
37	0xbecd70de	-0.40125173
38	0x3ee9b9b3	0.4564949
39	0x3db9e01c	0.090759486
40	0x3dea0b02	0.11427881
41	0xbf6d6569	-0.92732865
42	0x3eadf4ef	0.33975932
43	0xbf903976	-1.1267536
44	0xbd86c620	-0.06580758
45	0x3f20eaa4	0.62858033
46	0x3e4c98dd	0.19980188
47	0xbf91b6c3	-1.13839
48	0xbec62608	-0.3870089
49	0x3eb5a740	0.35479164
50	0x3ddf6b28	0.1090911
51	0x3f191a0e	0.5980538
52	0x3ed50ec5	0.4161283
53	0x3ed3f4bc	0.41397655
54	0xbe9247f2	-0.28570515
55	0x3d8d5a54	0.06901994
56	0x3eafc6bb	0.34331307
57	0xbf176787	-0.59142345
58	0x3e56cef9	0.20977391
59	0x3d6ad606	0.057333015
60	0x3e25a87b	0.16177551
61	0xbea32473	-0.31863746
62	0x3f0eb9d6	0.55752313
63	0x3e5c133c	0.21491712
64	0x3f4420c0	0.7661247
65	0x3edc012e	0.4296965
66	0x3e938acf	0.2881684
67	0xbf244a84	-0.641762
68	0xbd189e8b	-0.037260573
69	0x3e903b6d	0.28170338
70	0xbe33492c	-0.17508382
71	0xbe538082	-0.2065449
72	0xbe419746	-0.18905362
73	0xbc33e0de	-0.0109789055
74	0x3d3a5431	0.045490447
75	0xbe37519e	-0.17902228
76	0x3e5852cc	0.21125335
77	0xbef56b15	-0.4793326
78	0xbe8f58bd	-0.2799739
79	0x3ef9b04f	0.48767325
80	0x3d97a152	0.07403816
81	0x3ea658f9	0.32489756
82	0x3ce09836	0.02741633
83	0xbec8ce88	-0.3922007
84	0x3f844cc7	1.033593
85	0x3f1c7863	0.61121196
86	0x3e3c7f6a	0.1840798
87	0x3ee47027	0.44616815
88	0x3f23933e	0.6389655
89	0x3d135089	0.035965476
90	0xbeaf35e6	-0.3422081
91	0xbeed2cab	-0.4632314
92	0xbe811d76	-0.2521779
93	0x3f5d3768	0.8641267
94	0xbeb1ccb8	-0.347265
95	0x3ee93d56	0.45554608
96	0x3e49925e	0.19684741
97	0xbed8ff2e	-0.42382187
98	0xbf4ed654	-0.8079579
99	0xbf07ed5c	-0.53096557
100	0xbd80f5eb	-0.06296905
101	0xbf1a3d61	-0.60249907
102	0xbd0401c0	-0.03222823
103	0x3efdea10	0.49592638
104	0xbd9e0f05	-0.077177085
105	0xbe85c9b1	-0.2613044
106	0x3f653227	0.8952965
107	0x3f5bde67	0.85886234
108	0xbe7f7bae	-0.24949524
109	0x3e6081ca	0.2192451
110	0xbd241122	-0.0400554
111	0x3decafbb	0.115569554
112	0x3ec8e313	0.39235744
113	0x3e1dbfeb	0.15405242
114	0x3ebf41e0	0.37354946
115	0xbe342568	-0.17592394
116	0x3f1f6a0f	0.6227121
117	0x3f4fe7ef	0.8121328
118	0x3e9501dd	0.29102984
119	0xbdaa6d49	-0.08321626
120	0xbe2cb123	-0.16864447
121	0xbe4dda2c	-0.20102757
122	0xbe148970	-0.14505553
123	0x3f6933c6	0.91094625
124	0xbf276f31	-0.6540404
125	0x3ea5e86d	0.3240389
126	0x3f6d19d8	0.9261756
127	0xbe192018	-0.14953649
128	0x3dcfc764	0.101454526
129	0xbd0c59d2	-0.034265347
130	0xbe0a67e8	-0.135162
131	0xbe66c9ed	-0.22537966
132	0x3f2a2543	0.66463107
133	0x3e2c65c4	0.16835696
134	0x3e34e7c6	0.1766654
135	0x3ec978ef	0.39350078
136	0x3f20a5d8	0.6275306
137	0x3ead32f3	0.33827934
138	0xbebcb26f	-0.36854884
139	0x3c01ed7e	0.007930158
140	0xbd84dc72	-0.06487359
141	0xbf31af85	-0.69408447
142	0x3e7c9e93	0.24669866
143	0xbf0bdf87	-0.5463795
144	0x3e5ece1c	0.21758312
145	0x3c8f070b	0.017459413
146	0xbf04ba61	-0.5184689
147	0x3c080422	0.008301767
148	0xbef426ed	-0.47685948
149	0x3f47c248	0.78030825
150	0x3cefadc7	0.029257668
151	0x3ee93952	0.45551544
152	0xbec0887b	-0.37604126
153	0x3f22b0dc	0.63551116
154	0xbed5af2f	-0.41735217
155	0xbeb9c444	-0.3628255
156	0xbf26fe25	-0.65231544
157	0xbf1cc1ad	-0.61233026
158	0x3f230652	0.6368152
159	0x3d5b11dc	0.05348383
160	0xbd6fb613	-0.05852325
161	0x3e7fc16d	0.2497613
162	0x3d80ddcd	0.06292305
163	0x3f1cb6ef	0.61216635
164	0xbf2f016d	-0.6836155
165	0xbe910624	-0.28324997
166	0x3f239737	0.6390261
167	0x3f43d22e	0.76492584
168	0xbdfb2e3c	-0.12264678
169	0xbedb25da	-0.42802316
170	0x3d9ecc0e	0.07753764
171	0xbe1fb937	-0.15597998
172	0xbd1c2422	-0.038120396
173	0xbf0ab006	-0.5417484
174	0xbf311875	-0.69177943
175	0x3e82b5ea	0.25529414
176	0x3f0687f3	0.5255119
177	0xbeb316b5	-0.34978262
178	0x3ee78d4a	0.45224983
179	0x3e4e21f3	0.20130138
180	0x3e682244	0.22669321
181	0x3f04835e	0.5176295
182	0x3e01988c	0.12655848
183	0xbd74c2cd	-0.05975609
184	0x3e747cbb	0.23875706
185	0x3da93712	0.08262457
186	0xbdaa78b8	-0.083238065
187	0xbdee2292	-0.116276875
188	0xbe736110	-0.23767495
189	0xbe8c8fb0	-0.27453375
190	0x3d09cb40	0.0336411
191	0xbf824d69	-1.0179874
192	0x3e8c7471	0.27432588
193	0x3fa4f089	1.2885906
194	0x3ecf39e0	0.40473843
195	0x3e95665a	0.2917965
196	0xbd8de16a	-0.0692776
197	0xbf54eca0	-0.8317356
198	0x3e8e9909	0.27851132
199	0x3f11474f	0.56749433
200	0xbe27ae98	-0.16375196
201	0x3e819670	0.25310087
202	0x3ed6db35	0.41964117
203	0x3d6f951c	0.05849181
204	0x3f029031	0.5100127
205	0x3dd0c9ba	0.10194726
206	0x3d51fba5	0.051265378
207	0x3e2600ba	0.16211215
208	0x3e33b6fa	0.17550269
209	0x3f04665c	0.5171869
210	0xbebe891f	-0.3721399
211	0xbeee848e	-0.46585506
212	0x3f6525f9	0.89511067
213	0x3e13c483	0.14430432
214	0x3d81b20a	0.063327864
215	0x3e8529e9	0.26008537
216	0xbf028c60	-0.50995445
217	0xbe4e49cb	-0.20145337
218	0x3d63b605	0.05559351
219	0xbf5319da	-0.8246132
220	0x3ec37d7d	0.38181677
221	0x3f10aca0	0.56513405
222	0xbf8be858	-1.0930281
223	0x3e8e3806	0.27777117
224	0x3ed357b7	0.4127786
225	0x3ee39c82	0.44455343
226	0x3f3c1ff8	0.7348628
227	0xbc30911d	-0.010776785
228	0xbf0981eb	-0.53713864
229	0x3e354699	0.17702712
230	0xbf66189a	-0.8988129
231	0x3e7bf13b	0.24603741
232	0x3ebd5d96	0.36985463
233	0x3e551c32	0.20811537
234	0xbf621b1a	-0.88322604
235	0xbf250a6e	-0.6446904
236	0xbc7d2edd	-0.015453068
237	0xbe283a8f	-0.16428588
238	0x3e61a48e	0.22035429
239	0x3ef5cdcc	0.48008573
240	0xbf60f076	-0.87866914
241	0x3e874970	0.26423216
242	0x3ea9dbca	0.33175498
243	0x3e96a5da	0.2942341
244	0xbef9a62b	-0.4875959
245	0xbeb3d61a	-0.35124284
246	0x3e264baa	0.16239801
247	0xbe36250a	-0.17787567
248	0xbe5481b3	-0.20752601
249	0xbf3191b1	-0.6936293
250	0x3e092ce3	0.13396029
251	0x3f557400	0.83380127
252	0xbe190ea3	-0.1494699
253	0x3e18d396	0.14924464
254	0xbd58213e	-0.052766077
255	0xbf902f23	-1.1264385

network_body._body_endoder.seq_layers.0.bias f4 [128]
0	0xbaf913b1	-0.0019003061
1	0xba5f9caa	-0.00085301197
2	0xbae140ed	-0.0017185487
3	0xbb3e4216	-0.002903109
4	0xbb98f0e9	-0.0046673906
5	0xbb91be2d	-0.0044477195
6	0xb9bcb6c3	-0.00035994322
7	0xb9be4dc8	-0.00036297576
8	0xbad35786	-0.0016124106
9	0xbb3d2ad9	-0.002886465
10	0xbab21939	-0.0013587839
11	0xbaecf20c	-0.0018077507
12	0x3b267bcc	0.0025403379
13	0xbb28f958	-0.0025783386
14	0xbb46952d	-0.0030301318
15	0x3a92e1e4	0.0011206237
16	0xbb8576e2	-0.00407301
17	0xbb6684a1	-0.0035174268
18	0xbb910a92	-0.004426309
19	0xbb707d23	-0.003669568
20	0xb931ea57	-0.00016967334
21	0xba72423b	-0.00092414365
22	0x3bba0ccd	0.0056777955
23	0x3ba2be44	0.004966529
24	0x3b28f7c2	0.002578244
25	0x3af4445f	0.0018636099
26	0x3a940f33	0.0011296034
27	0xbaec335c	-0.0018020677
28	0xbb3ba471	-0.002863195
29	0x39edd7fc	0.00045365083
30	0xba2ef5c6	-0.00066741963
31	0xba8b710e	-0.0010638551
32	0x39141bd4	0.00014124747
33	0xbb43f2e9	-0.0029899424
34	0xb9aa7f4c	-0.0003251977
35	0x3a9bbcf3	0.0011881873
36	0x3b4d7feb	0.0031356763
37	0x3a67591d	0.00088252296
38	0xbb427c45	-0.0029676121
39	0xbbb054a6	-0.0053811846
40	0x3afc6f25	0.0019259198
41	0xbb314de5	-0.0027054485
42	0xba866c75	-0.0010255711
43	0x39dc40df	0.00042010003
44	0x3b0e5ddf	0.0021723432
45	0x3b09b13e	0.0021010186
46	0x3b7b94f2	0.003838834
47	0x3a66be93	0.00088022015
48	0xbb3e30f7	-0.0029020885
49	0xba403d4b	-0.0007333352
50	0xba06f15d	-0.000514766
51	0x3af442e1	0.0018635654
52	0x3aaccef2	0.0013184233
53	0x3ab0a5db	0.0013477163
54	0x3a150efa	0.00056861306
55	0x3af036fb	0.0018326932
56	0xbb2bb421	-0.0026199894
57	0xbaadbe47	-0.001325556
58	0xba05b8fc	-0.0005101112
59	0x3a5e598c	0.00084819715
60	0x3ac5607b	0.0015058661
61	0xbb1bbcac	-0.002376358
62	0x3bba6331	0.005688094
63	0x3b40d0fd	0.0029421442
64	0x393527df	0.00017276358
65	0x3b0cc4f2	0.0021479693
66	0x39863afe	0.00025602424
67	0x3b6b01e2	0.0035859277
68	0x3b433db4	0.0029791417
69	0x3b67acb3	0.003535074
70	0x3aafab70	0.0013402533
71	0xbb956979	-0.0045596925
72	0x39f777ce	0.00047200773
73	0x3a8d2a60	0.0010770075
74	0xbadba314	-0.0016756975
75	0xb698e7b0	-4.556925e-06
76	0xbbe59887	-0.007006708
77	0xbb5ba9ed	-0.0033518032
78	0x3adb1d12	0.0016717038
79	0x3b64fcc6	0.0034940704
80	0x3ab61d64	0.0013894257
81	0x3a557404	0.0008142593
82	0x3869c2d8	5.573299e-05
83	0x3aaec2ff	0.001333326
84	0xbab8aa4e	-0.0014088841
85	0xba745a23	-0.0009321293
86	0x3b92bfc2	0.0044784257
87	0xbb61c9e1	-0.0034452605
88	0xbaf8cade	-0.0018981358
89	0xba4b41f0	-0.0007753661
90	0xba2cb573	-0.00065883173
91	0x3aee1a97	0.0018165883
92	0x3b5d8a86	0.003380449
93	0x3b77de7e	0.0037821825
94	0x3b0df3cc	0.0021660207
95	0xbb51120f	-0.0031901633
96	0xbb2c0474	-0.0026247771
97	0x3b1b2ddf	0.0023678464
98	0xbac85c0f	-0.0015286225
99	0xbba2a77c	-0.0049638133
100	0xbae373c1	-0.0017353223
101	0x3b3baf2c	0.0028638346
102	0xbb1a46e7	-0.0023540796
103	0x3b08c733	0.0020870685
104	0x3b6a80c9	0.0035782328
105	0x3b124d77	0.0022324005
106	0x3ab30372	0.0013657643
107	0x3b7f34b0	0.0038941316
108	0xb9b49116	-0.00034440373
109	0x39c82177	0.00038171906
110	0xbb451c19	-0.0030076562
111	0x3b20b892	0.0024524075
112	0xbb0cfb7b	-0.0021512199
113	0x3b040db8	0.0020149779
114	0xb9e478e3	-0.00043577616
115	0xba8c6f15	-0.0010714257
116	0x3bc6a244	0.006061824
117	0xbaaf0ae9	-0.0013354692
118	0xbb81a2c7	-0.003956172
119	0x3b11d2b1	0.0022250826
120	0x3b0452ee	0.0020191032
121	0xb8b360f0	-8.553441e-05
122	0xbc0bf7fe	-0.008543013
123	0xb97967fe	-0.0002378523
124	0x3b18bfd4	0.0023307698
125	0xb788bcaf	-1.6300326e-05
126	0xbb2669bc	-0.0025392612
127	0x3ba697b4	0.0050840024

network_body._body_endoder.seq_layers.2.weight f4 [128, 128]
0	0xbd677492	-0.056507654
1	0x3dd2e07f	0.102967255
2	0xbdb61b19	-0.08891887
3	0x3d66533f	0.056231733
4	0xbda76978	-0.081744134
5	0x3d68b950	0.056817353
6	0xbc8621c6	-0.016373526
7	0x3cf30364	0.029664703
8	0xbdb1644c	-0.08661708
9	0x3e03e335	0.12879641
10	0xbcfcbe63	-0.030852502
11	0x3d3dbb36	0.046321116
12	0x3cf53a9c	0.029935174
13	0x3cbc92aa	0.023019154
14	0xbcca6ad8	-0.02470915
15	0xbd6e1a7f	-0.058130737
16	0xbd844cd9	-0.0645997
17	0x3d853105	0.0650349
18	0xbe257414	-0.16157562
19	0xbd00cee5	-0.03144731
20	0xbd18fef0	-0.037352502
21	0x3c810673	0.015750146
22	0xbdc27372	-0.09494676
23	0x3d8c448b	0.06849011
24	0xbd75e761	-0.060035113
25	0xbb8ea708	-0.004353408
26	0xbb0309ba	-0.001999481
27	0x3d583cc7	0.052792337
28	0xbbb1e6df	-0.0054291333
29	0x3d5dd294	0.0541559
30	0x3d7d56b3	0.06185026
31	0xbdb77001	-0.0895691
32	0x3e204188	0.15649998
33	0xbd9f75e8	-0.07786161
34	0x3d50cbe5	0.0509757
35	0x3d7adaf8	0.06124398
36	0x3d52e84a	0.05149106
37	0xbcb9a43a	-0.022661317
38	0xbb7cbbb8	-0.0038564038
39	0xbc756084	-0.014976624
40	0x3d926d2d	0.0714973
41	0x3dcce71b	0.10005017
42	0x3d91641c	0.070991725
43	0x3d8b0d32	0.06789626
44	0xbd4c2566	-0.049840353
45	0xbc89d315	-0.016824285
46	0x3dc03926	0.093859
47	0xbbfcc858	-0.0077143125
48	0x3d2cca59	0.04218516
49	0xbb2b96fb	-0.002618252
50	0xbccf6758	-0.025317833
51	0xbd1b7cab	-0.03796069
52	0x3c5e1466	0.013554668
53	0x3c9693aa	0.018380959
54	0x3c9604c3	0.018312817
55	0xbd8652dd	-0.06558774
56	0x3d6b30c6	0.05741956
57	0xbdde5ca3	-0.10857513
58	0x3c1addb2	0.00945227
59	0xbdcf63d6	-0.10126464
60	0x3bfc7da8	0.007705409
61	0xbbc56aaf	-0.0060246806
62	0x3e0072dd	0.12543817
63	0xbc4d5489	-0.012532362
64	0xbd4f20b2	-0.05056829
65	0xbda3af19	-0.079923816
66	0x3d92e875	0.07173244
67	0xbc437575	-0.011929859
68	0x3e55e6a2	0.2088876
69	0x3dc93d62	0.09826161
70	0x3dd65f57	0.104674034
71	0xbd215378	-0.039386243
72	0xbc4e14f2	-0.012578236
73	0xbde724b3	-0.11286297
74	0xbcabd097	-0.020973487
75	0x3de3f8cc	0.111314386
76	0x3da59579	0.0808515
77	0xbd2e5909	-0.04256538
78	0x3e157f6a	0.14599386
79	0xbdb330bc	-0.0874953
80	0xbda842ff	-0.082159035
81	0xbd3836f3	-0.04497428
82	0xbd49afe9	-0.049240027
83	0xbda17865	-0.078842916
84	0x3d9c7841	0.07640124
85	0xbd943fa7	-0.07238703
86	0xbd2f0768	-0.042731673
87	0x3d92768f	0.071515195
88	0xbd9cee31	-0.07662619
89	0x3df654bf	0.12027883
90	0x3e025566	0.1272789
91	0x3dc575e4	0.096416265
92	0xbdd672ae	-0.10471092
93	0x3d5787be	0.05261969
94	0xbc2e933e	-0.010655222
95	0xbdec19f5	-0.115283884
96	0x3dbc1e9b	0.09185525
97	0xbcad8a30	-0.021184057
98	0x3debe81b	0.1151888
99	0xbcfcf7e2	-0.030879918
100	0x3dd31b02	0.10307886
101	0x3df21f64	0.118223935
102	0x3d17e32f	0.037081894
103	0xbc95d436	-0.018289667
104	0x3e84ff8f	0.25976226
105	0xbd637fa3	-0.055541646
106	0x3dc3c362	0.09558751
107	0xbe14bd2c	-0.14525288
108	0xbc63ca17	-0.013903162
109	0x3c6e5590	0.014546767
110	0x3d7daa7b	0.06193016
111	0x3d244ed7	0.04011425
112	0xbdfd1407	-0.123573355
113	0xbd2741bd	-0.040834177
114	0xbd2b5bf6	-0.041835748
115	0x3c9e4cf4	0.019323803
116	0x3d860e19	0.06545658
117	0x3c4a8913	0.012361783
118	0x3c1b750b	0.009488354
119	0xbd447984	-0.04796745
120	0xbda73f6f	-0.08166396
121	0x3cd20bc1	0.02564037
122	0x3dc21784	0.094771415
123	0x3e40b5e2	0.18819383
124	0xbb95cba9	-0.0045713973
125	0xbe9499ab	-0.2902349
126	0xbd7c96ad	-0.061667133
127	0xbd96fc1d	-0.073723055
128	0x3d68331b	0.056689363
129	0xbd1b9644	-0.0379851
130	0xba019a83	-0.00049439835
131	0x3bd72088	0.0065651573
132	0xbb4d7b35	-0.0031353955
133	0xbd9d3b42	-0.07677318
134	0x3b8482e1	0.0040439223
135	0x3c87b4aa	0.01656564
136	0x3c2b1f76	0.010444513
137	0xbcfa9f00	-0.030593395
138	0x3d8d417c	0.06897256
139	0x3b265131	0.0025377984
140	0x3d729526	0.05922427
141	0xbda992fe	-0.0827999
142	0xbd9e780b	-0.0773774
143	0xbd56b2cf	-0.05241662
144	0x3dcaa7a9	0.0989526
145	0xbcf93fbe	-0.030425902
146	0xbc27dafc	-0.010245081
147	0xbd8646ab	-0.065564476
148	0xbc545591	-0.012959854
149	0x3d8a462b	0.06751665
150	0xbdd3762a	-0.103252724
151	0xbc2f315e	-0.010692922
152	0xbd7f5a68	-0.062342077
153	0x3dbdeafb	0.092733346
154	0xbe5ebe49	-0.21752276
155	0x3e1c959c	0.15291446
156	0xbd0ec700	-0.03485775
157	0xbd9fba92	-0.07799257
158	0xbcd21b27	-0.025647713
159	0xbd295dad	-0.0413491
160	0x3cc0ebad	0.023549879
161	0xbde43b90	-0.11144173
162	0x3e0a9365	0.13532789
163	0x3e10a99b	0.141272
164	0x3c3d0d91	0.011538879
165	0xbcc0d123	-0.023537224
166	0x3c41d387	0.011830217
167	0xbd1e320a	-0.03862194
168	0x3dee8e73	0.11648264
169	0x3cae0b44	0.021245606
170	0x3c36c01c	0.011154201
171	0xbdace802	-0.084426895
172	0x3de8288f	0.11335861
173	0x3cee8a83	0.029118782
174	0x3c3bc099	0.011459493
175	0x3b10979f	0.002206303
176	0xbded4889	-0.115861006
177	0xbd053c53	-0.032528233
178	0xbe8b0d25	-0.27158466
179	0x3d869cbc	0.065728635
180	0xbd625fdb	-0.055267196
181	0x3c5d23e6	0.013497328
182	0x3de6b463	0.11264875
183	0xbde122e8	-0.10992986
184	0x3dc2d7ba	0.09513803
185	0xbd88ca6c	-0.06679234
186	0xbd06f800	-0.032951355
187	0x3d678d82	0.056531437
188	0x3caec037	0.02133189
189	0xbd414e6b	-0.047193926
190	0x3cb0e796	0.021594804
191	0x3c6d9e2a	0.014503041
192	0x3dafea88	0.08589655
193	0xbdc66f2a	-0.096891716
194	0x3d95645f	0.07294535
195	0xbe2ae9b3	-0.16690712
196	0xbe040892	-0.12893894
197	0x3c49ea99	0.012323999
198	0x3c857511	0.016291173
199	0x3d9a5912	0.0753652
200	0xbcf61ed3	-0.030043995
201	0x3e336d6c	0.1752221
202	0x3c9cc0bb	0.01913487
203	0xbd99cef3	-0.075101756
204	0x3e36b357	0.1784185
205	0x3c7227ff	0.014780044
206	0xbe586932	-0.21133879
207	0xbc17ec0a	-0.009272585
208	0xbe00b448	-0.12568772
209	0xbdc1ce0c	-0.094631284
210	0xbdc49c0a	-0.096000746
211	0x3dbe999e	0.09306644
212	0xbd88c198	-0.0667755
213	0xbdf7a7c5	-0.120925464
214	0x3c5631f8	0.013073437
215	0xbd982a28	-0.07429916
216	0x3db882a9	0.090092964
217	0x3d44d8a9	0.048058186
218	0x3c8e841c	0.017396979
219	0xbc911734	-0.01771126
220	0xbcbf1dbd	-0.02332961
221	0x3c5c468d	0.013444555
222	0x3dc145cf	0.09437143
223	0xbd00acf8	-0.031414956
224	0xbbc169f1	-0.005902522
225	0x3b9bb44a	0.0047517167
226	0x3df4cebf	0.11953496
227	0xbc5a00ea	-0.013305882
228	0x3c7fc499	0.015610837
229	0xbe5386d3	-0.206569
230	0x3c82218b	0.015885135
231	0x3d8d1242	0.06888248
232	0xbd2c2986	-0.042031787
233	0xbd9eecbd	-0.07759998
234	0x3d946ffa	0.0724792
235	0x3e20e104	0.15710837
236	0x3e03f2a5	0.1288553
237	0x3d0de0a4	0.034638062
238	0x3daa2e6f	0.08309638
239	0x3d9a83e5	0.07544688
240	0xbda1192a	-0.07866128
241	0x3d81c269	0.06335909
242	0xbc554634	-0.013017226
243	0xbcd08220	-0.025452673
244	0x3cc2ee60	0.023795307
245	0xbdef622e	-0.11688648
246	0x3e01934a	0.12653843
247	0x3d8cacf6	0.06868927
248	0x3d3fbf15	0.04681309
249	0x3e2d5dd7	0.16930328
250	0x3dd53d42	0.104120746
251	0xbd3d7d8f	-0.04626232
252	0x3a0ca0c7	0.0005364534
253	0xbcedee19	-0.029044198
254	0x3d2c9ffd	0.042144764
255	0xbe16285e	-0.14663836

network_body._body_endoder.seq_layers.2.bias f4 [128]
0	0x39eaafcd	0.0004476294
1	0xba673e23	-0.000882121
2	0xbaf2e996	-0.0018532749
3	0xbb769a1b	-0.0037628475
4	0xba98f5d5	-0.0011669943
5	0xbb108b0d	-0.0022055537
6	0xbb52f3b0	-0.0032188706
7	0xbb15afe2	-0.002284043
8	0xbab341cb	-0.0013676224
9	0xbaa958c6	-0.0012920133
10	0x3aeed138	0.0018220311
11	0x3a88f391	0.0010448565
12	0x3b0f848f	0.002189908
13	0xbae47817	-0.0017430809
14	0xb97a3d33	-0.00023864656
15	0xbb241770	-0.0025038384
16	0xba38db99	-0.00070517656
17	0xba69be48	-0.0008916599
18	0xbb8c16a6	-0.004275161
19	0x3b02bb0b	0.0019947912
20	0xbb5744d7	-0.0032847428
21	0x3938f6bd	0.00017639525
22	0x3b7f6b67	0.003897393
23	0xbb39a28b	-0.0028325643
24	0xbaf87f03	-0.0018958751
25	0xbaf1ce73	-0.0018448367
26	0xbb108764	-0.0022053355
27	0xb9913a27	-0.00027699882
28	0xbb2a3182	-0.002596945
29	0xbaeefd0b	-0.0018233372
30	0xbb88dac3	-0.004176469
31	0x3b25fa44	0.0025326172
32	0x3a92d381	0.0011201949
33	0xbb145e72	-0.0022639302
34	0xba4542c0	-0.00075249
35	0xbb19f83e	-0.002349391
36	0xba4db307	-0.00078468065
37	0xb9c33a16	-0.00037236576
38	0xbb47bfb1	-0.0030479247
39	0x3a877bff	0.0010336636
40	0xbb0d10ab	-0.0021524827
41	0xbb7ef179	-0.0038901253
42	0x3a3b8e76	0.0007154712
43	0x3aa0113e	0.001221217
44	0xbaeec894	-0.0018217736
45	0x3a606709	0.00085602753
46	0xbb64b410	-0.0034897365
47	0x38809126	6.1305516e-05
48	0x3ad4f4f5	0.0016247319
49	0xbba2b92c	-0.004965922
50	0xba0c6d86	-0.00053568964
51	0xbb84dab5	-0.004054392
52	0xb970a269	-0.00022948686
53	0x3b827a41	0.003981859
54	0xb88f0802	-6.820263e-05
55	0x3b0737b2	0.0020632562
56	0x3ad8f2b3	0.0016551822
57	0x3b436c60	0.0029819235
58	0xb9496c24	-0.0001920914
59	0x3a5a0942	0.00083174196
60	0xbb1af617	-0.0023645216
61	0x3a0017da	0.00048863667
62	0x392e0dab	0.00016599025
63	0x3a991117	0.0011678067
64	0x3ab3b9f0	0.001371203
65	0xb77b7a3c	-1.4989226e-05
66	0xbb1d1e19	-0.0023974238
67	0x3b05d320	0.002042003
68	0x3acb5506	0.001551301
69	0x3ab0aadc	0.0013478654
70	0x3b54eaa1	0.0032488483
71	0x3a0cef6e	0.0005376254
72	0xb9a04c7c	-0.00030574563
73	0xbb5ebfac	-0.0033988757
74	0x3b0171b9	0.0019751622
75	0xbb261afb	-0.0025345671
76	0xbaccc7f6	-0.0015623558
77	0xbb428bc5	-0.002968536
78	0xbb414394	-0.0029489743
79	0x3a33351a	0.0006836221
80	0x3a173e17	0.0005769445
81	0xbaed47be	-0.0018103046
82	0xbb0b9af8	-0.0021302085
83	0xbb8bd526	-0.0042673526
84	0xbaa6be1c	-0.0012721452
85	0xbb2aa157	-0.0026036107
86	0xbaef71d9	-0.0018268182
87	0x3abd9acb	0.0014465688
88	0x39248b0e	0.0001569206
89	0xb9bb6b34	-0.00035747292
90	0xbb1d68c5	-0.0024018746
91	0xbaa2fd86	-0.0012435175
92	0x3a12a1aa	0.0005593548
93	0xbb6528e4	-0.0034967
94	0x3b54f04b	0.0032491859
95	0xbb0bbf66	-0.00213238
96	0x3b2eb56c	0.0026658429
97	0x39c8dbd3	0.00038310754
98	0xba157c8a	-0.00057024567
99	0x3a800856	0.0009768109
100	0xb810096c	-3.434105e-05
101	0x3a73fcd9	0.00093073916
102	0xb9d8895a	-0.00041301065
103	0xbb824d30	-0.0039764866
104	0x3a0e625e	0.0005431528
105	0xbb1417d5	-0.0022597213
106	0xba8e956d	-0.0010878273
107	0xba1880a7	-0.00058175105
108	0xba2c12df	-0.00065640913
109	0xbb02fd3e	-0.001998737
110	0xbbb855d5	-0.0056254664
111	0xba8e6b1d	-0.0010865662
112	0xb8da49e9	-0.00010408817
113	0xbb13a3a3	-0.0022527955
114	0xb9e75ae4	-0.00044127472
115	0xb9e123fd	-0.00042942158
116	0x3b631c90	0.0034654476
117	0x3a52e070	0.0008044308
118	0x3b135885	0.0022483182
119	0xbb527e69	-0.0032118803
120	0xb9748a8d	-0.00023321268
121	0xbb44c309	-0.0030023477
122	0xbaaea52c	-0.0013324372
123	0xbafed9bc	-0.0019443552
124	0x3a0517cf	0.0005077095
125	0x3b0b17be	0.0021223868
126	0x3b3b6a84	0.0028597424
127	0x3a4dac1c	0.00078457757

action_model._continuous_distribution.log_sigma f4 [1, 2]
0	0xbc1fe3b6	-0.00975888
1	0xbbac71ba	-0.0052625807

action_model._continuous_distribution.mu.weight f4 [2, 128]
0	0xbca79951	-0.02045885
1	0xbb02fb45	-0.0019986194
2	0x3ae9920c	0.0017820015
3	0x3b6997d7	0.0035643482
4	0xbc29bbcf	-0.010359718
5	0x3c809abd	0.015698785
6	0x3ca49b57	0.020093603
7	0x3b7718db	0.0037704024
8	0x3c0f79be	0.008757053
9	0x3c930a8a	0.017949361
10	0xbbe88889	-0.0070963544
11	0xbcd5a85a	-0.026081253
12	0x3c47e7c6	0.012201255
13	0x3cc8586d	0.024456227
14	0xbc0e5f82	-0.008689763
15	0x3b3f7246	0.00292124
16	0xbc621e4b	-0.013801168
17	0x3c4c724e	0.012478424
18	0x3c1fc309	0.00975109
19	0xbbd03cc9	-0.0063549024
20	0x3c36f122	0.011165889
21	0xbc46381d	-0.012098339
22	0xbc0b8f2f	-0.008518024
23	0x3d389afa	0.045069672
24	0x3d2417ef	0.040061887
25	0x3cbc5f82	0.02299476
26	0x3cce67ef	0.025196044
27	0x3c829be4	0.015943475
28	0xbbaef848	-0.005339656
29	0xbc465379	-0.012104862
30	0x3cb3b861	0.021938505
31	0x3b6f863b	0.0036548513
32	0xbd37c966	-0.044869803
33	0x3bf1b181	0.0073758964
34	0x3c89ba39	0.01681243
35	0xbc140ce4	-0.0090362765
36	0x3c06d37b	0.008229132
37	0xbc363977	-0.011122099
38	0x3cd7e60c	0.026354812
39	0xbd1b4ed0	-0.03791696
40	0x3d3e35fb	0.0464382
41	0x3b4b443a	0.0031016008
42	0xbc7b012a	-0.015320102
43	0xbce06814	-0.027393378
44	0x3c9e5c2e	0.019331064
45	0xbc701952	-0.014654474
46	0x3c78423c	0.01515251
47	0xbc87c041	-0.016571166
48	0xbae39649	-0.0017363514
49	0xbc3ff6af	-0.011716529
50	0xbcb0b8d5	-0.02157251
51	0x3a217352	0.00061588467
52	0x3c1bf47d	0.00951874
53	0x3c82d79a	0.015971947
54	0x3c2c2a65	0.0105081545
55	0xbc428c7f	-0.011874317
56	0xbca1d372	-0.019754145
57	0xbd03851a	-0.032109357
58	0xbb539696	-0.00322858
59	0xbb971788	-0.0046109594
60	0xbb84155c	-0.0040308665
61	0x3cd586e6	0.026065301
62	0x3c7e54d4	0.015523154
63	0xbce65bd2	-0.028119955
64	0xbbdc9b69	-0.0067323935
65	0xbc82819c	-0.015930943
66	0x3cf6a77d	0.030109162
67	0xbb536056	-0.0032253466
68	0x3b70a46d	0.00367191
69	0xbd273e05	-0.04083063
70	0xbcc48388	-0.0239885
71	0xbb52430a	-0.0032083415
72	0xbb2cc277	-0.0026361027
73	0x3bb77f46	0.005599889
74	0xbca38f00	-0.019965649
75	0x3c6866c7	0.01418466
76	0xbb8d2702	-0.0043076286
77	0x3bcd6da3	0.006269173
78	0x3b674918	0.003529137
79	0xbd180f7c	-0.037124142
80	0xbc3abd8e	-0.011397732
81	0xbc6aeb58	-0.014338337
82	0x3c061920	0.008184701
83	0x3b0b650e	0.002126995
84	0x3bf0921c	0.0073416363
85	0x3c774f9b	0.015094663
86	0x3ccd590c	0.025066875
87	0xbc93cba9	-0.018041449
88	0xbce811ab	-0.028328737
89	0xbba5a437	-0.0050549763
90	0xbc176afb	-0.009241815
91	0x3b00580a	0.0019583725
92	0x3bb54abc	0.0055325907
93	0xbb1a797f	-0.0023570952
94	0xbcd2ee47	-0.025748385
95	0x3c6ab1ce	0.0143246185
96	0xbc26651e	-0.010155944
97	0xbbb4d3f0	-0.005518429
98	0xba4c259a	-0.00077875855
99	0x3ca35678	0.019938692
100	0xbcff1eba	-0.031142581
101	0xbb6e241c	-0.003633744
102	0xb70f17a0	-8.528965e-06
103	0x3c44d315	0.0120132165
104	0xbc386042	-0.011253418
105	0xbc969d84	-0.018385656
106	0x3ca9c8a5	0.020725558
107	0xbc73da92	-0.014883654
108	0xbcf7d8a9	-0.030254679
109	0xbc39291c	-0.011301305
110	0xbbce47e8	-0.006295193
111	0x3c0dd579	0.008656853
112	0x3b78ca21	0.0037962275
113	0xbbc35ba0	-0.0059618503
114	0x3c5eeb52	0.013605909
115	0x3c01323e	0.007885514
116	0xbb7f53a5	-0.0038959768
117	0xbc823886	-0.015896093
118	0xbb1ccc91	-0.0023925642
119	0x3ccb2176	0.024796229
120	0x3d60dd49	0.054898534
121	0xbbce7d42	-0.006301553
122	0x3bf2da9f	0.0074113156
123	0x3c93c302	0.018037323
124	0xbca0e834	-0.019641973
125	0xbbdd9bab	-0.006762942
126	0x3c06453d	0.008195219
127	0x3c8a8fb6	0.01691423
128	0x3d0fd5cb	0.035116
129	0x3ce1b3b5	0.027551511
130	0xbc467533	-0.012112903
131	0xbbc2c22d	-0.0059435577
132	0xbcceee8b	-0.02526023
133	0xbcc99dc9	-0.02461137
134	0x3cb3a51c	0.021929316
135	0x3a5199eb	0.0007995653
136	0x3acb159c	0.0015494111
137	0x3bf03885	0.0073309564
138	0x3c98e939	0.018665897
139	0x3bed6d6c	0.00724571
140	0x3c8fb6a4	0.017543145
141	0x3bebe924	0.0071994234
142	0xbd52426a	-0.05133287
143	0x3ce190db	0.027534893
144	0xbba416e8	-0.0050076135
145	0x3cd0de0d	0.025496507
146	0xbbb91ab5	-0.0056489357
147	0x3cd375e6	0.025813054
148	0xbc92971b	-0.017894318
149	0xbc35cdae	-0.011096401
150	0x3c42ba5f	0.011885255
151	0x3ba88033	0.0051422357
152	0xbc435f30	-0.01192455
153	0xbc5a66de	-0.0133301895
154	0x3ca828fa	0.020527352
155	0x3d1c9ab1	0.038233463
156	0xbc0dfd7e	-0.008666394
157	0x3b3f5302	0.0029193764
158	0x3b9ab6b0	0.004721485
159	0x3cdac631	0.026705833
160	0x3cf3ace8	0.029745534
161	0xbc8377ab	-0.016048273
162	0x3bc64390	0.0060505345
163	0xbd02f9c0	-0.03197646
164	0x3c5255be	0.012837825
165	0xbc2a73a9	-0.010403552
166	0x3c2cdfb1	0.010551379
167	0x3c733fe4	0.014846776
168	0x3c0ea712	0.008706825
169	0x3c8ea1d6	0.017411154
170	0xbd2092f6	-0.039202653
171	0xbc9af719	-0.018916653
172	0x3b6fc227	0.003658423
173	0xbca2bc48	-0.01986517
174	0xbbd16ae7	-0.0063909176
175	0xbc19c20b	-0.009384642
176	0xbc873a42	-0.016507272
177	0xbd3047e2	-0.043037303
178	0xbbaf419f	-0.005348399
179	0xbc1db81a	-0.009626413
180	0x3c25e47b	0.010125275
181	0xbd35ceb8	-0.044386595
182	0xbb8d7870	-0.004317336
183	0xbb78e354	-0.0037977295
184	0x3bfc8172	0.007705861
185	0x3d2be3c7	0.041965272
186	0xbbd14846	-0.0063867895
187	0x3c23464d	0.0099654915
188	0x3b89b289	0.0042021913
189	0xbc9cec71	-0.019155713
190	0xbc7b37c1	-0.015333117
191	0xbca70c0c	-0.020391487
192	0xbcadc341	-0.021211268
193	0xbc7eb0ad	-0.0155450525
194	0xbd0ebab4	-0.034846023
195	0xbd14439b	-0.036197286
196	0x3c3a21c9	0.011360594
197	0x3c867ee3	0.016417926
198	0xbca941b2	-0.020661209
199	0x3c759ecf	0.014991476
200	0xbbe7ac96	-0.0070701344
201	0xbcba4962	-0.02274007
202	0xbc43e7f8	-0.011957161
203	0x3cfd4446	0.030916344
204	0xbb83b5b1	-0.004019462
205	0x3c2eb896	0.010664126
206	0xba082f93	-0.00051950774
207	0xba10018f	-0.00054933963
208	0xbc4ac274	-0.012375463
209	0xbce2bb25	-0.027677128
210	0x3998db24	0.00029154972
211	0xbbc95908	-0.0061446466
212	0x3ba1ef8d	0.0049418868
213	0x3bfc79c3	0.007704945
214	0x3d1f5d0b	0.038907092
215	0x3d3aba56	0.04558786
216	0xbb72b54e	-0.0037034336
217	0xbb6aed9b	-0.003584719
218	0xbcf46df7	-0.029837592
219	0xbd06a663	-0.032873522
220	0x3c84c69a	0.016207982
221	0x3b4d81f2	0.003135797
222	0xbb5f4abf	-0.0034071652
223	0x3c5b2d52	0.013377504
224	0x3a73686e	0.00092852756
225	0x3c836ea4	0.016043968
226	0xbcd7247a	-0.02626251
227	0x3c06e4d9	0.0082332725
228	0xbc5cee6b	-0.013484578
229	0x3bec2bf5	0.0072073885
230	0x3d18d5a3	0.037313115
231	0xbcb1594c	-0.021649025
232	0xbc45be3e	-0.012069283
233	0xbc5eb8c3	-0.013593855
234	0xbc90a886	-0.017658483
235	0x3b96de20	0.004604116
236	0x3c9fe96f	0.01952049
237	0xbab2a053	-0.0013628103
238	0x3ce33313	0.027734315
239	0xbb1fdfee	-0.0024394947
240	0x3bf80d6c	0.0075699594
241	0x3b990c17	0.0046706307
242	0xbcbaddb6	-0.022810798
243	0x3caeed2a	0.021353323
244	0xbc7601c4	-0.015015069
245	0x3c2db291	0.010601656
246	0xbcf9c589	-0.0304897
247	0x3b0fee6c	0.002196218
248	0xbc7f5593	-0.015584367
249	0x3bb8a863	0.0056353076
250	0xbbf348c3	-0.0074244454
251	0x3c3771ee	0.011196597
252	0x3a06df31	0.00051449524
253	0xbd6cf155	-0.05784734
254	0xbd3f1faf	-0.046661075
255	0x3cb0e3eb	0.021593055

action_model._continuous_distribution.mu.bias f4 [2]
0	0xba53406e	-0.0008058612
1	0x39dff77e	0.0004271827

exp_avg f4 [128, 5]
0	0x38fe02ac	0.000121121615
1	0x38d57df0	0.00010180089
2	0x3af31860	0.0018546693
3	0x00000000	0.0
4	0x178781ac	8.756904e-25
5	0xba0cd580	-0.000537239
6	0x35d57c6d	1.5905949e-06
7	0xb825482a	-3.9406274e-05
8	0x00000000	0.0
9	0x17e8cc75	1.5044261e-24
10	0x3ab383c0	0.0013695881
11	0x38c5dac1	9.434438e-05
12	0x3a75f147	0.00093819614
13	0x00000000	0.0
14	0x9947ecb2	-1.0335859e-23
15	0x3a5e2ead	0.0008475583
16	0x3868b081	5.5477492e-05
17	0x3a973af6	0.0011537957
18	0x00000000	0.0
19	0x983ba6e2	-2.4253438e-24
20	0xb963ea6a	-0.00021735733
21	0xb80c50dd	-3.345391e-05
22	0xba33e3fd	-0.0006862281
23	0x00000000	0.0
24	0x18295cdb	2.1889618e-24
25	0xba02fd44	-0.0004996846
26	0xb8fc03ed	-0.000120170276
27	0xbacea2d4	-0.0015765079
28	0x00000000	0.0
29	0x192e00fd	8.995789e-24
30	0xbb1e4614	-0.0024150657
31	0x37f038eb	2.8636734e-05
32	0xb8ec9b12	-0.00011282241
33	0x00000000	0.0
34	0x956f65f9	-4.8346108e-26
35	0xb9aa471c	-0.00032477907
36	0xb61cc2ea	-2.3359266e-06
37	0xb9630c2e	-0.00021652944
38	0x00000000	0.0
39	0x182f0e3c	2.2625406e-24
40	0x38144a40	3.53551e-05
41	0xb8c538bf	-9.404262e-05
42	0xbab1e1b6	-0.0013571295
43	0x00000000	0.0
44	0x18ae16c0	4.5000917e-24
45	0x38d55e47	0.00010174192
46	0x373cc170	1.1250711e-05
47	0x38241286	3.91179e-05
48	0x00000000	0.0
49	0x97dcdad4	-1.4272407e-24
50	0x397d98b5	0.00024184848
51	0x390a311c	0.00013179
52	0x3b324038	0.0027198922
53	0x00000000	0.0
54	0x9870aca0	-3.1106426e-24
55	0xb8bd326a	-9.021613e-05
56	0xb7a0d717	-1.9173645e-05
57	0xbad599a5	-0.00162964
58	0x00000000	0.0
59	0x9843bcbd	-2.5298448e-24
60	0x38fd5e96	0.00012081598
61	0x39041dca	0.00012599598
62	0x3b2706c8	0.002548622
63	0x00000000	0.0
64	0x9808082b	-1.7581712e-24
65	0x3a2a0c40	0.0006486811
66	0x3745c551	1.1788056e-05
67	0xb9452878	-0.0001880246
68	0x00000000	0.0
69	0x988b4331	-3.5998504e-24
70	0x395ac183	0.00020862189
71	0xb69c34ba	-4.6553005e-06
72	0xba51b931	-0.0008000313
73	0x00000000	0.0
74	0x988aa609	-3.5839817e-24
75	0xb997d222	-0.00028957526
76	0x37999e28	1.8312669e-05
77	0x3a1aef2a	0.0005910272
78	0x00000000	0.0
79	0x17b0eca5	1.1433471e-24
80	0xb9198f24	-0.00014644541
81	0xb825d777	-3.9539733e-05
82	0xba31a732	-0.0006776928
83	0x00000000	0.0
84	0x183eddcb	2.4668901e-24
85	0xba49e00e	-0.0007700928
86	0x3769587f	1.3908487e-05
87	0xb7e1ed19	-2.6932497e-05
88	0x00000000	0.0
89	0x18692740	3.013436e-24
90	0xb923763b	-0.00015588936
91	0x371e083a	9.419449e-06
92	0x39a4bf1f	0.00031422914
93	0x00000000	0.0
94	0x97055e68	-4.3093775e-25
95	0x39a4dc10	0.00031444477
96	0xb58eb269	-1.0631749e-06
97	0x3a666154	0.0008788307
98	0x00000000	0.0
99	0x18bf8411	4.9505696e-24
100	0xba08c96e	-0.00052180036
101	0xb73f8f6c	-1.141788e-05
102	0xba03bf01	-0.0005025715
103	0x00000000	0.0
104	0x9544f240	-3.9772986e-26
105	0x3ac55bd0	0.001505727
106	0x3900771d	0.00012251404
107	0x3b151b5e	0.0022751908
108	0x00000000	0.0
109	0x98f42a05	-6.311495e-24
110	0xba02b117	-0.0004985495
111	0xb80346fd	-3.1298947e-05
112	0xba70ec55	-0.00091904897
113	0x00000000	0.0
114	0x17e2ac8f	1.4648468e-24
115	0xb87b915f	-5.997845e-05
116	0xb80e2141	-3.388641e-05
117	0xb99000f6	-0.00027466536
118	0x00000000	0.0
119	0x18763661	3.182221e-24
120	0xba1dab80	-0.000601463
121	0x37b0e0b6	2.1085474e-05
122	0x3a8d2159	0.0010767385
123	0x00000000	0.0
124	0x1881bcb1	3.353625e-24
125	0x39b274b1	0.00034037748
126	0x37880dc4	1.6218873e-05
127	0x39d4a4b8	0.00040558516
128	0x00000000	0.0
129	0x169217e6	2.3602654e-25
130	0xbaa93958	-0.0012910767
131	0xb772c803	-1.4470893e-05
132	0xb9faf154	-0.0004786352
133	0x00000000	0.0
134	0x1805488a	1.722647e-24
135	0xbaaf0ab7	-0.0013354634
136	0xb827c65d	-4.0000643e-05
137	0xba364c85	-0.00069541513
138	0x00000000	0.0
139	0x9631d407	-1.436485e-25
140	0x3a6cb48a	0.0009029588
141	0x37f0ebd4	2.8720046e-05
142	0x3a9dcf13	0.0012039862
143	0x00000000	0.0
144	0x181b2793	2.005326e-24
145	0xb96a0070	-0.00022316142
146	0xb8abbc9f	-8.189049e-05
147	0xbafb39a2	-0.0019166956
148	0x00000000	0.0
149	0x188988bc	3.5551736e-24
150	0x3a6d6899	0.0009056419
151	0xb75112a2	-1.2461709e-05
152	0xba32222d	-0.0006795254
153	0x00000000	0.0
154	0x9863f424	-2.9462322e-24
155	0x3a9cc9f4	0.0011962042
156	0xb7842d3b	-1.5756688e-05
157	0xb8da2eb0	-0.00010403746
158	0x00000000	0.0
159	0x989055df	-3.7309835e-24
160	0x39b23402	0.00033989555
161	0x37c353a3	2.3284758e-05
162	0x39856dcb	0.0002544954
163	0x00000000	0.0
164	0x1729932e	5.479261e-25
165	0x39fea85a	0.00048572087
166	0x38c4f716	9.392032e-05
167	0x3b3632dc	0.002780131
168	0x00000000	0.0
169	0x18402289	2.4832854e-24
170	0x39f591f0	0.00046838773
171	0x36cf305f	6.174712e-06
172	0xb82fe905	-4.1940268e-05
173	0x00000000	0.0
174	0x9833498c	-2.317234e-24
175	0x3a4b1146	0.00077464094
176	0x38323d68	4.2495696e-05
177	0x3a202401	0.00061088806
178	0x00000000	0.0
179	0x989696e7	-3.8926464e-24
180	0xb95e5abb	-0.0002120537
181	0x38ea52ef	0.00011173437
182	0x3afebb93	0.0019434564
183	0x00000000	0.0
184	0x9877eaf4	-3.2042623e-24
185	0xba2abf49	-0.0006513489
186	0xb7b7fce0	-2.1933054e-05
187	0x3998f900	0.0002917722
188	0x00000000	0.0
189	0x18ac991b	4.4615555e-24
190	0x3a3d4073	0.00072193815
191	0x38eaa00e	0.00011187802
192	0x3aef5bd1	0.0018261616
193	0x00000000	0.0
194	0x98c56f34	-5.1035593e-24
195	0x3a579794	0.0008224186
196	0x3780e4ba	1.5365298e-05
197	0x3a7d8574	0.000967107
198	0x00000000	0.0
199	0x17bfb888	1.2389668e-24
200	0xba8d27f6	-0.0010769356
201	0xb612382e	-2.1788396e-06
202	0xba0fc859	-0.0005484871
203	0x00000000	0.0
204	0x17e8c3c6	1.5042069e-24
205	0xba37720c	-0.00069978903
206	0x3708e271	8.158954e-06
207	0x380081fa	3.063863e-05
208	0x00000000	0.0
209	0x97d34e8f	-1.3655386e-24
210	0xba90f4d5	-0.0011059294
211	0x39204a44	0.00015286455
212	0x3b2d2266	0.0026418208
213	0x00000000	0.0
214	0x991d4798	-8.131168e-24
215	0x3ab0b3bf	0.0013481303
216	0x3845c55e	4.7152273e-05
217	0x39a9f494	0.00032416417
218	0x00000000	0.0
219	0x99156a55	-7.724593e-24
220	0x39667bb7	0.00021980597
221	0x3726034f	9.895141e-06
222	0xb937f2f9	-0.00017542754
223	0x00000000	0.0
224	0x9853f329	-2.7393875e-24
225	0x3a8338dc	0.0010011452
226	0x38f7be7c	0.00011813358
227	0x39f0825c	0.00045873492
228	0x00000000	0.0
229	0x9945ea32	-1.0231957e-23
230	0xba2df039	-0.0006635222
231	0xb68e6c21	-4.2445176e-06
232	0xb9177e58	-0.00014447549
233	0x00000000	0.0
234	0x98db6c53	-5.6719553e-24
235	0xbaeb9882	-0.0017974528
236	0x385d7417	5.2798623e-05
237	0x3a3993f5	0.0007079237
238	0x00000000	0.0
239	0x97ba6df9	-1.2047729e-24
240	0x3b168e8b	0.0022973146
241	0xb825c023	-3.9518007e-05
242	0xb9a1e8b7	-0.000308817
243	0x00000000	0.0
244	0x187e20df	3.2845326e-24
245	0x39798f9c	0.00023799989
246	0x3839ccf9	4.4298333e-05
247	0x3b2bb9a4	0.002620318
248	0x00000000	0.0
249	0x9826a23f	-2.153691e-24
250	0xba0c3d19	-0.00053496804
251	0xb8591d97	-5.176439e-05
252	0xba5da557	-0.00084551185
253	0x00000000	0.0
254	0x18aa21d6	4.3978136e-24
255	0x3a7aa059	0.0009560637

exp_avg_sq f4 [128, 5]
0	0x35a7b47c	1.2494997e-06
1	0x320d0fd2	8.210877e-09
2	0x368731f5	4.0291293e-06
3	0x00000000	0.0
4	0x00000000	0.0
5	0x35e7ba47	1.7265055e-06
6	0x2ffd1ddf	4.6041657e-10
7	0x3626c04d	2.4847861e-06
8	0x00000000	0.0
9	0x00000000	0.0
10	0x374fff72	1.2397637e-05
11	0x3274d4c7	1.4251049e-08
12	0x36e1df00	6.731483e-06
13	0x00000000	0.0
14	0x00000000	0.0
15	0x36fb5b95	7.4910445e-06
16	0x324fb6fe	1.2090593e-08
17	0x35fed362	1.8985995e-06
18	0x00000000	0.0
19	0x00000000	0.0
20	0x36e9372f	6.9503653e-06
21	0x3221dbd8	9.42142e-09
22	0x3708cb8b	8.153623e-06
23	0x00000000	0.0
24	0x00000000	0.0
25	0x377e89a8	1.517163e-05
26	0x32dae23f	2.5481425e-08
27	0x37125acb	8.7234175e-06
28	0x00000000	0.0
29	0x00000000	0.0
30	0x370416a5	7.873085e-06
31	0x315cae74	3.2113379e-09
32	0x36cf4579	6.1771684e-06
33	0x00000000	0.0
34	0x00000000	0.0
35	0x3674086e	3.636374e-06
36	0x31760f13	3.580628e-09
37	0x36822b67	3.8793546e-06
38	0x00000000	0.0
39	0x00000000	0.0
40	0x368fcd86	4.285658e-06
41	0x328ecd35	1.6624293e-08
42	0x36d0a2f5	6.2178538e-06
43	0x00000000	0.0
44	0x00000000	0.0
45	0x35af860c	1.3077529e-06
46	0x2fbe7a71	3.4647799e-10
47	0x3599fc4d	1.1472818e-06
48	0x00000000	0.0
49	0x00000000	0.0
50	0x364bcd3e	3.0368824e-06
51	0x3277357e	1.4389455e-08
52	0x36b63d1d	5.431137e-06
53	0x00000000	0.0
54	0x00000000	0.0
55	0x36f73846	7.3677247e-06
56	0x3076fa1b	8.98497e-10
57	0x37434415	1.1638757e-05
58	0x00000000	0.0
59	0x00000000	0.0
60	0x36691d47	3.4736747e-06
61	0x3272182a	1.4091748e-08
62	0x36bbfbaf	5.602334e-06
63	0x00000000	0.0
64	0x00000000	0.0
65	0x358910f6	1.0212232e-06
66	0x2f9d2f38	2.8591685e-10
67	0x360e250b	2.118121e-06
68	0x00000000	0.0
69	0x00000000	0.0
70	0x35bdf8fa	1.4154059e-06
71	0x2fda56ca	3.9715636e-10
72	0x363ce0c7	2.814502e-06
73	0x00000000	0.0
74	0x00000000	0.0
75	0x371aeb7f	9.233946e-06
76	0x310a4277	2.0119424e-09
77	0x375026d9	1.2406811e-05
78	0x00000000	0.0
79	0x00000000	0.0
80	0x3605a299	1.9913189e-06
81	0x315bd663	3.199056e-09
82	0x360e102c	2.1169062e-06
83	0x00000000	0.0
84	0x00000000	0.0
85	0x35a8d060	1.257762e-06
86	0x30b0c455	1.2861486e-09
87	0x3546ec2a	7.410441e-07
88	0x00000000	0.0
89	0x00000000	0.0
90	0x367578d1	3.657817e-06
91	0x31508722	3.0344798e-09
92	0x36061270	1.9978288e-06
93	0x00000000	0.0
94	0x00000000	0.0
95	0x36f463dc	7.283392e-06
96	0x3163ed5e	3.3167775e-09
97	0x37157060	8.907256e-06
98	0x00000000	0.0
99	0x00000000	0.0
100	0x35eca41d	1.7631133e-06
101	0x3002a32e	4.7525617e-10
102	0x35907808	1.076377e-06
103	0x00000000	0.0
104	0x00000000	0.0
105	0x3691745b	4.3348823e-06
106	0x32954a2d	1.7379614e-08
107	0x36e09ad3	6.693744e-06
108	0x00000000	0.0
109	0x00000000	0.0
110	0x360abe74	2.067446e-06
111	0x31a7f300	4.8879656e-09
112	0x35acc21a	1.287149e-06
113	0x00000000	0.0
114	0x00000000	0.0
115	0x3618813b	2.2724987e-06
116	0x31ce0a79	5.9965797e-09
117	0x360abee9	2.0674727e-06
118	0x00000000	0.0
119	0x00000000	0.0
120	0x376cea2c	1.4121219e-05
121	0x322a5287	9.914067e-09
122	0x3770563f	1.43251955e-05
123	0x00000000	0.0
124	0x00000000	0.0
125	0x35e4cb70	1.7046532e-06
126	0x307f9605	9.298165e-10
127	0x367a5df3	3.7307589e-06
128	0x00000000	0.0
129	0x00000000	0.0
130	0x36059655	1.990605e-06
131	0x321c4aab	9.097373e-09
132	0x3682e90c	3.901432e-06
133	0x00000000	0.0
134	0x00000000	0.0
135	0x35c65256	1.4776112e-06
136	0x31bed1b3	5.553568e-09
137	0x36204323	2.3880937e-06
138	0x00000000	0.0
139	0x00000000	0.0
140	0x3774911f	1.4577322e-05
141	0x3331b0a2	4.137167e-08
142	0x37822765	1.5515552e-05
143	0x00000000	0.0
144	0x00000000	0.0
145	0x3604daa9	1.979681e-06
146	0x31eb11d0	6.841425e-09
147	0x364290db	2.899257e-06
148	0x00000000	0.0
149	0x00000000	0.0
150	0x36b62841	5.428709e-06
151	0x2fc48330	3.5745407e-10
152	0x37153323	8.892998e-06
153	0x00000000	0.0
154	0x00000000	0.0
155	0x3690a741	4.3110053e-06
156	0x30bfcbc0	1.3954988e-09
157	0x36ad7b48	5.1701536e-06
158	0x00000000	0.0
159	0x00000000	0.0
160	0x363dca5b	2.828098e-06
161	0x31ab1316	4.978925e-09
162	0x36198603	2.2876782e-06
163	0x00000000	0.0
164	0x00000000	0.0
165	0x377aa289	1.4939004e-05
166	0x334c36b7	4.7547214e-08
167	0x378b90ef	1.6637581e-05
168	0x00000000	0.0
169	0x00000000	0.0
170	0x355957ca	8.096655e-07
171	0x30501058	7.5693185e-10
172	0x35a2c15a	1.2126213e-06
173	0x00000000	0.0
174	0x00000000	0.0
175	0x36a9eda3	5.064257e-06
176	0x3187a4ed	3.947767e-09
177	0x368b5118	4.1519634e-06
178	0x00000000	0.0
179	0x00000000	0.0
180	0x36a69f29	4.965714e-06
181	0x3281f6a2	1.5129732e-08
182	0x36b9dda3	5.5392316e-06
183	0x00000000	0.0
184	0x00000000	0.0
185	0x36808ec0	3.8313156e-06
186	0x31265cf8	2.4209026e-09
187	0x3668cdc0	3.4690456e-06
188	0x00000000	0.0
189	0x00000000	0.0
190	0x36aef23e	5.213805e-06
191	0x327e6704	1.4808169e-08
192	0x36a8350c	5.0129656e-06
193	0x00000000	0.0
194	0x00000000	0.0
195	0x36a1a557	4.817422e-06
196	0x30f2c700	1.7664377e-09
197	0x36690dbd	3.4727702e-06
198	0x00000000	0.0
199	0x00000000	0.0
200	0x369aedcf	4.617242e-06
201	0x3209619c	7.996643e-09
202	0x35add984	1.295281e-06
203	0x00000000	0.0
204	0x00000000	0.0
205	0x35b33104	1.3350805e-06
206	0x31b289dc	5.1961546e-09
207	0x3615289a	2.2226363e-06
208	0x00000000	0.0
209	0x00000000	0.0
210	0x373df38c	1.1321983e-05
211	0x330c3c4e	3.2651137e-08
212	0x3737745d	1.0934743e-05
213	0x00000000	0.0
214	0x00000000	0.0
215	0x36f18054	7.197299e-06
216	0x3209a2b1	8.011441e-09
217	0x36d3c78c	6.3115203e-06
218	0x00000000	0.0
219	0x00000000	0.0
220	0x364d4609	3.0588146e-06
221	0x308024dd	9.323703e-10
222	0x3688540d	4.0629006e-06
223	0x00000000	0.0
224	0x00000000	0.0
225	0x37ae1b11	2.075502e-05
226	0x32dea648	2.5919817e-08
227	0x37688f13	1.386159e-05
228	0x00000000	0.0
229	0x00000000	0.0
230	0x360ff5bd	2.14517e-06
231	0x31c164dd	5.628506e-09
232	0x3623549d	2.4338144e-06
233	0x00000000	0.0
234	0x00000000	0.0
235	0x36e79569	6.90173e-06
236	0x319964e3	4.4643556e-09
237	0x365fa212	3.3323927e-06
238	0x00000000	0.0
239	0x00000000	0.0
240	0x37efcf33	2.8587505e-05
241	0x32930506	1.7115337e-08
242	0x374f1282	1.2342471e-05
243	0x00000000	0.0
244	0x00000000	0.0
245	0x3786c65f	1.6066419e-05
246	0x321a410d	8.978771e-09
247	0x37838685	1.5679057e-05
248	0x00000000	0.0
249	0x00000000	0.0
250	0x3741fa83	1.1562023e-05
251	0x325c335b	1.2817362e-08
252	0x36cfe4dd	6.195724e-06
253	0x00000000	0.0
254	0x00000000	0.0
255	0x368a5d61	4.123591e-06

exp_avg f4 [128]
0	0x39d81804	0.00041216624
1	0xb5be48fb	-1.4177343e-06
2	0x39a28bcd	0.00031003208
3	0x38d632f0	0.00010213803
4	0xb98c005b	-0.00026703146
5	0xb9dabcbb	-0.00041720815
6	0x398780a5	0.00025845054
7	0x38cbf204	9.724873e-05
8	0xb9f5d020	-0.00046885107
9	0x38b60ff9	8.6814114e-05
10	0x3a27998b	0.0006393424
11	0x3885d8d5	6.382322e-05
12	0x3a0146af	0.0004931492
13	0x38967488	7.174263e-05
14	0x394219c5	0.00018510882
15	0x382a6d95	4.0633215e-05
16	0xb90f9d80	-0.00013696216
17	0xb66cedde	-3.5305197e-06
18	0x37b8a68f	2.201207e-05
19	0xb9155637	-0.00014241865
20	0x38a67e24	7.938992e-05
21	0x3a1aa4eb	0.00058992085
22	0xb869a561	-5.570555e-05
23	0xb95094c5	-0.00019891847
24	0xb887b766	-6.471462e-05
25	0xb8bb0353	-8.917474e-05
26	0xb884eff2	-6.338944e-05
27	0xb992f4d7	-0.0002802971
28	0x380ec394	3.4037585e-05
29	0xb9a1cc98	-0.00030860747
30	0x38c6fb19	9.488146e-05
31	0xb82f55c3	-4.1803123e-05
32	0x38bce671	9.0074616e-05
33	0x39bb6e10	0.00035749422
34	0x391789b2	0.00014451778
35	0xb8b27d3c	-8.511028e-05
36	0x39e78a98	0.00044163014
37	0xb925b595	-0.00015803271
38	0x39d9130f	0.00041403665
39	0x38df9233	0.000106607
40	0x38e6f40d	0.00011012713
41	0x38437fde	4.661071e-05
42	0x3a6bb501	0.000899151
43	0x384092a4	4.5912937e-05
44	0x37e87b6a	2.7714024e-05
45	0x3a12de57	0.0005602589
46	0x38d9eb8f	0.000103912425
47	0x39de4532	0.00042394694
48	0xb9e8d36c	-0.0004440801
49	0xb8bcce6e	-9.002989e-05
50	0x385b6f11	5.2317107e-05
51	0xb98c7292	-0.00026788242
52	0x39084994	0.0001299738
53	0x38b18115	8.464061e-05
54	0xb845c9ab	-4.7156278e-05
55	0xb89f8120	-7.605762e-05
56	0xb92d41a9	-0.00016523026
57	0xb932e5fb	-0.00017061077
58	0x395b012f	0.00020885908
59	0x386ca238	5.6417863e-05
60	0xb73810ae	-1.0971138e-05
61	0x3802b50f	3.116304e-05
62	0x38aa2bdc	8.114401e-05
63	0x39df80dd	0.00042629885
64	0xb99fad61	-0.0003045602
65	0x39834230	0.0002503558
66	0xb957c7a7	-0.00020578374
67	0x38cff766	9.916611e-05
68	0xb6b2894c	-5.320797e-06
69	0x39d7b780	0.00041144714
70	0xb8c3fc4e	-9.34532e-05
71	0x39c4791f	0.00037474275
72	0xb81b5a84	-3.703918e-05
73	0x39830617	0.00024990804
74	0x39b77840	0.00034994073
75	0x390da6bb	0.0001350892
76	0x37bf7191	2.2821858e-05
77	0xb8261c08	-3.960359e-05
78	0xb96d252c	-0.00022615929
79	0xb910e4d6	-0.00013818158
80	0x395d28cd	0.00021091402
81	0xb95aa884	-0.00020852877
82	0x37be062a	2.2652635e-05
83	0x392bb8c8	0.00016376667
84	0x39485459	0.00019104908
85	0x39eba30c	0.00044944172
86	0xb8e395a6	-0.00010852078
87	0xb6a5b9a4	-4.9389946e-06
88	0xb9d33a4e	-0.00040288497
89	0x39b7cc77	0.00035056818
90	0xb9f67f99	-0.00047015844
91	0xb9a363bf	-0.000311641
92	0x388a5879	6.596832e-05
93	0xb9e1f9b8	-0.000431014
94	0xb9a24ecd	-0.0003095776
95	0x3926fe63	0.0001592576
96	0xb851ddd6	-5.0036084e-05
97	0x38c2a646	9.281612e-05
98	0xb917ba35	-0.0001446985
99	0x388e64ae	6.789841e-05
100	0x39ef865f	0.00045685747
101	0xb793e5f1	-1.763084e-05
102	0xba229a93	-0.0006202843
103	0x39f76d4f	0.00047192952
104	0xb8c678e2	-9.463892e-05
105	0x39baa4ba	0.00035599415
106	0x394d75b2	0.00019594168
107	0x398d7412	0.00026980095
108	0x39402fad	0.00018328307
109	0x3849a1be	4.807277e-05
110	0x39fdbc41	0.0004839618
111	0x39eb6573	0.00044898278
112	0xb768be44	-1.3872577e-05
113	0x39588e27	0.00020652321
114	0x382e4e8c	4.1557985e-05
115	0x38f8fdad	0.00011872812
116	0xb93b41f4	-0.00017858279
117	0x39458110	0.00018835464
118	0xb89830b2	-7.256995e-05
119	0xba332183	-0.0006833302
120	0x3a04bbff	0.0005063414
121	0xb9718d11	-0.00023036102
122	0x39224bad	0.00015477715
123	0xb9f95300	-0.0004755482
124	0xb93d0aa2	-0.00018028406
125	0x37e11aa3	2.6834494e-05
126	0x39c2e81d	0.000371755
127	0x38d50347	0.00010157242

exp_avg_sq f4 [128]
0	0x3462b396	2.1113223e-07
1	0x34400036	1.788147e-07
2	0x358632d4	9.998571e-07
3	0x34ce79b9	3.8459055e-07
4	0x35458b07	7.359053e-07
5	0x358d8aff	1.0545772e-06
6	0x35192fde	5.70666e-07
7	0x34a3cb6b	3.0509122e-07
8	0x34e01164	4.1735905e-07
9	0x33dd9dc6	1.0319813e-07
10	0x34c42a18	3.6538472e-07
11	0x3555ba97	7.962021e-07
12	0x34c64512	3.693063e-07
13	0x3417b5d7	1.4129124e-07
14	0x34512f12	1.9481766e-07
15	0x355b36e9	8.166376e-07
16	0x343f7260	1.782987e-07
17	0x33c575f0	9.19498e-08
18	0x3466c7da	2.1493125e-07
19	0x353f997f	7.137641e-07
20	0x33f2a630	1.12992325e-07
21	0x34ef99f1	4.4629226e-07
22	0x3410a474	1.3470873e-07
23	0x342d9430	1.6165791e-07
24	0x359a284b	1.1485621e-06
25	0x3471c5d1	2.2516839e-07
26	0x3472b83c	2.260503e-07
27	0x343131d0	1.6502531e-07
28	0x359d0488	1.169873e-06
29	0x348ae7ae	2.5873072e-07
30	0x351955ce	5.7121804e-07
31	0x34c8c529	3.7396356e-07
32	0x347dbd9d	2.3631442e-07
33	0x35ab3634	1.2756268e-06
34	0x33be2dbd	8.855884e-08
35	0x34ee1da6	4.4352527e-07
36	0x3504eceb	4.9518593e-07
37	0x34b53d48	3.3758465e-07
38	0x34e946b2	4.345107e-07
39	0x34bb3b29	3.487451e-07
40	0x34814657	2.40793e-07
41	0x340d3252	1.3149955e-07
42	0x3586f889	1.0056111e-06
43	0x354f36fc	7.719352e-07
44	0x34ac8fa3	3.2142006e-07
45	0x35cfa564	1.5470837e-06
46	0x344f024d	1.9279214e-07
47	0x34d58ee9	3.9778323e-07
48	0x35e1b644	1.6816853e-06
49	0x35a4ab6a	1.226884e-06
50	0x3562e742	8.4528085e-07
51	0x34a635c1	3.095902e-07
52	0x352c83a6	6.4266567e-07
53	0x3533d0ef	6.6986735e-07
54	0x346394bd	2.1195133e-07
55	0x348eee8d	2.662313e-07
56	0x352f6a97	6.534769e-07
57	0x35a3f8fa	1.2216908e-06
58	0x33f94042	1.16066545e-07
59	0x349ed667	2.9585792e-07
60	0x353faa9d	7.140132e-07
61	0x34437dff	1.8206627e-07
62	0x345162c3	1.9500571e-07
63	0x34807933	2.3930042e-07
64	0x355891e4	8.067857e-07
65	0x34b07bc0	3.2872595e-07
66	0x351a5950	5.749944e-07
67	0x34af5e6a	3.2664985e-07
68	0x35422b91	7.233403e-07
69	0x34de93f9	4.1458387e-07
70	0x35bff462	1.4301734e-06
71	0x3528938b	6.279958e-07
72	0x340eb89c	1.3291941e-07
73	0x34a6c6db	3.1064596e-07
74	0x347c543f	2.3499977e-07
75	0x33e1b16a	1.05096504e-07
76	0x338ea2b9	6.6419894e-08
77	0x35349d30	6.7283963e-07
78	0x34fb60ec	4.6822913e-07
79	0x35d3c495	1.5777938e-06
80	0x35068877	5.011747e-07
81	0x35c754fe	1.4851391e-06
82	0x349e9d27	2.9544137e-07
83	0x34606906	2.0899833e-07
84	0x349c47ce	2.910951e-07
85	0x348f56d4	2.6699e-07
86	0x3465dcf5	2.140767e-07
87	0x331237a3	3.4043875e-08
88	0x358a9843	1.0326115e-06
89	0x34a1c6b5	3.0133165e-07
90	0x355c8389	8.2147795e-07
91	0x34accc5f	3.2186196e-07
92	0x34106fd8	1.3451734e-07
93	0x3529483e	6.306253e-07
94	0x34154fa4	1.390568e-07
95	0x3419f953	1.4339939e-07
96	0x34445a7f	1.8286845e-07
97	0x34ab630e	3.1923304e-07
98	0x34c7c17e	3.7207423e-07
99	0x349b6b41	2.8949037e-07
100	0x3519ac01	5.724724e-07
101	0x3462439a	2.1072483e-07
102	0x3595600f	1.1129322e-06
103	0x35207fea	5.9790784e-07
104	0x3592ae26	1.0928532e-06
105	0x35afb5e2	1.3091451e-06
106	0x352ed9a7	6.5136777e-07
107	0x34b44de6	3.358429e-07
108	0x352981a3	6.314605e-07
109	0x34e37156	4.2364508e-07
110	0x34fc0a14	4.694599e-07
111	0x34ab97ea	3.1961764e-07
112	0x33da2992	1.0158978e-07
113	0x35b959ca	1.3809706e-06
114	0x3381e8ed	6.0493996e-08
115	0x3483bd1b	2.4538244e-07
116	0x340c6a5d	1.3077211e-07
117	0x35031265	4.882807e-07
118	0x3504ff77	4.954558e-07
119	0x35f5152d	1.8260085e-06
120	0x348e204e	2.6473066e-07
121	0x35165640	5.6004865e-07
122	0x33535376	4.9203173e-08
123	0x350d23a4	5.2578457e-07
124	0x342c83a8	1.6066645e-07
125	0x352a9b68	6.355608e-07
126	0x33b2f387	8.333068e-08
127	0x34209ae7	1.4957514e-07
