Goodminton/Assets/results/Badminton/Badminton/Badminton-514.onnx (onnx, 74586 bytes, 7 tensors)

network_body._body_endoder.seq_layers.0.weight f4 [128, 5]
000000 60 92 9a 3e 39 13 dd bd 61 37 50 3f 4a e0 12 3f
       0.301898 -0.10794682 0.813345 0.5737349
000010 93 c2 83 3f a2 55 03 3e 29 5f 2b 3f c0 2f 72 be
       1.0293754 0.12825635 0.6694208 -0.23651028
000020 92 4c 9a be 9c c2 ea 3d 65 24 31 3f e7 af 5c 3e
       -0.30136544 0.114629 0.6919616 0.21551476
000030 3d a7 c5 be 57 46 91 bf 62 c6 aa 3e 72 7c 5e 3f
       -0.38604155 -1.1349591 0.3335448 0.8690864
000040 5f a1 10 3f 35 d1 cc 3e c0 93 0d 3f be 56 fa bc
       0.5649623 0.40003362 0.55303574 -0.03055894
000050 0f d4 81 3e 5f 7c 8f bd 6e 5a c8 bd 9a 46 36 bf
       0.253571 -0.07006144 -0.09782873 -0.7120148
000060 b9 65 7e be 6c 71 bb 3e f9 81 59 3e 19 ac a2 bc
       -0.24843492 0.36609972 0.21240987 -0.019857453
000070 03 f3 83 bd d5 1f 58 3f 62 f7 63 be d0 25 c3 3e
       -0.06442835 0.8442357 -0.22262338 0.38114786
000080 36 8e 16 bf 4e b4 f0 bd 55 20 cb be fe 88 23 bf
       -0.58810747 -0.117531404 -0.39673105 -0.6388091
000090 84 4c 79 be de 70 cd be b3 b9 e9 3e 1c e0 b9 3d
       -0.24345595 -0.40125173 0.4564949 0.090759486
0000a0 02 0b ea 3d 69 65 6d bf ef f4 ad 3e 76 39 90 bf
       0.11427881 -0.92732865 0.33975932 -1.1267536
0000b0 20 c6 86 bd a4 ea 20 3f dd 98 4c 3e c3 b6 91 bf
       -0.06580758 0.62858033 0.19980188 -1.13839
0000c0 08 26 c6 be 40 a7 b5 3e 28 6b df 3d 0e 1a 19 3f
       -0.3870089 0.35479164 0.1090911 0.5980538
0000d0 c5 0e d5 3e bc f4 d3 3e f2 47 92 be 54 5a 8d 3d
       0.4161283 0.41397655 -0.28570515 0.06901994
0000e0 bb c6 af 3e 87 67 17 bf f9 ce 56 3e 06 d6 6a 3d
       0.34331307 -0.59142345 0.20977391 0.057333015
0000f0 7b a8 25 3e 73 24 a3 be d6 b9 0e 3f 3c 13 5c 3e
       0.16177551 -0.31863746 0.55752313 0.21491712
000100 c0 20 44 3f 2e 01 dc 3e cf 8a 93 3e 84 4a 24 bf
       0.7661247 0.4296965 0.2881684 -0.641762
000110 8b 9e 18 bd 6d 3b 90 3e 2c 49 33 be 82 80 53 be
       -0.037260573 0.28170338 -0.17508382 -0.2065449
000120 46 97 41 be de e0 33 bc 31 54 3a 3d 9e 51 37 be
       -0.18905362 -0.0109789055 0.045490447 -0.17902228
000130 cc 52 58 3e 15 6b f5 be bd 58 8f be 4f b0 f9 3e
       0.21125335 -0.4793326 -0.2799739 0.48767325
000140 52 a1 97 3d f9 58 a6 3e 36 98 e0 3c 88 ce c8 be
       0.07403816 0.32489756 0.02741633 -0.3922007
000150 c7 4c 84 3f 63 78 1c 3f 6a 7f 3c 3e 27 70 e4 3e
       1.033593 0.61121196 0.1840798 0.44616815
000160 3e 93 23 3f 89 50 13 3d e6 35 af be ab 2c ed be
       0.6389655 0.035965476 -0.3422081 -0.4632314
000170 76 1d 81 be 68 37 5d 3f b8 cc b1 be 56 3d e9 3e
       -0.2521779 0.8641267 -0.347265 0.45554608
000180 5e 92 49 3e 2e ff d8 be 54 d6 4e bf 5c ed 07 bf
       0.19684741 -0.42382187 -0.8079579 -0.53096557
000190 eb f5 80 bd 61 3d 1a bf c0 01 04 bd 10 ea fd 3e
       -0.06296905 -0.60249907 -0.03222823 0.49592638
0001a0 05 0f 9e bd b1 c9 85 be 27 32 65 3f 67 de 5b 3f
       -0.077177085 -0.2613044 0.8952965 0.85886234
0001b0 ae 7b 7f be ca 81 60 3e 22 11 24 bd bb af ec 3d
       -0.24949524 0.2192451 -0.0400554 0.115569554
0001c0 13 e3 c8 3e eb bf 1d 3e e0 41 bf 3e 68 25 34 be
       0.39235744 0.15405242 0.37354946 -0.17592394
0001d0 0f 6a 1f 3f ef e7 4f 3f dd 01 95 3e 49 6d aa bd
       0.6227121 0.8121328 0.29102984 -0.08321626
0001e0 23 b1 2c be 2c da 4d be 70 89 14 be c6 33 69 3f
       -0.16864447 -0.20102757 -0.14505553 0.91094625
0001f0 31 6f 27 bf 6d e8 a5 3e d8 19 6d 3f 18 20 19 be
       -0.6540404 0.3240389 0.9261756 -0.14953649
000200 64 c7 cf 3d d2 59 0c bd e8 67 0a be ed c9 66 be
       0.101454526 -0.034265347 -0.135162 -0.22537966
000210 43 25 2a 3f c4 65 2c 3e c6 e7 34 3e ef 78 c9 3e
       0.66463107 0.16835696 0.1766654 0.39350078
000220 d8 a5 20 3f f3 32 ad 3e 6f b2 bc be 7e ed 01 3c
       0.6275306 0.33827934 -0.36854884 0.007930158
000230 72 dc 84 bd 85 af 31 bf 93 9e 7c 3e 87 df 0b bf
       -0.06487359 -0.69408447 0.24669866 -0.5463795
000240 1c ce 5e 3e 0b 07 8f 3c 61 ba 04 bf 22 04 08 3c
       0.21758312 0.017459413 -0.5184689 0.008301767
000250 ed 26 f4 be 48 c2 47 3f c7 ad ef 3c 52 39 e9 3e
       -0.47685948 0.78030825 0.029257668 0.45551544
000260 7b 88 c0 be dc b0 22 3f 2f af d5 be 44 c4 b9 be
       -0.37604126 0.63551116 -0.41735217 -0.3628255
000270 25 fe 26 bf ad c1 1c bf 52 06 23 3f dc 11 5b 3d
       -0.65231544 -0.61233026 0.6368152 0.05348383
000280 13 b6 6f bd 6d c1 7f 3e cd dd 80 3d ef b6 1c 3f
       -0.05852325 0.2497613 0.06292305 0.61216635
000290 6d 01 2f bf 24 06 91 be 37 97 23 3f 2e d2 43 3f
       -0.6836155 -0.28324997 0.6390261 0.76492584
0002a0 3c 2e fb bd da 25 db be 0e cc 9e 3d 37 b9 1f be
       -0.12264678 -0.42802316 0.07753764 -0.15597998
0002b0 22 24 1c bd 06 b0 0a bf 75 18 31 bf ea b5 82 3e
       -0.038120396 -0.5417484 -0.69177943 0.25529414
0002c0 f3 87 06 3f b5 16 b3 be 4a 8d e7 3e f3 21 4e 3e
       0.5255119 -0.34978262 0.45224983 0.20130138
0002d0 44 22 68 3e 5e 83 04 3f 8c 98 01 3e cd c2 74 bd
       0.22669321 0.5176295 0.12655848 -0.05975609
0002e0 bb 7c 74 3e 12 37 a9 3d b8 78 aa bd 92 22 ee bd
       0.23875706 0.08262457 -0.083238065 -0.116276875
0002f0 10 61 73 be b0 8f 8c be 40 cb 09 3d 69 4d 82 bf
       -0.23767495 -0.27453375 0.0336411 -1.0179874
000300 71 74 8c 3e 89 f0 a4 3f e0 39 cf 3e 5a 66 95 3e
       0.27432588 1.2885906 0.40473843 0.2917965
000310 6a e1 8d bd a0 ec 54 bf 09 99 8e 3e 4f 47 11 3f
       -0.0692776 -0.8317356 0.27851132 0.56749433
000320 98 ae 27 be 70 96 81 3e 35 db d6 3e 1c 95 6f 3d
       -0.16375196 0.25310087 0.41964117 0.05849181
000330 31 90 02 3f ba c9 d0 3d a5 fb 51 3d ba 00 26 3e
       0.5100127 0.10194726 0.051265378 0.16211215
000340 fa b6 33 3e 5c 66 04 3f 1f 89 be be 8e 84 ee be
       0.17550269 0.5171869 -0.3721399 -0.46585506
000350 f9 25 65 3f 83 c4 13 3e 0a b2 81 3d e9 29 85 3e
       0.89511067 0.14430432 0.063327864 0.26008537
000360 60 8c 02 bf cb 49 4e be 05 b6 63 3d da 19 53 bf
       -0.50995445 -0.20145337 0.05559351 -0.8246132
000370 7d 7d c3 3e a0 ac 10 3f 58 e8 8b bf 06 38 8e 3e
       0.38181677 0.56513405 -1.0930281 0.27777117
000380 b7 57 d3 3e 82 9c e3 3e f8 1f 3c 3f 1d 91 30 bc
       0.4127786 0.44455343 0.7348628 -0.010776785
000390 eb 81 09 bf 99 46 35 3e 9a 18 66 bf 3b f1 7b 3e
       -0.53713864 0.17702712 -0.8988129 0.24603741
0003a0 96 5d bd 3e 32 1c 55 3e 1a 1b 62 bf 6e 0a 25 bf
       0.36985463 0.20811537 -0.88322604 -0.6446904
0003b0 dd 2e 7d bc 8f 3a 28 be 8e a4 61 3e cc cd f5 3e
       -0.015453068 -0.16428588 0.22035429 0.48008573
0003c0 76 f0 60 bf 70 49 87 3e ca db a9 3e da a5 96 3e
       -0.87866914 0.26423216 0.33175498 0.2942341
0003d0 2b a6 f9 be 1a d6 b3 be aa 4b 26 3e 0a 25 36 be
       -0.4875959 -0.35124284 0.16239801 -0.17787567
0003e0 b3 81 54 be b1 91 31 bf e3 2c 09 3e 00 74 55 3f
       -0.20752601 -0.6936293 0.13396029 0.83380127
0003f0 a3 0e 19 be 96 d3 18 3e 3e 21 58 bd 23 2f 90 bf
       -0.1494699 0.14924464 -0.052766077 -1.1264385

network_body._body_endoder.seq_layers.0.bias f4 [128]
000000 b1 13 f9 ba aa 9c 5f ba ed 40 e1 ba 16 42 3e bb
       -0.0019003061 -0.00085301197 -0.0017185487 -0.002903109
000010 e9 f0 98 bb 2d be 91 bb c3 b6 bc b9 c8 4d be b9
       -0.0046673906 -0.0044477195 -0.00035994322 -0.00036297576
000020 86 57 d3 ba d9 2a 3d bb 39 19 b2 ba 0c f2 ec ba
       -0.0016124106 -0.002886465 -0.0013587839 -0.0018077507
000030 cc 7b 26 3b 58 f9 28 bb 2d 95 46 bb e4 e1 92 3a
       0.0025403379 -0.0025783386 -0.0030301318 0.0011206237
000040 e2 76 85 bb a1 84 66 bb 92 0a 91 bb 23 7d 70 bb
       -0.00407301 -0.0035174268 -0.004426309 -0.003669568
000050 57 ea 31 b9 3b 42 72 ba cd 0c ba 3b 44 be a2 3b
       -0.00016967334 -0.00092414365 0.0056777955 0.004966529
000060 c2 f7 28 3b 5f 44 f4 3a 33 0f 94 3a 5c 33 ec ba
       0.002578244 0.0018636099 0.0011296034 -0.0018020677
000070 71 a4 3b bb fc d7 ed 39 c6 f5 2e ba 0e 71 8b ba
       -0.002863195 0.00045365083 -0.00066741963 -0.0010638551
000080 d4 1b 14 39 e9 f2 43 bb 4c 7f aa b9 f3 bc 9b 3a
       0.00014124747 -0.0029899424 -0.0003251977 0.0011881873
000090 eb 7f 4d 3b 1d 59 67 3a 45 7c 42 bb a6 54 b0 bb
       0.0031356763 0.00088252296 -0.0029676121 -0.0053811846
0000a0 25 6f fc 3a e5 4d 31 bb 75 6c 86 ba df 40 dc 39
       0.0019259198 -0.0027054485 -0.0010255711 0.00042010003
0000b0 df 5d 0e 3b 3e b1 09 3b f2 94 7b 3b 93 be 66 3a
       0.0021723432 0.0021010186 0.003838834 0.00088022015
0000c0 f7 30 3e bb 4b 3d 40 ba 5d f1 06 ba e1 42 f4 3a
       -0.0029020885 -0.0007333352 -0.000514766 0.0018635654
0000d0 f2 ce ac 3a db a5 b0 3a fa 0e 15 3a fb 36 f0 3a
       0.0013184233 0.0013477163 0.00056861306 0.0018326932
0000e0 21 b4 2b bb 47 be ad ba fc b8 05 ba 8c 59 5e 3a
       -0.0026199894 -0.001325556 -0.0005101112 0.00084819715
0000f0 7b 60 c5 3a ac bc 1b bb 31 63 ba 3b fd d0 40 3b
       0.0015058661 -0.002376358 0.005688094 0.0029421442
000100 df 27 35 39 f2 c4 0c 3b fe 3a 86 39 e2 01 6b 3b
       0.00017276358 0.0021479693 0.00025602424 0.0035859277
000110 b4 3d 43 3b b3 ac 67 3b 70 ab af 3a 79 69 95 bb
       0.0029791417 0.003535074 0.0013402533 -0.0045596925
000120 ce 77 f7 39 60 2a 8d 3a 14 a3 db ba b0 e7 98 b6
       0.00047200773 0.0010770075 -0.0016756975 -4.556925e-06
000130 87 98 e5 bb ed a9 5b bb 12 1d db 3a c6 fc 64 3b
       -0.007006708 -0.0033518032 0.0016717038 0.0034940704
000140 64 1d b6 3a 04 74 55 3a d8 c2 69 38 ff c2 ae 3a
       0.0013894257 0.0008142593 5.573299e-05 0.001333326
000150 4e aa b8 ba 23 5a 74 ba c2 bf 92 3b e1 c9 61 bb
       -0.0014088841 -0.0009321293 0.0044784257 -0.0034452605
000160 de ca f8 ba f0 41 4b ba 73 b5 2c ba 97 1a ee 3a
       -0.0018981358 -0.0007753661 -0.00065883173 0.0018165883
000170 86 8a 5d 3b 7e de 77 3b cc f3 0d 3b 0f 12 51 bb
       0.003380449 0.0037821825 0.0021660207 -0.0031901633
000180 74 04 2c bb df 2d 1b 3b 0f 5c c8 ba 7c a7 a2 bb
       -0.0026247771 0.0023678464 -0.0015286225 -0.0049638133
000190 c1 73 e3 ba 2c af 3b 3b e7 46 1a bb 33 c7 08 3b
       -0.0017353223 0.0028638346 -0.0023540796 0.0020870685
0001a0 c9 80 6a 3b 77 4d 12 3b 72 03 b3 3a b0 34 7f 3b
       0.0035782328 0.0022324005 0.0013657643 0.0038941316
0001b0 16 91 b4 b9 77 21 c8 39 19 1c 45 bb 92 b8 20 3b
       -0.00034440373 0.00038171906 -0.0030076562 0.0024524075
0001c0 7b fb 0c bb b8 0d 04 3b e3 78 e4 b9 15 6f 8c ba
       -0.0021512199 0.0020149779 -0.00043577616 -0.0010714257
0001d0 44 a2 c6 3b e9 0a af ba c7 a2 81 bb b1 d2 11 3b
       0.006061824 -0.0013354692 -0.003956172 0.0022250826
0001e0 ee 52 04 3b f0 60 b3 b8 fe f7 0b bc fe 67 79 b9
       0.0020191032 -8.553441e-05 -0.008543013 -0.0002378523
0001f0 d4 bf 18 3b af bc 88 b7 bc 69 26 bb b4 97 a6 3b
       0.0023307698 -1.6300326e-05 -0.0025392612 0.0050840024

network_body._body_endoder.seq_layers.2.weight f4 [128, 128]
000000 92 74 67 bd 7f e0 d2 3d 19 1b b6 bd 3f 53 66 3d
       -0.056507654 0.102967255 -0.08891887 0.056231733
000010 78 69 a7 bd 50 b9 68 3d c6 21 86 bc 64 03 f3 3c
       -0.081744134 0.056817353 -0.016373526 0.029664703
000020 4c 64 b1 bd 35 e3 03 3e 63 be fc bc 36 bb 3d 3d
       -0.08661708 0.12879641 -0.030852502 0.046321116
000030 9c 3a f5 3c aa 92 bc 3c d8 6a ca bc 7f 1a 6e bd
       0.029935174 0.023019154 -0.02470915 -0.058130737
000040 d9 4c 84 bd 05 31 85 3d 14 74 25 be e5 ce 00 bd
       -0.0645997 0.0650349 -0.16157562 -0.03144731
000050 f0 fe 18 bd 73 06 81 3c 72 73 c2 bd 8b 44 8c 3d
       -0.037352502 0.015750146 -0.09494676 0.06849011
000060 61 e7 75 bd 08 a7 8e bb ba 09 03 bb c7 3c 58 3d
       -0.060035113 -0.004353408 -0.001999481 0.052792337
000070 df e6 b1 bb 94 d2 5d 3d b3 56 7d 3d 01 70 b7 bd
       -0.0054291333 0.0541559 0.06185026 -0.0895691
000080 88 41 20 3e e8 75 9f bd e5 cb 50 3d f8 da 7a 3d
       0.15649998 -0.07786161 0.0509757 0.06124398
000090 4a e8 52 3d 3a a4 b9 bc b8 bb 7c bb 84 60 75 bc
       0.05149106 -0.022661317 -0.0038564038 -0.014976624
0000a0 2d 6d 92 3d 1b e7 cc 3d 1c 64 91 3d 32 0d 8b 3d
       0.0714973 0.10005017 0.070991725 0.06789626
0000b0 66 25 4c bd 15 d3 89 bc 26 39 c0 3d 58 c8 fc bb
       -0.049840353 -0.016824285 0.093859 -0.0077143125
0000c0 59 ca 2c 3d fb 96 2b bb 58 67 cf bc ab 7c 1b bd
       0.04218516 -0.002618252 -0.025317833 -0.03796069
0000d0 66 14 5e 3c aa 93 96 3c c3 04 96 3c dd 52 86 bd
       0.013554668 0.018380959 0.018312817 -0.06558774
0000e0 c6 30 6b 3d a3 5c de bd b2 dd 1a 3c d6 63 cf bd
       0.05741956 -0.10857513 0.00945227 -0.10126464
0000f0 a8 7d fc 3b af 6a c5 bb dd 72 00 3e 89 54 4d bc
       0.007705409 -0.0060246806 0.12543817 -0.012532362
000100 b2 20 4f bd 19 af a3 bd 75 e8 92 3d 75 75 43 bc
       -0.05056829 -0.079923816 0.07173244 -0.011929859
000110 a2 e6 55 3e 62 3d c9 3d 57 5f d6 3d 78 53 21 bd
       0.2088876 0.09826161 0.104674034 -0.039386243
000120 f2 14 4e bc b3 24 e7 bd 97 d0 ab bc cc f8 e3 3d
       -0.012578236 -0.11286297 -0.020973487 0.111314386
000130 79 95 a5 3d 09 59 2e bd 6a 7f 15 3e bc 30 b3 bd
       0.0808515 -0.04256538 0.14599386 -0.0874953
000140 ff 42 a8 bd f3 36 38 bd e9 af 49 bd 65 78 a1 bd
       -0.082159035 -0.04497428 -0.049240027 -0.078842916
000150 41 78 9c 3d a7 3f 94 bd 68 07 2f bd 8f 76 92 3d
       0.07640124 -0.07238703 -0.042731673 0.071515195
000160 31 ee 9c bd bf 54 f6 3d 66 55 02 3e e4 75 c5 3d
       -0.07662619 0.12027883 0.1272789 0.096416265
000170 ae 72 d6 bd be 87 57 3d 3e 93 2e bc f5 19 ec bd
       -0.10471092 0.05261969 -0.010655222 -0.115283884
000180 9b 1e bc 3d 30 8a ad bc 1b e8 eb 3d e2 f7 fc bc
       0.09185525 -0.021184057 0.1151888 -0.030879918
000190 02 1b d3 3d 64 1f f2 3d 2f e3 17 3d 36 d4 95 bc
       0.10307886 0.118223935 0.037081894 -0.018289667
0001a0 8f ff 84 3e a3 7f 63 bd 62 c3 c3 3d 2c bd 14 be
       0.25976226 -0.055541646 0.09558751 -0.14525288
0001b0 17 ca 63 bc 90 55 6e 3c 7b aa 7d 3d d7 4e 24 3d
       -0.013903162 0.014546767 0.06193016 0.04011425
0001c0 07 14 fd bd bd 41 27 bd f6 5b 2b bd f4 4c 9e 3c
       -0.123573355 -0.040834177 -0.041835748 0.019323803
0001d0 19 0e 86 3d 13 89 4a 3c 0b 75 1b 3c 84 79 44 bd
       0.06545658 0.012361783 0.009488354 -0.04796745
0001e0 6f 3f a7 bd c1 0b d2 3c 84 17 c2 3d e2 b5 40 3e
       -0.08166396 0.02564037 0.094771415 0.18819383
0001f0 a9 cb 95 bb ab 99 94 be ad 96 7c bd 1d fc 96 bd
       -0.0045713973 -0.2902349 -0.061667133 -0.073723055
000200 1b 33 68 3d 44 96 1b bd 83 9a 01 ba 88 20 d7 3b
       0.056689363 -0.0379851 -0.00049439835 0.0065651573
000210 35 7b 4d bb 42 3b 9d bd e1 82 84 3b aa b4 87 3c
       -0.0031353955 -0.07677318 0.0040439223 0.01656564
000220 76 1f 2b 3c 00 9f fa bc 7c 41 8d 3d 31 51 26 3b
       0.010444513 -0.030593395 0.06897256 0.0025377984
000230 26 95 72 3d fe 92 a9 bd 0b 78 9e bd cf b2 56 bd
       0.05922427 -0.0827999 -0.0773774 -0.05241662
000240 a9 a7 ca 3d be 3f f9 bc fc da 27 bc ab 46 86 bd
       0.0989526 -0.030425902 -0.010245081 -0.065564476
000250 91 55 54 bc 2b 46 8a 3d 2a 76 d3 bd 5e 31 2f bc
       -0.012959854 0.06751665 -0.103252724 -0.010692922
000260 68 5a 7f bd fb ea bd 3d 49 be 5e be 9c 95 1c 3e
       -0.062342077 0.092733346 -0.21752276 0.15291446
000270 00 c7 0e bd 92 ba 9f bd 27 1b d2 bc ad 5d 29 bd
       -0.03485775 -0.07799257 -0.025647713 -0.0413491
000280 ad eb c0 3c 90 3b e4 bd 65 93 0a 3e 9b a9 10 3e
       0.023549879 -0.11144173 0.13532789 0.141272
000290 91 0d 3d 3c 23 d1 c0 bc 87 d3 41 3c 0a 32 1e bd
       0.011538879 -0.023537224 0.011830217 -0.03862194
0002a0 73 8e ee 3d 44 0b ae 3c 1c c0 36 3c 02 e8 ac bd
       0.11648264 0.021245606 0.011154201 -0.084426895
0002b0 8f 28 e8 3d 83 8a ee 3c 99 c0 3b 3c 9f 97 10 3b
       0.11335861 0.029118782 0.011459493 0.002206303
0002c0 89 48 ed bd 53 3c 05 bd 25 0d 8b be bc 9c 86 3d
       -0.115861006 -0.032528233 -0.27158466 0.065728635
0002d0 db 5f 62 bd e6 23 5d 3c 63 b4 e6 3d e8 22 e1 bd
       -0.055267196 0.013497328 0.11264875 -0.10992986
0002e0 ba d7 c2 3d 6c ca 88 bd 00 f8 06 bd 82 8d 67 3d
       0.09513803 -0.06679234 -0.032951355 0.056531437
0002f0 37 c0 ae 3c 6b 4e 41 bd 96 e7 b0 3c 2a 9e 6d 3c
       0.02133189 -0.047193926 0.021594804 0.014503041
000300 88 ea af 3d 2a 6f c6 bd 5f 64 95 3d b3 e9 2a be
       0.08589655 -0.096891716 0.07294535 -0.16690712
000310 92 08 04 be 99 ea 49 3c 11 75 85 3c 12 59 9a 3d
       -0.12893894 0.012323999 0.016291173 0.0753652
000320 d3 1e f6 bc 6c 6d 33 3e bb c0 9c 3c f3 ce 99 bd
       -0.030043995 0.1752221 0.01913487 -0.075101756
000330 57 b3 36 3e ff 27 72 3c 32 69 58 be 0a ec 17 bc
       0.1784185 0.014780044 -0.21133879 -0.009272585
000340 48 b4 00 be 0c ce c1 bd 0a 9c c4 bd 9e 99 be 3d
       -0.12568772 -0.094631284 -0.096000746 0.09306644
000350 98 c1 88 bd c5 a7 f7 bd f8 31 56 3c 28 2a 98 bd
       -0.0667755 -0.120925464 0.013073437 -0.07429916
000360 a9 82 b8 3d a9 d8 44 3d 1c 84 8e 3c 34 17 91 bc
       0.090092964 0.048058186 0.017396979 -0.01771126
000370 bd 1d bf bc 8d 46 5c 3c cf 45 c1 3d f8 ac 00 bd
       -0.02332961 0.013444555 0.09437143 -0.031414956
000380 f1 69 c1 bb 4a b4 9b 3b bf ce f4 3d ea 00 5a bc
       -0.005902522 0.0047517167 0.11953496 -0.013305882
000390 99 c4 7f 3c d3 86 53 be 8b 21 82 3c 42 12 8d 3d
       0.015610837 -0.206569 0.015885135 0.06888248
0003a0 86 29 2c bd bd ec 9e bd fa 6f 94 3d 04 e1 20 3e
       -0.042031787 -0.07759998 0.0724792 0.15710837
0003b0 a5 f2 03 3e a4 e0 0d 3d 6f 2e aa 3d e5 83 9a 3d
       0.1288553 0.034638062 0.08309638 0.07544688
0003c0 2a 19 a1 bd 69 c2 81 3d 34 46 55 bc 20 82 d0 bc
       -0.07866128 0.06335909 -0.013017226 -0.025452673
0003d0 60 ee c2 3c 2e 62 ef bd 4a 93 01 3e f6 ac 8c 3d
       0.023795307 -0.11688648 0.12653843 0.06868927
0003e0 15 bf 3f 3d d7 5d 2d 3e 42 3d d5 3d 8f 7d 3d bd
       0.04681309 0.16930328 0.104120746 -0.04626232
0003f0 c7 a0 0c 3a 19 ee ed bc fd 9f 2c 3d 5e 28 16 be
       0.0005364534 -0.029044198 0.042144764 -0.14663836

network_body._body_endoder.seq_layers.2.bias f4 [128]
000000 cd af ea 39 23 3e 67 ba 96 e9 f2 ba 1b 9a 76 bb
       0.0004476294 -0.000882121 -0.0018532749 -0.0037628475
000010 d5 f5 98 ba 0d 8b 10 bb b0 f3 52 bb e2 af 15 bb
       -0.0011669943 -0.0022055537 -0.0032188706 -0.002284043
000020 cb 41 b3 ba c6 58 a9 ba 38 d1 ee 3a 91 f3 88 3a
       -0.0013676224 -0.0012920133 0.0018220311 0.0010448565
000030 8f 84 0f 3b 17 78 e4 ba 33 3d 7a b9 70 17 24 bb
       0.002189908 -0.0017430809 -0.00023864656 -0.0025038384
000040 99 db 38 ba 48 be 69 ba a6 16 8c bb 0b bb 02 3b
       -0.00070517656 -0.0008916599 -0.004275161 0.0019947912
000050 d7 44 57 bb bd f6 38 39 67 6b 7f 3b 8b a2 39 bb
       -0.0032847428 0.00017639525 0.003897393 -0.0028325643
000060 03 7f f8 ba 73 ce f1 ba 64 87 10 bb 27 3a 91 b9
       -0.0018958751 -0.0018448367 -0.0022053355 -0.00027699882
000070 82 31 2a bb 0b fd ee ba c3 da 88 bb 44 fa 25 3b
       -0.002596945 -0.0018233372 -0.004176469 0.0025326172
000080 81 d3 92 3a 72 5e 14 bb c0 42 45 ba 3e f8 19 bb
       0.0011201949 -0.0022639302 -0.00075249 -0.002349391
000090 07 b3 4d ba 16 3a c3 b9 b1 bf 47 bb ff 7b 87 3a
       -0.00078468065 -0.00037236576 -0.0030479247 0.0010336636
0000a0 ab 10 0d bb 79 f1 7e bb 76 8e 3b 3a 3e 11 a0 3a
       -0.0021524827 -0.0038901253 0.0007154712 0.001221217
0000b0 94 c8 ee ba 09 67 60 3a 10 b4 64 bb 26 91 80 38
       -0.0018217736 0.00085602753 -0.0034897365 6.1305516e-05
0000c0 f5 f4 d4 3a 2c b9 a2 bb 86 6d 0c ba b5 da 84 bb
       0.0016247319 -0.004965922 -0.00053568964 -0.004054392
0000d0 69 a2 70 b9 41 7a 82 3b 02 08 8f b8 b2 37 07 3b
       -0.00022948686 0.003981859 -6.820263e-05 0.0020632562
0000e0 b3 f2 d8 3a 60 6c 43 3b 24 6c 49 b9 42 09 5a 3a
       0.0016551822 0.0029819235 -0.0001920914 0.00083174196
0000f0 17 f6 1a bb da 17 00 3a ab 0d 2e 39 17 11 99 3a
       -0.0023645216 0.00048863667 0.00016599025 0.0011678067
000100 f0 b9 b3 3a 3c 7a 7b b7 19 1e 1d bb 20 d3 05 3b
       0.001371203 -1.4989226e-05 -0.0023974238 0.002042003
000110 06 55 cb 3a dc aa b0 3a a1 ea 54 3b 6e ef 0c 3a
       0.001551301 0.0013478654 0.0032488483 0.0005376254
000120 7c 4c a0 b9 ac bf 5e bb b9 71 01 3b fb 1a 26 bb
       -0.00030574563 -0.0033988757 0.0019751622 -0.0025345671
000130 f6 c7 cc ba c5 8b 42 bb 94 43 41 bb 1a 35 33 3a
       -0.0015623558 -0.002968536 -0.0029489743 0.0006836221
000140 17 3e 17 3a be 47 ed ba f8 9a 0b bb 26 d5 8b bb
       0.0005769445 -0.0018103046 -0.0021302085 -0.0042673526
000150 1c be a6 ba 57 a1 2a bb d9 71 ef ba cb 9a bd 3a
       -0.0012721452 -0.0026036107 -0.0018268182 0.0014465688
000160 0e 8b 24 39 34 6b bb b9 c5 68 1d bb 86 fd a2 ba
       0.0001569206 -0.00035747292 -0.0024018746 -0.0012435175
000170 aa a1 12 3a e4 28 65 bb 4b f0 54 3b 66 bf 0b bb
       0.0005593548 -0.0034967 0.0032491859 -0.00213238
000180 6c b5 2e 3b d3 db c8 39 8a 7c 15 ba 56 08 80 3a
       0.0026658429 0.00038310754 -0.00057024567 0.0009768109
000190 6c 09 10 b8 d9 fc 73 3a 5a 89 d8 b9 30 4d 82 bb
       -3.434105e-05 0.00093073916 -0.00041301065 -0.0039764866
0001a0 5e 62 0e 3a d5 17 14 bb 6d 95 8e ba a7 80 18 ba
       0.0005431528 -0.0022597213 -0.0010878273 -0.00058175105
0001b0 df 12 2c ba 3e fd 02 bb d5 55 b8 bb 1d 6b 8e ba
       -0.00065640913 -0.001998737 -0.0056254664 -0.0010865662
0001c0 e9 49 da b8 a3 a3 13 bb e4 5a e7 b9 fd 23 e1 b9
       -0.00010408817 -0.0022527955 -0.00044127472 -0.00042942158
0001d0 90 1c 63 3b 70 e0 52 3a 85 58 13 3b 69 7e 52 bb
       0.0034654476 0.0008044308 0.0022483182 -0.0032118803
0001e0 8d 8a 74 b9 09 c3 44 bb 2c a5 ae ba bc d9 fe ba
       -0.00023321268 -0.0030023477 -0.0013324372 -0.0019443552
0001f0 cf 17 05 3a be 17 0b 3b 84 6a 3b 3b 1c ac 4d 3a
       0.0005077095 0.0021223868 0.0028597424 0.00078457757

action_model._continuous_distribution.log_sigma f4 [1, 2]
000000 b6 e3 1f bc ba 71 ac bb
       -0.00975888 -0.0052625807

action_model._continuous_distribution.mu.weight f4 [2, 128]
000000 51 99 a7 bc 45 fb 02 bb 0c 92 e9 3a d7 97 69 3b
       -0.02045885 -0.0019986194 0.0017820015 0.0035643482
000010 cf bb 29 bc bd 9a 80 3c 57 9b a4 3c db 18 77 3b
       -0.010359718 0.015698785 0.020093603 0.0037704024
000020 be 79 0f 3c 8a 0a 93 3c 89 88 e8 bb 5a a8 d5 bc
       0.008757053 0.017949361 -0.0070963544 -0.026081253
000030 c6 e7 47 3c 6d 58 c8 3c 82 5f 0e bc 46 72 3f 3b
       0.012201255 0.024456227 -0.008689763 0.00292124
000040 4b 1e 62 bc 4e 72 4c 3c 09 c3 1f 3c c9 3c d0 bb
       -0.013801168 0.012478424 0.00975109 -0.0063549024
000050 22 f1 36 3c 1d 38 46 bc 2f 8f 0b bc fa 9a 38 3d
       0.011165889 -0.012098339 -0.008518024 0.045069672
000060 ef 17 24 3d 82 5f bc 3c ef 67 ce 3c e4 9b 82 3c
       0.040061887 0.02299476 0.025196044 0.015943475
000070 48 f8 ae bb 79 53 46 bc 61 b8 b3 3c 3b 86 6f 3b
       -0.005339656 -0.012104862 0.021938505 0.0036548513
000080 66 c9 37 bd 81 b1 f1 3b 39 ba 89 3c e4 0c 14 bc
       -0.044869803 0.0073758964 0.01681243 -0.0090362765
000090 7b d3 06 3c 77 39 36 bc 0c e6 d7 3c d0 4e 1b bd
       0.008229132 -0.011122099 0.026354812 -0.03791696
0000a0 fb 35 3e 3d 3a 44 4b 3b 2a 01 7b bc 14 68 e0 bc
       0.0464382 0.0031016008 -0.015320102 -0.027393378
0000b0 2e 5c 9e 3c 52 19 70 bc 3c 42 78 3c 41 c0 87 bc
       0.019331064 -0.014654474 0.01515251 -0.016571166
0000c0 49 96 e3 ba af f6 3f bc d5 b8 b0 bc 52 73 21 3a
       -0.0017363514 -0.011716529 -0.02157251 0.00061588467
0000d0 7d f4 1b 3c 9a d7 82 3c 65 2a 2c 3c 7f 8c 42 bc
       0.00951874 0.015971947 0.0105081545 -0.011874317
0000e0 72 d3 a1 bc 1a 85 03 bd 96 96 53 bb 88 17 97 bb
       -0.019754145 -0.032109357 -0.00322858 -0.0046109594
0000f0 5c 15 84 bb e6 86 d5 3c d4 54 7e 3c d2 5b e6 bc
       -0.0040308665 0.026065301 0.015523154 -0.028119955
000100 69 9b dc bb 9c 81 82 bc 7d a7 f6 3c 56 60 53 bb
       -0.0067323935 -0.015930943 0.030109162 -0.0032253466
000110 6d a4 70 3b 05 3e 27 bd 88 83 c4 bc 0a 43 52 bb
       0.00367191 -0.04083063 -0.0239885 -0.0032083415
000120 77 c2 2c bb 46 7f b7 3b 00 8f a3 bc c7 66 68 3c
       -0.0026361027 0.005599889 -0.019965649 0.01418466
000130 02 27 8d bb a3 6d cd 3b 18 49 67 3b 7c 0f 18 bd
       -0.0043076286 0.006269173 0.003529137 -0.037124142
000140 8e bd 3a bc 58 eb 6a bc 20 19 06 3c 0e 65 0b 3b
       -0.011397732 -0.014338337 0.008184701 0.002126995
000150 1c 92 f0 3b 9b 4f 77 3c 0c 59 cd 3c a9 cb 93 bc
       0.0073416363 0.015094663 0.025066875 -0.018041449
000160 ab 11 e8 bc 37 a4 a5 bb fb 6a 17 bc 0a 58 00 3b
       -0.028328737 -0.0050549763 -0.009241815 0.0019583725
000170 bc 4a b5 3b 7f 79 1a bb 47 ee d2 bc ce b1 6a 3c
       0.0055325907 -0.0023570952 -0.025748385 0.0143246185
000180 1e 65 26 bc f0 d3 b4 bb 9a 25 4c ba 78 56 a3 3c
       -0.010155944 -0.005518429 -0.00077875855 0.019938692
000190 ba 1e ff bc 1c 24 6e bb a0 17 0f b7 15 d3 44 3c
       -0.031142581 -0.003633744 -8.528965e-06 0.0120132165
0001a0 42 60 38 bc 84 9d 96 bc a5 c8 a9 3c 92 da 73 bc
       -0.011253418 -0.018385656 0.020725558 -0.014883654
0001b0 a9 d8 f7 bc 1c 29 39 bc e8 47 ce bb 79 d5 0d 3c
       -0.030254679 -0.011301305 -0.006295193 0.008656853
0001c0 21 ca 78 3b a0 5b c3 bb 52 eb 5e 3c 3e 32 01 3c
       0.0037962275 -0.0059618503 0.013605909 0.007885514
0001d0 a5 53 7f bb 86 38 82 bc 91 cc 1c bb 76 21 cb 3c
       -0.0038959768 -0.015896093 -0.0023925642 0.024796229
0001e0 49 dd 60 3d 42 7d ce bb 9f da f2 3b 02 c3 93 3c
       0.054898534 -0.006301553 0.0074113156 0.018037323
0001f0 34 e8 a0 bc ab 9b dd bb 3d 45 06 3c b6 8f 8a 3c
       -0.019641973 -0.006762942 0.008195219 0.01691423
000200 cb d5 0f 3d b5 b3 e1 3c 33 75 46 bc 2d c2 c2 bb
       0.035116 0.027551511 -0.012112903 -0.0059435577
000210 8b ee ce bc c9 9d c9 bc 1c a5 b3 3c eb 99 51 3a
       -0.02526023 -0.02461137 0.021929316 0.0007995653
000220 9c 15 cb 3a 85 38 f0 3b 39 e9 98 3c 6c 6d ed 3b
       0.0015494111 0.0073309564 0.018665897 0.00724571
000230 a4 b6 8f 3c 24 e9 eb 3b 6a 42 52 bd db 90 e1 3c
       0.017543145 0.0071994234 -0.05133287 0.027534893
000240 e8 16 a4 bb 0d de d0 3c b5 1a b9 bb e6 75 d3 3c
       -0.0050076135 0.025496507 -0.0056489357 0.025813054
000250 1b 97 92 bc ae cd 35 bc 5f ba 42 3c 33 80 a8 3b
       -0.017894318 -0.011096401 0.011885255 0.0051422357
000260 30 5f 43 bc de 66 5a bc fa 28 a8 3c b1 9a 1c 3d
       -0.01192455 -0.0133301895 0.020527352 0.038233463
000270 7e fd 0d bc 02 53 3f 3b b0 b6 9a 3b 31 c6 da 3c
       -0.008666394 0.0029193764 0.004721485 0.026705833
000280 e8 ac f3 3c ab 77 83 bc 90 43 c6 3b c0 f9 02 bd
       0.029745534 -0.016048273 0.0060505345 -0.03197646
000290 be 55 52 3c a9 73 2a bc b1 df 2c 3c e4 3f 73 3c
       0.012837825 -0.010403552 0.010551379 0.014846776
0002a0 12 a7 0e 3c d6 a1 8e 3c f6 92 20 bd 19 f7 9a bc
       0.008706825 0.017411154 -0.039202653 -0.018916653
0002b0 27 c2 6f 3b 48 bc a2 bc e7 6a d1 bb 0b c2 19 bc
       0.003658423 -0.01986517 -0.0063909176 -0.009384642
0002c0 42 3a 87 bc e2 47 30 bd 9f 41 af bb 1a b8 1d bc
       -0.016507272 -0.043037303 -0.005348399 -0.009626413
0002d0 7b e4 25 3c b8 ce 35 bd 70 78 8d bb 54 e3 78 bb
       0.010125275 -0.044386595 -0.004317336 -0.0037977295
0002e0 72 81 fc 3b c7 e3 2b 3d 46 48 d1 bb 4d 46 23 3c
       0.007705861 0.041965272 -0.0063867895 0.0099654915
0002f0 89 b2 89 3b 71 ec 9c bc c1 37 7b bc 0c 0c a7 bc
       0.0042021913 -0.019155713 -0.015333117 -0.020391487
000300 41 c3 ad bc ad b0 7e bc b4 ba 0e bd 9b 43 14 bd
       -0.021211268 -0.0155450525 -0.034846023 -0.036197286
000310 c9 21 3a 3c e3 7e 86 3c b2 41 a9 bc cf 9e 75 3c
       0.011360594 0.016417926 -0.020661209 0.014991476
000320 96 ac e7 bb 62 49 ba bc f8 e7 43 bc 46 44 fd 3c
       -0.0070701344 -0.02274007 -0.011957161 0.030916344
000330 b1 b5 83 bb 96 b8 2e 3c 93 2f 08 ba 8f 01 10 ba
       -0.004019462 0.010664126 -0.00051950774 -0.00054933963
000340 74 c2 4a bc 25 bb e2 bc 24 db 98 39 08 59 c9 bb
       -0.012375463 -0.027677128 0.00029154972 -0.0061446466
000350 8d ef a1 3b c3 79 fc 3b 0b 5d 1f 3d 56 ba 3a 3d
       0.0049418868 0.007704945 0.038907092 0.04558786
000360 4e b5 72 bb 9b ed 6a bb f7 6d f4 bc 63 a6 06 bd
       -0.0037034336 -0.003584719 -0.029837592 -0.032873522
000370 9a c6 84 3c f2 81 4d 3b bf 4a 5f bb 52 2d 5b 3c
       0.016207982 0.003135797 -0.0034071652 0.013377504
000380 6e 68 73 3a a4 6e 83 3c 7a 24 d7 bc d9 e4 06 3c
       0.00092852756 0.016043968 -0.02626251 0.0082332725
000390 6b ee 5c bc f5 2b ec 3b a3 d5 18 3d 4c 59 b1 bc
       -0.013484578 0.0072073885 0.037313115 -0.021649025
0003a0 3e be 45 bc c3 b8 5e bc 86 a8 90 bc 20 de 96 3b
       -0.012069283 -0.013593855 -0.017658483 0.004604116
0003b0 6f e9 9f 3c 53 a0 b2 ba 13 33 e3 3c ee df 1f bb
       0.01952049 -0.0013628103 0.027734315 -0.0024394947
0003c0 6c 0d f8 3b 17 0c 99 3b b6 dd ba bc 2a ed ae 3c
       0.0075699594 0.0046706307 -0.022810798 0.021353323
0003d0 c4 01 76 bc 91 b2 2d 3c 89 c5 f9 bc 6c ee 0f 3b
       -0.015015069 0.010601656 -0.0304897 0.002196218
0003e0 93 55 7f bc 63 a8 b8 3b c3 48 f3 bb ee 71 37 3c
       -0.015584367 0.0056353076 -0.0074244454 0.011196597
0003f0 31 df 06 3a 55 f1 6c bd af 1f 3f bd eb e3 b0 3c
       0.00051449524 -0.05784734 -0.046661075 0.021593055

action_model._continuous_distribution.mu.bias f4 [2]
000000 6e 40 53 ba 7e f7 df 39
       -0.0008058612 0.0004271827
