Goodminton/Assets/results/Badminton/Badminton/Badminton-630.onnx (onnx, 74586 bytes, 7 tensors)

network_body._body_endoder.seq_layers.0.weight f4 [128, 5]
0.48075414 -0.020497864 0.76170546 -0.0013151988 -0.14561519 0.5319914 0.37750724 -0.078769416
-0.010021938 -0.020852154 -0.09003329 0.5899045 -0.9939777 -0.73003197 0.3171899 -0.47472474
-0.3733281 -0.24823831 0.13664567 0.3011828 -0.2885372 0.15921322 0.33355573 0.62947047
-0.3641143 0.62387776 0.3378734 -0.2882893 -0.044419963 1.0292552 0.20876458 -0.021166809
-0.29674932 -0.17817755 -0.6777014 0.08319435 0.37239864 -0.6513957 -0.26340514 0.6782793
0.341926 0.3629128 -0.46983528 -0.4324206 0.11010579 0.6793869 -0.24337406 -0.09757095
0.36013398 -0.47081214 0.026319344 -0.22191487 -1.0739199 -0.20404366 -0.012958268 -0.6016233
0.5759677 -0.38661665 0.019536046 -0.12908737 -0.18896689 0.28035462 0.2018547 0.7276747
0.6410365 0.09328711 -0.9694684 0.16995475 0.18785426 1.0882388 0.32369795 0.19058749
0.17045787 0.29611436 0.115160055 -0.17792141 1.0930611 0.055598937 -0.3594559 -0.6102365
0.22730948 0.23341867 0.31488428 -0.83063 0.37030783 0.09900136 0.07567877 -0.29269367
-0.6648596 -0.26909056 -0.031151202 0.091360636 -0.2614 0.73959357 -0.22140113 0.5339324
-0.36797762 -0.010972402 -0.37738365 -0.1726678 0.62400466 -0.29297775 0.35664865 -0.26789272
-0.3940824 0.12742366 -0.21949135 -0.28738806 -0.45831415 0.05985474 -0.16207397 -0.3086091
-0.12444084 -0.28502175 0.07724453 -0.09653911 0.2548336 -0.67147386 0.07463757 0.40778145
0.26221925 -0.06975997 0.25517562 -0.4040686 0.38708767 -0.0011038798 -0.2785659 0.13198155
-0.03348963 -0.20405234 0.043856658 0.27626276 0.7520675 -0.44382304 -0.84943837 -0.39467236
-0.46083313 0.40346524 -0.04283589 0.22119357 0.60619545 -0.421149 0.21190943 -1.16788
0.36597624 -0.15712915 -0.03492039 -0.42446145 0.2667933 0.10211682 -0.1484114 -0.2843639
-0.581032 0.47429934 0.021677587 -0.28684342 -0.18047658 0.118991986 -0.62663335 -0.12068711
0.34095007 0.0058272723 -0.5351425 0.22465451 0.23443177 -0.35076085 -0.1443198 -0.38625532
-0.28261027 0.27272138 -0.09419078 0.43124533 -0.7900146 0.44179472 -0.68508357 0.33256093
0.23446305 0.13830142 0.4027866 0.44970533 0.007390488 -0.30085543 -0.28415394 0.6535979
0.71191794 0.2876961 -0.31541052 -0.6789963 -0.5423356 -0.5183052 0.3540378 -0.5876009
0.41113162 -0.45178074 -0.6221043 0.35816723 0.73863435 0.05533733 -0.39046186 -0.13574776
0.690657 0.4462063 0.023908895 0.1488755 -0.7608791 -1.0489942 -0.6878629 -0.7422899
-0.25618365 0.52310187 0.57099664 -0.34260774 -0.48081738 -0.19709013 0.34973922 0.99488044
0.19742909 0.23617736 0.23172243 -0.05828628 0.6074551 -0.26289955 -0.59134364 0.26094654
0.19653873 -0.34021991 -0.11339681 0.9028303 -0.19829847 -0.30140394 -0.5148881 0.31816941
-0.3642952 -0.5155156 0.42115942 0.16455756 -0.49246526 0.5435345 0.68838423 0.40646097
-0.2514074 0.20909642 -0.17454965 -0.2659241 -0.6805706 0.054383337 -0.27102226 1.132037
-0.51725155 -0.13989583 -0.2140713 -0.4706484 -0.25047508 -0.76419246 -0.47278327 -0.4633383
00000000: 6825 f63e 23eb a7bc 21ff 423f c062 acba
00000010: 261c 15be 9730 083f a148 c13e dc51 a1bd
00000020: 0e33 24bc 23d2 aabc 6063 b8bd fb03 173f
00000030: 5375 7ebf 60e3 3abf b766 a23e 1f0f f3be
00000040: dc24 bfbe 2f32 7ebe d8ec 0b3e a234 9a3e
00000050: 26bb 93be ca08 233e d1c7 aa3e fa24 213f
00000060: 316d babe 74b6 1f3f befd ac3e a89a 93be
00000070: b5f1 35bd a2be 833f 62c6 553e 0466 adbc
00000080: 87ef 97be 2d74 36be d77d 2dbf cd61 aa3d
00000090: 09ab be3e dec1 26bf 0add 86be b6a3 2d3f
000000a0: ed10 af3e b5cf b93e 408e f0be 3c66 ddbe
000000b0: 257f e13d 4dec 2d3f 0d37 79be 47d3 c7bd
000000c0: 7b63 b83e 4a0e f1be aa9b d73c a73d 63be
000000d0: 3576 89bf d2f0 50be ea4e 54bc fc03 1abf
000000e0: 9f72 133f 9ef2 c5be 0f0a a03c 7b2f 04be
000000f0: 8980 41be a48a 8f3e 00b3 4e3e e448 3a3f
00000100: f81a 243f 500d bf3d 152f 78bf 9e08 2e3e
00000110: de5c 403e 694b 8b3f bdbb a53e 5e29 433e
00000120: 828c 2e3e 4d9c 973e 09d9 eb3d 0831 36be
00000130: 6de9 8b3f b6bb 633d 9b0a b8be 7638 1cbf
00000140: d1c3 683e 4e05 6f3e 8338 a13e 2ba4 54bf
00000150: fd98 bd3e 3ac1 ca3d 79fd 9a3d f2db 95be
00000160: 3d34 2abf 3dc6 89be ce30 ffbc 491b bb3d
00000170: 39d6 85be 0156 3d3f fab6 62be cbaf 083f
00000180: 9067 bcbe 97c5 33bc 6e38 c1be d4cf 30be
00000190: c5be 1f3f 2e01 96be a79a b63e 3c29 89be
000001a0: 2bc5 c9be 597b 023e 57c2 60be 8724 93be
000001b0: 27a8 eabe 3e2a 753d b8f6 25be 0302 9ebe
000001c0: d7da febd 5fee 91be 6132 9e3d 4cb6 c5bd
000001d0: 8d79 823e b6e5 2bbf 95db 983d bbc8 d03e
000001e0: 9a41 863e 51de 8ebd 61a6 823e 14e2 cebe
000001f0: 5b30 c63e 0fb0 90ba 31a0 8ebe 2c26 073e
00000200: 6c2c 09bd 19f3 50be 0aa3 333d 5072 8d3e
00000210: 7f87 403f c63c e3be cb74 59bf 7f12 cabe
00000220: 52f2 ebbe ff92 ce3e b074 2fbd 9180 623e
00000230: a02f 1b3f d7a0 d7be c9fe 583e 187d 95bf
00000240: 3d61 bb3e 77e6 20be af08 0fbd 0353 d9be
00000250: 2299 883e a022 d13d 28f9 17be 2598 91be
00000260: 83be 14bf 5dd7 f23e 3295 b13c 24dd 92be
00000270: dace 38be 12b2 f33d 0b6b 20bf ce2a f7bd
00000280: 0291 ae3e b4f2 be3b 19ff 08bf d50b 663e
00000290: e20e 703e ed96 b3be 92c8 13be 42c3 c5be
000002a0: 4bb2 90be 23a2 8b3e 18e7 c0bd 30cc dc3e
000002b0: 663e 4abf eb32 e23e a361 2fbf 6d45 aa3e
000002c0: 1517 703e e39e 0d3e 0c3a ce3e c73f e63e
000002d0: e82b f23b b909 9abe a07c 91be 3152 273f
000002e0: 4140 363f e74c 933e 7d7d a1be b4d2 2dbf
000002f0: 82d6 0abf a6af 04bf 7144 b53e 036d 16bf
00000300: d87f d23e ce4f e7be 3a42 1fbf b261 b73e
00000310: 2417 3d3f 65a9 623d 9eea c7be 7601 0bbe
00000320: e6ce 303f 2775 e43e 96dc c33c d272 183e
00000330: f9c8 42bf 7145 86bf c817 30bf b606 3ebf
00000340: 812a 83be 01ea 053f d62c 123f 486a afbe
00000350: b22d f6be ffd1 49be 0511 b33e 7cb0 7e3f
00000360: da2a 4a3e 7ad8 713e a548 6d3e 98bd 6ebd
00000370: 2d82 1b3f c59a 86be 4c62 17bf c99a 853e
00000380: 7341 493e 4e31 aebe 963c e8bd e31f 673f
00000390: c10e 4bbe 9e51 9abe b5cf 03bf 1ae7 a23e
000003a0: e784 babe d5f8 03bf 35a2 d73e c781 283e
000003b0: 6824 fcbe 1425 0b3f f339 303f a71b d03e
000003c0: 79b8 80be 5f1d 563e 25bd 32be 3427 88be
000003d0: e039 2ebf 10c1 5e3d 6ec3 8abe 97e6 903f
000003e0: 996a 04bf da40 0fbe 8235 5bbe d4f8 f0be
000003f0: 453e 80be 1ea2 43bf a610 f2be ad3a edbe

network_body._body_endoder.seq_layers.0.bias f4 [128]
0.0019002976 0.0006568413 -0.0017173263 -0.0017625563 -0.0005392319 0.002833001 -0.001046907 0.003639045
-0.00082173233 0.00039116107 -0.0016091714 -0.0024186012 -0.0033157354 -0.0057445355 -0.0026906591 -0.0045410343
0.003926387 -0.00033784492 0.0012436305 0.0012085341 -0.0023402097 0.0015582375 -0.0030763135 -7.61673e-05
0.0038412772 -0.0052428213 0.0010826591 -0.00096923904 -0.005740041 -0.00017189677 -0.0021649657 -0.005046863
-0.0005940715 -0.0025812224 -0.0045513613 -0.0013653028 0.00060762826 0.00039481174 0.0015035337 0.0027131406
0.0036446762 -0.005164759 -0.0015146155 -0.0021285624 0.0005956953 -0.005876676 -0.0031708502 -0.0034770174
-0.003368327 -0.0033338196 -0.0013386669 0.00075505377 0.0010116793 0.005767204 -0.0022096904 0.0032159274
-0.004191643 -0.0035493989 0.005467065 -0.00031957435 0.0024440289 0.0045467606 -0.0005236218 0.0015973069
-0.0038989997 -0.0049849534 -0.00076478557 -0.0041335206 0.0005548909 -0.0037357325 -0.006267721 0.0018206423
0.0003327586 0.0006015257 -0.0033233676 -0.0027859644 0.0014434663 0.0009439384 -0.0018207479 -0.0013462256
-0.0017374677 -0.0022660575 -0.0021413497 -0.0030963402 0.0035689683 -0.0021097192 -0.0018573047 -0.0029792225
-0.004161251 -0.0018168655 -0.0028376477 -0.00024000672 0.0019859555 -0.0025097358 0.0018294153 -0.001942348
-0.005350626 -0.0026144336 0.004455571 -0.0017944161 -0.0026689686 0.001862547 -0.0011897058 -0.0008787458
0.0030091957 0.001546997 -0.0018623179 0.006249778 -0.005356837 0.0036962354 -0.0007912524 -0.0046464736
-0.005210881 -0.00024693867 -0.00409921 -0.0062825186 0.0018374634 -0.006399074 -0.0015941729 0.0007955693
0.0037556777 -0.0004212972 0.004098236 -0.0004251295 -0.0041499995 -0.0028298874 -0.0030255972 0.001982138
00000000: 6813 f93a e02f 2c3a e917 e1ba 9305 e7ba
00000010: 3e5b 0dba dfa9 393b 5f38 89ba 0b7d 6e3b
00000020: 8669 57ba c014 cd39 d5ea d2ba 6581 1ebb
00000030: cf4c 59bb a83c bcbb c555 30bb f5cc 94bb
00000040: eca8 803b c720 b1b9 5101 a33a ad67 9e3a
00000050: 345e 19bb c63d cc3a fa9b 49bb 02bc 9fb8
00000060: f0bd 7b3b f9cb abbb 03e8 8d3a 8814 7eba
00000070: f416 bcbb 303f 34b9 19e2 0dbb 2860 a5bb
00000080: 77bb 1bba ba29 29bb 9623 95bb f6f3 b2ba
00000090: 3e49 1f3a bcfe ce39 3812 c53a f2ce 313b
000000a0: 85db 6e3b 233d a9bb 1086 c6ba 5a7f 0bbb
000000b0: 6f28 1c3a 2291 c0bb 0ace 4fbb acde 63bb
000000c0: 26bf 5cbb 367c 5abb 3576 afba cdee 453a
000000d0: 539a 843a d0fa bc3b 74d0 10bb 4fc2 523b
000000e0: 0d5a 89bb 089d 68bb 1125 b33b 8b8c a7b9
000000f0: 002c 203b fefc 943b aa43 09ba ba5c d13a
00000100: 5c86 7fbb d258 a3bb e47b 48ba 7c72 87bb
00000110: 1976 113a 31d3 74bb 7461 cdbb 9ea2 ee3a
00000120: 1a76 ae39 b5af 1d3a dbcc 59bb ba94 36bb
00000130: b132 bd3a a272 773a 29a6 eeba d673 b0ba
00000140: bebb e3ba 2382 14bb e355 0cbb f8eb 4abb
00000150: 5ae5 693b 3743 0abb ce70 f3ba 0f3f 43bb
00000160: 1a5b 88bb e423 eeba d4f7 39bb 50aa 7bb9
00000170: ce26 023b 617a 24bb fec8 ef3a 6296 feba
00000180: 4e54 afbb eb56 2bbb 0a00 923b 9d32 ebba
00000190: dde9 2ebb b520 f43a e7ef 9bba a25b 66ba
000001a0: ed35 453b 9bc4 ca3a 0519 f4ba f0ca cc3b
000001b0: 6888 afbb 8a3c 723b 0d6c 4fba 7241 98bb
000001c0: 0ac0 aabb 8c77 81b9 aa52 86bb 96dd cdbb
000001d0: 0ad7 f03a 53af d1bb 91f3 d0ba c18d 503a
000001e0: d121 763b 8ee1 dcb9 7f4a 863b eae3 deb9
000001f0: b8fc 87bb a275 39bb 1949 46bb c2e6 013b

network_body._body_endoder.seq_layers.2.weight f4 [128, 128]
-0.045810558 0.043179967 0.12880784 0.13216434 0.015700694 0.0007943163 -0.059498936 -0.0023640948
-0.16308944 0.09077917 -0.052054226 -0.04959176 -0.03045882 -0.0015866283 0.13267945 -0.08729067
0.0602737 0.027527919 0.028846884 -0.008242565 -0.10408494 -0.06943088 -0.031777736 0.0016222921
0.09651367 0.022841925 0.14637987 0.05228649 -0.043837115 -0.0302474 0.015271557 0.091616064
-0.03073693 0.05534395 -0.059216272 0.11232894 -0.07023803 0.039808206 -0.19623426 -0.078916915
0.030100277 0.046748437 0.015352133 -0.09557074 0.20427784 0.07170619 0.06601649 0.04633227
0.10468071 0.09815139 0.13638102 0.0621928 0.00314295 0.10428539 0.048782904 0.041269165
-0.0137456935 -0.06804035 -0.06895855 0.059684902 0.20496812 -0.12245616 -0.14275718 0.038697127
0.094165884 -0.13131689 -0.091860406 0.008191754 0.07326222 0.032486036 0.0786763 0.110150345
-0.0014895932 -0.090944044 -0.036799867 0.06903956 0.013239344 0.11893966 0.15843944 0.006575498
-0.045170475 0.054968957 0.11313444 -0.028522199 0.023733156 -0.05210014 0.08471931 0.004072221
0.046222225 0.07008822 -0.029141173 0.17005445 -0.094026454 0.06953481 0.022372782 0.02805395
0.089172944 -0.11123171 0.029601026 0.11101568 0.04328347 -0.053357746 -0.02601053 0.17441557
0.014113731 0.055370755 -0.037779253 -0.027047815 0.068746775 -0.07920767 -0.037776146 -0.16519679
-0.08003636 -0.102940165 -0.033434052 -0.014470195 -0.03043903 -0.12264514 0.10830747 -0.082482524
-0.046710666 0.0924772 -0.01949577 0.03438357 -0.06255081 -0.010076902 0.067679 0.009511582
-0.038498696 0.1440211 -0.1115798 -0.1024412 0.037606057 -0.12640283 -0.14629418 0.026194127
-0.017048761 -0.008359209 0.11791377 -0.09360914 -0.18880641 0.09488634 0.0022975118 -0.043603335
0.089352265 0.010735309 -0.046109747 -0.051089413 -0.06684466 0.1380121 0.08101536 -0.12777673
-0.060119122 -0.071313515 -0.101166375 -0.06821152 0.16185907 -0.18775724 -0.12723626 0.009387817
0.03966196 0.021638958 0.008411729 -0.117558636 0.039641827 -0.07115136 0.0036622025 -0.061796278
0.049386546 0.08822575 -0.0419937 -0.028562473 0.16749522 -0.05437663 0.0056965463 0.011282654
-0.03707717 -0.039144922 0.07767196 0.025974115 0.03583391 0.11185087 0.18253921 0.04624315
0.13688977 -0.023606222 0.08362972 -0.0013891177 -0.18736015 -0.010001023 0.12140812 -0.058931783
0.045401964 -0.020052211 -0.05169391 -0.02955713 0.07063569 0.060657088 0.09703003 -0.055015765
-0.041529533 -0.04200265 0.0037055097 -0.018382793 0.0585245 -0.08196268 0.110369064 -0.061960544
0.019513294 -0.010581012 0.1158377 -0.0032326968 0.2925889 -0.16472897 0.10826124 -0.1705094
-0.051416636 0.07568252 -0.015809806 0.0429399 0.100840464 -0.05529264 -0.034701504 0.044996064
-0.002819387 -0.0279628 0.04562605 -0.084033474 0.14216055 0.002455989 -0.10834453 0.010089976
0.0161152 0.034164112 0.026853759 -0.2199276 -0.00010626379 -0.02131472 0.1288063 -0.15152241
0.009380109 0.011641112 0.08069802 0.095023386 0.11942589 -0.12602526 0.02435879 0.04139899
-0.048163127 -0.019658769 0.0059924624 0.03637267 -0.07315045 -0.01937509 -0.038336802 0.13391069
00000000: daa3 3bbd 7add 303d 34e6 033e 1756 073e
00000010: be9e 803c aa39 503a 28b5 73bd eeee 1abb
00000020: eb00 27be 6eea b93d d036 55bd bb20 4bbd
00000030: c684 f9bc 69f6 cfba 1fdd 073e 73c5 b2bd
00000040: 8ee1 763d 3b82 e13c 4d50 ec3c d30b 07bc
00000050: 7c2a d5bd c731 8ebd 5f29 02bd 17a3 d43a
00000060: f6a8 c53d fd1e bb3c 9be4 153e 5c2a 563d
00000070: 8c8e 33bd 65c9 f7bc 8d35 7a3c 34a1 bb3d
00000080: 04cc fbbc 56b0 623d c38c 72bd b70c e63d
00000090: f5d8 8fbd ee0d 233d a2f1 48be 319f a1bd
000000a0: db94 f63c 4a7b 3f3d 8387 7b3c 98ba c3bd
000000b0: 362e 513e b2da 923d a733 873d e8c6 3d3d
000000c0: d762 d63d 9903 c93d 77a7 0b3e e1bd 7e3d
000000d0: f3f9 4d3b 9493 d53d 95d0 473d db09 293d
000000e0: 9e35 61bc bd58 8bbd 243a 8dbd 2878 743d
000000f0: 2ae3 513e 4cca fabd f02e 12be e180 1e3d
00000100: 0bda c03d ef77 06be 4f21 bcbd b536 063c
00000110: 810a 963d 1410 053d 0a21 a13d 8196 e13d
00000120: 743e c3ba df40 babd 75bb 16bd 9d64 8d3d
00000130: d5e9 583c a396 f33d f33d 223e 4677 d73b
00000140: ad04 39bd 2127 613d 07b3 e73d 63a7 e9bc
00000150: 096c c23c f566 55bd 5181 ad3d 4470 853b
00000160: 8453 3d3d 6a8a 8f3d 78b9 eebc c122 2e3e
00000170: f190 c0bd 4468 8e3d 2047 b73c 66d1 e53c
00000180: 4ea0 b63d 73cd e3bd da7d f23c 305c e33d
00000190: 024a 313d a78d 5abd 0914 d5bc ff99 323e
000001a0: 473d 673c 72cc 623d 6bbe 1abd 6193 ddbc
000001b0: 1ccb 8c3d a237 a2bd 29bb 1abd 5929 29be
000001c0: 1aea a3bd 4bd2 d2bd 25f2 08bd 6614 6dbc
000001d0: 465b f9bc 602d fbbd 4fd0 dd3d 99ec a8bd
000001e0: af53 3fbd b064 bd3d 98b5 9fbc c9d5 0c3d
000001f0: a41a 80bd 9719 25bc 4a9b 8a3d 77d6 1b3c
00000200: cfb0 1dbd 447a 133e f383 e4bd b1cc d1bd
00000210: cf08 1a3d be6f 01be 24ce 15be 1195 d63c
00000220: d8a9 8bbc 10f5 08bc c67c f13d 26b6 bfbd
00000230: 7856 41be c553 c23d da91 163b 6999 32bd
00000240: 52fe b63d 26e3 2f3c 93dd 3cbd 2243 51bd
00000250: dae5 88bd 0b53 0d3e 62eb a53d e7d7 02be
00000260: 783f 76bd d20c 92bd 5130 cfbd 7bb2 8bbd
00000270: 62be 253e 6f43 40be 394a 02be 5ccf 193c
00000280: 9474 223d 2f44 b13c 59d1 093c 95c2 f0bd
00000290: 785f 223d ceb7 91bd 9001 703b 181e 7dbd
000002a0: 8c49 4a3d b4af b43d 9601 2cbd d9fb e9bc
000002b0: de83 2b3e 07ba 5ebd 18aa ba3b e1da 383c
000002c0: 3bde 17bd 6d56 20bd 7a12 9f3d abc7 d43c
000002d0: 94c6 123d 1212 e53d 8feb 3a3e 7569 3d3d
000002e0: d52c 0c3e d661 c1bc 0f46 ab3d 0e13 b6ba
000002f0: 57db 3fbe 55db 23bc d2a4 f83d 7462 71bd
00000300: 69f7 393d 8944 a4bc febc 53bd cb21 f2bc
00000310: 72a9 903d 9173 783d aeb7 c63d 3658 61bd
00000320: df1a 2abd f90a 2cbd 23d8 723b 8397 96bc
00000330: 63b7 6f3d 0ddc a7bd 2d09 e23d 57ca 7dbd
00000340: 58da 9f3c fb5b 2dbc 513c ed3d a7db 53bb
00000350: 36ce 953e b6ae 28be 12b8 dd3d 049a 2ebe
00000360: 409a 52bd 70ff 9a3d 9183 81bc c0e1 2f3d
00000370: 7285 ce3d 897a 62bd 2a23 0ebd cb4d 383d
00000380: 77c5 38bb 3e12 e5bc 62e2 3a3d be19 acbd
00000390: 8992 113e a8f4 203b bde3 ddbd 6d50 253c
000003a0: 0604 843c abef 0b3d 6afc db3c b334 61be
000003b0: f0d9 deb8 359c aebc cce5 033e b128 1bbe
000003c0: 07af 193c 5dba 3e3c 0145 a53d 9f9b c23d
000003d0: 9095 f43d c40c 01be 168c c73c fd91 293d
000003e0: b346 45bd 6d0b a1bc 6b5c c43b 82fb 143d
000003f0: e7cf 95bd 82b8 9ebc 0d07 1dbd e21f 093e

network_body._body_endoder.seq_layers.2.bias f4 [128]
-0.0004998602 -0.0019651284 -0.0022123908 -0.0018722259 -0.0012860255 0.0016590225 -0.0018949977 0.00045162716
-0.004795088 -0.000864868 0.00027105247 -0.0032856825 -0.00024149298 4.9046364e-05 0.0010355886 -0.004695852
0.00058819115 -0.0044632806 0.0020473718 0.0024976197 0.0028940449 -0.0027240682 0.0003484396 -0.002171078
0.001686111 -0.0046687103 0.0032315422 0.00043898734 -0.0032332703 -0.00012509339 -0.005527838 0.0005672275
-0.0019271531 -0.0038116698 -0.0040783947 -0.0045200502 -0.003306242 -0.0019939838 -0.0013836476 0.0008655276
-0.00520567 0.0010658602 -0.006714936 -0.001838236 -0.0009759462 0.0020714807 -0.0011133563 0.0011103217
-0.0015712742 -0.0010475798 0.002796598 0.0035892436 -0.0005259461 -0.002879705 0.0017498388 0.0017797606
-0.0006875665 0.0012234681 -0.007773618 -0.0010015544 0.006130979 0.00031237202 -0.0006299973 0.0042645694
0.0025903068 -0.0020846287 -0.0033490672 -0.0062100114 -0.0008548063 -0.004535489 -0.003917529 -0.0030253786
-0.0026417936 0.0023246666 0.004516767 0.0049401284 -0.0024029985 -0.00022220505 -0.004224886 -0.0005311221
7.5262855e-05 -0.0047641094 -0.0040990068 -0.001745169 -0.005079685 0.002057774 0.0030795312 -0.0026971712
-0.0042027514 0.003686765 -0.006097347 -0.00392258 -0.0056851916 -0.0052747554 3.7893635e-05 -0.00048429403
-0.0011884414 0.0026673232 -0.0033649358 -7.77745e-05 0.0043727774 -0.0039689406 0.004353118 0.0030218875
-0.0022930524 -0.00057596643 -0.00019139811 0.00434745 0.0043073385 -0.004218533 0.0020471637 -0.0018536745
-0.002179217 0.0022325916 -0.0020785676 -0.0018354026 -0.005079874 -0.0010081645 -0.0010172687 0.0007308091
-0.0011714718 0.0039190263 0.0005562316 0.0016078644 -0.005903564 -0.0037025001 -0.002808175 -0.0015947783
00000000: 0d09 03ba 62c9 00bb c2fd 10bb 7a65 f5ba
00000010: db8f a8ba 8f73 d93a 9261 f8ba 5fc8 ec39
00000020: 1d20 9dbb 4fb8 62ba 0c1c 8e39 9b54 57bb
00000030: 4739 7db9 22b7 4d38 96bc 873a a9df 99bb
00000040: d730 1a3a b640 92bb 332d 063b 1baf 233b
00000050: 04aa 3d3b 4886 32bb c5ae b639 a548 0ebb
00000060: 7f00 dd3a fbfb 98bb 48c8 533b e227 e639
00000070: 46e5 53bb 802b 03b9 de22 b5bb feb1 143a
00000080: 8798 fcba 35cd 79bb 0ea4 85bb ee1c 94bb
00000090: 89ad 58bb 7fad 02bb 825b b5ba 93e4 623a
000000a0: 5394 aabb 55b4 8b3a f708 dcbb f7f0 f0ba
000000b0: a4d6 7fba aec1 073b 0aee 91ba 3788 913a
000000c0: 37f3 cdba f24e 89ba 2147 373b 8439 6b3b
000000d0: a5df 09ba 6fb9 3cbb d95a e53a db46 e93a
000000e0: cf3d 34ba c75c a03a d6b9 febb 9746 83ba
000000f0: 61e6 c83b ddc5 a339 6726 25ba cdbd 8b3b
00000100: 23c2 293b 449e 08bb 067c 5bbb 5a7d cbbb
00000110: 1415 60ba 709e 94bb 9d5e 80bb 6e45 46bb
00000120: f121 2dbb 6f59 183b 6301 943b cde0 a13b
00000130: a07b 1dbb b7ff 68b9 ea70 8abb 003b 0bba
00000140: 70d6 9d38 3f1c 9cbb f650 86bb 28be e4ba
00000150: 7c73 a6bb b8db 063b f6d1 493b 06c3 30bb
00000160: 3cb7 89bb a79d 713b 41cc c7bb fc88 80bb
00000170: d84a babb dbd7 acbb fbef 1e38 d8e8 fdb9
00000180: 7ac5 9bba 42ce 2e3b 4186 5cbb de1a a3b8
00000190: 8449 8f3b e30d 82bb 9aa4 8e3b dc0a 463b
000001a0: 0947 16bb 74fc 16ba 0ab2 48b9 0e75 8e3b
000001b0: 9324 8d3b 9f3b 8abb b529 063b fff6 f2ba
000001c0: 32d1 0ebb ac50 123b 9438 08bb e491 f0ba
000001d0: 1275 a6bb 6324 84ba e055 85ba c593 3f3a
000001e0: 128c 99ba 2d6b 803b 12d0 113a fabe d23a
000001f0: af72 c1bb a5a5 72bb 5c09 38bb e107 d1ba

action_model._continuous_distribution.log_sigma f4 [1, 2]
-0.0030936503 -0.009705447
00000000: d7be 4abb 9803 1fbc

action_model._continuous_distribution.mu.weight f4 [2, 128]
0.005207072 -0.0055429447 -0.007924016 0.021469017 0.0132784275 -0.0050690384 0.028217023 0.009338521
0.01381914 0.015738511 -0.027749678 0.006318211 -0.014166923 0.025899023 -0.0077231876 0.00033464085
-0.019496696 0.014859608 -0.02668853 -0.0043829256 0.009989956 0.005330949 0.014851456 -0.006923846
-0.03529242 0.02532148 -0.016728956 -0.009642642 0.026637709 -0.045110505 0.005635707 -0.036598966
0.023430804 0.017309768 0.0075288573 0.004161032 0.0068715704 -0.0038999086 0.012645335 -0.0071704765
0.02778215 -0.005194489 0.0031462344 0.012927769 -0.0030647165 0.018377041 0.01740396 -0.015415083
0.0050831772 0.015587979 0.020713786 -0.021314006 0.0129398 0.0039459323 0.010575929 -0.029385304
-0.009544853 -0.0034844351 0.00090232916 0.0052963225 -0.055361975 -0.0005429639 -0.009864787 -0.01790684
-0.025556056 0.0032948283 -0.0017762745 0.0021425227 -0.03206175 0.01645617 0.0050637624 0.0027492973
0.0033907683 -0.014698905 -0.030136822 -0.015250354 -2.6470603e-05 -0.015068132 -0.0009027836 -0.0068178847
-0.03046499 0.012355091 0.024973584 0.011046261 0.012954048 0.0030138323 -0.04744395 0.010543383
0.044267297 -0.010712187 0.01735733 0.0058826306 0.021762537 0.014243602 0.032634426 -0.017181002
0.022520984 -0.008890124 0.008101503 -0.008621471 -0.0228109 0.003939065 -0.026653226 -0.040031645
-0.0024684242 -0.014499735 -0.0011527734 -0.018424738 -0.020333314 0.011356587 -0.011745655 -0.012953095
0.011279866 -0.003759206 -0.0056403633 0.010537376 0.002993937 0.021924304 -2.8523136e-05 -0.012685664
0.009870134 -0.017036695 -0.019158918 -0.016956784 0.012621342 0.0010347217 0.016273504 0.014130162
0.008452194 -0.0047438066 -0.026644384 0.017502025 -0.011488426 0.015003163 -0.010977974 0.0059462935
-0.014943216 -0.024705684 -0.0076998607 -0.00074111676 -0.030114993 0.010427019 0.028373457 -0.0003604775
-0.021642113 -0.003720159 0.012359674 0.0010679873 0.040160123 0.023467626 0.05016515 -0.009062095
-0.002254951 0.004247659 0.025594799 0.024983907 0.00935341 -0.0013772497 -0.013760534 -0.013869705
0.017684788 -0.018732218 -0.02250092 -0.0048065027 -0.014441949 -0.0053014746 -0.0077152294 0.007730182
-0.00031882647 -0.0041900147 -0.0029941108 0.021477759 -0.011198348 0.032687444 0.017686501 -0.013411214
0.008211822 0.0060346075 -0.0043210206 0.01011177 -0.0014525863 0.008567501 0.017898519 -0.0011222899
0.009122385 0.023803303 -0.00037505096 0.01012541 0.030153533 0.005556458 -0.0024087643 0.03164475
-0.018641593 0.004593949 -0.014686921 -0.0058011194 -0.0062451093 -0.03211015 -0.0039509684 0.005578528
-0.011474556 -0.0066029346 0.014401867 0.009883244 0.004330343 -0.008609364 -0.004038389 -0.019894194
-0.018995317 -0.02863393 -0.017589651 -0.0066275164 -0.031661805 0.02224096 -0.012721221 0.01848
0.020201882 0.01369 -0.01146343 -0.00055690954 -0.030862808 -0.010893881 0.029474318 -0.022177514
0.02913877 0.00369237 -0.021752717 -0.008369168 0.008110725 -0.021017108 0.022988446 0.0068731415
-0.020288952 0.0032412265 0.008964168 0.011098925 0.024309454 -0.023972303 0.003852024 -0.018789243
0.02128197 0.021138802 -0.018142153 -0.012386867 -0.016844876 0.016325558 -0.034189288 -0.009940737
-0.01760167 0.019488836 0.03110327 -0.007761895 -0.0028472373 -0.009474499 -0.001833111 0.016793618
00000000: 16a0 aa3b 97a1 b5bb bbd3 01bc cbdf af3c
00000010: c38d 593c 2d1a a6bb 6327 e73c 9900 193c
00000020: ad69 623c 0dee 803c 4b53 e3bc ff08 cf3b
00000030: 621c 68bc 302a d43c cb12 fdbb bc72 af39
00000040: 89b7 9fbc b775 733c e7a1 dabc a59e 8fbb
00000050: eaac 233c 3eaf ae3b 8553 733c 6ee1 e2bb
00000060: c98e 10bd fe6e cf3c 2a0b 89bc 2cfc 1dbc
00000070: 5337 da3c cbc5 38bd bdab b83b cce8 15bd
00000080: f5f1 bf3c 37cd 8d3c a2b4 f63b 4459 883b
00000090: e92a e13b 9c95 7fbb 612e 4f3c 51f6 eabb
000000a0: 6497 e33c 8836 aabb 0e31 4e3b fece 533c
000000b0: 69d9 48bb 738b 963c c092 8e3c 8b8f 7cbc
000000c0: c890 a63b b964 7f3c f5af a93c b69a aebc
000000d0: 7401 543c e14c 813b a946 2d3c 73b9 f0bc
000000e0: 0462 1cbc 1f5b 64bb 498a 6c3a c68c ad3b
000000f0: 3dc3 62bd b155 0eba ea9f 21bc 5eb1 92bc
00000100: ef5a d1bc 0cee 573b e2d1 e8ba 9169 0c3b
00000110: 2e53 03bd 17cf 863c ebed a53b 8e2d 343b
00000120: a737 5e3b add3 70bc 7fe1 f6bc 9fdc 79bc
00000130: 300d deb7 54e0 76bc c8a8 6cba 9068 dfbb
00000140: b791 f9bc 026d 4a3c 6795 cc3c 60fb 343c
00000150: 373d 543c b783 453b 9654 42bd 27be 2c3c
00000160: a051 353d 2b82 2fbc f630 8e3c 15c3 c03b
00000170: 5947 b23c ff5d 693c adab 053d 2cbf 8cbc
00000180: ed7d b83c e2a7 11bc 2bbc 043c 1241 0dbc
00000190: eddd babc 4613 813b de57 dabc 39f8 23bd
000001a0: 49c5 21bb 4c90 6dbc a818 97ba 7aef 96bc
000001b0: 0d92 a6bc fa10 3a3c d970 40bc 3839 54bc
000001c0: 30cf 383c 035d 76bb ccd2 b8bb f5a4 2c3c
000001d0: ee35 443b 999a b33c f844 efb7 88d7 4fbc
000001e0: 58b6 213c 8a90 8bbc 2af3 9cbc f4e8 8abc
000001f0: bfc9 4e3c 809f 873a 0350 853c 3282 673c
00000200: 127b 0a3c ef71 9bbb 5345 dabc 6860 8f3c
00000210: f339 3cbc d4cf 753c f6dc 33bc 20d9 c23b
00000220: 64d4 74bc 9363 cabc 1d4f fcbb 8147 42ba
00000230: b8b3 f6bc 16d6 2a3c 746f e83c 79fe bcb9
00000240: cd4a b1bc e9cd 73bb 3b80 4a3c b5fb 8b3a
00000250: f17e 243d 2e3f c03c f979 4d3d 2e79 14bc
00000260: cdc7 13bb f22f 8b3b 2fac d13c 0dab cc3c
00000270: 0c3f 193c d584 b4ba dd73 61bc c23d 63bc
00000280: b0df 903c 4f74 99bc d953 b8bc de7f 9dbb
00000290: ed9d 6cbc feb7 adbb 09d0 fcbb 774d fd3b
000002a0: 2a28 a7b9 644c 89bb d838 44bb 20f2 af3c
000002b0: 4779 37bc 45e3 053d 48e3 903c b5ba 5bbc
000002c0: e18a 063c f5bd c53b 5997 8dbb d6ab 253c
000002d0: b564 beba b45e 0c3c ea9f 923c cd19 93ba
000002e0: 0e76 153c 25ff c23c 7da2 c4b9 0ce5 253c
000002f0: 8b04 f73c f312 b63b 5cdc 1dbb ed9d 013d
00000300: 41b6 98bc d688 963b 69a1 70bc 5117 bebb
00000310: c6a3 ccbb ef85 03bd 2077 81bb 16cc b63b
00000320: c7ff 3bbc 6e5d d8bb cff5 6b3c 54ed 213c
00000330: 8de5 8d3b 4a0e 0dbc 7654 84bb 26f9 a2bc
00000340: 119c 9bbc b491 eabc 2c18 90bc a32b d9bb
00000350: cfaf 01bd ac32 b63c ab6c 50bc 5e63 973c
00000360: 6b7e a53c 064c 603c 1cd1 3bbc 91fd 11ba
00000370: 00d4 fcbc 407c 32bc 2074 f13c 9ead b5bc
00000380: 6eb4 ee3c b0fb 713b c132 b2bc d61e 09bc
00000390: d9e2 043c 122c acbc 4452 bc3c 1738 e13b
000003a0: 0435 a6bc c26a 543b 72de 123c 44d8 353c
000003b0: 9f24 c73c 9061 c4bc 3d72 7c3b e6eb 99bc
000003c0: 8757 ae3c 482b ad3c da9e 94bc 49f2 4abc
000003d0: 44fe 89bc 2dbd 853c 110a 0cbd 79de 22bc
000003e0: 6131 90bc 0da7 9f3c 49cc fe3c 7f57 febb
000003f0: b798 3abb ee3a 1bbc 0045 f0ba c592 893c

action_model._continuous_distribution.mu.bias f4 [2]
-0.0031331112 0.0021868998
00000000: e254 4dbb 1752 0f3b
