Goodminton/Assets/results/Badminton/Badminton/Badminton-557.pt (torch, 438968 bytes, 36 tensors)

network_body._body_endoder.seq_layers.0.weight f4 [128, 5]
0	0xbed45eee	-0.41478676
1	0xbe028706	-0.1274682
2	0x3f51ab6b	0.8190219
3	0xbf23b0fb	-0.63941926
4	0xbf3d0575	-0.7383645
5	0xbe4f3605	-0.2023545
6	0xbe678d70	-0.22612548
7	0x3e1b844b	0.15187185
8	0xbde7de2c	-0.11321673
9	0xbeee5173	-0.46546516
10	0xbed20fbe	-0.41027635
11	0xbe426c46	-0.18986616
12	0xbdfb9cc2	-0.122857586
13	0x3cabc19f	0.02096635
14	0xbf66cb2d	-0.9015377
15	0xbf194657	-0.59872955
16	0x3f32d86d	0.6986149
17	0xbecce7d5	-0.40020624
18	0xbe34fd7d	-0.17674823
19	0x3d4db951	0.05022556
20	0xbf0f3ecf	-0.55955213
21	0xbeff241d	-0.4983224
22	0x3f142082	0.57862103
23	0x3ed6565d	0.41862765
24	0x3cb62306	0.022233497
25	0xbe7eb910	-0.24875283
26	0xbdb038a5	-0.08604554
27	0x3db69dc4	0.0891681
28	0xbc59f5e9	-0.013303258
29	0x3f707c23	0.9393942
30	0xbe6595aa	-0.22420374
31	0xbe69a6de	-0.22817561
32	0x3f093fb0	0.53612804
33	0xbf184745	-0.5948375
34	0x3e834d57	0.25644943
35	0xbf48356e	-0.7820653
36	0xbe2d43f3	-0.16920452
37	0x3f69b087	0.91284984
38	0x3e6ac0e9	0.22925152
39	0xbebb000b	-0.3652347
40	0x3d397639	0.04527876
41	0x3f3814bb	0.7190663
42	0x3eed5f30	0.46361685
43	0xbe8636c9	-0.26213673
44	0xbf1a62ec	-0.6030719
45	0xbeee89f0	-0.46589613
46	0x3d36842f	0.044559654
47	0x3dad1baa	0.08452542
48	0x3d92ac6a	0.071617916
49	0xbd168c39	-0.03675482
50	0x3f79e4a2	0.9761449
51	0x3f829c4c	1.0203948
52	0xbdd4774d	-0.10374317
53	0xbe8ce0d8	-0.27515292
54	0x3e90f0b1	0.28308633
55	0x3e30cca4	0.17265564
56	0x3d154f7c	0.036452755
57	0x3ee8be98	0.45457911
58	0x3e773805	0.24142464
59	0x3e86d5ae	0.263349
60	0x3e9d4f61	0.30724624
61	0xbe06246c	-0.13099831
62	0x3e66de98	0.2254585
63	0xbe285f68	-0.16442645
64	0xbdc540dc	-0.096315116
65	0x3e89756d	0.268474
66	0x3e75bcc0	0.23997784
67	0xbea47759	-0.32122305
68	0xbf126307	-0.57182354
69	0x3f084a61	0.53238493
70	0x3f4b4b36	0.7941164
71	0x3ea17f0a	0.31542236
72	0xbeabd484	-0.33560574
73	0x3e4bdb8a	0.19907966
74	0x3e4e71cc	0.20160598
75	0x3dc65b51	0.09685386
76	0x3da9230d	0.082586385
77	0x3e38f300	0.18061447
78	0xbf1db3ba	-0.61602366
79	0x3ccdee68	0.025138095
80	0xbd70554c	-0.058675095
81	0xbe3305ef	-0.17482732
82	0xbede84a8	-0.43460584
83	0x3ebb398d	0.36567345
84	0xbf2c4100	-0.6728668
85	0xbe829e41	-0.25511363
86	0xbf013deb	-0.50485104
87	0xbe2da2a2	-0.1695657
88	0xbea01f90	-0.3127408
89	0x3f279305	0.6545871
90	0xbf12952f	-0.57258886
91	0x3e4e312c	0.20135945
92	0xbeacda8d	-0.3376049
93	0x3ec89f07	0.39183828
94	0x3eca9076	0.3956334
95	0x3f763c57	0.9618582
96	0x3df2e54f	0.118601434
97	0xbda85655	-0.082195915
98	0x3f204a32	0.62613213
99	0x3f15a82f	0.5845975
100	0xbe5a8aa8	-0.21341956
101	0xbeff30a5	-0.498418
102	0xbde54a4a	-0.1119581
103	0x3f7db381	0.99102026
104	0xbec06cc9	-0.37582996
105	0x3e093efb	0.13402931
106	0x3f62ef91	0.886468
107	0xbd05f4c6	-0.032704137
108	0xbdb077e7	-0.086166196
109	0x3d156bd4	0.036479786
110	0x3d404bdc	0.046947345
111	0xbee00b30	-0.43758535
112	0xbf1bd848	-0.60876894
113	0xbe585708	-0.2112695
114	0xbdb684b5	-0.089120306
115	0xbe7b5311	-0.24543406
116	0xbe60de67	-0.2195984
117	0x3d8cb73a	0.06870885
118	0x3f16adcc	0.58858943
119	0xbecc0005	-0.39843765
120	0x3c0ae2f8	0.008476965
121	0x3ee267a3	0.44219694
122	0xbe5aaf8b	-0.21356027
123	0xbe379c44	-0.17930704
124	0xbea1c825	-0.3159801
125	0x3eb6bc1a	0.35690385
126	0xbb57098e	-0.0032812092
127	0x3f348b3d	0.7052496
128	0xbe00b527	-0.12569104
129	0xbdb1fd99	-0.08690948
130	0x3eb8f47d	0.3612403
131	0xbef226db	-0.4729527
132	0xbcd149dc	-0.025547914
133	0xbf29d2f3	-0.6633751
134	0x3e5d8d7a	0.21636
135	0x3ea85b5a	0.32882196
136	0xbf18915d	-0.59596807
137	0xbe87ff3c	-0.26561916
138	0x3eace24b	0.33766398
139	0x3ec71687	0.38884374
140	0x3ee3207b	0.44360718
141	0x3e87ffee	0.26562446
142	0x3eba218d	0.36353722
143	0x3eb26785	0.34844604
144	0x3f196647	0.5992169
145	0xbda8aff9	-0.08236689
146	0x3dbdc149	0.09265382
147	0xbd2d7905	-0.04235174
148	0xbeb1e484	-0.34744656
149	0x3f436e78	0.76340437
150	0x3e2c5861	0.16830589
151	0xbf016515	-0.50544864
152	0xbd991abf	-0.074758045
153	0xbf0802f8	-0.5312953
154	0x3e9a8bcd	0.30184785
155	0xbeda6611	-0.42655995
156	0xbe98f4c2	-0.29874235
157	0xbe7d78f4	-0.24753171
158	0x3f1b4416	0.60650766
159	0xbdea67a7	-0.11445551
160	0xbf28d288	-0.65946245
161	0x3f1f1567	0.6214203
162	0x3ef47919	0.4774864
163	0xbf158faa	-0.5842234
164	0xbdd178f9	-0.10228152
165	0xbef8a59f	-0.4856386
166	0xbe314688	-0.17312062
167	0xbdccf6bd	-0.10007999
168	0x3e6958c4	0.22787768
169	0xbdd3c6ec	-0.10340676
170	0xbf2f6d23	-0.68525904
171	0x3e1beec8	0.15227807
172	0xbe6fe708	-0.23427975
173	0xbf6f952c	-0.93586993
174	0xbf158ea6	-0.5842079
175	0x3eb74929	0.35798004
176	0x3f0772e3	0.5290968
177	0xbd2c577f	-0.04207563
178	0x3cc69960	0.024243057
179	0x3f27c088	0.65528154
180	0xbeb7656e	-0.35819572
181	0xbf49c43f	-0.7881507
182	0x3e4bcb3e	0.1990175
183	0x3e9d0e5e	0.30675024
184	0xbea7197f	-0.3263664
185	0xbef4c1a2	-0.4780398
186	0x3ed4e7d5	0.41583124
187	0xbf2ee61c	-0.6831987
188	0xbe3ebb3f	-0.18626116
189	0x3ee77779	0.45208338
190	0x3c374457	0.011185727
191	0xbead6916	-0.33869237
192	0xbe8699e5	-0.26289287
193	0xbdb5ab12	-0.0887052
194	0xbde70364	-0.112799436
195	0xbec65fdc	-0.3874501
196	0xbe16af12	-0.14715222
197	0x3d9f5854	0.07780519
198	0xbdb1cfb0	-0.08682191
199	0xbf31e689	-0.69492394
200	0xbda9ce0b	-0.08291253
201	0x3f2da7e5	0.6783431
202	0x3e7a7037	0.24456869
203	0xbf18113a	-0.59401286
204	0x3d8b8c54	0.06813875
205	0x3f5298b3	0.8226425
206	0x3eac7d88	0.33689523
207	0xbf1c5dac	-0.6108043
208	0x3c2c8338	0.010529332
209	0xbe87d477	-0.26529285
210	0xbd369463	-0.044575106
211	0xbd3211d7	-0.043474045
212	0x3e0b1337	0.13581549
213	0xbd32e5e1	-0.04367626
214	0x3f8050c1	1.0024644
215	0xbf28d8e2	-0.65955937
216	0xbe0123da	-0.12611333
217	0x3f8eecd2	1.1166022
218	0xbd15ea74	-0.036600545
219	0x3ee9caae	0.45662445
220	0xbd8b378d	-0.06797705
221	0xbf892197	-1.0713376
222	0xbe6bb45e	-0.23018023
223	0x3eb1fa99	0.34761503
224	0x3ef8f17b	0.48621735
225	0xbf1a9ddc	-0.60397124
226	0xbfbde5cc	-1.4835753
227	0xbec393b2	-0.3819862
228	0x3d4a9bee	0.049465112
229	0xbe9b8d46	-0.3038122
230	0x3f2a30fb	0.6648099
231	0x3ee3d655	0.4449946
232	0xbe60c575	-0.21950324
233	0xbdee5365	-0.11637
234	0xbea95426	-0.33072013
235	0x3db84c7e	0.08998965
236	0xbebbbfd8	-0.36669803
237	0x3ed310bd	0.41223708
238	0xbd8e1041	-0.06936694
239	0xbf13a59a	-0.5767456
240	0x3f041576	0.51595247
241	0xbe969b30	-0.29415274
242	0xbcc5e899	-0.024158763
243	0xbe6e3380	-0.23261833
244	0xbe2eac3f	-0.17057894
245	0xbd9ffeff	-0.078123085
246	0xbeb9dd43	-0.36301622
247	0x3f247a66	0.64249265
248	0xbef52292	-0.47877938
249	0x3ece67d4	0.4031359
250	0xbf4982cc	-0.78715205
251	0x3ca39a56	0.019971054
252	0xbedda2a9	-0.43288162
253	0x3f4339ec	0.76260257
254	0x3e86ccf1	0.26328233
255	0xbf0eec91	-0.5582972

network_body._body_endoder.seq_layers.0.bias f4 [128]
0	0x3bf0cbec	0.007348528
1	0x3ae8cea3	0.0017761778
2	0xbb8c2a81	-0.004277528
3	0xbbaf0bca	-0.0053419815
4	0x3b271835	0.0025496606
5	0xbb9bac6b	-0.0047507784
6	0xbaece3c3	-0.0018073249
7	0xbb639c6b	-0.0034730684
8	0x39954314	0.00028469472
9	0x3bbaa299	0.0056956527
10	0xbb3f7c1a	-0.0029218257
11	0x3a90356f	0.0011002253
12	0x3b576a14	0.0032869624
13	0xbc03171a	-0.008001113
14	0x3bb49156	0.0055104895
15	0xbafdfde3	-0.0019378032
16	0x3b42b0be	0.0029707397
17	0x3ab5cfb5	0.0013871106
18	0x3b1f1d10	0.0024278797
19	0x3ba5cea1	0.0050600325
20	0x3b89022c	0.004181167
21	0x3bd100fa	0.0063782902
22	0x3aefc30f	0.0018292385
23	0x3b8d60a9	0.0043145013
24	0x3baf6255	0.0053522983
25	0x3bc73aa6	0.0060799895
26	0xbb1ae5ba	-0.0023635463
27	0xba4bf2e8	-0.00077800313
28	0x3aabb3fc	0.0013099904
29	0x3beb6e60	0.0071847886
30	0xbb348060	-0.0027542338
31	0x3b017227	0.0019751878
32	0x3b5d45f5	0.0033763621
33	0x3b701aef	0.0036637147
34	0x3b5c5683	0.00336209
35	0xbb8f6976	-0.0043765856
36	0x3bbb4938	0.0057155155
37	0xbad29c57	-0.0016068321
38	0x3b60075c	0.0034184074
39	0x3baa996e	0.0052062785
40	0x3b9dcbd2	0.004815557
41	0xbb6344a2	-0.003467836
42	0xbb1efbb3	-0.002425891
43	0x3b4f1198	0.003159618
44	0xbb392b65	-0.0028254625
45	0xbb27bdc3	-0.0025595285
46	0xbb887aa9	-0.004165013
47	0xbbb4ea53	-0.0055210977
48	0x3b1f51d5	0.002431025
49	0xbba7d393	-0.005121657
50	0x3bd6f957	0.0065604853
51	0xbb123b97	-0.002231335
52	0x3b7811be	0.0037852372
53	0x3a69ab3b	0.000891376
54	0xbbb0bfa9	-0.0053939414
55	0xbb2a2439	-0.0025961532
56	0x39090c71	0.00013069973
57	0x3bae741b	0.0053238994
58	0x3b3b90f9	0.0028620346
59	0x3b8b7b31	0.004256629
60	0x3bda6db5	0.00666591
61	0xbb141db7	-0.002260072
62	0x3b543e7e	0.003238588
63	0x3b51a892	0.0031991345
64	0x3b55dc7b	0.0032632637
65	0x3b05c2b0	0.0020410232
66	0x3bb2ced4	0.0054567847
67	0x3b0d1cfd	0.002153217
68	0xbb5ddd2c	-0.0033853753
69	0xba59ab76	-0.0008303443
70	0xbbc4ff35	-0.0060118684
71	0x3b53ce33	0.003231895
72	0xbbdfb142	-0.0068265507
73	0x3bbb7955	0.005721251
74	0x3b9f3bc4	0.0048594195
75	0xbbac7c18	-0.0052638166
76	0x3bb22b03	0.0054372563
77	0x3b7ae916	0.0038285903
78	0x39b1d0a2	0.00033915514
79	0xbb7866d0	-0.0037903078
80	0x3b44a915	0.0030008007
81	0x3bb37f78	0.005477842
82	0x3b2968ca	0.0025849813
83	0x3bec40be	0.0072098663
84	0x3a7939ed	0.0009507228
85	0xbc04bd37	-0.008101753
86	0xb99304de	-0.0002804165
87	0x3bc592ac	0.0060294475
88	0x3b1051bb	0.0022021371
89	0x3bb88b9d	0.0056318776
90	0xbac1e773	-0.0014793709
91	0x3b6f1289	0.0036479554
92	0x3a75d1d9	0.0009377278
93	0x3bb5c687	0.005547348
94	0x3b8e0b09	0.0043348116
95	0x3abbb32f	0.0014320369
96	0x39b34402	0.0003419221
97	0x387b5718	5.9924176e-05
98	0x3b4e7ea9	0.00315086
99	0x3b893f67	0.0041884664
100	0xbb367f39	-0.0027846827
101	0xbb5c592f	-0.0033622494
102	0x3ad1b7f7	0.001600026
103	0x3bbdceba	0.005792466
104	0xba46dd46	-0.0007586073
105	0xbbee3daa	-0.0072705345
106	0xbb0ac1da	-0.0021172673
107	0x3b382726	0.0028099506
108	0x3affbb08	0.0019510696
109	0x3b87f58b	0.004149144
110	0x3b1e9123	0.0024195395
111	0xbb429256	-0.0029689274
112	0x3a50a720	0.0007959474
113	0xbb87259d	-0.004124357
114	0xb9b88e3e	-0.00035201194
115	0xbaeb31e8	-0.001794395
116	0x3ba2e1a3	0.0049707456
117	0xbb89c705	-0.004204633
118	0x3b23d082	0.0024996107
119	0xbb47dd32	-0.0030496833
120	0x3b553ffb	0.0032539356
121	0x3ba21775	0.004946644
122	0x39e55338	0.00043740286
123	0x3b1777c0	0.0023112148
124	0xbba588c8	-0.005051706
125	0xbb72e081	-0.0037060084
126	0xbb92a5e1	-0.0044753407
127	0x3bafc5e3	0.005364166

network_body._body_endoder.seq_layers.2.weight f4 [128, 128]
0	0xbde66989	-0.11250598
1	0xbdce83b8	-0.10083717
2	0x3d9c3419	0.07627124
3	0xbd581743	-0.05275656
4	0xbd9ab064	-0.07553175
5	0x3e415a25	0.18882044
6	0xbd81bbae	-0.06334625
7	0x3d941891	0.07231248
8	0x3cd926df	0.026507793
9	0xbdef2a07	-0.11677938
10	0x3e5c7bd0	0.21531606
11	0x3c19bc3a	0.009383256
12	0xbe67cd53	-0.22636919
13	0xbc3efd9a	-0.011657143
14	0x3d96edd8	0.07369584
15	0xbda28f01	-0.07937432
16	0x3df6136a	0.12015422
17	0xbe2af384	-0.16694456
18	0x3dae3240	0.08505678
19	0x3dde24ff	0.108469
20	0x3e095e6c	0.13414925
21	0xbbd4642d	-0.0064816684
22	0xbd0f32d7	-0.034960594
23	0xbde1b1f9	-0.11020274
24	0x3d59b41e	0.05315029
25	0x3ce4a879	0.027912365
26	0x3df247f4	0.1183013
27	0x3d317b0d	0.04333024
28	0x3ddacb2c	0.10683283
29	0xbc9da8f6	-0.019245606
30	0x3b687c57	0.0035474503
31	0xbd9098ed	-0.07060418
32	0xbb645362	-0.003483974
33	0xbe087ca6	-0.133288
34	0xbdae5e9c	-0.08514139
35	0xbe4b7a69	-0.19870915
36	0xbd71d981	-0.05904532
37	0x3be0d887	0.0068617496
38	0xbdb44b8e	-0.088034734
39	0x3e0cfbe3	0.13767962
40	0xbd3c71b4	-0.046006873
41	0xbcf94f22	-0.030433241
42	0x3d8ececa	0.06973036
43	0x3ca4a0ea	0.020096261
44	0x3db2964c	0.08720073
45	0x3d095a0d	0.033533145
46	0x3de1d836	0.11027567
47	0xbdb64f55	-0.0890185
48	0x3d8bfe1a	0.068355754
49	0x3c924f4a	0.017860074
50	0xbd92088e	-0.07130538
51	0x3d52f63a	0.05150435
52	0x3d82943a	0.06375928
53	0xbdb71fc5	-0.089416064
54	0xbe14c95f	-0.14529942
55	0x3dbd750c	0.092508405
56	0x3daa9130	0.083284736
57	0x3e2f5251	0.17121245
58	0xbd42bd23	-0.047543656
59	0x3c69db26	0.01427344
60	0xbb1a757e	-0.0023568566
61	0xbe103bbe	-0.1408529
62	0x3c4ab7da	0.012372935
63	0x3da1ac6b	0.07894214
64	0x3df9c604	0.121959716
65	0xbe06c303	-0.13160329
66	0xbd94c2ed	-0.07263742
67	0x3e1666c5	0.14687641
68	0x3d187aaa	0.037226357
69	0xbddb0f1c	-0.10696241
70	0xbd95b28c	-0.07309446
71	0xbdd970fb	-0.106172524
72	0xbd2ba67c	-0.04190682
73	0x3db5ef41	0.08883525
74	0x3da4b469	0.08042223
75	0x3ded8d05	0.11599163
76	0xbdf31e02	-0.11870958
77	0x3da339ef	0.07970034
78	0x3dcb0fad	0.09915099
79	0xbdf37142	-0.118868366
80	0x3ce7bac2	0.028287295
81	0x3d7ca1b1	0.06167764
82	0xbc40a9b6	-0.011759212
83	0x3c4acff0	0.012378678
84	0x3cef6239	0.02922164
85	0xbe004533	-0.12526397
86	0xbba69bdb	-0.0050844974
87	0x3dbad346	0.091223285
88	0x3b94c5a2	0.004540161
89	0x3d95d9fc	0.07316968
90	0xbe66fd78	-0.22557628
91	0x3d66c95e	0.056344382
92	0x3e3d03e4	0.18458515
93	0xbb3633d7	-0.0027801895
94	0x3ae7c05f	0.0017681232
95	0xbd0cdefa	-0.034392335
96	0xbd50f6f0	-0.051016748
97	0x3c31c09b	0.010849143
98	0xb9b357e8	-0.00034207036
99	0x3dd14c7b	0.102196656
100	0x3e1649e2	0.14676622
101	0x3cbaf00e	0.022819545
102	0xbd848026	-0.06469755
103	0xbda15821	-0.078781374
104	0xbd16b694	-0.036795214
105	0x3d8aa5f1	0.06769932
106	0xbd2931a1	-0.041307095
107	0xbe1b5444	-0.15168864
108	0x3c00d5e7	0.007863498
109	0x3c45b903	0.012068036
110	0x3dd7d5de	0.10538839
111	0x3d36e4c6	0.04465177
112	0xbbf0e853	-0.007351914
113	0x3c8eecbf	0.017446874
114	0xbe2a9c47	-0.16661178
115	0x3c0f59b4	0.008749414
116	0x3d82a7b0	0.0637964
117	0x3d90374f	0.07041799
118	0xbd9da4c4	-0.07697442
119	0x3d3ca824	0.04605879
120	0xbe352d2a	-0.1769301
121	0x3d2ab016	0.041671835
122	0x3a73590a	0.0009282982
123	0x3d5d750e	0.05406671
124	0xbe5f4a10	-0.21805596
125	0x3dc74642	0.097301975
126	0x3cd6d2dc	0.026223592
127	0xbd41988c	-0.04726462
128	0x3d228d1c	0.039685354
129	0xbd36702c	-0.04454057
130	0xbd268d48	-0.04066208
131	0x3d2359ea	0.03988067
132	0xbd2d5ff7	-0.042327847
133	0xbe4588e8	-0.19290507
134	0x3d36aaa0	0.044596314
135	0xbd4bf989	-0.049798522
136	0x3d513cf1	0.05108351
137	0x3c3fbe94	0.011703152
138	0xbbd79bc1	-0.0065798466
139	0x3b5e5d1e	0.0033930014
140	0xbbc0d08c	-0.0058842357
141	0x3e3ab2fd	0.18232341
142	0x3c91b8bf	0.01778829
143	0x3dd1a818	0.102371395
144	0x3dd4be2d	0.10387836
145	0x3dd5942d	0.10428653
146	0xbb281d2b	-0.002565215
147	0x3e0b3237	0.13593374
148	0x3da54f23	0.08071735
149	0x3e008eef	0.12554525
150	0x3c0e5df2	0.0086893905
151	0xbc4f48ac	-0.012651604
152	0x3d817ec0	0.06323004
153	0x3d6da728	0.05802074
154	0x3db1ec4c	0.08687648
155	0x3c36603e	0.011131344
156	0xbd288fc7	-0.04115274
157	0x3e0f066f	0.13967298
158	0x3d8cd9b6	0.068774626
159	0x3b3591e1	0.0027705359
160	0x3dc064ca	0.09394224
161	0xbd77c6e3	-0.060492408
162	0x3cdd8024	0.027038641
163	0xbde3287c	-0.11091706
164	0x3d118bb6	0.03553363
165	0xbd4fab74	-0.05070062
166	0xbd9424af	-0.07233559
167	0xbe31fb77	-0.17381082
168	0xbca27e2a	-0.01983555
169	0x3cb50b11	0.022100003
170	0x3dcfaef9	0.10140795
171	0xbc87e764	-0.016589828
172	0x3cc7366d	0.024317944
173	0x3e7164ab	0.23573558
174	0xbd4cebaf	-0.050029453
175	0xbdc643f2	-0.09680928
176	0x3aa128a8	0.0012295442
177	0x3da869e2	0.082233205
178	0xbde46e7f	-0.11153888
179	0xbe0c4e30	-0.13701701
180	0x3bc85ab0	0.0061143264
181	0xbdcf91a4	-0.101352006
182	0xbe00fe22	-0.12596944
183	0x3e1b6196	0.15173945
184	0xbc0b2e66	-0.008494949
185	0x3c221841	0.009893478
186	0xbd9d0d1f	-0.07668518
187	0x3e256ca2	0.16154721
188	0x3db4ae80	0.08822346
189	0xbc88e1b1	-0.01670918
190	0x3da7a3a6	0.0818551
191	0x3bef73c8	0.0073075034
192	0xbd600d21	-0.05470002
193	0xbd2cff13	-0.042235445
194	0x3d01fb53	0.031733822
195	0x3d1cf3a2	0.038318284
196	0x3c8ccb3e	0.017186757
197	0xbca7e07b	-0.020492783
198	0xbd413e60	-0.047178626
199	0xbaca9c48	-0.0015457952
200	0x3d15d2f8	0.03657815
201	0xbc57aa79	-0.013163202
202	0xbd306aa5	-0.043070454
203	0xbc96d660	-0.018412769
204	0x3e13a20f	0.14417289
205	0xbc61ee35	-0.013789703
206	0x3d131a65	0.035913844
207	0xbcc21bc6	-0.023694884
208	0x3e240f3c	0.16021436
209	0xbd8a7dc5	-0.0676227
210	0xbc1c9137	-0.009556106
211	0xbdeceef2	-0.11569013
212	0x3e0eee70	0.13958144
213	0xbc8ff1e8	-0.017571405
214	0xbe330a02	-0.17484286
215	0xbe2b6418	-0.16737401
216	0xbd30bf1c	-0.043151006
217	0xbd376fe6	-0.04478445
218	0xbdb1fc48	-0.08690697
219	0xbd6de5b6	-0.058080398
220	0x3d27d20f	0.04097181
221	0x3a8f73e8	0.0010944577
222	0x3dbdc2b1	0.0926565
223	0x3d16f578	0.03685519
224	0x3cc437d2	0.023952398
225	0x3b32208b	0.0027180042
226	0x3bf59d98	0.0074955933
227	0x3d89922d	0.06717334
228	0xbd2d4332	-0.04230041
229	0xbd0296f0	-0.031882226
230	0x3e0b9fff	0.13635252
231	0x3dce1697	0.100629024
232	0xbd6c69be	-0.05771803
233	0xb89c1c3e	-7.44392e-05
234	0xbddf2d0f	-0.10897266
235	0xbb88ebae	-0.004178486
236	0x3e1bda39	0.15219964
237	0x3d6d37eb	0.057914656
238	0xbc3ddd04	-0.011588339
239	0x3dda92f0	0.10672557
240	0x3d186b4f	0.037211712
241	0x3d79b149	0.060960088
242	0xbc98a1ba	-0.018631805
243	0xbe004c61	-0.12529136
244	0xbc30ff50	-0.010803059
245	0x3d8cd338	0.06876224
246	0x3d780d9b	0.06055985
247	0x3bba51af	0.005686007
248	0x3d14fafb	0.036372166
249	0x3dea8d8e	0.11452781
250	0xbd4a16fd	-0.04933833
251	0x3b5038c7	0.0031772123
252	0xbd165190	-0.036698878
253	0xbd2736eb	-0.04082386
254	0xbd920d6b	-0.071314655
255	0x3db6caf3	0.08925428

network_body._body_endoder.seq_layers.2.bias f4 [128]
0	0xbb01e653	-0.0019821122
1	0x3bae3606	0.0053164987
2	0x3a75008a	0.00093460886
3	0x3a8862b0	0.0010405388
4	0x3bcdceda	0.006280762
5	0x3b6e6e8e	0.0036381814
6	0x3b8f4077	0.0043716985
7	0x394449b2	0.0001871947
8	0xbbb5192d	-0.005526683
9	0x391b31f7	0.00014800565
10	0x3bd2fa82	0.0064385543
11	0x3ba8b490	0.005148478
12	0xbafe024e	-0.0019379349
13	0x3b7d3856	0.0038638315
14	0x3a0b12d0	0.00053052325
15	0xbb334dc5	-0.0027359587
16	0xbbe7fb69	-0.007079531
17	0x3b902ad1	0.0043996354
18	0xbb81e45a	-0.003963989
19	0xbbd22a68	-0.0064137466
20	0x3b862ab7	0.0040944475
21	0x3bcdf836	0.0062856926
22	0x38d6b305	0.0001023766
23	0x3b9d4d40	0.0048004687
24	0x3b9aba9d	0.004721953
25	0x3bb534b4	0.0055299643
26	0xbbc4228b	-0.005985563
27	0xbbe47387	-0.0069717797
28	0xbb40c26f	-0.0029412766
29	0xbb3fe8ed	-0.0029283122
30	0x39aadb18	0.00032588164
31	0x3ae2cb06	0.0017302937
32	0x3b6bcdc9	0.0035980812
33	0x3ba5e17e	0.005062281
34	0x3ba930fc	0.00516331
35	0x3b055143	0.0020342625
36	0xbb29a176	-0.0025883592
37	0xbaa5af94	-0.0012640827
38	0x3bad841d	0.00529529
39	0xba648760	-0.0008717682
40	0x3bb5dc44	0.0055499393
41	0x3b8e5def	0.004344694
42	0x3b1d33d0	0.0023987181
43	0xbba18fbb	-0.004930464
44	0xbb3d7825	-0.0028910723
45	0x3b81d4d6	0.0039621396
46	0xbbcb7f97	-0.0062102783
47	0xbac4dd79	-0.0015019617
48	0x3aa63fd7	0.0012683821
49	0x3b96c073	0.0046005785
50	0x3b6f4912	0.003651206
51	0x3b886aac	0.004163107
52	0x3a272ae5	0.0006376936
53	0xbb7bfc9f	-0.0038450134
54	0xbba3fce9	-0.0050045145
55	0xb9ba6234	-0.00035549852
56	0xbbac41fe	-0.0052568903
57	0x39255c66	0.00015770047
58	0xba73ecbb	-0.000930499
59	0x395d9219	0.00021130628
60	0x3ae64d3d	0.0017570626
61	0xbb67631c	-0.0035306877
62	0x3bb49b7f	0.0055117006
63	0x3af58894	0.001873272
64	0x3a67434b	0.0008821978
65	0xbbadce72	-0.005304151
66	0x3bb4f69a	0.0055225613
67	0xbb14457f	-0.002262443
68	0x3b2bc65d	0.0026210763
69	0x3b3af800	0.0028529167
70	0xbb9ecdba	-0.004846302
71	0x3b2e1423	0.0026562295
72	0x3a7c0b72	0.00096147426
73	0x3ad6d0f0	0.0016389173
74	0x38dac518	0.000104317616
75	0x3bc279bc	0.005934922
76	0x3b7687cc	0.0037617562
77	0x3b929b31	0.0044740667
78	0xbb6d5341	-0.0036212953
79	0x3b38afd3	0.0028180971
80	0x3b18c48a	0.0023310506
81	0xbb9a96a9	-0.004717667
82	0x3b94ace5	0.004537212
83	0x3bb0608c	0.005382603
84	0xbbda6985	-0.006665411
85	0x3ba752d3	0.005106309
86	0xbb63f320	-0.0034782365
87	0xba1ec937	-0.0006057205
88	0x3a75370a	0.000935421
89	0x3ba27162	0.004957364
90	0x3acd5a98	0.0015667258
91	0x3ae9c396	0.0017834778
92	0x3b83bb02	0.004020096
93	0x3ace46b2	0.0015737622
94	0x3ba7fb4e	0.0051263934
95	0x3b9b784c	0.004744565
96	0xbb495a14	-0.0030723857
97	0x3bc322d1	0.005955078
98	0x385e442b	5.299241e-05
99	0xbb452840	-0.0030083805
100	0xbbdca9a8	-0.006734092
101	0xbb0ffeb6	-0.0021971888
102	0x3b974bb6	0.0046171797
103	0xba501edb	-0.0007939168
104	0x3b95f376	0.004576142
105	0x3a1b60eb	0.00059272227
106	0x3b6fd60e	0.0036596092
107	0x3b8a757b	0.0042254305
108	0xbb8cf2d2	-0.0043014074
109	0x3b8b14a1	0.0042444025
110	0xbbadfed6	-0.00530992
111	0x3b58f520	0.003310509
112	0xbbadcd53	-0.0053040176
113	0x3b7ad8aa	0.0038276115
114	0xbb822665	-0.003971862
115	0x3a9de86d	0.0012047418
116	0x39981496	0.00029007037
117	0xba479901	-0.0007614047
118	0xbb196a66	-0.0023409366
119	0xb92a05f0	-0.00016214675
120	0xbba2cd1b	-0.004968298
121	0x3aff44cf	0.0019475463
122	0x3b7a06d3	0.003815104
123	0x3ae30b54	0.0017322102
124	0xbbcdfd47	-0.0062862965
125	0xbba0395c	-0.0048896503
126	0x3bacfdf2	0.005279296
127	0x3b92cfc0	0.004480332

action_model._continuous_distribution.log_sigma f4 [1, 2]
0	0xbb5e97e1	-0.0033965039
1	0x3c0b3565	0.008496617

action_model._continuous_distribution.mu.weight f4 [2, 128]
0	0x3c89042c	0.016725622
1	0xbc07ac70	-0.008280858
2	0xbc1b5f6e	-0.009483201
3	0xbd03b722	-0.03215707
4	0xbd175762	-0.03694857
5	0xbc80518f	-0.01566389
6	0xbce8d032	-0.028419588
7	0xbc00563c	-0.00783306
8	0x3c339ccd	0.010962677
9	0xbab05c2d	-0.0013455205
10	0xbccf2b42	-0.025289182
11	0x3b3ad727	0.0028509588
12	0x3ae338fd	0.0017335709
13	0xba529327	-0.00080327917
14	0xbc88a1ad	-0.016678656
15	0x3aadaa12	0.0013249537
16	0x3b91ffc1	0.004455537
17	0x3c9a40fe	0.018829819
18	0x3d489d55	0.04897817
19	0x3c8076e0	0.015681684
20	0xbbe90413	-0.0071110814
21	0xbc011d1e	-0.007880477
22	0xbae16fed	-0.0017199494
23	0xbc962857	-0.018329782
24	0xbc95d5f3	-0.018290495
25	0xbc9bab80	-0.019002676
26	0x3b18cf2d	0.0023316846
27	0x3c01ae0a	0.007915029
28	0xbb4e74f1	-0.0031502808
29	0xbb394428	-0.0028269384
30	0xba9e302c	-0.00120688
31	0x3cf0437f	0.02932906
32	0xbc2b4b41	-0.010454954
33	0xbc7237d2	-0.014783816
34	0xbc5c129d	-0.013432172
35	0xbcd6f488	-0.026239648
36	0x3c487feb	0.012237529
37	0xbb3c534f	-0.002873618
38	0xbd3e7ed9	-0.04650769
39	0x3c055fc6	0.00814051
40	0xbc377dfb	-0.01119947
41	0xbc38e3ea	-0.011284808
42	0xbcf57d7f	-0.029967068
43	0x3ac4fafd	0.0015028414
44	0xbabaca3b	-0.0014250943
45	0xbc30a77e	-0.010782121
46	0x3cdec084	0.027191408
47	0xbc5a318d	-0.013317478
48	0xbc753ed9	-0.014968597
49	0xbc8640f9	-0.016388403
50	0xbcfaffe5	-0.030639598
51	0xbb107362	-0.002204143
52	0xbc252a1b	-0.0100808395
53	0x3b22e05e	0.0024852972
54	0x3cce46f3	0.025180316
55	0xbbf09645	-0.0073421323
56	0x3c2691ba	0.01016658
57	0xbcd258c5	-0.025677094
58	0x3d3936dd	0.045218337
59	0xbc16f3f7	-0.009213439
60	0xbc648250	-0.013947085
61	0xbbf32413	-0.007420072
62	0xbc324f4d	-0.010883165
63	0x3c280d79	0.010257118
64	0xbd1662fa	-0.036715485
65	0xbbb18a7b	-0.0054181195
66	0xbd0558c6	-0.032555364
67	0x3b001c69	0.0019548184
68	0xbc410056	-0.011779865
69	0x3ca9abbf	0.020711778
70	0x3b5356c2	0.0032247757
71	0xbc1ca71c	-0.009561326
72	0x3bc3fdc8	0.005981181
73	0x3ac1b759	0.0014779373
74	0xb9d8b42e	-0.00041332975
75	0xbbb1c60a	-0.0054252194
76	0xbc8ea8c3	-0.017414456
77	0xbc28ec9e	-0.01031032
78	0x3c7984c1	0.015229405
79	0xbc69aef2	-0.014262902
80	0xbc1c67dc	-0.009546246
81	0x3c47af0f	0.012187733
82	0xbd21e968	-0.039529234
83	0xbb5ceef9	-0.0033711775
84	0x3aabdc93	0.0013112001
85	0xbd0c55b3	-0.034261417
86	0x3cb51702	0.022105698
87	0x3c511f12	0.012763755
88	0xb9df8c80	-0.00042638555
89	0xbc707558	-0.014676414
90	0xbc4fe848	-0.0126896575
91	0xbbb2c713	-0.0054558604
92	0xbd72d3cb	-0.059284013
93	0x3c0c2096	0.008552691
94	0xbd018712	-0.031622954
95	0xbbcfd7af	-0.00634285
96	0x3ca8dd7a	0.02061342
97	0xbc970032	-0.01843271
98	0xbc2619a0	-0.010137945
99	0x3c9a1b1c	0.018811755
100	0x3c49c137	0.012314132
101	0xbabb31d6	-0.001428182
102	0x3a22f65f	0.0006216522
103	0xbce9926c	-0.028512202
104	0xbd0bcba3	-0.03412975
105	0xba885ef3	-0.0010404274
106	0xb9d08db4	-0.0003977843
107	0xbc0e3f09	-0.008682021
108	0x3d23d322	0.039996274
109	0x3d2356ab	0.039877575
110	0x3c80b9e6	0.015713643
111	0xbc2adb56	-0.01042827
112	0x3ab19b86	0.0013550378
113	0xbd2146fb	-0.039374333
114	0x3cc2dcf3	0.023786997
115	0x3c874a5b	0.016514948
116	0x3b42c187	0.0029717402
117	0x3cec156a	0.028818805
118	0x3cfb825d	0.03070181
119	0x3bcced5d	0.006253882
120	0x3c317a3c	0.010832366
121	0xbae7bd1c	-0.001768026
122	0x3ca12271	0.019669743
123	0xbc37bdfb	-0.0112147285
124	0x3c2aa4eb	0.010415296
125	0x3b8adb32	0.004237556
126	0xbc33f74f	-0.010984256
127	0xbcc42ca5	-0.02394707
128	0xbc4804fe	-0.0122082215
129	0xbc9c16e8	-0.019053891
130	0x3bccba50	0.006247796
131	0x3c986adb	0.01860564
132	0x3b1ea673	0.0024208098
133	0x3c731dbc	0.014838632
134	0x3bda79c7	0.006667349
135	0x3c4450e9	0.011982181
136	0xbc1da3a9	-0.009621539
137	0xbbd28315	-0.0064243176
138	0x3b4a3a84	0.0030857632
139	0xbcea1512	-0.0285745
140	0x3ca13b82	0.019681696
141	0x3cca8f93	0.024726665
142	0xbd1cd69d	-0.03829061
143	0xbc7236de	-0.014783589
144	0x3b8418a0	0.004031256
145	0xbd45ec84	-0.048321262
146	0xbba47f7e	-0.005020081
147	0xbcf6c759	-0.030124353
148	0x3ca5017d	0.020142311
149	0xbc51d76e	-0.01280771
150	0x3c6e8172	0.014557229
151	0x3af060e4	0.0018339423
152	0xbc101ce9	-0.008795955
153	0xbc7a78cb	-0.015287588
154	0x3b09f8c6	0.0021052822
155	0xbb17c909	-0.0023160598
156	0xbc3d97cf	-0.0115718385
157	0x3c1f631d	0.00972822
158	0xbcceb9ae	-0.025235023
159	0xbc677d64	-0.014129017
160	0xbac1b5b5	-0.0014778884
161	0x39806a82	0.00024493417
162	0x3c1b6771	0.009485112
163	0x3c9b1f7c	0.018935911
164	0x3acdf559	0.0015713378
165	0xbc9a9b58	-0.018872902
166	0x3cb08d69	0.021551805
167	0xbc82543e	-0.01590931
168	0xbc0e4ed1	-0.0086857835
169	0xbd12b057	-0.035812702
170	0x3bbc1da6	0.005740839
171	0xbac13541	-0.0014740602
172	0xbb340d2f	-0.0027473678
173	0x3be90ec0	0.007112354
174	0xbc0cac2f	-0.008585974
175	0x3cdbf34f	0.026849417
176	0xbbd2ebd1	-0.006436803
177	0x3a7dfea0	0.0009689126
178	0x380be781	3.3355787e-05
179	0x3c91dd90	0.017805845
180	0xbcb144eb	-0.021639308
181	0x3c676d60	0.014125198
182	0x3abb7f98	0.0014304994
183	0xbcaa040c	-0.020753883
184	0x3c3b9040	0.011447966
185	0x3c8f5be6	0.017499875
186	0x3bbd8486	0.0057836203
187	0xbbdc9870	-0.006732039
188	0xbce0cce3	-0.027441448
189	0x3c99822f	0.018738834
190	0xbc4ac6ce	-0.0123765
191	0x3cdd52b2	0.027016971
192	0xbb6c3476	-0.0036042011
193	0x3c35fba9	0.011107364
194	0xbd23a566	-0.039952658
195	0x3cb58f45	0.022163043
196	0x3c0136d6	0.007886609
197	0x39f2b817	0.00046294995
198	0x3c41ffab	0.011840741
199	0xbd199b98	-0.0375019
200	0xbcba216c	-0.022721015
201	0x3cd04969	0.02542563
202	0x3b9b43b4	0.0047382955
203	0xbcaa9e38	-0.020827398
204	0x3a5b086c	0.0008355442
205	0xbc43e37c	-0.011956092
206	0xbc1d1807	-0.009588248
207	0x3d1f08d4	0.03882678
208	0x3bb13f7f	0.0054091807
209	0x3c9bb35d	0.019006426
210	0x3c8c5a6c	0.01713296
211	0xbbccd0b0	-0.0062504634
212	0x3b8e88eb	0.004349818
213	0x3c330a33	0.010927725
214	0x3c1ebfbf	0.0096892705
215	0xbcebece6	-0.028799485
216	0x3cc3df28	0.02391012
217	0xbb3bd8c6	-0.0028663143
218	0x3d2381a9	0.039918575
219	0x3c1bb2cc	0.009503078
220	0x3aa90cb6	0.0012897465
221	0xbc9db0d2	-0.019249354
222	0xbbec214d	-0.007206118
223	0xbccc7871	-0.024959775
224	0xbbad7bb0	-0.0052942857
225	0xbd27875e	-0.04090058
226	0x3be2019e	0.0068971654
227	0x3aaf6329	0.0013380992
228	0x3ca2cbbf	0.019872544
229	0x3c0cfd8f	0.008605375
230	0xbd112da3	-0.035443913
231	0xbad62be1	-0.0016339981
232	0x3c306507	0.010766274
233	0xbc6c0705	-0.01440597
234	0xbc8d108a	-0.0172198
235	0xbc7b61f7	-0.015343181
236	0x3b8fefea	0.0043926137
237	0x3a38c179	0.00070478726
238	0xbbea0eee	-0.007142893
239	0xb9970e29	-0.00028811514
240	0xbc7a0529	-0.015260019
241	0xbb88002d	-0.0041504116
242	0x3d06812f	0.032838043
243	0xbc2e0f6e	-0.010623796
244	0xbc28a406	-0.0102930125
245	0x3ccec72c	0.025241457
246	0xbce7bff9	-0.028289782
247	0x3cf6cfe0	0.03012842
248	0xbbcddaf0	-0.006282203
249	0x3ce7b268	0.028283313
250	0xbd23d3a9	-0.039996777
251	0x3add50c2	0.001688503
252	0x3ba12e7a	0.0049188705
253	0xb963b511	-0.0002171586
254	0xba7e04a1	-0.0009690021
255	0xbce6b883	-0.028164154

action_model._continuous_distribution.mu.bias f4 [2]
0	0xbbb26890	-0.0054445937
1	0xbafad70d	-0.0019137576

exp_avg f4 [128, 5]
0	0x3a71f8e6	0.0009230509
1	0xb8d04dc9	-9.9327015e-05
2	0xba841988	-0.001007841
3	0x00000000	0.0
4	0x194e2b4b	1.0658693e-23
5	0x3982b358	0.00024929154
6	0x3727b7cf	9.996772e-06
7	0x3997c61b	0.00028948564
8	0x00000000	0.0
9	0x9851d6ed	-2.7121127e-24
10	0xb87770d2	-5.899446e-05
11	0x3721760f	9.6238355e-06
12	0x3a9a5f4e	0.0011777671
13	0x00000000	0.0
14	0x1852fe9a	2.7270405e-24
15	0xb9da4e98	-0.00041638757
16	0x37757c73	1.4632114e-05
17	0xb93aa0d7	-0.0001779826
18	0x00000000	0.0
19	0x98754f67	-3.1705596e-24
20	0x3901454b	0.00012328212
21	0xb8c93d90	-9.595894e-05
22	0xbadbdd2b	-0.0016774287
23	0x00000000	0.0
24	0x1926d538	8.625058e-24
25	0x37cbd126	2.4296878e-05
26	0xb4824328	-2.426325e-07
27	0x373930fa	1.10382625e-05
28	0x00000000	0.0
29	0x96b3c6a0	-2.904436e-25
30	0x38a65b08	7.932453e-05
31	0x38023764	3.1046002e-05
32	0x3a1dfae0	0.0006026458
33	0x00000000	0.0
34	0x98b42314	-4.656433e-24
35	0x37d26229	2.507966e-05
36	0xb7f59dd6	-2.9279774e-05
37	0xba8f2948	-0.0010922337
38	0x00000000	0.0
39	0x18874a68	3.4971813e-24
40	0x390facb1	0.00013701875
41	0xb85ad8a7	-5.2177023e-05
42	0xba7fbfa4	-0.00097560347
43	0x00000000	0.0
44	0x18e8bb50	6.015973e-24
45	0xb80f4d7d	-3.4166023e-05
46	0xb8781e63	-5.9156107e-05
47	0xbab630c0	-0.0013900027
48	0x00000000	0.0
49	0x1865f25c	2.9719917e-24
50	0x39eb8514	0.00044921844
51	0x3850f29b	4.981701e-05
52	0x3abc2a10	0.0014355797
53	0x00000000	0.0
54	0x9900a813	-6.651387e-24
55	0xb8ab60bd	-8.171934e-05
56	0xb7cdf1df	-2.4550534e-05
57	0x372a4dbd	1.01508895e-05
58	0x00000000	0.0
59	0x182ce190	2.2344359e-24
60	0x391b7287	0.00014824617
61	0x3675bbd5	3.6617178e-06
62	0xb99cb56c	-0.00029889809
63	0x00000000	0.0
64	0x96aee92b	-2.8258366e-25
65	0xb866fa82	-5.5069577e-05
66	0xb6bb1287	-5.575191e-06
67	0xba46ab15	-0.0007578594
68	0x00000000	0.0
69	0x1717c242	4.903592e-25
70	0x3997e845	0.0002897402
71	0xb81808c9	-3.6247806e-05
72	0x34c73f36	3.711263e-07
73	0x00000000	0.0
74	0x188e2372	3.674193e-24
75	0x39870633	0.00025753825
76	0xb728abb0	-1.0053554e-05
77	0xba159560	-0.00057061575
78	0x00000000	0.0
79	0x980586e0	-1.7257942e-24
80	0x3906d962	0.00012860217
81	0xb658929b	-3.2271844e-06
82	0x399a9cc3	0.00029489966
83	0x00000000	0.0
84	0x984dd8ec	-2.6605147e-24
85	0x3710bf05	8.627544e-06
86	0xb783fde0	-1.5734637e-05
87	0xba45061e	-0.0007515865
88	0x00000000	0.0
89	0x16e60f9e	3.716836e-25
90	0xb97dbe1c	-0.00024198781
91	0xb6d52b49	-6.3529337e-06
92	0xbab98bd4	-0.0014156052
93	0x00000000	0.0
94	0x978ce3be	-9.104778e-25
95	0x3a0904d0	0.00052268524
96	0x38837abd	6.2694286e-05
97	0x3aecd9a2	0.0018070231
98	0x00000000	0.0
99	0x991d90b6	-8.145934e-24
100	0xb956dbd4	-0.00020490523
101	0xb8455c43	-4.7054386e-05
102	0xbb0de178	-0.0021649282
103	0x00000000	0.0
104	0x188dc54a	3.6646857e-24
105	0xb924dc22	-0.00015722265
106	0xb772c69f	-1.4470569e-05
107	0x383b067b	4.459031e-05
108	0x00000000	0.0
109	0x182c8163	2.2295803e-24
110	0xba04ed9e	-0.0005070808
111	0xb75534ae	-1.2708055e-05
112	0x39392289	0.0001765584
113	0x00000000	0.0
114	0x177e039f	8.2076397e-25
115	0xb8d84e51	-0.0001031427
116	0xb828fb15	-4.028816e-05
117	0xba8d7c76	-0.0010794539
118	0x00000000	0.0
119	0x18b4ea6b	4.676561e-24
120	0x38a2b149	7.757784e-05
121	0xb6ee6524	-7.104727e-06
122	0xba1b158a	-0.00059159903
123	0x00000000	0.0
124	0x98a43a03	-4.2451583e-24
125	0x394db878	0.00019619043
126	0xb8c526da	-9.400929e-05
127	0xbae90dfe	-0.0017780659
128	0x00000000	0.0
129	0x1881042e	3.334994e-24
130	0xb8d24090	-0.00010025606
131	0x380f6f45	3.4197485e-05
132	0x3a3b96fd	0.0007155983
133	0x00000000	0.0
134	0x98d161b6	-5.4123897e-24
135	0xb90ae4e8	-0.0001324598
136	0xb7a306c6	-1.9434268e-05
137	0xb9ad0c44	-0.0003300627
138	0x00000000	0.0
139	0x1818accd	1.9732782e-24
140	0xb5c283f1	-1.4492526e-06
141	0xb831fea8	-4.2437256e-05
142	0xb9e5d6b7	-0.0004383826
143	0x00000000	0.0
144	0x18be1ec1	4.9144902e-24
145	0xb7d8c13f	-2.5839194e-05
146	0xb800621c	-3.060895e-05
147	0xba0b704c	-0.0005319163
148	0x00000000	0.0
149	0x1837fdfc	2.3780425e-24
150	0x37b8307d	2.1957088e-05
151	0x37308d27	1.0523282e-05
152	0x38750be2	5.842362e-05
153	0x00000000	0.0
154	0x979d5a1c	-1.0168634e-24
155	0xb99f49d2	-0.00030381844
156	0xb6196452	-2.285717e-06
157	0xb9d6d863	-0.0004097848
158	0x00000000	0.0
159	0x18075c76	1.7495022e-24
160	0x39b309bb	0.0003414879
161	0xb865d7e8	-5.4798933e-05
162	0xba864d32	-0.0010246395
163	0x00000000	0.0
164	0x18ab4824	4.4275307e-24
165	0x3925539b	0.00015766772
166	0xb74fea1f	-1.2392672e-05
167	0xba159902	-0.0005706699
168	0x00000000	0.0
169	0x963f8dab	-1.547356e-25
170	0x394df02f	0.00019639799
171	0xb779fcaa	-1.49003845e-05
172	0xba632c75	-0.00086659874
173	0x00000000	0.0
174	0x970d5ab3	-4.5674036e-25
175	0x39c4db60	0.0003754748
176	0x37d3763f	2.5208223e-05
177	0x3a1abed2	0.0005903068
178	0x00000000	0.0
179	0x9730a8c3	-5.7081674e-25
180	0x3a345b5b	0.0006880068
181	0xb7a89cd9	-2.0100199e-05
182	0xb849cead	-4.8114616e-05
183	0x00000000	0.0
184	0x174f47f1	6.697611e-25
185	0xb9de9390	-0.00042453082
186	0x36213260	2.4020192e-06
187	0xba3f52b5	-0.0007298396
188	0x00000000	0.0
189	0x975bbf19	-7.1003916e-25
190	0xb9f6bbab	-0.000470606
191	0xb7f3642e	-2.9014507e-05
192	0xba001a95	-0.00048867735
193	0x00000000	0.0
194	0x173d16de	6.1098056e-25
195	0xb96b81e9	-0.00022459742
196	0xb7e8a189	-2.7731776e-05
197	0xbaad79c3	-0.001323514
198	0x00000000	0.0
199	0x980f266b	-1.8501713e-24
200	0xb9e3ad03	-0.00043425718
201	0xb706a2b4	-8.024905e-06
202	0xb9ccfa4f	-0.00039096407
203	0x00000000	0.0
204	0x97aee284	-1.1301667e-24
205	0x37848754	1.5798643e-05
206	0x37abd31b	2.0483092e-05
207	0xb7040715	-7.869462e-06
208	0x00000000	0.0
209	0x182bd54e	2.2208923e-24
210	0xb95085dd	-0.00019886294
211	0xb7a20eed	-1.9318855e-05
212	0xba2dd311	-0.00066308776
213	0x00000000	0.0
214	0x18378343	2.3718466e-24
215	0xbaa666ba	-0.001269541
216	0xb7d50c30	-2.5397254e-05
217	0xb9871160	-0.00025762152
218	0x00000000	0.0
219	0x97c2c421	-1.2586466e-24
220	0xb8cc1c54	-9.7327546e-05
221	0x37a2e16a	1.9416872e-05
222	0x390a2e20	0.00013177888
223	0x00000000	0.0
224	0x97e56bd8	-1.4826002e-24
225	0xb9c3addc	-0.00037322834
226	0xb6e3645d	-6.776811e-06
227	0x3940f5ca	0.0001840211
228	0x00000000	0.0
229	0x97a83a3f	-1.0871449e-24
230	0xb96c501d	-0.00022536558
231	0xb7707b3e	-1.4333809e-05
232	0xb9c52751	-0.0003760406
233	0x00000000	0.0
234	0x18953527	3.8569267e-24
235	0x393e8829	0.00018170536
236	0x37e507aa	2.7302496e-05
237	0x3a251994	0.0006298062
238	0x00000000	0.0
239	0x98484fbf	-2.5889656e-24
240	0xb92268e7	-0.00015488603
241	0x380359db	3.131652e-05
242	0x3a1b21bf	0.00059178093
243	0x00000000	0.0
244	0x9913b36c	-7.635956e-24
245	0xb9f771d3	-0.00047196317
246	0xb6c86817	-5.972582e-06
247	0xb779be2c	-1.4885834e-05
248	0x00000000	0.0
249	0x97e07f7c	-1.4507842e-24
250	0x3902a7de	0.00012460302
251	0xb87b0268	-5.9845304e-05
252	0xbada52d9	-0.0016656771
253	0x00000000	0.0
254	0x1859fbbe	2.817369e-24
255	0xb8bc079e	-8.9659574e-05

exp_avg_sq f4 [128, 5]
0	0x37215332	9.615718e-06
1	0x32ffa4de	2.976088e-08
2	0x3729528f	1.0092407e-05
3	0x00000000	0.0
4	0x00000000	0.0
5	0x35c55068	1.4701045e-06
6	0x322e8b1a	1.0159761e-08
7	0x369ff42e	4.7669955e-06
8	0x00000000	0.0
9	0x00000000	0.0
10	0x369dff05	4.708653e-06
11	0x31b2e783	5.2068017e-09
12	0x3673a064	3.6303181e-06
13	0x00000000	0.0
14	0x00000000	0.0
15	0x3644f092	2.9346306e-06
16	0x312eeddf	2.5455547e-09
17	0x35d205d4	1.5647915e-06
18	0x00000000	0.0
19	0x00000000	0.0
20	0x36f1a925	7.2020507e-06
21	0x32a7da83	1.9540726e-08
22	0x36d6fbbb	6.4070023e-06
23	0x00000000	0.0
24	0x00000000	0.0
25	0x34dbae6f	4.0918846e-07
26	0x30a9a3a3	1.2342877e-09
27	0x34f61681	4.5837444e-07
28	0x00000000	0.0
29	0x00000000	0.0
30	0x35fb9be6	1.874633e-06
31	0x3240ac4f	1.1215049e-08
32	0x36988784	4.545729e-06
33	0x00000000	0.0
34	0x00000000	0.0
35	0x359a86e2	1.151315e-06
36	0x32504f3c	1.2125209e-08
37	0x36cd13ce	6.1117817e-06
38	0x00000000	0.0
39	0x00000000	0.0
40	0x364fce42	3.0965462e-06
41	0x32641331	1.327571e-08
42	0x36a9b297	5.057383e-06
43	0x00000000	0.0
44	0x00000000	0.0
45	0x3709a9d8	8.205381e-06
46	0x32d30a3f	2.4568292e-08
47	0x3727766b	9.981547e-06
48	0x00000000	0.0
49	0x00000000	0.0
50	0x359cc11a	1.1679106e-06
51	0x31a825fe	4.8937627e-09
52	0x362f966e	2.6164594e-06
53	0x00000000	0.0
54	0x00000000	0.0
55	0x36820938	3.875375e-06
56	0x328b5237	1.6219117e-08
57	0x36d901fe	6.467336e-06
58	0x00000000	0.0
59	0x00000000	0.0
60	0x355e97e1	8.292246e-07
61	0x30c893a2	1.4593875e-09
62	0x34db34d0	4.0830355e-07
63	0x00000000	0.0
64	0x00000000	0.0
65	0x36bdb5e2	5.653813e-06
66	0x31592b33	3.1602212e-09
67	0x36e142f7	6.7133183e-06
68	0x00000000	0.0
69	0x00000000	0.0
70	0x37bd3c1b	2.2558545e-05
71	0x32ed2fe8	2.7612217e-08
72	0x3790667f	1.7213866e-05
73	0x00000000	0.0
74	0x00000000	0.0
75	0x3626c489	2.4850326e-06
76	0x31bea4df	5.5484715e-09
77	0x35f58487	1.8292493e-06
78	0x00000000	0.0
79	0x00000000	0.0
80	0x36628ec2	3.375972e-06
81	0x3042b2b5	7.0830747e-10
82	0x368714c5	4.0257314e-06
83	0x00000000	0.0
84	0x00000000	0.0
85	0x3626ea71	2.487239e-06
86	0x31a6db2d	4.8561533e-09
87	0x360005cf	1.9076867e-06
88	0x00000000	0.0
89	0x00000000	0.0
90	0x35ef190f	1.7814181e-06
91	0x30d78154	1.5680066e-09
92	0x3621e51a	2.4124224e-06
93	0x00000000	0.0
94	0x00000000	0.0
95	0x3711d7e5	8.69294e-06
96	0x32a3ec30	1.9083103e-08
97	0x3709a6e9	8.204698e-06
98	0x00000000	0.0
99	0x00000000	0.0
100	0x36c82073	5.964242e-06
101	0x31871084	3.9308947e-09
102	0x36e70de4	6.8859536e-06
103	0x00000000	0.0
104	0x00000000	0.0
105	0x35d93059	1.6181831e-06
106	0x3162fa2b	3.3029532e-09
107	0x35fde536	1.8916678e-06
108	0x00000000	0.0
109	0x00000000	0.0
110	0x35f87e09	1.8514121e-06
111	0x2f6d4402	2.1579186e-10
112	0x3649836e	3.0027836e-06
113	0x00000000	0.0
114	0x00000000	0.0
115	0x3633b176	2.6776374e-06
116	0x31f5f505	7.158294e-09
117	0x365d7b87	3.3003469e-06
118	0x00000000	0.0
119	0x00000000	0.0
120	0x37170366	9.001093e-06
121	0x3188f8db	3.9864125e-09
122	0x37110c9e	8.645611e-06
123	0x00000000	0.0
124	0x00000000	0.0
125	0x37138b85	8.794367e-06
126	0x338c857a	6.543537e-08
127	0x37f89793	2.9634486e-05
128	0x00000000	0.0
129	0x00000000	0.0
130	0x37680a89	1.38307305e-05
131	0x32b5a019	2.1143977e-08
132	0x36ddb675	6.607554e-06
133	0x00000000	0.0
134	0x00000000	0.0
135	0x362befef	2.5620645e-06
136	0x312866dc	2.4505686e-09
137	0x359a1fc8	1.1483144e-06
138	0x00000000	0.0
139	0x00000000	0.0
140	0x3780b78a	1.5344256e-05
141	0x330d7241	3.2933034e-08
142	0x3746b8dc	1.1844761e-05
143	0x00000000	0.0
144	0x00000000	0.0
145	0x359663b1	1.1204885e-06
146	0x3094b18a	1.0818877e-09
147	0x35e8af74	1.733641e-06
148	0x00000000	0.0
149	0x00000000	0.0
150	0x36648fe5	3.4058405e-06
151	0x318756c9	3.9388834e-09
152	0x36551aca	3.1755067e-06
153	0x00000000	0.0
154	0x00000000	0.0
155	0x3660120e	3.338911e-06
156	0x31c78110	5.806335e-09
157	0x364c34c5	3.0429085e-06
158	0x00000000	0.0
159	0x00000000	0.0
160	0x36e0f5e0	6.704344e-06
161	0x32825cf5	1.5176264e-08
162	0x369b9c89	4.637583e-06
163	0x00000000	0.0
164	0x00000000	0.0
165	0x3683e28b	3.9304773e-06
166	0x32173b10	8.802786e-09
167	0x3641d0c1	2.8880752e-06
168	0x00000000	0.0
169	0x00000000	0.0
170	0x35ce93df	1.5391232e-06
171	0x318dbe7c	4.1252957e-09
172	0x35d8b130	1.6144822e-06
173	0x00000000	0.0
174	0x00000000	0.0
175	0x3597ef88	1.132009e-06
176	0x312c68db	2.5088898e-09
177	0x35bee5f5	1.422303e-06
178	0x00000000	0.0
179	0x00000000	0.0
180	0x364f9d27	3.0936878e-06
181	0x321a1b4e	8.970188e-09
182	0x366487e2	3.4053742e-06
183	0x00000000	0.0
184	0x00000000	0.0
185	0x358bab02	1.0406077e-06
186	0x2fbc4b20	3.425038e-10
187	0x35ed8c1d	1.7698654e-06
188	0x00000000	0.0
189	0x00000000	0.0
190	0x36e4648c	6.8066347e-06
191	0x31090234	1.9937376e-09
192	0x371939f9	9.1330085e-06
193	0x00000000	0.0
194	0x00000000	0.0
195	0x364acaef	3.0218469e-06
196	0x320a665f	8.055934e-09
197	0x368a2120	4.1165767e-06
198	0x00000000	0.0
199	0x00000000	0.0
200	0x362aa9ec	2.5430882e-06
201	0x32465681	1.1544786e-08
202	0x3688d2be	4.0776495e-06
203	0x00000000	0.0
204	0x00000000	0.0
205	0x371b9e50	9.27558e-06
206	0x32636cf2	1.323791e-08
207	0x36fc6b7f	7.5226994e-06
208	0x00000000	0.0
209	0x00000000	0.0
210	0x3535f41a	6.778297e-07
211	0x31649055	3.326041e-09
212	0x35b8c55d	1.3766509e-06
213	0x00000000	0.0
214	0x00000000	0.0
215	0x366ceadb	3.5303444e-06
216	0x32af8990	2.0435238e-08
217	0x3705d15d	7.976164e-06
218	0x00000000	0.0
219	0x00000000	0.0
220	0x36082c69	2.029143e-06
221	0x303df10b	6.910034e-10
222	0x3675ea4a	3.664422e-06
223	0x00000000	0.0
224	0x00000000	0.0
225	0x36246b7b	2.4500466e-06
226	0x30d074ef	1.5167226e-09
227	0x362f1fed	2.6095615e-06
228	0x00000000	0.0
229	0x00000000	0.0
230	0x36ec38de	7.0399683e-06
231	0x325bacd0	1.2786771e-08
232	0x368ddc26	4.227756e-06
233	0x00000000	0.0
234	0x00000000	0.0
235	0x360323ff	1.9541474e-06
236	0x31b5aaae	5.2871973e-09
237	0x35af4aaa	1.3060246e-06
238	0x00000000	0.0
239	0x00000000	0.0
240	0x36f9aede	7.4411355e-06
241	0x322c6d75	1.0036605e-08
242	0x36aab717	5.0877093e-06
243	0x00000000	0.0
244	0x00000000	0.0
245	0x365d9cc5	3.3022818e-06
246	0x3226ea0b	9.715687e-09
247	0x364172c7	2.882605e-06
248	0x00000000	0.0
249	0x00000000	0.0
250	0x37269add	9.930428e-06
251	0x32a4960e	1.916035e-08
252	0x370b2a69	8.29492e-06
253	0x00000000	0.0
254	0x00000000	0.0
255	0x36155a29	2.225521e-06

exp_avg f4 [128]
0	0xba0ad06a	-0.00052953383
1	0x38021a9e	3.1019204e-05
2	0xb8faf781	-0.0001196703
3	0x387f2d14	6.083872e-05
4	0xb9ebf0c6	-0.00045002083
5	0x387937b7	5.9418115e-05
6	0x391c8d71	0.0001493001
7	0xb91dd97a	-0.00015053703
8	0xb993eecc	-0.00028215942
9	0xb7770a36	-1.4724725e-05
10	0x395e44dd	0.00021197223
11	0xb929076a	-0.00016119858
12	0x377e35ba	1.5152089e-05
13	0x38c5273b	9.400999e-05
14	0xb9a1304d	-0.000307443
15	0xb83f7ea4	-4.5655892e-05
16	0x3731e9fd	1.0604502e-05
17	0x38da09b4	0.000103968574
18	0x39cdeb67	0.00039276035
19	0x39a21a8d	0.0003091883
20	0x39abd7f9	0.00032776574
21	0xb984bd8b	-0.00025318222
22	0xb8582707	-5.153476e-05
23	0x3767eb3e	1.38234445e-05
24	0x395bf9db	0.00020978546
25	0xb9e6357c	-0.00043908868
26	0x383d6ea7	4.5164164e-05
27	0xb7d7d685	-2.572989e-05
28	0xb8cc5123	-9.742591e-05
29	0xb81b8282	-3.7076425e-05
30	0xb83266dd	-4.2534306e-05
31	0x3980ccad	0.00024566558
32	0xb89c9bf3	-7.4677075e-05
33	0x37d892a7	2.5817497e-05
34	0x39048ac7	0.000126402
35	0x389aa920	7.374794e-05
36	0xb6686dfb	-3.463471e-06
37	0x394b53d3	0.00019390816
38	0x38a56c70	7.888011e-05
39	0x37fdefdd	3.0271645e-05
40	0xb8373781	-4.3682292e-05
41	0x3996fa26	0.00028796605
42	0xb8a62e14	-7.9240795e-05
43	0xb90b5d87	-0.00013290915
44	0xb75238ae	-1.2530172e-05
45	0xb895c165	-7.140896e-05
46	0xb5d343e6	-1.5740486e-06
47	0x390b6c54	0.00013296428
48	0x37ac0496	2.0506133e-05
49	0xb7ae1c8c	-2.075571e-05
50	0x385aa8a1	5.2132298e-05
51	0xb80484a1	-3.1594773e-05
52	0xb9dc231c	-0.00041987828
53	0xb4e09287	-4.1829864e-07
54	0xb993f7ec	-0.0002822274
55	0x3966c60c	0.00022008287
56	0x3899908a	7.322531e-05
57	0xb9056494	-0.00012721337
58	0xb894bd9f	-7.0925096e-05
59	0xb8cbc19c	-9.715857e-05
60	0xb917bcb0	-0.00014470774
61	0xb95c764c	-0.00021024904
62	0x3771dc9c	1.4416084e-05
63	0x39033a56	0.00012514865
64	0xb9802864	-0.00024444156
65	0xb59297e0	-1.0922049e-06
66	0x39a2a15b	0.00031019267
67	0xb91d2a35	-0.0001498841
68	0xb8145511	-3.5365174e-05
69	0x39280e1f	0.00016026989
70	0x39435f76	0.00018632211
71	0x39210a13	0.0001535791
72	0x360be0f7	2.084356e-06
73	0x382abe6d	4.0708506e-05
74	0x39039117	0.00012547184
75	0xb6167bba	-2.242376e-06
76	0x38ee2b71	0.00011356816
77	0xb7ef6a83	-2.8540619e-05
78	0x39bdc263	0.0003619372
79	0xb8763d78	-5.8708218e-05
80	0x391f83c1	0.00015212504
81	0xb9c51719	-0.00037591977
82	0x38ea9586	0.000111858404
83	0x3898cb9c	7.28585e-05
84	0xb7244cd2	-9.793048e-06
85	0xb83901c7	-4.4109092e-05
86	0x3954b5c4	0.00020285608
87	0xb9b1c1c4	-0.00033904437
88	0xb9a103a2	-0.0003071102
89	0x373bfc03	1.1204745e-05
90	0x381b222e	3.6986712e-05
91	0x38867bed	6.412701e-05
92	0xb7781699	-1.4787213e-05
93	0x3901c746	0.00012376634
94	0xb828802e	-4.0173698e-05
95	0xb9ae7825	-0.0003327738
96	0x38cc8fdb	9.754273e-05
97	0xb714f662	-8.878853e-06
98	0xb9ae5c6b	-0.00033256723
99	0x3a26936f	0.0006354367
100	0xb6f058f6	-7.162914e-06
101	0xb90d7fe5	-0.00013494452
102	0xb790cff9	-1.7262983e-05
103	0xb9374f2c	-0.00017481734
104	0x384b77c9	4.851053e-05
105	0x39ad5c45	0.00033065878
106	0x3882d8a9	6.239239e-05
107	0xb9d7b0c6	-0.00041139702
108	0xb9857234	-0.00025452825
109	0x3997b36b	0.0002893464
110	0x38b72c63	8.734388e-05
111	0xb92592b9	-0.00015790285
112	0x395c1c07	0.00020991276
113	0x38f6650d	0.00011749016
114	0x397819ea	0.00023660777
115	0x3881c3ba	6.187656e-05
116	0xb9086e83	-0.0001301114
117	0x382cf763	4.1238392e-05
118	0xb65681d7	-3.1964062e-06
119	0xb7f5cab9	-2.9300676e-05
120	0xb9bdb053	-0.0003618026
121	0xb8c54b77	-9.4077484e-05
122	0x395636de	0.0002042907
123	0x3930e215	0.0001686889
124	0x39344dc6	0.0001719511
125	0xb9213705	-0.00015374653
126	0xb698495f	-4.5384945e-06
127	0x39b95888	0.0003535191

exp_avg_sq f4 [128]
0	0x355c0df6	8.19767e-07
1	0x348a9863	2.581538e-07
2	0x34c0044c	3.5765913e-07
3	0x3436de22	1.7030882e-07
4	0x35286ac2	6.274023e-07
5	0x33206b74	3.735063e-08
6	0x34989c30	2.8425848e-07
7	0x34a37324	3.0444892e-07
8	0x34b4020f	3.352911e-07
9	0x3545c27c	7.367123e-07
10	0x34166b91	1.4008971e-07
11	0x34e29adc	4.2208455e-07
12	0x333cf527	4.3995126e-08
13	0x34f99089	4.6485027e-07
14	0x35c78d5b	1.4867795e-06
15	0x342173a2	1.503636e-07
16	0x34a2eba2	3.0346297e-07
17	0x343fc785	1.7860846e-07
18	0x3415d88e	1.3955488e-07
19	0x352f344f	6.52687e-07
20	0x3505f87d	4.990796e-07
21	0x340828e8	1.2680869e-07
22	0x34471ac9	1.8543064e-07
23	0x3478508d	2.3126104e-07
24	0x353c7422	7.0204453e-07
25	0x35deb537	1.6593029e-06
26	0x354c42eb	7.60933e-07
27	0x341239c4	1.3618325e-07
28	0x35824b28	9.707628e-07
29	0x3419900c	1.430164e-07
30	0x347ff367	2.3837275e-07
31	0x3477ba41	2.3071426e-07
32	0x3504abdb	4.9423915e-07
33	0x348ca55a	2.619734e-07
34	0x340000c8	1.1921213e-07
35	0x33daf776	1.0196429e-07
36	0x3488dddd	2.54934e-07
37	0x33f8d804	1.1587693e-07
38	0x352c7cf5	6.425683e-07
39	0x349ce95b	2.9227053e-07
40	0x34a33324	3.0398326e-07
41	0x35306014	6.570492e-07
42	0x33cb4f12	9.467307e-08
43	0x350e75cb	5.3070534e-07
44	0x348ee034	2.661269e-07
45	0x345626fc	1.9944486e-07
46	0x34e65ec4	4.290979e-07
47	0x34215146	1.502386e-07
48	0x3503e904	4.9140385e-07
49	0x348bfe7c	2.607593e-07
50	0x354b4e01	7.5736904e-07
51	0x3427eccf	1.5639237e-07
52	0x35b29a83	1.3307002e-06
53	0x352c665b	6.422394e-07
54	0x35f6b195	1.8380111e-06
55	0x3523a023	6.095526e-07
56	0x3542930f	7.248463e-07
57	0x362da1e1	2.5873235e-06
58	0x347691c4	2.2963565e-07
59	0x344b283c	1.8920485e-07
60	0x34261cab	1.5470384e-07
61	0x33a3b75e	7.623633e-08
62	0x34472bd1	1.854926e-07
63	0x357e4459	9.472183e-07
64	0x34924e53	2.7251608e-07
65	0x33e4326a	1.06262476e-07
66	0x34b3a0bb	3.3458295e-07
67	0x34ee20c4	4.4354795e-07
68	0x34852b0d	2.4804504e-07
69	0x34cb46f2	3.7863316e-07
70	0x34f9108b	4.63919e-07
71	0x34a76e10	3.1186255e-07
72	0x34bc7469	3.5102428e-07
73	0x34b497d6	3.3638088e-07
74	0x34089db0	1.2723353e-07
75	0x341545ee	1.3902147e-07
76	0x3512444b	5.448862e-07
77	0x352ca377	6.4312866e-07
78	0x351402cd	5.513837e-07
79	0x349701d2	2.8127266e-07
80	0x34b2e134	3.331894e-07
81	0x359fc864	1.1904744e-06
82	0x34cf2cff	3.8589494e-07
83	0x350e54de	5.302262e-07
84	0x34351cd7	1.686743e-07
85	0x32daf113	2.5488168e-08
86	0x346260eb	2.1083149e-07
87	0x35821958	9.693131e-07
88	0x35161149	5.590451e-07
89	0x34edb2fa	4.4274913e-07
90	0x334448ad	4.5700904e-08
91	0x341ab196	1.4406973e-07
92	0x33eac4ee	1.09322954e-07
93	0x3582387f	9.702197e-07
94	0x3412143e	1.3604674e-07
95	0x34d4f4df	3.9666244e-07
96	0x3550ee1e	7.7832544e-07
97	0x3444c448	1.8325329e-07
98	0x34aa4be4	3.1720185e-07
99	0x35c63d65	1.4770018e-06
100	0x33f4b380	1.1394786e-07
101	0x348c8280	2.6171983e-07
102	0x351220ca	5.443695e-07
103	0x352fea75	6.553376e-07
104	0x33f659ed	1.1471625e-07
105	0x347af69c	2.337278e-07
106	0x33ce2e6f	9.601069e-08
107	0x3519b7e1	5.726452e-07
108	0x3446b02f	1.8504282e-07
109	0x34c182fc	3.6044355e-07
110	0x34a1b81a	3.0122538e-07
111	0x34d2c844	3.926126e-07
112	0x3405b8d2	1.2453827e-07
113	0x34bcac25	3.514298e-07
114	0x3412f351	1.3685828e-07
115	0x34031705	1.22087e-07
116	0x35144714	5.523773e-07
117	0x33ce6b44	9.612134e-08
118	0x33fc45c0	1.1747352e-07
119	0x33eb6253	1.0960925e-07
120	0x34ecafb6	4.4086272e-07
121	0x3331d647	4.1405908e-08
122	0x3548ba50	7.4776926e-07
123	0x3497e397	2.8291535e-07
124	0x343cd009	1.7584547e-07
125	0x3441b9d1	1.8042125e-07
126	0x33a54dfc	7.6975965e-08
127	0x34ee87a8	4.4429657e-07
