Goodminton/Assets/results/Badminton/Badminton/Badminton-2583.pt (torch, 439033 bytes, 36 tensors)

network_body._body_endoder.seq_layers.0.weight f4 [128, 5]
00000000: 0100 40bf d8bb 053f 1133 a4be 361b 9e3e
00000010: 1000 bfbd 3f5b 01bf c61c a2be 2aba 3cbf
00000020: 3475 203d f0e6 3a3e a1fe 23bf 4de2 663e
00000030: 3866 c53e 1d0d 9fbe 2c24 e93c db6c b63e
00000040: 4a5a 13be e8a0 be3e 586e d0be 164a 7d3e
00000050: 9964 a93e bc50 2a3f 0cb4 4ebf b09f 043e
00000060: 5cb1 02bf 40d2 af3e 9557 1cbf 3ec4 4b3f
00000070: 794b 08bf 2e95 b73e f078 2a3f 3766 e53e
00000080: 603a c5be f046 cdbe dc42 ffbe c335 f1be
00000090: 581a e83e 4750 bb3e 6ad8 c23d b824 e73c
000000a0: 24c7 033e 37d9 8ebe 9e30 e23d 92af bdbe
000000b0: 1cd1 c6be cdc5 d0be 5f17 0fbf e93d 363d
000000c0: 7ded e3be bac8 0f3f 8f26 303e 740b b0be
000000d0: 7193 183e fbdd f0be ea28 b63c 51c1 8b3d
000000e0: 5bab fbbe d6d3 e93e 59ae 353e 27f2 dfbd
000000f0: fedd 44bf a38f f7be d9c8 8abe ab86 57bf
00000100: 8f83 d43e 49a9 86bd dd31 04bf ca8e 2ebf
00000110: 9003 24bd 8068 a73f a01b 033f 8d40 adbc
00000120: e9c0 533e 5e15 93bd 91b2 96be 75a4 6c3f
00000130: aef4 dabe 22ad 1cbf 05dc 123f fa1e e43e
00000140: 82fe 133f 2b6b 10bf 221f 0ebe 55c9 dd3e
00000150: 584a ffbd 6eb8 6c3f ef55 c33e c660 083f
00000160: 9704 eb3e cf63 c73e e449 fdbe 53a5 edbd
00000170: 7bd8 693e b0ab cf3e 02c9 4a3f 46d5 793d
00000180: 9716 a83d 86ae 38be bc1f 193d a5e3 ba3d
00000190: 7f66 d7be db4a 73be 5fef 23be 83d0 33be
000001a0: 2a5a a13d 9d9d 0f3f 11dc 31bd 838e 893e
000001b0: c09b 033f 2e5f f5bd 203b 233e 46e0 1c3f
000001c0: 657c 923e dd99 4abf a4da 13bd c788 4abe
000001d0: 3b3a bf3c e528 a63e 4b6b 6e3e 7ea9 c1be
000001e0: 8cbe a438 1163 5abe d244 45bf c429 64be
000001f0: 4c16 39bf 5128 2b3f 5cad e4bd 2be3 873e
00000200: 2001 f73e 5ad9 0e3e 0257 88be 1200 f73e
00000210: 2865 eb3e 5a2f f7bc 88bd 923e be0a 57be
00000220: 3cca 33be 6f20 a03d d2dc e2be 62f2 193d
00000230: bd0f 40be 89ea 0d3e e647 75be acb1 283f
00000240: c5de 6c3e cbef 7cbe c260 e3be aa8f fc3e
00000250: 50b0 9a3e 0b00 35bd b5c8 a13e c3c4 f23e
00000260: 79a6 5c3f a56c 163f ad2b 2d3d 09db 9ebe
00000270: ac3b d1be 0099 02be 5e58 a63e ce5d 2b3c
00000280: 4f69 7dbe ee2b ea3d 5ccd 80be 2002 e4bb
00000290: b6f2 b2be ab69 433f 11de 5a3c 8eff fe3d
000002a0: 7348 5c3f 584c 57bf aa6b 4dbe ea1e 8cbe
000002b0: 2668 42be 1785 173f 44ac d1be 399c 593e
000002c0: b5d3 e63e bb63 42bd b20f 0b3f cb9c e2bd
000002d0: ad1c 473f a5b4 92be 1449 813e 8858 e5bd
000002e0: a58c 82be f9d0 f4be 6c4f b2be a495 edbe
000002f0: 24c1 63bf b6a0 893f 51a2 b6be ccc4 ff3e
00000300: a412 74be 04c9 45bf 541b 47be c17a b6be
00000310: 1071 3e3e 2fc9 28be caea 453d e2b4 2f3f
00000320: 40f1 d03d 468d 4b3e 2e5c bb3e fa42 e63e
00000330: ea30 0abe f9eb aabe beae e13e 711a 203e
00000340: 835e df3e a14c 91bf 470f 25be 4936 c53e
00000350: d047 9bbf 1f1e 0f3f 1c1d c4bc d3f2 d4be
00000360: cdc6 4cbe 9b19 e7bd 0778 5c3e 3950 fcbd
00000370: 98a3 9abe 2265 d03e fc62 763e ef50 dc3e
00000380: 1b91 2e3e 0361 a0be 42d7 fbbd 1e97 323e
00000390: af9d d4bd 910b 52be 4d31 a3bc 8004 39bf
000003a0: 0af6 1dbf 9326 be3d 2f31 cd3e 2d15 00be
000003b0: 2445 bb3e be77 193f 6be5 da3e db93 6abd
000003c0: c1b8 2dbd c573 03bf c6b3 f3be f063 74be
000003d0: acd8 e3be aba8 6fbf 1aab 09bf ebc0 073e
000003e0: 436f b23d 4d8b 4bbe 8b7f 3c3f 5d43 6cbd
000003f0: f433 c13e f266 0a3e 2438 8ebe 96d3 873d
-0.75000006 0.5223975 -0.3207021 0.30880135 -0.09326184 -0.50529855 -0.31662577 -0.73721564
0.039174274 0.18252158 -0.6406041 0.22547264 0.3855455 -0.31064692 0.02845963 0.35629925
-0.14389911 0.37232137 -0.40709186 0.24735293 0.33084562 0.6652944 -0.8074348 0.12951541
-0.5105188 0.34340096 -0.6107114 0.79596317 -0.5324016 0.35856003 0.66590786 0.44804546
-0.385211 -0.40093184 -0.49855697 -0.4711133 0.453326 0.36584684 0.09513934 0.028215751
0.12868935 -0.27900097 0.11044429 -0.37048012 -0.38831413 -0.4077591 -0.55895036 0.044492636
-0.44517127 0.5616566 0.17202209 -0.34383738 0.14899994 -0.47044358 0.022236306 0.068239816
-0.4915417 0.4566943 0.1774229 -0.10934859 -0.76901233 -0.48351774 -0.2710636 -0.8418986
0.4150662 -0.06575257 -0.51638585 -0.6818663 -0.04004246 1.3078766 0.5121403 -0.021148944
0.20679058 -0.0718181 -0.2943311 0.9243844 -0.427648 -0.6120168 0.57366973 0.44554883
0.57810223 -0.56413525 -0.13879064 0.43317667 -0.12465352 0.9246892 0.381515 0.53272665
0.4590194 0.38943335 -0.49470437 -0.11603799 0.22836487 0.40560675 0.79212964 0.06099441
0.08207434 -0.18035325 0.03738378 0.09125451 -0.42070386 -0.23759024 -0.16009282 -0.1756001
0.078785256 0.56099874 -0.043422762 0.2686654 0.5140953 -0.11981045 0.15940523 0.61279714
0.2861053 -0.79141027 -0.036097184 -0.19778739 0.023343196 0.32453075 0.23283117 -0.37824625
7.8556215e-05 -0.21326853 -0.77058136 -0.22281557 -0.7229965 0.6685839 -0.11165878 0.26540503
0.48243046 0.139501 -0.26628882 0.4824224 0.45975614 -0.030173946 0.28660226 -0.21000192
-0.17557615 0.07818686 -0.44309098 0.03758467 -0.18756004 0.13859 -0.23953208 0.65896106
0.23131855 -0.24700849 -0.44409758 0.49328357 0.3021264 -0.044189494 0.3159844 0.47415742
0.8619152 0.5875953 0.04227798 -0.31026486 -0.4086584 -0.12753677 0.32489294 0.0104593765
-0.24747203 0.1143416 -0.25156677 -0.006958261 -0.349508 0.7633311 0.013358609 0.12451087
0.8604805 -0.84100866 -0.20060602 -0.27367336 -0.18985042 0.59187454 -0.4095174 0.21251
0.45083395 -0.04745839 0.54320824 -0.11065062 0.7777813 -0.28653446 0.25251067 -0.111985266
-0.25497928 -0.47815683 -0.3482622 -0.4640323 -0.88966584 1.075217 -0.35670713 0.49954832
-0.23835236 -0.7725985 -0.19444019 -0.3564053 0.18597817 -0.16482995 0.048319615 0.6863538
0.10202265 0.1987811 0.36593765 0.44972974 -0.13495222 -0.33383158 0.4407863 0.15635087
0.43626794 -1.135151 -0.16119109 0.3851798 -1.213129 0.55905336 -0.023939662 -0.4159151
-0.19997711 -0.11284181 0.21530162 -0.12319989 -0.30202937 0.40702158 0.24061197 0.43030497
0.17047541 -0.31324014 -0.122969165 0.17440459 -0.10381638 -0.20512225 -0.01992097 -0.7227249
-0.6170355 0.09284701 0.40076587 -0.12508078 0.36576188 0.5994834 0.42753157 -0.057269912
-0.042412523 -0.51348525 -0.47598094 -0.23866248 -0.44501245 -0.9361674 -0.53776705 0.13257186
0.08712628 -0.19877358 0.73632115 -0.05768143 0.3773495 0.13515833 -0.27777207 0.06632154

network_body._body_endoder.seq_layers.0.bias f4 [128]
00000000: b0bb ddb9 920b 20bb 9850 943a 44f8 653c
00000010: 1a85 063b 249e 683c 35e7 4dbb 5197 49bb
00000020: 9028 daba 6dcb 843c 0336 d13b 0070 083c
00000030: 9a75 58bc bcf7 1cbc 0ac7 c8ba a9f3 b43a
00000040: 8c2e 9cbb 0096 ad3b e059 1ebc 52e6 7bbb
00000050: de55 f23b b643 113b 2ce3 cf3b 72e7 bcbb
00000060: bdef 8c3a d9a3 17bc 8dd8 4b3c 0499 f9ba
00000070: d00e 90bb 840a 8bbb 6e71 c7ba b27a 6b3b
00000080: 2ea6 04ba 4683 efbb c832 64bb 0d0a 20ba
00000090: a620 81bb 98e2 bebb 2e64 173b 6e13 363a
000000a0: 581b 1ebb 6aa0 86bb d4b6 c8bb 653e 07bb
000000b0: 33dd 33bc 489c a5bb ecae ffba fdb1 9f3b
000000c0: 882f 2d3b 22df a5bb 9ce5 ea3a 2c20 283b
000000d0: be9a 523b 5731 c938 5c03 613a 7a6e b1bb
000000e0: dfb2 34bc 1135 6f3a 95ef 5f3c 3cda 5eba
000000f0: b30c 6a39 eea2 25bc d2cf 4cbc 0989 5fbb
00000100: 0d71 a13b 6edc a4bb 9fb0 18bc d56e d83a
00000110: 6dad 233c b524 10bb c6f2 7abc 9aec 513b
00000120: b6af faba e85d 933b c574 11bc 9991 08b9
00000130: d980 42bb 6c19 463c be36 ac3a 33b5 00bc
00000140: d46a 50ba 7c90 263b 425d 8a3a d551 4bbb
00000150: d488 443c 7783 913a b44e 463b 069a f13a
00000160: 23dd a2bb ffe5 50bb bb02 f13b f90d 83bb
00000170: f5ee 70bc 06d8 0cba a719 87bc d3a6 b23b
00000180: f770 f1bb 59a8 ab3a 872b c43a 963c d7bb
00000190: a4f3 42bc d25d 8fbc 6230 2cba 53d7 6c39
000001a0: 85bc e13b 95de bfb8 a486 bebb 42cf 10bb
000001b0: 0bda f0bb 6d37 beba e7fb 3fbc a54c f33b
000001c0: 4433 223b b99b 27bc 3f8f 82bb 02d3 5d3c
000001d0: 13fb 2b3b 9954 26bb 0599 84bb abd6 4dbc
000001e0: f1f8 15ba 4181 d7ba e2fd 7138 d748 f6ba
000001f0: 5c69 9ebb f0c0 6eba cea2 253c 13d7 b7bb
-0.00042292243 -0.002442096 0.0011315523 0.014036242 0.0020526112 0.01419786 -0.0031418328 -0.0030760358
-0.0016644169 0.016210282 0.0063846125 0.008327484 -0.013211632 -0.009580549 -0.0015318107 0.0013805527
-0.004766291 0.0052974224 -0.009664983 -0.0038436842 0.00739549 0.0022165603 0.0063442197 -0.005764895
0.00107526 -0.009255373 0.012441766 -0.0019042795 -0.004396297 -0.004243197 -0.00152163 0.0035931286
-0.0005060163 -0.00730935 -0.0034820307 -0.00061050133 -0.0039406596 -0.005825352 0.0023100483 0.0006945644
-0.0024125185 -0.0041084783 -0.0061253104 -0.0020636555 -0.010978031 -0.0050540306 -0.0019507087 0.004873513
0.0026426036 -0.005062 0.0017921212 0.0025653942 0.003213569 9.593617e-05 0.00085835694 -0.005414781
-0.011028974 0.0009125034 0.013667961 -0.00085011474 0.0002232071 -0.010109646 -0.01250072 -0.003410878
0.004926807 -0.00503116 -0.0093194535 0.0016512523 0.009990078 -0.0021994535 -0.015316671 0.0032031895
-0.0019125852 0.0044972785 -0.008877938 -0.0001302421 -0.002967885 0.012091022 0.0013138873 -0.007855701
-0.0007950489 0.002541571 0.0010556357 -0.0031024117 0.011995513 0.0011101802 0.0030259313 0.0018432743
-0.004970209 -0.003187537 0.007355062 -0.0039994684 -0.014705409 -0.0005372766 -0.016491724 0.005452016
-0.007368203 0.0013096436 0.0014966585 -0.0065685017 -0.011898909 -0.017500792 -0.0006568489 0.00022586928
0.0068889284 -9.149049e-05 -0.0058143903 -0.0022096192 -0.0073502115 -0.0014512368 -0.011717773 0.007424908
0.0024749795 -0.010229998 -0.0039843614 0.013539078 0.0026242181 -0.0025380014 -0.0040465617 -0.012563388
-0.0005720994 -0.0016441719 5.7695324e-05 -0.0018790019 -0.004834337 -0.00091077294 0.010109616 -0.0056103556

network_body._body_endoder.seq_layers.2.weight f4 [128, 128]
00000000: 7fb1 343e f524 a13c b029 21bd 4f58 603e
00000010: 4526 3bbc 253a 8d3d a0a2 893d 2762 1ebd
00000020: 5791 6cbd a156 9b3d e54b 363e 5cbd 84bc
00000030: 30df 2d3d ff39 74bc 193a 05be 85d5 66bd
00000040: 3338 36bd 56c2 c13d 92dd ca3b c770 f93d
00000050: 682b 973c ad69 4b3d 949b fa3b e50f ae3c
00000060: 153e c7bd b165 7e3d 7998 ae3b c45f d63c
00000070: 71c2 733d 452e 1d3c 38be cabd eed3 e93d
00000080: 82cb a4bc 7d0f 9a3d 86d7 2cbc f34e 113e
00000090: 954c aebd 95e1 a83b 7e2b a53d 2463 20bd
000000a0: a5a6 253e 4a03 0d3d 748e 073b 9f2e 10be
000000b0: 0f02 073d c077 18bc 17f6 713d c8a4 7ebe
000000c0: 9c65 043d 3a9f 6c3c 34bf 3fbe 3b21 18bd
000000d0: c33d 66bd cc38 c03d 1923 1ebd 904b 0b3b
000000e0: 4282 deb9 dec0 59bd fc5d f5bd 13b9 aa3d
000000f0: ef0e 84bd b855 01bd 25c2 de3b 4709 5c3d
00000100: 120f 913d 9f7c 60bc 6cb9 8bbd 8716 753c
00000110: 0387 f03c afe5 06be c8ee 5ebc 1c1d b9bc
00000120: 9f3b ebbd 721f bfbd 345b cc3c 40ac 60bd
00000130: 5f5c f03d 37ce 133d a5c4 84bd b012 8fbd
00000140: 0319 153c 9b8f b8bd 408a ebbd 227a 36bb
00000150: 2da1 263d 7539 46bd ce34 663b c872 3b3d
00000160: 0e20 dabc 37f0 febc 0f3a 4f3d 42da 153e
00000170: 2518 603d f21a 2db8 6f58 f7bd 0506 1fbd
00000180: 735c 85bd 2ab6 43bd e800 bfbd 8d0b 1e3e
00000190: d039 a3bd 782d 9ebd ab2c 2fbd bcd8 f63c
000001a0: a6bc 85bd d938 8f3d d66d 3e3e 3bd6 50ba
000001b0: 6b39 52bd a35a 953d 15ac 093d 67b4 a83c
000001c0: 339b 503d 8119 73be ceb0 8dbc 8574 083d
000001d0: c1a6 9fbd c6b1 3fbe 2952 3f3e 4df4 0ebe
000001e0: 1c88 f3bc ef5d f23a 97af bd3d 8a08 a6bd
000001f0: 4669 90bd fba6 8f3d b2cf 1bbe 0e58 babd
00000200: 5aa2 da3d fa49 773d 9124 dbbd 9e53 123e
00000210: f7f7 a1bc 1ff3 9ebd 9b50 c9bd e563 b0bd
00000220: 9590 78bd 119d ed3d fa0e b0bd 991c f73c
00000230: ca27 a33b 2fd5 e43d 89f9 063d 93bb ce3d
00000240: 841f 60bd 8142 b0bd 7c4f 60bd a57a 41bc
00000250: efec d7bd 6b60 523c 7814 f3bd 507c ddbd
00000260: c344 1cbe d6ee 92bd 5a7d 343e 6cda 373d
00000270: 66c2 4f3d cd88 3cbe 4885 d8bd b234 41ba
00000280: 0e61 d2bd a91d 9abd 5802 cfbd 759a 503d
00000290: 3276 473e 1ca1 4c3d e097 00bd 3e7d e6bd
000002a0: 112a ba3b 0386 3bbd aba0 13be 0d95 133d
000002b0: d90c eabd 84a1 87bd 675f 60bd 388f eebd
000002c0: ace2 623c c997 94bd c4de 8b3c 5542 513d
000002d0: 4f78 e0bd c0a1 6fbc 3590 d7bd f741 bc3d
000002e0: 55e0 24be 6181 3cbb 01e7 e7bc e970 26bc
000002f0: 21f5 6cbd cd5f ea3d 102d a7bd 8b13 8e3e
00000300: d358 16bc 0064 823c 0ef2 fe3c 934a fbbc
00000310: 9559 e0bd 44ba b1bd fc43 64bb d300 123d
00000320: 6ebe 67be 7629 cb3c c0e3 d9bb 2b05 093d
00000330: a70c 1a3e 8806 3bbd 12bb 8fbd d80f 1e3d
00000340: af21 cbbc e786 a43d 16b2 563c 0ef7 f43c
00000350: bcad 933c 33b0 e1bd c307 3fbd 84d1 f1bc
00000360: 4fda 803d ce66 c03b b573 33bc 146f d0bd
00000370: 0ef0 82bd 9330 903d 6a58 58bd c95a 083d
00000380: d749 5a3d 6029 efbd cee7 80ba f574 c23d
00000390: 35e3 38bd 762a d4bd 1543 6cbd bc7b d1bd
000003a0: 15ec efbd 48cf f1bc 6420 393e 54d3 0c3e
000003b0: 5b15 f73c cb8f b2bd 1626 5ebd 307d 6f3d
000003c0: bbb0 b2bc 27ec 30bd 272c f4bc a9fa 543d
000003d0: c3c0 363c aaea f13d 27d3 e3bc bfe4 4a3c
000003e0: ef00 703d b436 42bd 7cb3 54bc 9499 a13c
000003f0: f6ca 9cbd 2ebe 623d 3e76 c13a 5545 5bbd
0.17645834 0.019670943 -0.039346397 0.21908687 -0.011422698 0.06895856 0.067204714 -0.038667824
-0.057755794 0.075848825 0.17802389 -0.016203575 0.042449176 -0.0149064055 -0.13010444 -0.05635597
-0.04448719 0.09460895 0.006190964 0.12179714 0.018453315 0.049661327 0.007647941 0.021247813
-0.09728638 0.0621087 0.0053282348 0.026168711 0.059511606 0.009593551 -0.098995626 0.114173755
-0.020116571 0.075224854 -0.010549432 0.14190273 -0.085107006 0.0051538446 0.08064936 -0.039157048
0.16176851 0.034426965 0.0020684274 -0.14080285 0.032960948 -0.009305894 0.05907258 -0.24867547
0.032323465 0.014442259 -0.18725282 -0.037141066 -0.056211244 0.09385833 -0.03860769 0.0021254756
-0.0004244019 -0.053162448 -0.11980817 0.08336081 -0.06448161 -0.03157589 0.006798046 0.053719785
0.070829526 -0.013701587 -0.06822476 0.014958984 0.029361254 -0.13173555 -0.013606735 -0.022596888
-0.11485981 -0.093321696 0.024945833 -0.05485177 0.117363684 0.036085334 -0.064828195 -0.06985986
0.009100202 -0.090117656 -0.115009785 -0.0027843793 0.040681053 -0.04839464 0.003512669 0.04576376
-0.026626613 -0.031120403 0.05059248 0.1463404 0.054710526 -4.127151e-05 -0.12077414 -0.0388241
-0.06511774 -0.047781147 -0.09326345 0.15434094 -0.07970011 -0.07723516 -0.042767208 0.030132644
-0.065301225 0.06993265 0.18596587 -0.0007966493 -0.05132429 0.07292678 0.033611376 0.020593835
0.05092926 -0.23740198 -0.017296221 0.033314247 -0.07795478 -0.18720159 0.18683685 -0.13960381
-0.029727988 0.0018491129 0.09262007 -0.081070974 -0.07051329 0.07014271 -0.15215948 -0.09098826
0.10675497 0.060373284 -0.10700334 0.1428971 -0.01977156 -0.077612154 -0.098298274 -0.08612803
-0.06068476 0.11602224 -0.085966066 0.030165004 0.0049791085 0.11173474 0.03295282 0.10094371
-0.054717556 -0.086064346 -0.054763302 -0.011809026 -0.10543238 0.012840371 -0.118691385 -0.10814726
-0.15260606 -0.071744606 0.17625943 0.044886038 0.050722502 -0.1841156 -0.105722964 -0.0007370218
-0.10272418 -0.075251885 -0.10107869 0.05092855 0.19478682 0.049958333 -0.03139484 -0.11254357
0.0056812842 -0.0457821 -0.14416759 0.036030818 -0.11428232 -0.066226035 -0.054778483 -0.116484106
0.013847988 -0.07255513 0.017073996 0.05108865 -0.10960447 -0.014625967 -0.10525552 0.09192269
-0.16101201 -0.002876364 -0.028308393 -0.010158756 -0.05785096 0.11444054 -0.08162892 0.27749285
-0.009176451 0.015916824 0.03112128 -0.030675208 -0.109545864 -0.086781055 -0.003483056 0.035645317
-0.22631237 0.024800044 -0.0066494644 0.033452194 0.15043889 -0.045660526 -0.07018103 0.03858933
-0.024796335 0.08033543 0.013103982 0.029902961 0.018027179 -0.110199355 -0.04663826 -0.02951885
0.06291639 0.0058716303 -0.01095288 -0.101774365 -0.06393443 0.07040515 -0.052818693 0.033289704
0.053293075 -0.116778135 -0.0009834708 0.09494964 -0.045138557 -0.10359661 -0.057681162 -0.102286786
-0.11714951 -0.029517785 0.18078762 0.1375249 0.03016155 -0.087188326 -0.05423554 0.058468997
-0.021812787 -0.043193962 -0.02980621 0.05199686 0.011154356 0.11812337 -0.027810646 0.012383639
0.05859464 -0.04741545 -0.012982246 0.019726552 -0.07655899 0.05535715 0.001475997 -0.053532917

network_body._body_endoder.seq_layers.2.bias f4 [128]
00000000: f3c4 2fbc bbeb e2ba 5694 c63b 88ee bcba
00000010: b338 02bb 086a 59bb ff13 c3bb bd9b 3cbb
00000020: fb71 54ba 3842 c4bb 5d1c bebb 4a26 753a
00000030: d55d 2dbb dace eab9 7840 dabb d53a 58bb
00000040: a19e 62bb 47f8 7fbb 990e 78ba 109e 2c3b
00000050: f343 99bb 27e2 42bc 86c8 0cbc b2cb 48bb
00000060: 6e33 e4bb b76f 9cbb 3995 4f3c 2ec7 af3b
00000070: 801c 7b3b fcf9 8dbb d0af 82bb 86cb 493c
00000080: d7c2 82bb 1df0 50bc b587 0fbc a43b 973b
00000090: d2cf 0c3b 5254 1dba 2f26 9538 197b 8dbb
000000a0: cbe9 063a 5cc7 b0bb c3eb 003b 7626 253a
000000b0: a1f9 54bb f189 df3a f01c 1abb 95c2 b63a
000000c0: af2b c2bb 691c 2abb 839f 4b37 e40d 2a3b
000000d0: 4fb9 9dbb 0fb3 9cba 7acc e1bb 1c80 02bc
000000e0: 3939 0abb a514 55bc 8290 cc3b 202a 0b3b
000000f0: a36e 7c3a 89a3 2b3c bb8b 05bc 722e 733b
00000100: 0ffa 603b 3d85 bbbb bd6d 56bb 2988 98bb
00000110: a4eb b6ba c17b 1a3c cfdc a4bb c8bb 843b
00000120: 77ef f6bb ac7b 23bc 479e e3bb 179a 25bb
00000130: 864f 92bb dce3 a0bb 9b96 04bc 90c8 b33a
00000140: 1671 dcbb 2605 80bc 9ad7 0cbc b77a f83a
00000150: cd08 f9bb 285d 69ba 2c1f 98ba 92ba b9bb
00000160: 884b 7b3b e962 12bb b1e8 70bb 0bf9 11bc
00000170: 8a50 27ba d38b 1cbc 4733 7dba e475 ea3b
00000180: df4c 9c39 73e9 383a 2d99 973b 2475 3fbc
00000190: ef42 e73b a530 b3bb ca22 86bb 8466 b4ba
000001a0: a4f2 a1bb 760d fbbb 1726 ee3a b742 f1bb
000001b0: c62a b4bb b228 b63b f576 f6bb 8dc8 78bb
000001c0: 5fb8 34bc d657 2139 4e95 23bc af23 1abb
000001d0: 37f4 cbba 3fb6 a93b bbe8 243b 6d8b b73b
000001e0: 79c1 6d3b d557 d63b da12 5abb 330d 09bc
000001f0: 76e7 9dbb 2534 bfbb 87ff 30bb 43d7 ccbb
-0.010728109 -0.0017312685 0.0060601635 -0.001441435 -0.001987022 -0.0033174772 -0.0059533115 -0.002877935
-0.00081041426 -0.005989339 -0.005801721 0.0009351714 -0.0026453633 -0.00044786074 -0.0066605173 -0.003299405
-0.0034579413 -0.0039057897 -0.00094626244 0.002633933 -0.0046772896 -0.011894739 -0.00859273 -0.003063899
-0.0069641387 -0.0047740596 0.012669855 0.0053643202 0.0038316548 -0.004332779 -0.0039882436 0.01231659
-0.003990512 -0.01275256 -0.008760382 0.004615264 0.0021486175 -0.00060016394 7.111986e-05 -0.004317653
0.0005146532 -0.0053948592 0.0019671775 0.00062999816 -0.0032497423 0.001705466 -0.0023515783 0.0013943488
-0.0059256176 -0.0025956875 1.2136882e-05 0.002594822 -0.0048133503 -0.0011955219 -0.0068908306 -0.007965114
-0.0021091236 -0.01300541 0.0062428126 0.0021234825 0.0009629523 0.010476002 -0.00815099 0.003710654
0.0034328734 -0.0057226704 -0.0032719218 -0.0046549034 -0.0013955724 0.009428919 -0.0050312052 0.0040507056
-0.0075358707 -0.009978216 -0.0069463584 -0.0025268847 -0.0044650463 -0.0049099755 -0.008092548 0.0013716388
-0.006727348 -0.015627455 -0.008596325 0.001895747 -0.007599926 -0.0008902126 -0.001160597 -0.005667993
0.003834458 -0.0022336787 -0.0036759789 -0.008909474 -0.00063825457 -0.009554821 -0.0009658825 0.007155167
0.00029811912 0.00070538296 0.0046264143 -0.011685643 0.0070575397 -0.0054684454 -0.0040935026 -0.0013763462
-0.004942255 -0.007661517 0.0018169311 -0.0073626894 -0.005498263 0.0055590505 -0.007521505 -0.0037961334
-0.011030286 0.00015386878 -0.0099843275 -0.0023519804 -0.0015560453 0.005179196 0.0025163132 0.0056013376
0.0036278649 0.006541232 -0.0033275397 -0.008364963 -0.004818852 -0.0058350735 -0.0027007775 -0.006251247

action_model._continuous_distribution.log_sigma f4 [1, 2]
00000000: 21a6 613c afce bc3c
0.013772518 0.023047773

action_model._continuous_distribution.mu.weight f4 [2, 128]
00000000: 0329 b6ba 3b5e e73c 2701 333c f77c a8bb
00000010: 44c6 9eba aef9 5dbc d377 10bc bf36 f7ba
00000020: 12b0 12b8 bd2c 6dbb 297f 623c 1f42 b5bb
00000030: 84ca 15bc f4e6 b1bb ff50 493a b1a7 ed3b
00000040: fe20 2abc ec75 c6bb a587 2a39 73d8 323d
00000050: 60e7 adbc 1601 943c 3d2d 973a 58da 93bc
00000060: fe8e 97bc d899 6f3c e24b 5fbc 6313 adbc
00000070: 5c1c c7bb b5e6 d8ba b044 023d 41e8 8bbc
00000080: 90a8 c0ba 0f27 623a c56c 1ebb 0fc1 0cbd
00000090: 6c91 983c e3e2 23bc f0af a2bc d630 4bbb
000000a0: f693 82bc 365f c53c 4956 21bc 11e6 6cbc
000000b0: 9061 c4bb 8f2e a03c 3b40 c1bb 0e88 d239
000000c0: a8ec 16bb 2043 81bc 04db 88bc 5479 37bb
000000d0: 4c60 573c 2983 e5bc f49a eb3b 7057 063b
000000e0: cd19 783c a928 5c3b 3cd6 583b 83c2 133c
000000f0: ddec b0bc c642 5cbc 45d3 8038 b802 39bc
00000100: b767 0bbc 1a3e 4f3c 8655 1b3c 5e4b f03c
00000110: 44da 27bc af2d 123c fe37 a03b d0e4 79bb
00000120: 8bd9 183c d24d e93b 459f c83c ec8f 8abc
00000130: cad0 fd3b 6673 133c 0a2e 3dbc fbf4 f13c
00000140: 4a73 353c c58c 35bb fb51 d93a 6f39 323b
00000150: e6c3 1c3a 2dab db3c 6fd7 debc 165e b1bb
00000160: 415f 11bd 550e ee3c b6be 13bc c4d2 bbbb
00000170: 792d afba 15e4 8d3c 917e bc3b d327 0a3c
00000180: 8c40 afbb 3318 1cbc 21d9 04bd 8741 7a3b
00000190: 023a 3e3c 3e90 12ba 4817 883c ecf3 e2bb
000001a0: 73ae 973c 583d ac3a 425e 90bc 46f7 8bba
000001b0: f517 dd3b a41a 47bc 0da2 4f3c 253a 28bc
000001c0: 14e8 403b 7c8e 5ebb 4b54 523c b65c a23c
000001d0: 7c0f 373c fd8c 1cbd 58a5 0a3c 1012 8038
000001e0: 0592 003c cf8a 93bc 408f ddb9 bf04 ea3c
000001f0: ee85 423c 72b3 3e3a 92ba 3a3b e266 663c
00000200: 937e 203b c035 b43b 4dd5 5cbc fe6f 11bc
00000210: 4873 efbc 31fa a7bc 75fa 8bbc 2eb7 b2bb
00000220: 5386 503c c5e7 e0bb 0170 063b a011 8fbb
00000230: c5c9 0abd 61d6 d0bb c8f0 c6bb 8c06 573c
00000240: a42d 79bc 9242 85bc 2521 efbc 9502 25bd
00000250: 92d1 0cbc bbcb 113c 2ca7 90bb 2309 4dbc
00000260: cfb4 76bc cafe c6bb ab33 3abd 148e 8b3c
00000270: 2c2e ab3c 3af5 3cbd 981a f73b ab3d 9d3b
00000280: ab77 aebc 1f35 abbb ab0c 03bc a1e1 023c
00000290: 3f5e b93c 6a9d 22bd 8a1a 3f3a 6f2d 8a3c
000002a0: e7f4 a4bb 6ed9 50bc 578d 41ba 731a cbbc
000002b0: 5f40 62bc 085c fb3c c76d b7bb cc68 06bc
000002c0: e2e3 973c bd1c acbc 4619 92bc 0a15 783c
000002d0: f115 c8bc b534 44bd 2744 8fbb 0bb1 12bb
000002e0: eade ce3b 5663 10bc 7bc0 20bd 69a0 0b3d
000002f0: eb22 893c d859 a33c d2ac 4b39 2013 2fbc
00000300: 7b29 a2bc 08f8 90bc 2fd8 613c 4f30 33ba
00000310: aaa1 9abc 505a 173d 5880 10bd bf77 b83b
00000320: 72ce c23b a5d3 79bc e169 9ebc fb13 dfbc
00000330: e20a d1bc 7b6e b7bc 0706 8fbc 04f4 ddbc
00000340: 8dd3 73bc 961c 2cbb 378a 23b9 e0fd 723c
00000350: e5cd 1dbc ee06 8dbc 44e5 953a a23b 98bb
00000360: 0ac0 0dbc 72ad 023d c529 27bc d7b7 b0bc
00000370: 3cb3 a53b 4bf3 7f3c 49b7 533c b0b9 c93c
00000380: a55a 9f3c 01ca 83bc d84e 473c fa44 ecbb
00000390: 5f2b cdbc 7008 51bc 3062 ebbb 4777 d4bc
000003a0: a6c8 dc3b 077e d0bb 27f9 95bc 89ad a7bc
000003b0: 76aa 5bbc fe88 4fbc 15d0 8dbb 4190 d8bb
000003c0: 2955 96ba 9f0a b43b e9da 95bc 9d24 ccbc
000003d0: e9a0 beba b863 b23c e895 1abd 3e80 8a3c
000003e0: 19fb 443c d107 453c 9e3c b2bc 34e1 743c
000003f0: 343e 9e3a 6637 cdba b602 94bc 0881 d7bc
-0.001389772 0.028243175 0.010925568 -0.00514185 -0.0012113531 -0.013548298 -0.008817631 -0.001886092
-3.497309e-05 -0.0036189996 0.013824263 -0.005531564 -0.009142522 -0.005429143 0.0007679611 0.0072526564
-0.0103838425 -0.006056538 0.00016262995 0.043663453 -0.021228492 0.018066924 0.0011533868 -0.01804845
-0.018500801 0.014624082 -0.013628932 -0.021127408 -0.0060763787 -0.0016548248 0.031803787 -0.01707852
-0.0014698673 0.0008627036 -0.0024173718 -0.034363803 0.01862403 -0.0100028245 -0.019859284 -0.003100445
-0.015939694 0.024093252 -0.009847232 -0.014459149 -0.0059930757 0.01955345 -0.0058975494 0.0004015569
-0.0023029242 -0.015779078 -0.016705997 -0.0027995901 0.013145518 -0.028016644 0.0071901027 0.0020498894
0.01514287 0.0033593571 0.0033086678 0.009018543 -0.02159732 -0.013443654 6.142868e-05 -0.011292152
-0.008508614 0.0126490835 0.00948084 0.029332813 -0.01024491 0.008922025 0.0048894873 -0.0038130768
0.00932921 0.0071198726 0.024490008 -0.01691433 0.007745837 0.008999681 -0.011546621 0.029535761
0.01107485 -0.0027702313 0.0016580218 0.0027194878 0.0005980119 0.026815021 -0.027202336 -0.0054128272
-0.03549123 0.029059568 -0.009017637 -0.0057319123 -0.0013364992 0.017320672 0.0057523926 0.008432346
-0.0053482708 -0.009527254 -0.032433633 0.003818603 0.01161051 -0.0005590952 0.016612664 -0.0069260504
0.018515801 0.001314084 -0.01762307 -0.0010678552 0.0067472407 -0.012152348 0.012672913 -0.010267769
0.0029435204 -0.003395944 0.01283748 0.019819599 0.011173125 -0.038220394 0.008462273 6.10688e-05
0.007847314 -0.018010525 -0.00042259134 0.028566716 0.011872752 0.0007274664 0.0028492552 0.014062615
0.0024489507 0.0054995716 -0.013478589 -0.008876799 -0.029229775 -0.020505043 -0.0170872 -0.0054539656
0.012727338 -0.0068635666 0.0020513537 -0.0043661147 -0.03388383 -0.006373212 -0.006071184 0.0131241195
-0.0152086355 -0.016267095 -0.02919061 -0.040285666 -0.008594887 0.008898671 -0.0044144597 -0.012514385
-0.015057757 -0.0060728537 -0.04545943 0.017035522 0.02089604 -0.046132304 0.007541012 0.004798611
-0.021297297 -0.0052248384 -0.007998626 0.007988364 0.022627948 -0.039700903 0.00072900264 0.016867368
-0.0050340774 -0.012747152 -0.0007383427 -0.024792885 -0.013809293 0.030683532 -0.0055978033 -0.008203696
0.01854128 -0.021009797 -0.017834317 0.015141735 -0.024424525 -0.047901828 -0.004372138 -0.0022383358
0.0063131945 -0.008812746 -0.039246064 0.034088526 0.016740283 0.019940302 0.00019423969 -0.010685712
-0.01979517 -0.017696396 0.013784452 -0.00068355066 -0.018875916 0.036951363 -0.03527865 0.005629509
0.0059450204 -0.015248214 -0.019337596 -0.027231207 -0.025517885 -0.022391548 -0.017458929 -0.027093895
-0.014881981 -0.0026262156 -0.0001559638 0.014831036 -0.009631609 -0.017215218 0.0011436124 -0.0046457807
-0.008651743 0.03190369 -0.01020283 -0.021572037 0.005056767 0.01562197 0.012922117 0.024624676
0.019452402 -0.016087534 0.012164794 -0.007210371 -0.025045095 -0.012758359 -0.0071833357 -0.025935782
0.0067377863 -0.00636268 -0.018307282 -0.02046849 -0.01340734 -0.012666939 -0.004327784 -0.0066089933
-0.0011469472 0.00549443 -0.018292861 -0.024919802 -0.0014543805 0.021776065 -0.037740618 0.016906854
0.012022757 0.012025789 -0.02175742 0.014946271 0.0012072981 -0.0015656769 -0.018067699 -0.026306644

action_model._continuous_distribution.mu.bias f4 [2]
00000000: 4548 5cbb 5e1a 5d3b
-0.0033612412 0.003373764

exp_avg f4 [128, 5]
00000000: 7aa9 3e3b 04a4 8d36 9b84 3fba 34df 12be
00000010: d461 133e 6d02 5ca1 446c 871c 5b15 9421
00000020: b032 54a3 05ca 5323 b3bb 0ba0 ec6e 5f9e
00000030: e8ee 1ca1 0221 419f 08aa 1a1f dad6 cb9e
00000040: 7c83 fd9c 2dc7 ca9e 8e2d ae1e 79af a61f
00000050: 5f2e ecbc 7790 7db6 0d61 0e3c 42cf b33f
00000060: 726f b4bf 61e1 3a9e fb49 789c e3cd 1f9e
00000070: 04ed c01e 0c7a d21e 1f98 7dbc 21a8 8236
00000080: 2772 a03b ab24 423f d1d1 42bf 3c81 5fbd
00000090: d227 0ab8 f993 7d3c f77b 2a40 bd13 2bc0
000000a0: d844 183c b407 52b7 f217 5abb 391c f0be
000000b0: 2bf3 f03e 6c0b 8d1b 6072 f81a 152c 901d
000000c0: bdd6 ee1c 09b8 069b 391a 489e c0c2 fb9b
000000d0: f3a7 a89d a863 201e abba 951e c15a e23c
000000e0: a6d7 2936 595b 09bc 7b6a aebf f705 af3f
000000f0: 5d6d 721d 80d0 599a dec6 019e 2692 949d
00000100: 2b08 f09d 5f07 ab19 5f52 6817 86d7 199b
00000110: 0066 b89a 331a 749b b348 14bc bead 8e36
00000120: e790 403b 44c4 e23e 958e e3be 31c9 cfbd
00000130: 665d 1bb8 c862 f33c 379a 9f40 6a28 a0c0
00000140: 35fd 65bc 63ec 41b7 a110 7d3b 6220 2e3f
00000150: 46bb 2ebf 9abf 813d 0b8c f537 82e6 95bc
00000160: 2b5c 46c0 d10c 4740 d613 c39d 296a a51b
00000170: a8c6 ae1d c6a8 b91e 9fb1 f29e a091 c9b0
00000180: 0b7f 0aac 4142 c12f 6db2 9733 8638 98b3
00000190: 8298 091f 5b36 6d9a 5651 0620 e853 c3a0
000001a0: 7b5b e820 58e4 49bd 8bd2 fdb6 980b 733c
000001b0: 550e 1b40 8698 1bc0 39f6 c79e 5ed0 e79b
000001c0: be0b 519d 8eae 8e1a ead5 871e f8b9 28bd
000001d0: 1762 4fb7 b072 473c ef03 0240 cd77 02c0
000001e0: f8c4 a5bc a155 2837 f512 d83b 805b 803f
000001f0: 12ce 80bf ef87 4dbd 9a37 fab7 29c1 693c
00000200: 6167 1e40 78f4 1ec0 766f 099f 23ae eb1c
00000210: 3630 951e dad7 e01e a1bd c59f bcc9 d79b
00000220: 1821 a39a 23d2 ec1c 6e75 c29e 97b8 7b1e
00000230: 467c e03c 0062 5d37 294c 01bc deaf abbf
00000240: bf48 ac3f 9441 d1bc 082d e2b7 8b5c df3b
00000250: a75c a13f 48ec a1bf d2d5 54bc 5c5b b2b7
00000260: bdf0 4f3b ae11 203f cd9f 20bf 299e ca3c
00000270: f8f3 c836 c262 f1bb c4b3 9cbf 773f 9d3f
00000280: 8724 12bd 9d7f 79b7 dbcd 293c 52d6 dd3f
00000290: d29b debf f23b d1bc f3f4 b5b6 4c27 fa3b
000002a0: c2f6 a03f 3a86 a1bf 9707 21bd e250 0db7
000002b0: 4e86 403c 61ad f83f 108b f9bf b0df 3c3d
000002c0: 5984 d837 4a52 57bc ad95 10c0 6d16 1140
000002d0: cbbf 09bd cde0 95b7 abd4 1d3c 99a4 d33f
000002e0: 1b61 d4bf 52f2 e61a f6ab 3417 a75a 9a1c
000002f0: 4942 861a d628 e31c e2da d01e 1a22 f21c
00000300: 301d 1520 701a 15a0 b8c4 8320 00d3 869d
00000310: f93a d818 a313 4b9d 806e 311e 9748 7c9e
00000320: fc77 d6bc e84e b8b7 dc99 eb3b 3ab3 a33f
00000330: ea44 a4bf b790 b7bc 646f e135 68ab e33b
00000340: 65a2 8d3f b620 8ebf 7d64 8c3b 9705 c835
00000350: 53ed a4ba ecd0 60be 8599 613e 1c7d 65bd
00000360: 4b71 c3b7 7d81 853c f1d6 2f40 9373 30c0
00000370: 1582 5dbd e5a1 0fb7 b84a 853c afb6 2a40
00000380: de4e 2bc0 9e21 abbd bc94 bbb7 6fed ca3c
00000390: b730 8340 9ba5 83c0 5e37 04a0 c2d7 939b
000003a0: 45f8 32a0 3905 0b21 bf89 3fa1 2475 ebb9
000003b0: 022b 1137 90e0 f939 fdfe f13c 60df f2bc
000003c0: 984a 2fbc b3a8 3eb6 c949 503b 289d 063f
000003d0: 1f15 07bf f2e7 ea3b f6f6 a737 d9eb bbba
000003e0: f1ee b3be 838e b43e c013 833d 5438 8a37
000003f0: 2696 9bbc 9a9e 49c0 4552 4a40 35f1 25a0
0.0029092715 4.2212214e-06 -0.00073058315 -0.14342958 0.14392787 -7.454211e-19 8.961537e-22 1.0034523e-18
-1.15032765e-17 1.1481112e-17 -1.1835862e-19 -1.182846e-20 -5.3171046e-19 -4.0896643e-20 3.2751415e-20 -2.1582322e-20
-1.6776124e-21 -2.1469959e-20 1.8441808e-20 7.059403e-20 -0.028830705 -3.7784027e-06 0.008690131 1.4047625
-1.409651 -9.893365e-21 -8.2151934e-22 -8.459966e-21 2.0426818e-20 2.2285092e-20 -0.015478163 3.8938747e-06
0.0048964205 0.758372 -0.76101404 -0.054566607 -3.293885e-05 0.015477174 2.6638162 -2.6730797
0.009293757 -1.2518769e-05 -0.0033278433 -0.46896532 0.47060522 2.3333874e-22 1.0275518e-22 3.8162062e-21
1.5805027e-21 -1.1143685e-22 -1.05933346e-20 -4.165032e-22 -4.4642885e-21 8.490938e-21 1.5853193e-20 0.027631165
2.5308486e-06 -0.008383595 -1.3626245 1.3673695 3.2084973e-21 -4.5042973e-23 -6.870328e-21 -3.9326388e-21
-6.3535917e-21 1.7683963e-23 7.506721e-25 -1.2725503e-22 -7.6265406e-23 -2.0191672e-22 -0.009050536 4.252156e-06
0.0029383244 0.44290364 -0.4444472 -0.10145796 -3.7041864e-05 0.029710189 4.987575 -5.0049334
-0.01403742 -1.15587345e-05 0.0038614648 0.6801816 -0.68254507 0.06335373 2.9271489e-05 -0.018298391
-3.0993755 3.1101573 -5.163658e-21 2.7365565e-22 4.6262822e-21 1.965744e-20 -2.5696209e-20 -1.4666064e-09
-1.9681503e-12 3.5153572e-10 7.063941e-08 -7.088333e-08 2.913703e-20 -4.905436e-23 1.1377153e-19 -3.308981e-19
3.9362865e-19 -0.04929003 -7.564498e-06 0.014834307 2.4227498 -2.4311843 -2.117178e-20 -3.8350398e-22
-2.766699e-21 5.901183e-23 1.4382154e-20 -0.04119298 -1.2361e-05 0.01217334 2.03149 -2.038562
-0.020235524 1.0033517e-05 0.0065940567 1.0027924 -1.0062888 -0.050178465 -2.9828214e-05 0.014267244
2.4750597 -2.4836712 -2.9103077e-20 1.5596009e-21 1.5795928e-20 2.3806197e-20 -8.374646e-20 -3.5699134e-22
-6.7468686e-23 1.5671489e-21 -2.0589117e-20 1.3326002e-20 0.027403008 1.3195444e-05 -0.007891693 -1.3413045
1.34597 -0.025543965 -2.6962269e-05 0.006816452 1.26064 -1.2650232 -0.012990432 -2.1261796e-05
0.0031729185 0.6252698 -0.62743837 0.02473362 5.988866e-06 -0.007366509 -1.224236 1.2284993
-0.035679366 -1.4871269e-05 0.010364021 1.733103 -1.7391303 -0.02554128 -5.422736e-06 0.007634079
1.2575305 -1.2619088 -0.03931388 -8.423087e-06 0.011750771 1.9427911 -1.9495564 0.046111763
2.5810836e-05 -0.013142178 -2.2591355 2.2669938 -0.033630174 -1.7866865e-05 0.0096332235 1.6534606
-1.6592134 9.551726e-23 5.837818e-25 1.0214298e-21 5.552819e-23 1.5032156e-21 2.2113384e-20 1.6023032e-21
1.2630448e-19 -1.2629538e-19 2.232244e-19 -3.5687674e-21 5.589424e-24 -2.6876978e-21 9.393153e-21 -1.335578e-20
-0.02618026 -2.1971253e-05 0.0071899723 1.2789071 -1.2833531 -0.022407873 1.6796225e-06 0.0069479235
1.1065184 -1.1103733 0.00428444 1.4902788e-06 -0.0012582935 -0.21954697 0.2203122 -0.056027517
-2.3298568e-05 0.016297096 2.747494 -2.757054 -0.054079134 -8.561158e-06 0.01627098 2.6674001
-2.6766887 -0.08356021 -2.2361397e-05 0.02477142 4.0996966 -4.1139655 -1.1199154e-19 -2.445854e-22
-1.5159332e-19 4.7101944e-19 -6.4895623e-19 -0.0004490997 8.652687e-06 0.00047660293 0.029540533 -0.02964753
-0.010698937 -2.8410402e-06 0.003178226 0.5258355 -0.52766603 0.0071687633 2.0022952e-05 -0.0014337256
-0.35143235 0.35264978 0.064002514 1.6477112e-05 -0.018992495 -3.1503053 3.1612713 -1.4055852e-19

exp_avg_sq f4 [128, 5]
00000000: 9f4c d336 13ff af31 cae4 e236 3278 053c
00000010: 9cf9 0b3c c01b 9436 c024 cc30 6e58 2f36
00000020: 05c5 9136 9c4b ce36 b303 3b37 aa9c db32
00000030: 1be0 5337 f3d5 8f37 82dd 7438 6cea b535
00000040: 0162 9931 e1bb 0136 079f a135 c0e0 4436
00000050: 8e8b 7539 4d5c c933 ffa1 d538 14be 043f
00000060: e581 073f b43a d636 c1fb aa32 b85d dc36
00000070: b2b0 9136 c8e2 1f37 542d a038 8825 1933
00000080: 0607 2938 3cf3 283e f9d4 2b3e 0566 493a
00000090: 6af0 0234 7a60 3b39 4e78 ea3f c536 ee3f
000000a0: 8e42 7438 9f22 5333 506d 7c38 e2cf fa3d
000000b0: 821b 023e 6ebf d136 5fe2 d131 6a2c ae36
000000c0: d3a6 bf36 5379 2636 79fc 3636 3e89 e331
000000d0: 4e31 2236 0e67 0836 866b 7636 e25f 5f39
000000e0: 4480 ab33 5ca2 b238 c9f0 f83e 62f9 fc3e
000000f0: f597 b835 d075 e630 79d4 1636 9016 ed35
00000100: 0e7e ed35 b499 2e36 384c 3930 d2af 4736
00000110: a6da c335 6da3 9c34 4b65 1238 8636 ea32
00000120: 0994 bd37 15eb 813d 891b 853d d734 1e3b
00000130: 2560 0f34 9910 b639 e8aa be40 a50f c040
00000140: 2eec 7038 a04c 8432 1fa0 9c37 2181 063e
00000150: e2e2 083e ba13 833a 362b 4c34 bf68 8a39
00000160: b193 1c40 7dc2 1d40 e03e 7835 ed96 0831
00000170: 5785 1f35 240d ed34 ace9 0c35 2fa5 b435
00000180: 3a2b f62f b216 9a36 721f 2437 7537 4137
00000190: 4a2d 2c36 d7b9 f030 d374 5c36 83f2 3936
000001a0: 6393 4136 f763 183a 2dd0 8433 9e50 de38
000001b0: 91ec b33f 0efb b53f 04dd 5436 6a9c 8e31
000001c0: 8134 1536 df43 0536 2d58 e535 265e d439
000001d0: 56e7 f332 5db2 6a38 c0d5 793f 6f5c 7c3f
000001e0: d6c2 3c39 df24 2234 a6f7 1d39 c28e b73e
000001f0: ec4b bd3e ca9e 1e3a 40d2 0a33 a759 9a38
00000200: f299 bd3f e542 bf3f 16c6 5336 c5bf 2432
00000210: 115b 5c36 58df 2836 582b c836 7faf 7c36
00000220: d5f9 5731 8ea2 1036 c2ed 2b36 2754 3336
00000230: 3f1b 4b39 a2b4 3333 0ef0 6638 9c7c eb3e
00000240: f61e ef3e 3f37 4039 d5d2 2033 33f0 3238
00000250: 4602 df3e 1f8e e13e dbf3 fe38 6223 0f34
00000260: a1c6 0d39 a28a 7b3e 4b55 853e 6841 2439
00000270: 7c96 1033 ed84 2738 deb1 bb3e e333 be3e
00000280: f7b9 a839 fd2c 7b33 ea91 b538 71fa 453f
00000290: b2a1 483f 0a4d 2139 9abf 4a32 29dd ab37
000002a0: 3d3f be3e c3bf bf3e ae1b ca39 86d1 9833
000002b0: d3d2 ba38 2e07 6a3f 2c41 6d3f 5387 113a
000002c0: 1256 0434 98db 3339 642f aa3f 6efe ac3f
000002d0: 1339 8e39 3d62 8932 b35f 2238 4d52 2a3f
000002e0: 6ce4 2b3f 7df2 cd35 84e4 0630 68fa 4b36
000002f0: 4f67 1436 e2b9 1b35 887b 7936 8d75 2031
00000300: 133d d236 611c 8c36 ca28 0f37 8b53 2a35
00000310: 3e5b 9a2f 4094 3235 2c34 0035 b77a 9133
00000320: 35d4 4039 12ee 2a33 9a92 4838 7f19 e23e
00000330: a3ad e43e e0c1 2b39 ea0c c333 7a53 bc38
00000340: abd9 af3e 5542 b33e 14ae 5e37 5a92 5c32
00000350: 5348 7637 bdbc 863c a60c 943c fb86 483a
00000360: 5a3f bc33 53b4 1d39 2e70 ed3f d147 f03f
00000370: eee7 373a be0c 8733 db91 e838 084d d93f
00000380: b35c db3f 298a d63a 1cd0 c733 c6f2 7339
00000390: 0275 8040 349d 8140 ca8e 0036 108f bd2e
000003a0: 99d7 4636 8ab0 1b36 6338 2036 4366 5037
000003b0: 727a 8d32 dbc5 8137 dd3e 953c 7076 a43c
000003c0: 8436 3438 e2c0 2433 3732 0f38 2cf4 a83d
000003d0: dbfa b13d 7e38 4438 a4ee 1233 e3cf 3438
000003e0: 65d5 d03d 5519 d53d 92f5 823a 1105 1634
000003f0: 78f0 5939 24b9 1940 a1b2 1b40 c4bf cc34
6.29721e-06 5.122169e-09 6.7619594e-06 0.008146333 0.008543398 4.4139742e-06 1.4853399e-09 2.6128505e-06
4.344273e-06 6.1480805e-06 1.114693e-05 2.5566198e-08 1.2628759e-05 1.7146556e-05 5.838043e-05 1.3553777e-06
4.464028e-09 1.9331858e-06 1.2041718e-06 2.9337098e-06 0.00023417009 9.376581e-08 0.000101868056 0.51852536
0.5293258 6.384531e-06 1.990509e-08 6.567421e-06 4.341907e-06 9.52994e-06 7.6378376e-05 3.5657223e-08
4.029928e-05 0.16499037 0.16780461 0.00076827436 1.2194656e-07 0.0001786965 1.8317964 1.8610464
5.8236117e-05 4.9158754e-08 6.0183287e-05 0.12246682 0.12705806 6.2509707e-06 6.108436e-09 5.1907746e-06
5.7116645e-06 2.4806548e-06 2.7267072e-06 6.622172e-09 2.416858e-06 2.0325565e-06 3.6719443e-06 0.00021302656
7.9861394e-08 8.517943e-05 0.48621204 0.49409014 1.3753294e-06 1.6768187e-09 2.2475417e-06 1.7664443e-06
1.7694563e-06 2.6017487e-06 6.741092e-10 2.9755652e-06 1.4592267e-06 2.9176172e-07 3.490345e-05 2.726598e-08
2.259949e-05 0.063436665 0.064993925 0.0024140382 1.335289e-07 0.0003472611 5.9583626 6.0019097
5.744042e-05 1.5401667e-08 1.8671211e-05 0.13135196 0.13367799 0.0010000386 1.90147e-07 0.00026399453
2.4465144 2.4649956 9.2478695e-07 1.9876396e-09 5.942615e-07 4.415425e-07 5.24941e-07 1.345912e-06
4.4777854e-10 4.5921997e-06 9.782483e-06 1.15166085e-05 2.565636e-06 1.7515117e-09 3.2850555e-06 2.7708309e-06
2.8845031e-06 0.0005813236 6.184596e-08 0.00010600801 1.4056569 1.4217241 3.171911e-06 4.150526e-09
2.2233291e-06 1.985805e-06 1.7087492e-06 0.00040505937 2.8394123e-08 5.595606e-05 0.9759178 0.9857854
0.00018001659 1.510084e-07 0.00015064943 0.35851103 0.36971986 0.0006050883 3.232185e-08 7.359991e-05
1.4812605 1.494229 3.1556751e-06 9.58966e-09 3.2835562e-06 2.5163954e-06 5.9655104e-06 3.7653078e-06
3.142863e-09 2.1552291e-06 2.561938e-06 2.6722062e-06 0.00019369739 4.184097e-08 5.505984e-05 0.45993507
0.4670331 0.00018331128 3.7444654e-08 4.266221e-05 0.43556422 0.44053742 0.000121570854 1.3330785e-07
0.00013520803 0.24564603 0.26041636 0.00015664625 3.3664477e-08 3.99397e-05 0.3665914 0.3714896
0.00032182012 5.8481408e-08 8.657931e-05 0.7733527 0.7837173 0.00015382856 1.1801513e-08 2.0487774e-05
0.37157622 0.3745099 0.00038549065 7.116164e-08 8.90844e-05 0.91417205 0.9267757 0.0005551476
1.232477e-07 0.00017152575 1.3295712 1.3515146 0.00027126874 1.5993573e-08 3.8712937e-05 0.6653183
0.6714542 1.5344264e-06 4.9073656e-10 3.0395113e-06 2.2113852e-06 5.8012495e-07 3.7175796e-06 2.3349884e-09
6.2655977e-06 4.175629e-06 8.532961e-06 6.3451506e-07 2.8077268e-10 6.65259e-07 4.7759636e-07 6.7744104e-08
0.000183896 3.9797733e-08 4.782025e-05 0.44160077 0.44663724 0.00016380055 9.082744e-08 8.980087e-05
0.34345755 0.35011545 1.3272762e-05 1.2838962e-08 1.4679582e-05 0.01644742 0.018072437 0.0007649508
8.765956e-08 0.00015039863 1.854986 1.8771917 0.0007015456 6.288745e-08 0.0001108979 1.6976633
1.7137665 0.0016368079 9.3045145e-08 0.00023264726 4.014283 4.05044 1.91566e-06 8.620138e-11
2.9629794e-06 2.319956e-06 2.387468e-06 1.2421576e-05 1.6470242e-08 1.5470132e-05 0.018218452 0.020076007
4.2966116e-05 3.835965e-08 3.4140623e-05 0.08249697 0.08690425 4.6782654e-05 3.4210316e-08 4.3108954e-05
0.10196952 0.10405222 0.0009991399 1.3971682e-07 0.00020784314 2.401925 2.4327776 3.813749e-07

exp_avg f4 [128]
00000000: 6cbe ddb9 7ad4 3fa0 e2f0 fc1d 69c0 459e
00000010: b8f8 873b 38d2 a09d 2cf7 123b f4d2 003c
00000020: ce70 b6ba 50cd f59a 22bf 4d9d 2cfb 83bb
00000030: 1d3e 9e1c 2b85 471a f0b8 ab3a 9865 713c
00000040: 9d78 033b a1f0 15bc a131 e41c e9a3 632f
00000050: 3c91 cd9e 9a9b ea3b b5d7 089d 43b3 c43b
00000060: be81 423b e987 ef3b a156 4a1e 22eb 9e9a
00000070: 8bc5 81bb d5d3 733b e946 f13a 4a26 6dbb
00000080: bca2 a73b 8e8c 733b e72a bc3b e891 dabb
00000090: 4501 a03b 4399 4e9b 412f a29e 3c42 8b1c
000000a0: ce51 773b ce6f 563b ab44 2aba 4df3 043c
000000b0: 122c 013c c76f 463c 6c8b 3d1f d676 be38
000000c0: 80a4 cb3a d172 87ba af81 18bc 6f5a 8320
000000d0: bf23 a89b ab08 511b 25d0 1a3c b0cd ddba
000000e0: 8f92 7a3b eb3e 23a1 e413 a11d 4c7f ffbb
000000f0: 294b 7f99 f566 e71d 496e e9ba 977d e7b9
00000100: cac7 f71d 83e2 0abc dd3e 5621 ed96 4bbb
00000110: 6e1d 051c 5cdb 3e3c b7c2 901e fcf6 e29f
00000120: c1ca 103b 0774 68a1 93da 9f3b 190e 123b
00000130: 2351 003c dd5b 3a29 9c56 803b 278b f13b
00000140: 8690 f03a 0998 2e9d ddbf 043c 5963 2c1c
00000150: 6c97 711d bd53 17bb b399 d51d b559 c5ba
00000160: 1384 8d3a 834c 043c 8eb4 dd9b 27aa 2d9c
00000170: baba 3b9d d999 d23b 0157 ac38 eebd b9b6
00000180: 3e87 703b 488a 24bb cf9b d23b 9dc5 423c
00000190: c79a de38 385c 019c 4db5 271c eb34 991b
000001a0: a20d 9f1d 0752 229b 7981 a43b a54b c89b
000001b0: 0a19 7e3b fdde ea9c 61ab 131c 9944 10a0
000001c0: e2a2 83bb 00d0 589d 34b8 169b d711 1220
000001d0: 4837 963b 44a2 c09b fe79 9f1d a321 161e
000001e0: 0032 a19e ed0d 703c 6fca 011e 85d4 ba3b
000001f0: f411 849d 3794 1abc 1dd1 bc1e 6ef9 0c3c
-0.0004229428 -1.6248632e-19 6.695291e-21 -1.0468883e-20 0.0041495226 -4.256901e-21 0.0022425158 0.007862795
-0.0013919116 -1.01661325e-22 -2.7230337e-21 -0.0040277448 1.0471619e-21 4.1259808e-23 0.001310138 0.0147336945
0.0020060905 -0.009151609 1.5100603e-21 2.0703762e-10 -2.1765287e-20 0.0071596624 -1.8110968e-21 0.006002815
0.0029679383 0.007309903 1.0711705e-20 -6.5727146e-23 -0.0039603165 0.003720512 0.0018407974 -0.0036186152
0.005115835 0.0037162635 0.005742419 -0.0066702254 0.004882964 -1.7089442e-22 -1.7171961e-20 9.21537e-22
0.0037737968 0.003272045 -0.00064952177 0.008114648 0.007884042 0.012111611 4.0137634e-20 9.082041e-05
0.0015536696 -0.00103339 -0.009308263 2.2252107e-19 -2.781637e-22 1.7290876e-22 0.00944904 -0.0016922262
0.0038234328 -5.530982e-19 4.263691e-21 -0.0077971574 -1.31983695e-23 6.1251646e-21 -0.0017809357 -0.00044153325
6.5586933e-21 -0.008476856 7.258922e-19 -0.00310653 4.4044046e-22 0.011648979 1.5327125e-20 -9.6123324e-20
0.0022093507 -7.875822e-19 0.004878351 0.0022286235 0.0078318445 4.1379975e-14 0.0039165746 0.0073713246
0.0018353618 -2.3107309e-21 0.008102384 5.703843e-22 3.1974368e-21 -0.0023090683 5.653955e-21 -0.0015056642
0.0010796807 0.008074882 -3.6678064e-22 -5.7460815e-22 -2.484578e-21 0.0064270315 8.217805e-05 -5.5355404e-06
0.0036701704 -0.0025106836 0.0064272652 0.011887935 0.000106146144 -4.280171e-22 5.548999e-22 2.5345924e-22
4.2101046e-21 -1.342683e-22 0.005020317 -3.3136109e-22 0.0038772249 -1.5542462e-21 4.885972e-22 -1.2219972e-19
-0.00401722 -2.8694895e-21 -1.2467228e-22 1.2372584e-19 0.0045842268 -3.1868597e-22 4.2213087e-21 7.94789e-21
-1.7067218e-20 0.014651758 6.8710654e-21 0.005701604 -3.4958672e-21 -0.009434751 1.9991761e-20 0.008604391

exp_avg_sq f4 [128]
00000000: 6188 ea34 daf2 9134 2083 7735 4db1 0e34
00000010: 5009 0f37 b9d2 1a35 0d2a 5036 02e5 b237
00000020: aacf 6836 f59e 1235 22bd 6634 d2b1 f836
00000030: 813f 1734 6abb 7334 76e1 d635 d4e3 6f38
00000040: b109 e735 6e6d e937 61dd 7f33 260e 7434
00000050: cf13 8c34 4348 7737 85c7 5734 d3ff 2437
00000060: 8876 2037 9efd 6c37 3398 8c34 4b42 7534
00000070: f7e7 c036 55f3 ac36 aa18 0737 5584 9936
00000080: ae0d 1737 7684 7636 74ec 3537 18d6 8d37
00000090: 07b0 d836 2f45 4734 c6bd ed34 20b6 4e33
000000a0: 376d b136 4811 ea36 0f70 8b35 bedf a637
000000b0: 0065 9037 3ecc 2138 4c87 4a34 5fba 5535
000000c0: 829f 1c36 fd1e 2536 d2ed dd37 611c 3333
000000d0: 044b 7533 b280 fb33 5ab5 e937 40b3 f735
000000e0: eb7e a436 148e d034 7dde ab34 19e6 af37
000000f0: 7181 4433 e586 c633 a721 5136 83e0 2f35
00000100: 46fd b734 3da7 c337 d61a a635 b902 a536
00000110: e47e a134 7016 1a38 5fcd c133 bd57 5835
00000120: 4315 da35 53b7 0334 ce91 0137 7a84 aa36
00000130: 2eaf a537 0c85 0035 0be7 8b36 dfdf 6337
00000140: c439 8935 9556 eb34 cec6 ba37 17c2 ef33
00000150: a308 7834 afd4 4836 a14d 3934 a7b6 6536
00000160: 9007 4b35 4883 9537 3296 fb33 078a 9a33
00000170: 115b 6633 86bc 3f37 20cc 2835 7546 7134
00000180: aa59 8736 c45b 7b36 f80f 5137 8125 2338
00000190: 42ec cb34 b8db f732 ffe6 6733 a99e e332
000001a0: bdf3 c533 416d 6933 e741 d036 e470 5833
000001b0: 3adf e336 e86a 9233 9bac 4234 9a74 6535
000001c0: ca12 f636 9b29 c333 a984 c234 a158 e133
000001d0: abcf ae36 3f04 ab34 bd5c af34 ac35 a734
000001e0: 5a41 1533 8861 8838 a91a 2c34 0236 1637
000001f0: c098 d934 c0a8 f937 2b91 2d33 8889 ac37
4.3685125e-07 2.7185052e-07 9.220548e-07 1.3289282e-07 8.525632e-06 5.767611e-07 3.1018892e-06 2.1325894e-05
3.469157e-06 5.462055e-07 2.1489225e-07 7.411677e-06 1.4086073e-07 2.269932e-07 1.600986e-06 5.7194222e-05
1.7213662e-06 2.7826722e-05 5.9573157e-08 2.2729418e-07 2.6091445e-07 1.4739172e-05 2.009602e-07 9.8347255e-06
9.564341e-06 1.4125746e-05 2.6187772e-07 2.284152e-07 5.74905e-06 5.154327e-06 8.05237e-06 4.575161e-06
9.003486e-06 3.673396e-06 1.0843494e-05 1.6908205e-05 6.457794e-06 1.8558488e-07 4.4282768e-07 4.8128754e-08
5.2877253e-06 6.9757552e-06 1.038892e-06 1.989293e-05 1.721317e-05 3.8575607e-05 1.8861937e-07 7.961989e-07
2.3338657e-06 2.4604954e-06 2.6455997e-05 4.1702496e-08 5.7111734e-08 1.1711508e-07 2.7860213e-05 1.8455103e-06
4.902356e-06 3.8846395e-07 3.2013114e-07 2.0968773e-05 4.5752532e-08 9.244631e-08 3.1163015e-06 6.551929e-07
3.4270687e-07 2.3323688e-05 1.2375774e-06 4.9177e-06 3.0080912e-07 3.6737358e-05 9.0246196e-08 8.0593946e-07
1.6248454e-06 1.2267019e-07 7.722947e-06 5.081817e-06 1.9751107e-05 4.7877325e-07 4.1694198e-06 1.3582378e-05
1.0224107e-06 4.3835158e-07 2.2265504e-05 1.11646095e-07 2.3099942e-07 2.992612e-06 1.7257709e-07 3.4229977e-06
7.56344e-07 1.7823317e-05 1.1715419e-07 7.196291e-08 5.3633872e-08 1.1428381e-05 6.288192e-07 2.2470506e-07
4.033752e-06 3.745533e-06 1.2461089e-05 3.8897157e-05 3.7983597e-07 2.8854501e-08 5.399397e-08 2.6498428e-08
9.217863e-08 5.4348906e-08 6.206555e-06 5.0394092e-08 6.791114e-06 6.818101e-08 1.8130451e-07 8.5478825e-07
7.3335586e-06 9.087963e-08 3.623184e-07 1.04935005e-07 5.20978e-06 3.1854321e-07 3.2663766e-07 3.1145225e-07
3.4751203e-08 6.503152e-05 1.6028447e-07 8.953271e-06 4.053054e-07 2.9761693e-05 4.041173e-08 2.056804e-05
