Goodminton/Assets/results/Badminton/Badminton/Badminton-2583.onnx (onnx, 74586 bytes, 7 tensors)

network_body._body_endoder.seq_layers.0.weight f4 [128, 5]
0	0xbf400001	-0.75000006
1	0x3f05bbd8	0.5223975
2	0xbea43311	-0.3207021
3	0x3e9e1b36	0.30880135
4	0xbdbf0010	-0.09326184
5	0xbf015b3f	-0.50529855
6	0xbea21cc6	-0.31662577
7	0xbf3cba2a	-0.73721564
8	0x3d207534	0.039174274
9	0x3e3ae6f0	0.18252158
10	0xbf23fea1	-0.6406041
11	0x3e66e24d	0.22547264
12	0x3ec56638	0.3855455
13	0xbe9f0d1d	-0.31064692
14	0x3ce9242c	0.02845963
15	0x3eb66cdb	0.35629925
16	0xbe135a4a	-0.14389911
17	0x3ebea0e8	0.37232137
18	0xbed06e58	-0.40709186
19	0x3e7d4a16	0.24735293
20	0x3ea96499	0.33084562
21	0x3f2a50bc	0.6652944
22	0xbf4eb40c	-0.8074348
23	0x3e049fb0	0.12951541
24	0xbf02b15c	-0.5105188
25	0x3eafd240	0.34340096
26	0xbf1c5795	-0.6107114
27	0x3f4bc43e	0.79596317
28	0xbf084b79	-0.5324016
29	0x3eb7952e	0.35856003
30	0x3f2a78f0	0.66590786
31	0x3ee56637	0.44804546
32	0xbec53a60	-0.385211
33	0xbecd46f0	-0.40093184
34	0xbeff42dc	-0.49855697
35	0xbef135c3	-0.4711133
36	0x3ee81a58	0.453326
37	0x3ebb5047	0.36584684
38	0x3dc2d86a	0.09513934
39	0x3ce724b8	0.028215751
40	0x3e03c724	0.12868935
41	0xbe8ed937	-0.27900097
42	0x3de2309e	0.11044429
43	0xbebdaf92	-0.37048012
44	0xbec6d11c	-0.38831413
45	0xbed0c5cd	-0.4077591
46	0xbf0f175f	-0.55895036
47	0x3d363de9	0.044492636
48	0xbee3ed7d	-0.44517127
49	0x3f0fc8ba	0.5616566
50	0x3e30268f	0.17202209
51	0xbeb00b74	-0.34383738
52	0x3e189371	0.14899994
53	0xbef0ddfb	-0.47044358
54	0x3cb628ea	0.022236306
55	0x3d8bc151	0.068239816
56	0xbefbab5b	-0.4915417
57	0x3ee9d3d6	0.4566943
58	0x3e35ae59	0.1774229
59	0xbddff227	-0.10934859
60	0xbf44ddfe	-0.76901233
61	0xbef78fa3	-0.48351774
62	0xbe8ac8d9	-0.2710636
63	0xbf5786ab	-0.8418986
64	0x3ed4838f	0.4150662
65	0xbd86a949	-0.06575257
66	0xbf0431dd	-0.51638585
67	0xbf2e8eca	-0.6818663
68	0xbd240390	-0.04004246
69	0x3fa76880	1.3078766
70	0x3f031ba0	0.5121403
71	0xbcad408d	-0.021148944
72	0x3e53c0e9	0.20679058
73	0xbd93155e	-0.0718181
74	0xbe96b291	-0.2943311
75	0x3f6ca475	0.9243844
76	0xbedaf4ae	-0.427648
77	0xbf1cad22	-0.6120168
78	0x3f12dc05	0.57366973
79	0x3ee41efa	0.44554883
80	0x3f13fe82	0.57810223
81	0xbf106b2b	-0.56413525
82	0xbe0e1f22	-0.13879064
83	0x3eddc955	0.43317667
84	0xbdff4a58	-0.12465352
85	0x3f6cb86e	0.9246892
86	0x3ec355ef	0.381515
87	0x3f0860c6	0.53272665
88	0x3eeb0497	0.4590194
89	0x3ec763cf	0.38943335
90	0xbefd49e4	-0.49470437
91	0xbdeda553	-0.11603799
92	0x3e69d87b	0.22836487
93	0x3ecfabb0	0.40560675
94	0x3f4ac902	0.79212964
95	0x3d79d546	0.06099441
96	0x3da81697	0.08207434
97	0xbe38ae86	-0.18035325
98	0x3d191fbc	0.03738378
99	0x3dbae3a5	0.09125451
100	0xbed7667f	-0.42070386
101	0xbe734adb	-0.23759024
102	0xbe23ef5f	-0.16009282
103	0xbe33d083	-0.1756001
104	0x3da15a2a	0.078785256
105	0x3f0f9d9d	0.56099874
106	0xbd31dc11	-0.043422762
107	0x3e898e83	0.2686654
108	0x3f039bc0	0.5140953
109	0xbdf55f2e	-0.11981045
110	0x3e233b20	0.15940523
111	0x3f1ce046	0.61279714
112	0x3e927c65	0.2861053
113	0xbf4a99dd	-0.79141027
114	0xbd13daa4	-0.036097184
115	0xbe4a88c7	-0.19778739
116	0x3cbf3a3b	0.023343196
117	0x3ea628e5	0.32453075
118	0x3e6e6b4b	0.23283117
119	0xbec1a97e	-0.37824625
120	0x38a4be8c	7.8556215e-05
121	0xbe5a6311	-0.21326853
122	0xbf4544d2	-0.77058136
123	0xbe6429c4	-0.22281557
124	0xbf39164c	-0.7229965
125	0x3f2b2851	0.6685839
126	0xbde4ad5c	-0.11165878
127	0x3e87e32b	0.26540503
128	0x3ef70120	0.48243046
129	0x3e0ed95a	0.139501
130	0xbe885702	-0.26628882
131	0x3ef70012	0.4824224
132	0x3eeb6528	0.45975614
133	0xbcf72f5a	-0.030173946
134	0x3e92bd88	0.28660226
135	0xbe570abe	-0.21000192
136	0xbe33ca3c	-0.17557615
137	0x3da0206f	0.07818686
138	0xbee2dcd2	-0.44309098
139	0x3d19f262	0.03758467
140	0xbe400fbd	-0.18756004
141	0x3e0dea89	0.13859
142	0xbe7547e6	-0.23953208
143	0x3f28b1ac	0.65896106
144	0x3e6cdec5	0.23131855
145	0xbe7cefcb	-0.24700849
146	0xbee360c2	-0.44409758
147	0x3efc8faa	0.49328357
148	0x3e9ab050	0.3021264
149	0xbd35000b	-0.044189494
150	0x3ea1c8b5	0.3159844
151	0x3ef2c4c3	0.47415742
152	0x3f5ca679	0.8619152
153	0x3f166ca5	0.5875953
154	0x3d2d2bad	0.04227798
155	0xbe9edb09	-0.31026486
156	0xbed13bac	-0.4086584
157	0xbe029900	-0.12753677
158	0x3ea6585e	0.32489294
159	0x3c2b5dce	0.0104593765
160	0xbe7d694f	-0.24747203
161	0x3dea2bee	0.1143416
162	0xbe80cd5c	-0.25156677
163	0xbbe40220	-0.006958261
164	0xbeb2f2b6	-0.349508
165	0x3f4369ab	0.7633311
166	0x3c5ade11	0.013358609
167	0x3dfeff8e	0.12451087
168	0x3f5c4873	0.8604805
169	0xbf574c58	-0.84100866
170	0xbe4d6baa	-0.20060602
171	0xbe8c1eea	-0.27367336
172	0xbe426826	-0.18985042
173	0x3f178517	0.59187454
174	0xbed1ac44	-0.4095174
175	0x3e599c39	0.21251
176	0x3ee6d3b5	0.45083395
177	0xbd4263bb	-0.04745839
178	0x3f0b0fb2	0.54320824
179	0xbde29ccb	-0.11065062
180	0x3f471cad	0.7777813
181	0xbe92b4a5	-0.28653446
182	0x3e814914	0.25251067
183	0xbde55888	-0.111985266
184	0xbe828ca5	-0.25497928
185	0xbef4d0f9	-0.47815683
186	0xbeb24f6c	-0.3482622
187	0xbeed95a4	-0.4640323
188	0xbf63c124	-0.88966584
189	0x3f89a0b6	1.075217
190	0xbeb6a251	-0.35670713
191	0x3effc4cc	0.49954832
192	0xbe7412a4	-0.23835236
193	0xbf45c904	-0.7725985
194	0xbe471b54	-0.19444019
195	0xbeb67ac1	-0.3564053
196	0x3e3e7110	0.18597817
197	0xbe28c92f	-0.16482995
198	0x3d45eaca	0.048319615
199	0x3f2fb4e2	0.6863538
200	0x3dd0f140	0.10202265
201	0x3e4b8d46	0.1987811
202	0x3ebb5c2e	0.36593765
203	0x3ee642fa	0.44972974
204	0xbe0a30ea	-0.13495222
205	0xbeaaebf9	-0.33383158
206	0x3ee1aebe	0.4407863
207	0x3e201a71	0.15635087
208	0x3edf5e83	0.43626794
209	0xbf914ca1	-1.135151
210	0xbe250f47	-0.16119109
211	0x3ec53649	0.3851798
212	0xbf9b47d0	-1.213129
213	0x3f0f1e1f	0.55905336
214	0xbcc41d1c	-0.023939662
215	0xbed4f2d3	-0.4159151
216	0xbe4cc6cd	-0.19997711
217	0xbde7199b	-0.11284181
218	0x3e5c7807	0.21530162
219	0xbdfc5039	-0.12319989
220	0xbe9aa398	-0.30202937
221	0x3ed06522	0.40702158
222	0x3e7662fc	0.24061197
223	0x3edc50ef	0.43030497
224	0x3e2e911b	0.17047541
225	0xbea06103	-0.31324014
226	0xbdfbd742	-0.122969165
227	0x3e32971e	0.17440459
228	0xbdd49daf	-0.10381638
229	0xbe520b91	-0.20512225
230	0xbca3314d	-0.01992097
231	0xbf390480	-0.7227249
232	0xbf1df60a	-0.6170355
233	0x3dbe2693	0.09284701
234	0x3ecd312f	0.40076587
235	0xbe00152d	-0.12508078
236	0x3ebb4524	0.36576188
237	0x3f1977be	0.5994834
238	0x3edae56b	0.42753157
239	0xbd6a93db	-0.057269912
240	0xbd2db8c1	-0.042412523
241	0xbf0373c5	-0.51348525
242	0xbef3b3c6	-0.47598094
243	0xbe7463f0	-0.23866248
244	0xbee3d8ac	-0.44501245
245	0xbf6fa8ab	-0.9361674
246	0xbf09ab1a	-0.53776705
247	0x3e07c0eb	0.13257186
248	0x3db26f43	0.08712628
249	0xbe4b8b4d	-0.19877358
250	0x3f3c7f8b	0.73632115
251	0xbd6c435d	-0.05768143
252	0x3ec133f4	0.3773495
253	0x3e0a66f2	0.13515833
254	0xbe8e3824	-0.27777207
255	0x3d87d396	0.06632154

network_body._body_endoder.seq_layers.0.bias f4 [128]
0	0xb9ddbbb0	-0.00042292243
1	0xbb200b92	-0.002442096
2	0x3a945098	0.0011315523
3	0x3c65f844	0.014036242
4	0x3b06851a	0.0020526112
5	0x3c689e24	0.01419786
6	0xbb4de735	-0.0031418328
7	0xbb499751	-0.0030760358
8	0xbada2890	-0.0016644169
9	0x3c84cb6d	0.016210282
10	0x3bd13603	0.0063846125
11	0x3c087000	0.008327484
12	0xbc58759a	-0.013211632
13	0xbc1cf7bc	-0.009580549
14	0xbac8c70a	-0.0015318107
15	0x3ab4f3a9	0.0013805527
16	0xbb9c2e8c	-0.004766291
17	0x3bad9600	0.0052974224
18	0xbc1e59e0	-0.009664983
19	0xbb7be652	-0.0038436842
20	0x3bf255de	0.00739549
21	0x3b1143b6	0.0022165603
22	0x3bcfe32c	0.0063442197
23	0xbbbce772	-0.005764895
24	0x3a8cefbd	0.00107526
25	0xbc17a3d9	-0.009255373
26	0x3c4bd88d	0.012441766
27	0xbaf99904	-0.0019042795
28	0xbb900ed0	-0.004396297
29	0xbb8b0a84	-0.004243197
30	0xbac7716e	-0.00152163
31	0x3b6b7ab2	0.0035931286
32	0xba04a62e	-0.0005060163
33	0xbbef8346	-0.00730935
34	0xbb6432c8	-0.0034820307
35	0xba200a0d	-0.00061050133
36	0xbb8120a6	-0.0039406596
37	0xbbbee298	-0.005825352
38	0x3b17642e	0.0023100483
39	0x3a36136e	0.0006945644
40	0xbb1e1b58	-0.0024125185
41	0xbb86a06a	-0.0041084783
42	0xbbc8b6d4	-0.0061253104
43	0xbb073e65	-0.0020636555
44	0xbc33dd33	-0.010978031
45	0xbba59c48	-0.0050540306
46	0xbaffaeec	-0.0019507087
47	0x3b9fb1fd	0.004873513
48	0x3b2d2f88	0.0026426036
49	0xbba5df22	-0.005062
50	0x3aeae59c	0.0017921212
51	0x3b28202c	0.0025653942
52	0x3b529abe	0.003213569
53	0x38c93157	9.593617e-05
54	0x3a61035c	0.00085835694
55	0xbbb16e7a	-0.005414781
56	0xbc34b2df	-0.011028974
57	0x3a6f3511	0.0009125034
58	0x3c5fef95	0.013667961
59	0xba5eda3c	-0.00085011474
60	0x396a0cb3	0.0002232071
61	0xbc25a2ee	-0.010109646
62	0xbc4ccfd2	-0.01250072
63	0xbb5f8909	-0.003410878
64	0x3ba1710d	0.004926807
65	0xbba4dc6e	-0.00503116
66	0xbc18b09f	-0.0093194535
67	0x3ad86ed5	0.0016512523
68	0x3c23ad6d	0.009990078
69	0xbb1024b5	-0.0021994535
70	0xbc7af2c6	-0.015316671
71	0x3b51ec9a	0.0032031895
72	0xbafaafb6	-0.0019125852
73	0x3b935de8	0.0044972785
74	0xbc1174c5	-0.008877938
75	0xb9089199	-0.0001302421
76	0xbb4280d9	-0.002967885
77	0x3c46196c	0.012091022
78	0x3aac36be	0.0013138873
79	0xbc00b533	-0.007855701
80	0xba506ad4	-0.0007950489
81	0x3b26907c	0.002541571
82	0x3a8a5d42	0.0010556357
83	0xbb4b51d5	-0.0031024117
84	0x3c4488d4	0.011995513
85	0x3a918377	0.0011101802
86	0x3b464eb4	0.0030259313
87	0x3af19a06	0.0018432743
88	0xbba2dd23	-0.004970209
89	0xbb50e5ff	-0.003187537
90	0x3bf102bb	0.007355062
91	0xbb830df9	-0.0039994684
92	0xbc70eef5	-0.014705409
93	0xba0cd806	-0.0005372766
94	0xbc8719a7	-0.016491724
95	0x3bb2a6d3	0.005452016
96	0xbbf170f7	-0.007368203
97	0x3aaba859	0.0013096436
98	0x3ac42b87	0.0014966585
99	0xbbd73c96	-0.0065685017
100	0xbc42f3a4	-0.011898909
101	0xbc8f5dd2	-0.017500792
102	0xba2c3062	-0.0006568489
103	0x396cd753	0.00022586928
104	0x3be1bc85	0.0068889284
105	0xb8bfde95	-9.149049e-05
106	0xbbbe86a4	-0.0058143903
107	0xbb10cf42	-0.0022096192
108	0xbbf0da0b	-0.0073502115
109	0xbabe376d	-0.0014512368
110	0xbc3ffbe7	-0.011717773
111	0x3bf34ca5	0.007424908
112	0x3b223344	0.0024749795
113	0xbc279bb9	-0.010229998
114	0xbb828f3f	-0.0039843614
115	0x3c5dd302	0.013539078
116	0x3b2bfb13	0.0026242181
117	0xbb265499	-0.0025380014
118	0xbb849905	-0.0040465617
119	0xbc4dd6ab	-0.012563388
120	0xba15f8f1	-0.0005720994
121	0xbad78141	-0.0016441719
122	0x3871fde2	5.7695324e-05
123	0xbaf648d7	-0.0018790019
124	0xbb9e695c	-0.004834337
125	0xba6ec0f0	-0.00091077294
126	0x3c25a2ce	0.010109616
127	0xbbb7d713	-0.0056103556

network_body._body_endoder.seq_layers.2.weight f4 [128, 128]
0	0x3e34b17f	0.17645834
1	0x3ca124f5	0.019670943
2	0xbd2129b0	-0.039346397
3	0x3e60584f	0.21908687
4	0xbc3b2645	-0.011422698
5	0x3d8d3a25	0.06895856
6	0x3d89a2a0	0.067204714
7	0xbd1e6227	-0.038667824
8	0xbd6c9157	-0.057755794
9	0x3d9b56a1	0.075848825
10	0x3e364be5	0.17802389
11	0xbc84bd5c	-0.016203575
12	0x3d2ddf30	0.042449176
13	0xbc7439ff	-0.0149064055
14	0xbe053a19	-0.13010444
15	0xbd66d585	-0.05635597
16	0xbd363833	-0.04448719
17	0x3dc1c256	0.09460895
18	0x3bcadd92	0.006190964
19	0x3df970c7	0.12179714
20	0x3c972b68	0.018453315
21	0x3d4b69ad	0.049661327
22	0x3bfa9b94	0.007647941
23	0x3cae0fe5	0.021247813
24	0xbdc73e15	-0.09728638
25	0x3d7e65b1	0.0621087
26	0x3bae9879	0.0053282348
27	0x3cd65fc4	0.026168711
28	0x3d73c271	0.059511606
29	0x3c1d2e45	0.009593551
30	0xbdcabe38	-0.098995626
31	0x3de9d3ee	0.114173755
32	0xbca4cb82	-0.020116571
33	0x3d9a0f7d	0.075224854
34	0xbc2cd786	-0.010549432
35	0x3e114ef3	0.14190273
36	0xbdae4c95	-0.085107006
37	0x3ba8e195	0.0051538446
38	0x3da52b7e	0.08064936
39	0xbd206324	-0.039157048
40	0x3e25a6a5	0.16176851
41	0x3d0d034a	0.034426965
42	0x3b078e74	0.0020684274
43	0xbe102e9f	-0.14080285
44	0x3d07020f	0.032960948
45	0xbc1877c0	-0.009305894
46	0x3d71f617	0.05907258
47	0xbe7ea4c8	-0.24867547
48	0x3d04659c	0.032323465
49	0x3c6c9f3a	0.014442259
50	0xbe3fbf34	-0.18725282
51	0xbd18213b	-0.037141066
52	0xbd663dc3	-0.056211244
53	0x3dc038cc	0.09385833
54	0xbd1e2319	-0.03860769
55	0x3b0b4b90	0.0021254756
56	0xb9de8242	-0.0004244019
57	0xbd59c0de	-0.053162448
58	0xbdf55dfc	-0.11980817
59	0x3daab913	0.08336081
60	0xbd840eef	-0.06448161
61	0xbd0155b8	-0.03157589
62	0x3bdec225	0.006798046
63	0x3d5c0947	0.053719785
64	0x3d910f12	0.070829526
65	0xbc607c9f	-0.013701587
66	0xbd8bb96c	-0.06822476
67	0x3c751687	0.014958984
68	0x3cf08703	0.029361254
69	0xbe06e5af	-0.13173555
70	0xbc5eeec8	-0.013606735
71	0xbcb91d1c	-0.022596888
72	0xbdeb3b9f	-0.11485981
73	0xbdbf1f72	-0.093321696
74	0x3ccc5b34	0.024945833
75	0xbd60ac40	-0.05485177
76	0x3df05c5f	0.117363684
77	0x3d13ce37	0.036085334
78	0xbd84c4a5	-0.064828195
79	0xbd8f12b0	-0.06985986
80	0x3c151903	0.009100202
81	0xbdb88f9b	-0.090117656
82	0xbdeb8a40	-0.115009785
83	0xbb367a22	-0.0027843793
84	0x3d26a12d	0.040681053
85	0xbd463975	-0.04839464
86	0x3b6634ce	0.003512669
87	0x3d3b72c8	0.04576376
88	0xbcda200e	-0.026626613
89	0xbcfef037	-0.031120403
90	0x3d4f3a0f	0.05059248
91	0x3e15da42	0.1463404
92	0x3d601825	0.054710526
93	0xb82d1af2	-4.127151e-05
94	0xbdf7586f	-0.12077414
95	0xbd1f0605	-0.0388241
96	0xbd855c73	-0.06511774
97	0xbd43b62a	-0.047781147
98	0xbdbf00e8	-0.09326345
99	0x3e1e0b8d	0.15434094
100	0xbda339d0	-0.07970011
101	0xbd9e2d78	-0.07723516
102	0xbd2f2cab	-0.042767208
103	0x3cf6d8bc	0.030132644
104	0xbd85bca6	-0.065301225
105	0x3d8f38d9	0.06993265
106	0x3e3e6dd6	0.18596587
107	0xba50d63b	-0.0007966493
108	0xbd52396b	-0.05132429
109	0x3d955aa3	0.07292678
110	0x3d09ac15	0.033611376
111	0x3ca8b467	0.020593835
112	0x3d509b33	0.05092926
113	0xbe731981	-0.23740198
114	0xbc8db0ce	-0.017296221
115	0x3d087485	0.033314247
116	0xbd9fa6c1	-0.07795478
117	0xbe3fb1c6	-0.18720159
118	0x3e3f5229	0.18683685
119	0xbe0ef44d	-0.13960381
120	0xbcf3881c	-0.029727988
121	0x3af25def	0.0018491129
122	0x3dbdaf97	0.09262007
123	0xbda6088a	-0.081070974
124	0xbd906946	-0.07051329
125	0x3d8fa6fb	0.07014271
126	0xbe1bcfb2	-0.15215948
127	0xbdba580e	-0.09098826
128	0x3ddaa25a	0.10675497
129	0x3d7749fa	0.060373284
130	0xbddb2491	-0.10700334
131	0x3e12539e	0.1428971
132	0xbca1f7f7	-0.01977156
133	0xbd9ef31f	-0.077612154
134	0xbdc9509b	-0.098298274
135	0xbdb063e5	-0.08612803
136	0xbd789095	-0.06068476
137	0x3ded9d11	0.11602224
138	0xbdb00efa	-0.085966066
139	0x3cf71c99	0.030165004
140	0x3ba327ca	0.0049791085
141	0x3de4d52f	0.11173474
142	0x3d06f989	0.03295282
143	0x3dcebb93	0.10094371
144	0xbd601f84	-0.054717556
145	0xbdb04281	-0.086064346
146	0xbd604f7c	-0.054763302
147	0xbc417aa5	-0.011809026
148	0xbdd7ecef	-0.10543238
149	0x3c52606b	0.012840371
150	0xbdf31478	-0.118691385
151	0xbddd7c50	-0.10814726
152	0xbe1c44c3	-0.15260606
153	0xbd92eed6	-0.071744606
154	0x3e347d5a	0.17625943
155	0x3d37da6c	0.044886038
156	0x3d4fc266	0.050722502
157	0xbe3c88cd	-0.1841156
158	0xbdd88548	-0.105722964
159	0xba4134b2	-0.0007370218
160	0xbdd2610e	-0.10272418
161	0xbd9a1da9	-0.075251885
162	0xbdcf0258	-0.10107869
163	0x3d509a75	0.05092855
164	0x3e477632	0.19478682
165	0x3d4ca11c	0.049958333
166	0xbd0097e0	-0.03139484
167	0xbde67d3e	-0.11254357
168	0x3bba2a11	0.0056812842
169	0xbd3b8603	-0.0457821
170	0xbe13a0ab	-0.14416759
171	0x3d13950d	0.036030818
172	0xbdea0cd9	-0.11428232
173	0xbd87a184	-0.066226035
174	0xbd605f67	-0.054778483
175	0xbdee8f38	-0.116484106
176	0x3c62e2ac	0.013847988
177	0xbd9497c9	-0.07255513
178	0x3c8bdec4	0.017073996
179	0x3d514255	0.05108865
180	0xbde0784f	-0.10960447
181	0xbc6fa1c0	-0.014625967
182	0xbdd79035	-0.10525552
183	0x3dbc41f7	0.09192269
184	0xbe24e055	-0.16101201
185	0xbb3c8161	-0.002876364
186	0xbce7e701	-0.028308393
187	0xbc2670e9	-0.010158756
188	0xbd6cf521	-0.05785096
189	0x3dea5fcd	0.11444054
190	0xbda72d10	-0.08162892
191	0x3e8e138b	0.27749285
192	0xbc1658d3	-0.009176451
193	0x3c826400	0.015916824
194	0x3cfef20e	0.03112128
195	0xbcfb4a93	-0.030675208
196	0xbde05995	-0.109545864
197	0xbdb1ba44	-0.086781055
198	0xbb6443fc	-0.003483056
199	0x3d1200d3	0.035645317
200	0xbe67be6e	-0.22631237
201	0x3ccb2976	0.024800044
202	0xbbd9e3c0	-0.0066494644
203	0x3d09052b	0.033452194
204	0x3e1a0ca7	0.15043889
205	0xbd3b0688	-0.045660526
206	0xbd8fbb12	-0.07018103
207	0x3d1e0fd8	0.03858933
208	0xbccb21af	-0.024796335
209	0x3da486e7	0.08033543
210	0x3c56b216	0.013103982
211	0x3cf4f70e	0.029902961
212	0x3c93adbc	0.018027179
213	0xbde1b033	-0.110199355
214	0xbd3f07c3	-0.04663826
215	0xbcf1d184	-0.02951885
216	0x3d80da4f	0.06291639
217	0x3bc066ce	0.0058716303
218	0xbc3373b5	-0.01095288
219	0xbdd06f14	-0.101774365
220	0xbd82f00e	-0.06393443
221	0x3d903093	0.07040515
222	0xbd58586a	-0.052818693
223	0x3d085ac9	0.033289704
224	0x3d5a49d7	0.053293075
225	0xbdef2960	-0.116778135
226	0xba80e7ce	-0.0009834708
227	0x3dc274f5	0.09494964
228	0xbd38e335	-0.045138557
229	0xbdd42a76	-0.10359661
230	0xbd6c4315	-0.057681162
231	0xbdd17bbc	-0.102286786
232	0xbdefec15	-0.11714951
233	0xbcf1cf48	-0.029517785
234	0x3e392064	0.18078762
235	0x3e0cd354	0.1375249
236	0x3cf7155b	0.03016155
237	0xbdb28fcb	-0.087188326
238	0xbd5e2616	-0.05423554
239	0x3d6f7d30	0.058468997
240	0xbcb2b0bb	-0.021812787
241	0xbd30ec27	-0.043193962
242	0xbcf42c27	-0.02980621
243	0x3d54faa9	0.05199686
244	0x3c36c0c3	0.011154356
245	0x3df1eaaa	0.11812337
246	0xbce3d327	-0.027810646
247	0x3c4ae4bf	0.012383639
248	0x3d7000ef	0.05859464
249	0xbd4236b4	-0.04741545
250	0xbc54b37c	-0.012982246
251	0x3ca19994	0.019726552
252	0xbd9ccaf6	-0.07655899
253	0x3d62be2e	0.05535715
254	0x3ac1763e	0.001475997
255	0xbd5b4555	-0.053532917

network_body._body_endoder.seq_layers.2.bias f4 [128]
0	0xbc2fc4f3	-0.010728109
1	0xbae2ebbb	-0.0017312685
2	0x3bc69456	0.0060601635
3	0xbabcee88	-0.001441435
4	0xbb0238b3	-0.001987022
5	0xbb596a08	-0.0033174772
6	0xbbc313ff	-0.0059533115
7	0xbb3c9bbd	-0.002877935
8	0xba5471fb	-0.00081041426
9	0xbbc44238	-0.005989339
10	0xbbbe1c5d	-0.005801721
11	0x3a75264a	0.0009351714
12	0xbb2d5dd5	-0.0026453633
13	0xb9eaceda	-0.00044786074
14	0xbbda4078	-0.0066605173
15	0xbb583ad5	-0.003299405
16	0xbb629ea1	-0.0034579413
17	0xbb7ff847	-0.0039057897
18	0xba780e99	-0.00094626244
19	0x3b2c9e10	0.002633933
20	0xbb9943f3	-0.0046772896
21	0xbc42e227	-0.011894739
22	0xbc0cc886	-0.00859273
23	0xbb48cbb2	-0.003063899
24	0xbbe4336e	-0.0069641387
25	0xbb9c6fb7	-0.0047740596
26	0x3c4f9539	0.012669855
27	0x3bafc72e	0.0053643202
28	0x3b7b1c80	0.0038316548
29	0xbb8df9fc	-0.004332779
30	0xbb82afd0	-0.0039882436
31	0x3c49cb86	0.01231659
32	0xbb82c2d7	-0.003990512
33	0xbc50f01d	-0.01275256
34	0xbc0f87b5	-0.008760382
35	0x3b973ba4	0.004615264
36	0x3b0ccfd2	0.0021486175
37	0xba1d5452	-0.00060016394
38	0x3895262f	7.111986e-05
39	0xbb8d7b19	-0.004317653
40	0x3a06e9cb	0.0005146532
41	0xbbb0c75c	-0.0053948592
42	0x3b00ebc3	0.0019671775
43	0x3a252676	0.00062999816
44	0xbb54f9a1	-0.0032497423
45	0x3adf89f1	0.001705466
46	0xbb1a1cf0	-0.0023515783
47	0x3ab6c295	0.0013943488
48	0xbbc22baf	-0.0059256176
49	0xbb2a1c69	-0.0025956875
50	0x374b9f83	1.2136882e-05
51	0x3b2a0de4	0.002594822
52	0xbb9db94f	-0.0048133503
53	0xba9cb30f	-0.0011955219
54	0xbbe1cc7a	-0.0068908306
55	0xbc02801c	-0.007965114
56	0xbb0a3939	-0.0021091236
57	0xbc5514a5	-0.01300541
58	0x3bcc9082	0.0062428126
59	0x3b0b2a20	0.0021234825
60	0x3a7c6ea3	0.0009629523
61	0x3c2ba389	0.010476002
62	0xbc058bbb	-0.00815099
63	0x3b732e72	0.003710654
64	0x3b60fa0f	0.0034328734
65	0xbbbb853d	-0.0057226704
66	0xbb566dbd	-0.0032719218
67	0xbb988829	-0.0046549034
68	0xbab6eba4	-0.0013955724
69	0x3c1a7bc1	0.009428919
70	0xbba4dccf	-0.0050312052
71	0x3b84bbc8	0.0040507056
72	0xbbf6ef77	-0.0075358707
73	0xbc237bac	-0.009978216
74	0xbbe39e47	-0.0069463584
75	0xbb259a17	-0.0025268847
76	0xbb924f86	-0.0044650463
77	0xbba0e3dc	-0.0049099755
78	0xbc04969b	-0.008092548
79	0x3ab3c890	0.0013716388
80	0xbbdc7116	-0.006727348
81	0xbc800526	-0.015627455
82	0xbc0cd79a	-0.008596325
83	0x3af87ab7	0.001895747
84	0xbbf908cd	-0.007599926
85	0xba695d28	-0.0008902126
86	0xba981f2c	-0.001160597
87	0xbbb9ba92	-0.005667993
88	0x3b7b4b88	0.003834458
89	0xbb1262e9	-0.0022336787
90	0xbb70e8b1	-0.0036759789
91	0xbc11f90b	-0.008909474
92	0xba27508a	-0.00063825457
93	0xbc1c8bd3	-0.009554821
94	0xba7d3347	-0.0009658825
95	0x3bea75e4	0.007155167
96	0x399c4cdf	0.00029811912
97	0x3a38e973	0.00070538296
98	0x3b97992d	0.0046264143
99	0xbc3f7524	-0.011685643
100	0x3be742ef	0.0070575397
101	0xbbb330a5	-0.0054684454
102	0xbb8622ca	-0.0040935026
103	0xbab46684	-0.0013763462
104	0xbba1f2a4	-0.004942255
105	0xbbfb0d76	-0.007661517
106	0x3aee2617	0.0018169311
107	0xbbf142b7	-0.0073626894
108	0xbbb42ac6	-0.005498263
109	0x3bb628b2	0.0055590505
110	0xbbf676f5	-0.007521505
111	0xbb78c88d	-0.0037961334
112	0xbc34b85f	-0.011030286
113	0x392157d6	0.00015386878
114	0xbc23954e	-0.0099843275
115	0xbb1a23af	-0.0023519804
116	0xbacbf437	-0.0015560453
117	0x3ba9b63f	0.005179196
118	0x3b24e8bb	0.0025163132
119	0x3bb78b6d	0.0056013376
120	0x3b6dc179	0.0036278649
121	0x3bd657d5	0.006541232
122	0xbb5a12da	-0.0033275397
123	0xbc090d33	-0.008364963
124	0xbb9de776	-0.004818852
125	0xbbbf3425	-0.0058350735
126	0xbb30ff87	-0.0027007775
127	0xbbccd743	-0.006251247

action_model._continuous_distribution.log_sigma f4 [1, 2]
0	0x3c61a621	0.013772518
1	0x3cbcceaf	0.023047773

action_model._continuous_distribution.mu.weight f4 [2, 128]
0	0xbab62903	-0.001389772
1	0x3ce75e3b	0.028243175
2	0x3c330127	0.010925568
3	0xbba87cf7	-0.00514185
4	0xba9ec644	-0.0012113531
5	0xbc5df9ae	-0.013548298
6	0xbc1077d3	-0.008817631
7	0xbaf736bf	-0.001886092
8	0xb812b012	-3.497309e-05
9	0xbb6d2cbd	-0.0036189996
10	0x3c627f29	0.013824263
11	0xbbb5421f	-0.005531564
12	0xbc15ca84	-0.009142522
13	0xbbb1e6f4	-0.005429143
14	0x3a4950ff	0.0007679611
15	0x3beda7b1	0.0072526564
16	0xbc2a20fe	-0.0103838425
17	0xbbc675ec	-0.006056538
18	0x392a87a5	0.00016262995
19	0x3d32d873	0.043663453
20	0xbcade760	-0.021228492
21	0x3c940116	0.018066924
22	0x3a972d3d	0.0011533868
23	0xbc93da58	-0.01804845
24	0xbc978efe	-0.018500801
25	0x3c6f99d8	0.014624082
26	0xbc5f4be2	-0.013628932
27	0xbcad1363	-0.021127408
28	0xbbc71c5c	-0.0060763787
29	0xbad8e6b5	-0.0016548248
30	0x3d0244b0	0.031803787
31	0xbc8be841	-0.01707852
32	0xbac0a890	-0.0014698673
33	0x3a62270f	0.0008627036
34	0xbb1e6cc5	-0.0024173718
35	0xbd0cc10f	-0.034363803
36	0x3c98916c	0.01862403
37	0xbc23e2e3	-0.0100028245
38	0xbca2aff0	-0.019859284
39	0xbb4b30d6	-0.003100445
40	0xbc8293f6	-0.015939694
41	0x3cc55f36	0.024093252
42	0xbc215649	-0.009847232
43	0xbc6ce611	-0.014459149
44	0xbbc46190	-0.0059930757
45	0x3ca02e8f	0.01955345
46	0xbbc1403b	-0.0058975494
47	0x39d2880e	0.0004015569
48	0xbb16eca8	-0.0023029242
49	0xbc814320	-0.015779078
50	0xbc88db04	-0.016705997
51	0xbb377954	-0.0027995901
52	0x3c57604c	0.013145518
53	0xbce58329	-0.028016644
54	0x3beb9af4	0.0071901027
55	0x3b065770	0.0020498894
56	0x3c7819cd	0.01514287
57	0x3b5c28a9	0.0033593571
58	0x3b58d63c	0.0033086678
59	0x3c13c283	0.009018543
60	0xbcb0ecdd	-0.02159732
61	0xbc5c42c6	-0.013443654
62	0x3880d345	6.142868e-05
63	0xbc3902b8	-0.011292152
64	0xbc0b67b7	-0.008508614
65	0x3c4f3e1a	0.0126490835
66	0x3c1b5586	0.00948084
67	0x3cf04b5e	0.029332813
68	0xbc27da44	-0.01024491
69	0x3c122daf	0.008922025
70	0x3ba037fe	0.0048894873
71	0xbb79e4d0	-0.0038130768
72	0x3c18d98b	0.00932921
73	0x3be94dd2	0.0071198726
74	0x3cc89f45	0.024490008
75	0xbc8a8fec	-0.01691433
76	0x3bfdd0ca	0.007745837
77	0x3c137366	0.008999681
78	0xbc3d2e0a	-0.011546621
79	0x3cf1f4fb	0.029535761
80	0x3c35734a	0.01107485
81	0xbb358cc5	-0.0027702313
82	0x3ad951fb	0.0016580218
83	0x3b32396f	0.0027194878
84	0x3a1cc3e6	0.0005980119
85	0x3cdbab2d	0.026815021
86	0xbcded76f	-0.027202336
87	0xbbb15e16	-0.0054128272
88	0xbd115f41	-0.03549123
89	0x3cee0e55	0.029059568
90	0xbc13beb6	-0.009017637
91	0xbbbbd2c4	-0.0057319123
92	0xbaaf2d79	-0.0013364992
93	0x3c8de415	0.017320672
94	0x3bbc7e91	0.0057523926
95	0x3c0a27d3	0.008432346
96	0xbbaf408c	-0.0053482708
97	0xbc1c1833	-0.009527254
98	0xbd04d921	-0.032433633
99	0x3b7a4187	0.003818603
100	0x3c3e3a02	0.01161051
101	0xba12903e	-0.0005590952
102	0x3c881748	0.016612664
103	0xbbe2f3ec	-0.0069260504
104	0x3c97ae73	0.018515801
105	0x3aac3d58	0.001314084
106	0xbc905e42	-0.01762307
107	0xba8bf746	-0.0010678552
108	0x3bdd17f5	0.0067472407
109	0xbc471aa4	-0.012152348
110	0x3c4fa20d	0.012672913
111	0xbc283a25	-0.010267769
112	0x3b40e814	0.0029435204
113	0xbb5e8e7c	-0.003395944
114	0x3c52544b	0.01283748
115	0x3ca25cb6	0.019819599
116	0x3c370f7c	0.011173125
117	0xbd1c8cfd	-0.038220394
118	0x3c0aa558	0.008462273
119	0x38801210	6.10688e-05
120	0x3c009205	0.007847314
121	0xbc938acf	-0.018010525
122	0xb9dd8f40	-0.00042259134
123	0x3cea04bf	0.028566716
124	0x3c4285ee	0.011872752
125	0x3a3eb372	0.0007274664
126	0x3b3aba92	0.0028492552
127	0x3c6666e2	0.014062615
128	0x3b207e93	0.0024489507
129	0x3bb435c0	0.0054995716
130	0xbc5cd54d	-0.013478589
131	0xbc116ffe	-0.008876799
132	0xbcef7348	-0.029229775
133	0xbca7fa31	-0.020505043
134	0xbc8bfa75	-0.0170872
135	0xbbb2b72e	-0.0054539656
136	0x3c508653	0.012727338
137	0xbbe0e7c5	-0.0068635666
138	0x3b067001	0.0020513537
139	0xbb8f11a0	-0.0043661147
140	0xbd0ac9c5	-0.03388383
141	0xbbd0d661	-0.006373212
142	0xbbc6f0c8	-0.006071184
143	0x3c57068c	0.0131241195
144	0xbc792da4	-0.0152086355
145	0xbc854292	-0.016267095
146	0xbcef2125	-0.02919061
147	0xbd250295	-0.040285666
148	0xbc0cd192	-0.008594887
149	0x3c11cbbb	0.008898671
150	0xbb90a72c	-0.0044144597
151	0xbc4d0923	-0.012514385
152	0xbc76b4cf	-0.015057757
153	0xbbc6feca	-0.0060728537
154	0xbd3a33ab	-0.04545943
155	0x3c8b8e14	0.017035522
156	0x3cab2e2c	0.02089604
157	0xbd3cf53a	-0.046132304
158	0x3bf71a98	0.007541012
159	0x3b9d3dab	0.004798611
160	0xbcae77ab	-0.021297297
161	0xbbab351f	-0.0052248384
162	0xbc030cab	-0.007998626
163	0x3c02e1a1	0.007988364
164	0x3cb95e3f	0.022627948
165	0xbd229d6a	-0.039700903
166	0x3a3f1a8a	0.00072900264
167	0x3c8a2d6f	0.016867368
168	0xbba4f4e7	-0.0050340774
169	0xbc50d96e	-0.012747152
170	0xba418d57	-0.0007383427
171	0xbccb1a73	-0.024792885
172	0xbc62405f	-0.013809293
173	0x3cfb5c08	0.030683532
174	0xbbb76dc7	-0.0055978033
175	0xbc0668cc	-0.008203696
176	0x3c97e3e2	0.01854128
177	0xbcac1cbd	-0.021009797
178	0xbc921946	-0.017834317
179	0x3c78150a	0.015141735
180	0xbcc815f1	-0.024424525
181	0xbd4434b5	-0.047901828
182	0xbb8f4427	-0.004372138
183	0xbb12b10b	-0.0022383358
184	0x3bcedeea	0.0063131945
185	0xbc106356	-0.008812746
186	0xbd20c07b	-0.039246064
187	0x3d0ba069	0.034088526
188	0x3c8922eb	0.016740283
189	0x3ca359d8	0.019940302
190	0x394bacd2	0.00019423969
191	0xbc2f1320	-0.010685712
192	0xbca2297b	-0.01979517
193	0xbc90f808	-0.017696396
194	0x3c61d82f	0.013784452
195	0xba33304f	-0.00068355066
196	0xbc9aa1aa	-0.018875916
197	0x3d175a50	0.036951363
198	0xbd108058	-0.03527865
199	0x3bb877bf	0.005629509
200	0x3bc2ce72	0.0059450204
201	0xbc79d3a5	-0.015248214
202	0xbc9e69e1	-0.019337596
203	0xbcdf13fb	-0.027231207
204	0xbcd10ae2	-0.025517885
205	0xbcb76e7b	-0.022391548
206	0xbc8f0607	-0.017458929
207	0xbcddf404	-0.027093895
208	0xbc73d38d	-0.014881981
209	0xbb2c1c96	-0.0026262156
210	0xb9238a37	-0.0001559638
211	0x3c72fde0	0.014831036
212	0xbc1dcde5	-0.009631609
213	0xbc8d06ee	-0.017215218
214	0x3a95e544	0.0011436124
215	0xbb983ba2	-0.0046457807
216	0xbc0dc00a	-0.008651743
217	0x3d02ad72	0.03190369
218	0xbc2729c5	-0.01020283
219	0xbcb0b7d7	-0.021572037
220	0x3ba5b33c	0.005056767
221	0x3c7ff34b	0.01562197
222	0x3c53b749	0.012922117
223	0x3cc9b9b0	0.024624676
224	0x3c9f5aa5	0.019452402
225	0xbc83ca01	-0.016087534
226	0x3c474ed8	0.012164794
227	0xbbec44fa	-0.007210371
228	0xbccd2b5f	-0.025045095
229	0xbc510870	-0.012758359
230	0xbbeb6230	-0.0071833357
231	0xbcd47747	-0.025935782
232	0x3bdcc8a6	0.0067377863
233	0xbbd07e07	-0.00636268
234	0xbc95f927	-0.018307282
235	0xbca7ad89	-0.02046849
236	0xbc5baa76	-0.01340734
237	0xbc4f88fe	-0.012666939
238	0xbb8dd015	-0.004327784
239	0xbbd89041	-0.0066089933
240	0xba965529	-0.0011469472
241	0x3bb40a9f	0.00549443
242	0xbc95dae9	-0.018292861
243	0xbccc249d	-0.024919802
244	0xbabea0e9	-0.0014543805
245	0x3cb263b8	0.021776065
246	0xbd1a95e8	-0.037740618
247	0x3c8a803e	0.016906854
248	0x3c44fb19	0.012022757
249	0x3c4507d1	0.012025789
250	0xbcb23c9e	-0.02175742
251	0x3c74e134	0.014946271
252	0x3a9e3e34	0.0012072981
253	0xbacd3766	-0.0015656769
254	0xbc9402b6	-0.018067699
255	0xbcd78108	-0.026306644

action_model._continuous_distribution.mu.bias f4 [2]
0	0xbb5c4845	-0.0033612412
1	0x3b5d1a5e	0.003373764
