Goodminton/Assets/results/Badminton/Badminton/Badminton-960.onnx (onnx, 74586 bytes, 7 tensors)

network_body._body_endoder.seq_layers.0.weight f4 [128, 5]
000000 f0 3d ff 3a 65 d7 cd bd 4d ec ef 3e 14 86 0f 3f
       0.0019473415 -0.10050849 0.4685997 0.5606396
000010 c6 89 63 3e 78 c6 67 bf 96 8e c2 be a8 87 36 be
       0.22220525 -0.90537214 -0.3799941 -0.17825186
000020 5c f0 3d 3e d6 26 8f be 5b 5a 36 3f aa b6 f7 bd
       0.18548721 -0.27959317 0.7123162 -0.12095387
000030 9a fa a0 be 14 c7 02 3f 83 bd 0f 3d 89 84 d8 3e
       -0.31441194 0.5108502 0.03509284 0.42288616
000040 ad 75 26 bf dc b5 db be b3 6e cd 3e 67 73 61 be
       -0.6502331 -0.42912185 0.4012352 -0.22016679
000050 c4 18 33 bf 1b 34 02 3e de bb 64 3e 92 60 20 3f
       -0.69959664 0.12715189 0.2233729 0.62647355
000060 ad 09 f4 3d 14 75 5c 3d 68 20 18 bf 0a af dc be
       0.11915908 0.053822592 -0.5942445 -0.43102294
000070 f4 e2 61 3f 90 7f 3a bd 6b b5 76 3e 88 ad ab bd
       0.8823693 -0.04553181 0.24092643 -0.08382708
000080 77 2d 2e 3e 04 fa 2e 3e 3d f4 02 3d 27 ab 46 3e
       0.17009531 0.17087561 0.031971205 0.19401227
000090 5d d7 b3 be 0a 1d 0c 3d 50 96 a8 3d f2 c1 2f be
       -0.35125247 0.03420738 0.08231795 -0.17163828
0000a0 3c d1 0a 3e b3 b7 cf 3e c9 c7 c1 3e fe 53 eb 3e
       0.13556379 0.4056984 0.37847736 0.45962518
0000b0 93 11 df be 16 7f 41 bd 9a ea 89 be cf 5a 27 3e
       -0.43568096 -0.04724034 -0.269368 0.16343234
0000c0 cc bf 8d 3e ce c1 1b bf 48 25 2d bf ff a1 8c be
       0.27685392 -0.608426 -0.6763501 -0.27467343
0000d0 84 4d 75 be a2 be 26 bf 84 bc 8f be ac b2 81 3f
       -0.23955351 -0.6513463 -0.28073514 1.0132651
0000e0 e3 44 ca be b4 d0 18 3f 41 dd 19 3f fc 8f b6 be
       -0.3950568 0.59693456 0.6010323 -0.35656726
0000f0 51 4d 0f 3f b4 72 4b 3f 84 fc 13 3f be f2 0c 3e
       0.5597735 0.794719 0.57807183 0.13764474
000100 6c 72 60 3d f8 fe 58 3e 87 5a 41 bd bd fb 7a 3e
       0.05479662 0.21191013 -0.047205474 0.24510093
000110 cc 1c 1f 3f bb 0d a1 be ee 31 0f 3e 54 1b a4 be
       0.62153316 -0.31455788 0.1398389 -0.320521
000120 da 7c 25 3f 5a 12 9f be 5a d3 50 3f f4 63 28 3e
       0.64643633 -0.3106869 0.81572497 0.16444379
000130 1d d1 de 3d 65 99 88 3e a6 54 0b 3f 61 57 8f be
       0.10879729 0.2667953 0.5442604 -0.27996352
000140 2b 4b 92 be aa 18 0d bf 3f 56 dc be 42 5f 58 bf
       -0.28572974 -0.5511576 -0.4303455 -0.8452035
000150 e9 8d df 3d 26 87 67 3f 4c a7 54 3f b6 4e 54 be
       0.10915739 0.90440595 0.83067775 -0.20733151
000160 9a c3 2b bf 1f 71 a5 bd 53 c1 fd be 59 00 31 3f
       -0.6709534 -0.08078217 -0.49561557 0.69141155
000170 4a 33 dc 3e 40 ab 24 be 38 90 0a bf 37 d9 bf bf
       0.4300788 -0.16080952 -0.5412631 -1.4988164
000180 1d 43 2c 3e 0e 71 a4 3e b8 76 bf be 53 66 8a bd
       0.16822477 0.32117504 -0.37395263 -0.06757798
000190 3d 10 87 bf f3 5c 17 3e eb ec fe be ef 9e 78 3e
       -1.055183 0.14781551 -0.4979013 0.24279378
0001a0 9d 30 6d bc 70 5c ea bd 6b 69 9e be 19 44 98 3e
       -0.014476922 -0.11443412 -0.30939803 0.29739454
0001b0 90 29 1e bc d5 e5 34 be 68 7a b1 3e 4b cc ff be
       -0.009653464 -0.17665799 0.346637 -0.4996055
0001c0 86 18 d1 be fb 35 36 3e 0e 38 1b bf 87 2d 0e 3f
       -0.40839022 0.1779403 -0.6063241 0.5553822
0001d0 3d c6 1b bf 19 ed f8 3e e5 a9 32 3f 63 fa 52 3e
       -0.6084936 0.4861839 0.6979049 0.20603327
0001e0 89 bd 11 bf d2 78 18 bd 9c 03 7b bd 85 a7 ed be
       -0.5692983 -0.0372246 -0.06128274 -0.4641687
0001f0 82 7e 46 be cf 84 21 3e 52 73 d9 3e 0a b5 ef bd
       -0.19384196 0.15773319 0.42470795 -0.11704452
000200 6a 9a e4 3e 82 43 2a bf b9 14 2b 3f b5 18 12 3f
       0.4464906 -0.6650926 0.66828495 0.5706895
000210 d7 a1 9b 3e 0a ad b2 3d c9 6c 20 3c 28 eb 59 be
       0.30396912 0.08724411 0.009791561 -0.21281111
000220 87 92 0b bf 60 d2 a2 3e 39 43 d6 be 5c 0d 47 be
       -0.5452046 0.31801128 -0.41848162 -0.1943869
000230 24 3d 1c bf e5 c5 f1 bd fd 55 f4 3e 19 0f 4d bf
       -0.61030793 -0.118053235 0.47721854 -0.8010116
000240 5a 4a 99 be 5e 88 c7 3e 5a c3 db 3d ec 3f 1b 3f
       -0.29939538 0.38971227 0.1073062 0.6064441
000250 83 f9 d6 bd cf f0 dd be a6 a6 d0 be 56 e2 c8 be
       -0.10496809 -0.43347785 -0.40752143 -0.3923518
000260 bf 15 57 be 69 54 77 3f f2 24 c0 be 34 3d d4 bc
       -0.21004389 0.96613175 -0.37528187 -0.02590809
000270 e6 a5 c3 3c c0 9b a0 bf 01 5c 57 bd e3 50 03 3f
       0.023882817 -1.2547531 -0.052577976 0.512953
000280 2a 27 fe 3e 67 1b f5 3c 02 15 86 3f 53 3b 98 3e
       0.49639255 0.029920293 1.0475161 0.2973276
000290 18 0d 68 3e 12 85 97 bd b3 5c 32 bd ad 1f 9f 3d
       0.22661245 -0.07398428 -0.043545436 0.077697136
0002a0 8c c5 15 bc a2 60 07 3d d3 3f 91 3f 60 b0 9b be
       -0.009141337 0.03305114 1.1347603 -0.30408
0002b0 2b 5c 76 3f 32 b2 07 3f 9c 58 a4 3e 8c 55 bf 3d
       0.9623439 0.5300628 0.32098854 0.09342489
0002c0 92 e0 04 bf 39 61 02 3f 89 02 78 bf 3c d9 df be
       -0.5190517 0.509296 -0.9687887 -0.43720424
0002d0 92 0e 00 bf 34 a8 a8 be 86 80 af 3e f2 5e 12 3f
       -0.5002223 -0.3294083 0.34277743 0.57176125
0002e0 18 d4 60 3e ae 57 88 3e 7b bf 52 be 37 eb 58 bf
       0.21955907 0.26629394 -0.20580857 -0.8473391
0002f0 8f 64 3c 3e 85 5a 52 3f 75 8b 59 bf 9b f3 94 3d
       0.18397735 0.8216937 -0.8497842 0.072730266
000300 58 c8 af 3e 48 17 d1 3e e9 de 1d be 29 35 39 be
       0.34332538 0.40838075 -0.15417065 -0.18086685
000310 13 cb 29 bf ee 05 09 3f da 09 d0 3e 94 84 9a be
       -0.6632549 0.53524673 0.40632516 -0.30179274
000320 cd f3 af 3e bc 00 1a bf a3 90 3d 3e 25 82 89 3e
       0.34365693 -0.6015737 0.18512206 0.26857105
000330 85 9a d9 3e 5e 97 94 bd e6 fc ae be e6 d0 24 bf
       0.42500702 -0.072554335 -0.3417732 -0.64381254
000340 19 bb 4c 3f 4e 21 1b bf a1 5e 19 bf d4 d7 19 be
       0.7997299 -0.60597694 -0.5991002 -0.15023738
000350 73 bc f1 be 47 29 4b be f1 ff d1 bd a9 e7 3b 3f
       -0.47214088 -0.19839965 -0.10253895 0.7340036
000360 4b d4 08 3f f6 f2 ca be 7b a0 3a 3f 43 b5 29 bd
       0.53448933 -0.3963849 0.72901124 -0.04143263
000370 24 7e ea be 9b 40 de bd 24 6a 09 3e 93 3e 96 bc
       -0.45799363 -0.10852166 0.13419396 -0.018340385
000380 5f 1f 00 3e 89 56 8e bd ab f0 99 be e6 6d 57 be
       0.12511967 -0.06950099 -0.30066428 -0.21038017
000390 60 00 a2 3e 62 d2 36 bd 47 1b e4 3e 4f 4d 6e 3d
       0.3164091 -0.04463423 0.4455206 0.058179196
0003a0 dd 04 3d 3f 3f e1 76 3f df af 7c 3c 72 11 02 3f
       0.73835546 0.9643745 0.01542279 0.5080787
0003b0 50 75 5e bd bd 34 3f 3f 7f 0f 27 bf 37 3b 3d 3c
       -0.054311097 0.7468985 -0.6525802 0.011549762
0003c0 99 53 28 bf ba 9f 63 bf 11 45 b9 be 54 81 8a 3e
       -0.6575256 -0.889156 -0.36185506 0.27051795
0003d0 82 63 c7 3e a0 6d 4d be be 4a 99 3e 3d 5a df bd
       0.38943106 -0.2006135 0.29939836 -0.109058835
0003e0 28 70 e4 3e 1f 00 23 be cd 07 bb bc cf 49 e9 be
       0.44616818 -0.15918015 -0.022830868 -0.45564124
0003f0 4e 6b 2f 3e 45 94 63 be 03 be d8 3c 64 10 26 3e
       0.17130777 -0.22224529 0.026457792 0.1621719

network_body._body_endoder.seq_layers.0.bias f4 [128]
000000 76 c1 65 3b be e0 c2 3b e5 fb 42 3b 9a 9f 32 bc
       0.0035057939 0.0059472015 0.0029752192 -0.01090231
000010 bf 06 bc bb 80 cc 78 bb 83 2c 49 bc 37 4d 45 bb
       -0.005738109 -0.0037963688 -0.012278679 -0.0030105838
000020 02 81 74 3c 88 f8 ac bb 03 4a f3 39 14 31 a7 3b
       0.014923336 -0.0052786507 0.00046403715 0.005102286
000030 6d 13 ce bb 11 85 08 bc 87 e3 a0 bb d3 ee ab 3b
       -0.006288937 -0.008332507 -0.004909936 0.005246976
000040 14 ec 9a bb f3 e4 d3 3a 9a 08 d2 bb 32 a5 06 3b
       -0.0047278497 0.0016166255 -0.006409717 0.0020545241
000050 37 db 57 bb 27 c6 0a 3c 24 c8 bf 3b d9 4a 71 3a
       -0.0032937059 0.008470095 0.005852716 0.00092045736
000060 a8 3d 53 ba 9c 84 74 3c 0b 54 51 ba c9 1d 9a 3b
       -0.0008058199 0.014924195 -0.00079852407 0.0047032577
000070 bd 41 25 bb c9 d4 ba 3b 29 06 e6 3b df 4f cc 3b
       -0.0025216185 0.0057016355 0.0070197773 0.0062351073
000080 3d c2 17 bc 3a 56 97 bb c6 0e 88 bb e0 d4 33 ba
       -0.009262619 -0.0046184333 -0.0041521518 -0.0006860029
000090 fd cc 60 3b 47 b2 0d bc d6 f4 3a 3b 66 60 90 bb
       0.003430187 -0.008648462 0.0028527281 -0.004406023
0000a0 ca ca d7 3b e0 31 80 bb a9 13 be 3b 20 2f 6d 3a
       0.0065854536 -0.0039121956 0.0058006835 0.00090478547
0000b0 89 72 c4 3b ef 3e 9e 3b 4f e0 ca bb 36 dd e8 ba
       0.005995099 0.0048292796 -0.0061912904 -0.0017766121
0000c0 48 67 d5 3a b3 56 cc 3b d7 38 36 bb 54 67 77 3c
       0.001628139 0.0062359213 -0.0027804875 0.015100319
0000d0 aa 92 88 3a 40 f1 02 bb 54 a4 53 bb c2 f9 0b 3c
       0.0010419686 -0.0019980222 -0.0032293992 0.008543434
0000e0 c8 ac c4 3b f7 ca b3 3a 75 39 95 bb f5 56 0c bc
       0.0060020424 0.0013717104 -0.0045539686 -0.008565654
0000f0 ec 78 ca 3b 5d 85 b0 b9 84 58 bb bb 0e 14 71 3b
       0.006178966 -0.000336687 -0.005717339 0.0036785635
000100 d0 9a e7 b9 38 7f ba bb d1 92 50 bb 51 ec f2 3a
       -0.00044175098 -0.005691435 -0.003182579 0.0018533563
000110 52 2e 17 3c 30 87 3f 3c c2 46 7f 39 92 60 80 3a
       0.009227352 0.011689946 0.00024345054 0.0009794405
000120 dc 8a 29 bb dc 75 8e ba 9f 0b 40 3b 3b 33 7c bb
       -0.002587012 -0.0010868865 0.0029303802 -0.0038482684
000130 e8 26 cc bb 1f c3 8a ba 35 67 33 3a 5e f4 d1 3a
       -0.006230224 -0.0010586715 0.0006843687 0.0016018262
000140 a5 53 d3 bb d6 6f 65 bb c4 37 79 3b 55 9a da bb
       -0.00644918 -0.0035009286 0.0038027624 -0.00667123
000150 5c 84 12 bc c3 3f c0 39 92 b6 1e bc 2c e1 27 bc
       -0.00894269 0.000366686 -0.009687083 -0.010246556
000160 dd 05 10 3c ef f1 2d 3c 2d 86 51 bb b6 37 8c bb
       0.00879046 0.0106167635 -0.0031970844 -0.004279102
000170 2d b1 7b 3b 20 ee 12 bc 96 bc 03 bc 57 4a ae 3b
       0.0038405166 -0.008967906 -0.008040568 0.0053189206
000180 ed b3 8a 3b d4 0c 11 bc 5e 3a 65 bb a2 3c 81 bb
       0.0042328746 -0.008853156 -0.0034977417 -0.0039439956
000190 6a fb da b9 4e ad a7 3b 2f ee 12 3c 5f c1 1e bc
       -0.00041767518 0.005117095 0.00896792 -0.009689658
0001a0 a1 a4 98 ba 52 87 e9 bb a5 10 40 ba ce 7b be 3b
       -0.0011645743 -0.007126727 -0.0007326699 0.0058130985
0001b0 f0 99 4a bc f9 4f 65 3b 03 ce 84 bb e8 7d fe 3b
       -0.012365803 0.0034990294 -0.004052879 0.007766474
0001c0 90 35 7c bb d0 47 22 3b 9b 2d c0 ba 54 23 e6 3b
       -0.0038484074 0.0024762042 -0.0014662029 0.0070232544
0001d0 b7 6d 00 3c d4 64 97 3a 90 86 62 b8 66 ce fa 3b
       0.007838658 0.0011550435 -5.400792e-05 0.007653999
0001e0 af cc b6 bb 92 f2 e4 3b 69 cc 64 bc 95 95 8a bb
       -0.0055785994 0.0069869244 -0.013964751 -0.0042292573
0001f0 66 8d 63 bc 6e 75 99 3b e0 c6 f6 3b 4b 10 7a 3b
       -0.0138886925 0.004683188 0.007531032 0.0038156684

network_body._body_endoder.seq_layers.2.weight f4 [128, 128]
000000 c2 7b ad bd 58 56 ed 3c a6 55 88 bd f5 b9 32 bd
       -0.084708706 0.028971836 -0.06656961 -0.043634374
000010 86 cd 6d bd f7 c6 93 bc c7 75 10 3e de 6c f8 bd
       -0.05805733 -0.01803921 0.14107428 -0.1213014
000020 5b 67 45 3d db 14 74 3c 12 ad 9a 3d cc 84 cd bc
       0.04819427 0.01489755 0.07552542 -0.025087737
000030 a1 fe 60 bd cb 4a b2 bd 13 c0 1a bd 22 bf 96 3d
       -0.054930333 -0.08705672 -0.037780832 0.073606744
000040 fa 30 0c bc c6 2d f3 bd a9 14 74 3c ee 7e 87 3c
       -0.008556599 -0.11873965 0.014897504 0.016540017
000050 a2 73 4c bd 24 72 e3 3d ab c3 55 bd ce 32 17 bd
       -0.049914964 0.11105755 -0.052188557 -0.036913686
000060 63 ee 05 3e 02 cb 63 bc 49 9a 16 3e 9d 42 59 bd
       0.13079219 -0.013903381 0.14707293 -0.053042043
000070 08 63 7b bb e9 6b 16 bd f9 fd ee bd d5 f9 5b be
       -0.0038358588 -0.036724005 -0.11669535 -0.21482022
000080 04 09 d5 bc 5f cc 92 bd d8 50 88 bd 00 14 3a bd
       -0.026005276 -0.07167887 -0.06656045 -0.04542923
000090 1c ff 7e bd 13 e0 31 bd f4 a3 6d bc 28 bf c7 ba
       -0.06225501 -0.043426584 -0.0145044215 -0.0015239464
0000a0 6d 80 e0 bd 6e 41 f4 3d 3c 4e fd bc 79 ae e2 bd
       -0.10961995 0.11926542 -0.030921094 -0.11068434
0000b0 23 df b4 3d 71 55 3e 3d 65 a5 0d be 3b 9e e9 bc
       0.088316225 0.046468202 -0.13832624 -0.028517833
0000c0 bb c8 65 3c 87 60 31 3e dd d5 9a 3d bb b9 e9 bd
       0.014024909 0.17321979 0.075603224 -0.114123784
0000d0 f0 7c 31 3e cf 31 bc 3d d9 4f 7a bc 12 22 1d 3d
       0.17332816 0.09189188 -0.015277826 0.03836257
0000e0 43 43 19 bd 27 f1 41 3e cd b3 b4 3d 84 e9 e3 3d
       -0.03741766 0.18939649 0.08823357 0.11128524
0000f0 55 e4 01 3e 1c 6e 5a bb f1 b5 49 3d b4 70 19 3c
       0.12684758 -0.003332979 0.04924578 0.009365249
000100 28 4f 03 3e db ae 75 3d 55 a1 20 be 7d de 4a bd
       0.12823164 0.05998121 -0.15686543 -0.049528588
000110 64 2a 41 3d d4 45 cf bd ce b3 ab 3d a8 28 4a bc
       0.047159567 -0.101207405 0.083839044 -0.012338795
000120 65 a9 fb 3d 91 31 76 bc 9d 76 21 be cd 1d 3b bd
       0.12288169 -0.015026466 -0.15767904 -0.045682717
000130 0e e5 54 3c 1e bf 10 bd f9 e1 a9 3d ac 5e 35 3d
       0.012994064 -0.035338514 0.08295054 0.04427974
000140 03 b9 48 3d a4 cd 6d 3d dc 5b 65 3d 7e e1 a6 3d
       0.049004566 0.058057442 0.055995807 0.08148478
000150 07 51 35 be ad 3b 4a 3d 88 f1 40 3e 33 92 ca 3c
       -0.1770669 0.049373318 0.18842137 0.024727916
000160 e1 a0 d7 bb 86 2f fc bd 38 3a 18 bd 59 d3 22 bd
       -0.0065804576 -0.12313752 -0.037164897 -0.039752338
000170 3c d9 a8 3d 99 eb 29 bd 9a 84 10 bd 2b 5c 62 bd
       0.08244559 -0.04148445 -0.03528271 -0.05526368
000180 6d d4 20 3c 6d 35 85 3d 1f e4 8a 3d 5e 67 b3 3d
       0.009816271 0.06504331 0.06781792 0.0875995
000190 f5 2a 84 bd 9a 0d 3f be ca 6a 43 3d 40 eb 11 be
       -0.06453506 -0.18657532 0.047709264 -0.14249897
0001a0 65 aa 2c 3e 53 f5 a9 3d 35 d8 79 3d 5b 0b 0d be
       0.16861875 0.08298745 0.060997207 -0.13773863
0001b0 57 eb f6 bc 34 a6 07 bd 94 7d 86 3d ef 3d 94 bd
       -0.030141516 -0.033117488 0.06566921 -0.072383754
0001c0 e6 31 67 3d c5 96 09 be 7d e5 36 bd 60 a6 c8 bb
       0.05644407 -0.1343642 -0.04465245 -0.006123349
0001d0 90 63 17 bd c7 92 7f bd 5c c5 f4 bd e2 9a 52 be
       -0.036960185 -0.062395837 -0.11951706 -0.20566896
0001e0 e5 f1 44 3b e9 0a 17 bd b8 e7 2a 3e 9a 0e b4 3d
       0.0030051407 -0.03687564 0.16689956 0.087918475
0001f0 59 6b 60 3d 34 91 19 3d e0 19 e4 bb 04 eb 54 3d
       0.054789875 0.037491992 -0.0069610924 0.05198194
000200 34 33 90 3d 05 4d 4c bd ab 39 5e 3d f9 e3 19 be
       0.07041016 -0.04987814 0.054254215 -0.15028371
000210 39 3f c9 3d bf d2 04 bd b6 d3 15 be 21 31 40 3d
       0.09826512 -0.032427546 -0.14631543 0.046921853
000220 37 11 3e bd 1c 5e ff 3c 93 3e eb 3c 20 48 ad 3d
       -0.046403136 0.031172805 0.028716361 0.084610224
000230 c7 8c a2 bd 31 8b 85 3d 7c e8 70 3d f8 77 f1 3c
       -0.079370074 0.06520689 0.058815464 0.02947615
000240 3d 9a 9c 3d 7c e1 7b 3b 4f 6d 6d bc 97 a9 fa 3d
       0.07646606 0.003843396 -0.014491393 0.12239378
000250 93 3e 23 3e f1 e7 fb bd b6 dc 7a 3d 05 77 51 bc
       0.15941839 -0.12300099 0.061245643 -0.012784724
000260 9a 1a 2a 3e 26 23 29 be 54 e2 62 bd ea d4 91 bd
       0.1661171 -0.16517314 -0.055391625 -0.07120688
000270 21 5b 87 3d 0c 25 24 3d 3b 3d 0a bd 32 07 ec 39
       0.06609178 0.040074393 -0.0337498 0.0004501879
000280 e4 b6 f6 bc 6b 7b 5d 3d b6 56 8b bd 05 4e d2 3d
       -0.030116506 0.05407278 -0.06803648 0.10268787
000290 01 92 d6 bc bb 51 88 3c f4 05 87 3d 3f da a3 3d
       -0.026192667 0.016640535 0.06592932 0.080006115
0002a0 34 09 24 3d 94 4f fe bd 17 7b ec bd 35 62 85 3b
       0.04004784 -0.12417522 -0.11546915 0.004070545
0002b0 1a 15 ab bd 3a 8e 0d 3c 9c 8e 7a bd d5 19 0f 3e
       -0.08353634 0.0086398665 -0.06117116 0.13974698
0002c0 70 24 89 bd 0f 5a ae bb 07 eb 0f be f9 b4 6c bd
       -0.06696403 -0.0053207944 -0.140545 -0.057789776
0002d0 70 e6 6d be 7e 70 4b 3d 4c 42 b1 3d 74 59 c3 bd
       -0.23232436 0.049667828 0.08655223 -0.09538546
0002e0 6a cd e1 bd fb a5 5e 3d e7 9c 6e bd 62 f9 fe bd
       -0.11025508 0.05435751 -0.058255102 -0.1244991
0002f0 2c ad 6f bd 6e 69 31 bd 97 8a 1a bd c3 26 4c bd
       -0.05851476 -0.043313436 -0.037729826 -0.049841654
000300 9c 9e de 3d fc fc c7 3a a9 e5 05 be aa 47 b6 3c
       0.10870096 0.001525789 -0.1307589 0.022250969
000310 40 a3 52 3c 1c 3a e3 bd 8a 8d 2f be cc 5e c5 3c
       0.012856305 -0.11095068 -0.17143837 0.024093054
000320 93 6c d8 b9 be a8 c7 bc ed 06 bc 3c e4 c1 4d 3d
       -0.00041279625 -0.024372455 0.022952521 0.050233737
000330 cb 22 a7 3b 4d 87 3d 3e 8d 0a 74 bc c0 85 e9 bd
       0.005100583 0.18508644 -0.014895094 -0.11402464
000340 9c bd dc 3c bc cd de bd 3a 34 14 be 8a c0 80 3d
       0.026945882 -0.108790845 -0.14473048 0.06286724
000350 9e 4d bd bd 63 df d1 bd 79 ea 79 bd e3 5d 08 3e
       -0.0924332 -0.10247686 -0.061014626 0.13317065
000360 d0 c8 25 3d 50 4f 02 3e cd 77 7a 3c f9 50 cf 3d
       0.040474713 0.12725568 0.015287352 0.10122866
000370 87 cf 8d 3d d1 15 ca 3d 30 b9 0f 3d 02 27 22 be
       0.06924348 0.098674424 0.035088718 -0.15835193
000380 f3 36 93 bd 46 56 07 3e 66 12 86 3d d6 c4 7d bd
       -0.07188215 0.13216504 0.06546478 -0.061955296
000390 ac 42 e0 3d df fa 03 bd 9e 49 76 3d 17 79 c8 bd
       0.10950217 -0.03222167 0.0601288 -0.09788721
0003a0 55 97 b8 bc 52 35 85 bd 87 42 e2 3d 5e a5 ad bc
       -0.022533098 -0.06504311 0.11047845 -0.021197017
0003b0 77 a0 31 3d 60 59 fb bd 4b ee 4c bd 8a a3 0e be
       0.04336592 -0.12272906 -0.05003194 -0.13929573
0003c0 2e 11 a8 3d 7f 99 ad 3d 23 ad d7 bd 39 d5 83 3d
       0.08206402 0.08476543 -0.1053107 0.06437153
0003d0 12 ca 22 3e e1 bb a0 3d f3 a3 af bb 4d fc b5 3d
       0.15897396 0.07848335 -0.0053601204 0.08886013
0003e0 2e 03 c9 bd 95 02 18 3e a6 f2 b2 bc 82 9b a1 bd
       -0.098150596 0.14844735 -0.02184422 -0.07890989
0003f0 72 e2 a4 3d 0d 64 b3 3c 01 a2 d1 3d 53 7e 19 bb
       0.080510035 0.021898294 0.10235978 -0.0023421242

network_body._body_endoder.seq_layers.2.bias f4 [128]
000000 a5 ab bc bb a2 03 59 bb 12 75 93 3a af 19 71 bb
       -0.0057577663 -0.0033113738 0.00112501 -0.003678899
000010 df e9 43 ba a2 07 a6 bb 26 eb 34 bb 6c ab 86 bb
       -0.0007473509 -0.005066828 -0.002760598 -0.0041097905
000020 c1 9c 26 bc dc a6 43 ba bc 1e 2c 3b 0a 51 0e 3c
       -0.010169209 -0.00074635237 0.0026263436 0.008686313
000030 27 e4 47 3b 29 f9 5e bb f6 88 e6 bb 9b 1e 46 bc
       0.003050098 -0.0034023023 -0.00703537 -0.012092258
000040 d4 41 10 bc 31 ea 58 3b 1b ad 8c bb b4 56 eb bb
       -0.008804757 0.0033098573 -0.0042930967 -0.0071819667
000050 10 48 a4 ba 27 35 8c ba c3 56 ac bb d3 96 a4 bb
       -0.0012533683 -0.0010696993 -0.0052593662 -0.0050228625
000060 ee a4 89 3b 71 d3 fd bb 5f 1a ab 39 ad 19 0b bc
       0.0042005694 -0.007746153 0.0003263531 -0.008490008
000070 4d 16 21 bb 3b c5 9b ba 72 30 6b ba 65 e3 2e b9
       -0.0024579943 -0.0011884341 -0.00089717575 -0.00016678644
000080 46 41 1e 3c 71 04 75 3b 36 91 a4 bb 7e eb d9 bb
       0.009659117 0.003738668 -0.0050221933 -0.0066503873
000090 17 c5 62 3b 23 c1 06 3c 98 71 47 3a d8 16 2c 3c
       0.0034602338 0.008224758 0.00076081743 0.010503493
0000a0 75 f2 0a bb 70 3b 26 bb c9 37 52 bb 8d 99 81 3b
       -0.0021201645 -0.0025365017 -0.0032076708 0.0039550723
0000b0 40 cd 1c b9 f5 43 b7 ba 6d 6b 9d 3a e1 20 27 ba
       -0.00014953781 -0.0013982045 0.0012010165 -0.0006375444
0000c0 e0 08 e9 bb f7 14 73 bb dd c6 af bb 8e bf fb bb
       -0.0071116537 -0.0037091353 -0.0053642825 -0.007682747
0000d0 53 13 0a 3a 03 9f f7 3a bf 75 06 bb ca 9e ba 3a
       0.0005267162 0.0018891994 -0.002051696 0.0014237997
0000e0 56 ff 60 bb 9e 20 0b ba 16 b9 a8 3b d7 ff 39 3a
       -0.003433188 -0.00053072895 0.005149017 0.0007095313
0000f0 44 e6 69 ba 92 8f 50 39 9e 8e 36 3b 37 7a c9 3a
       -0.0008922557 0.0001988991 0.0027856003 0.0015371506
000100 b5 fb b3 ba de 0d 02 bc bc c2 4c bb 85 33 2b bc
       -0.0013731631 -0.0079378765 -0.0031244 -0.010449295
000110 26 68 2e 3a 8f bb 12 bc cd 53 57 bb 47 f2 20 3b
       0.00066530926 -0.00895585 -0.0032856346 0.002455847
000120 a1 4c 9d bb 9d e7 bf bb 22 36 7e bb 09 a0 a9 3b
       -0.0048003946 -0.005856468 -0.003878959 0.0051765484
000130 3f 32 02 3c 5a ba 5b 3b 59 22 76 bb d3 2d f0 b8
       0.00794655 0.0033527822 -0.0037557094 -0.00011452627
000140 02 7d a2 b8 84 b5 81 3b 1c eb 4f 3a b2 9a ca ba
       -7.7480465e-05 0.003958406 0.00079314574 -0.001545748
000150 5b 5e 1f bb 80 13 4b bc 78 d5 82 3a 37 86 a1 38
       -0.0024317715 -0.012394786 0.0009981832 7.702078e-05
000160 22 be 30 bb bf 52 2a bb c1 2e 30 bc e2 cf c8 3b
       -0.0026968797 -0.0025989262 -0.0107533345 0.006128297
000170 8c 9f 27 3b 13 98 f2 39 b0 02 2f bb 5c 24 c7 bb
       0.0025577275 0.0004627114 -0.0026704483 -0.0060773324
000180 07 1f 6e 39 be 3b d2 bb 33 c6 0c bc 30 4d e3 bb
       0.00022709007 -0.006415813 -0.008592176 -0.0069366917
000190 42 84 6c b9 e9 3d d5 39 ac 3c 8e 3b c1 60 10 bb
       -0.00022555984 0.00040672653 0.0043407287 -0.0022030326
0001a0 9a 06 03 3b 97 0c 0e bc 63 90 bf bb 5a d2 e6 3b
       0.0019992949 -0.008669994 -0.0058460697 0.007044119
0001b0 27 42 94 bb 6a 8d 9f ba ba 5a 2e bb e5 01 7c 3b
       -0.0045244875 -0.0012172882 -0.002660437 0.0038453278
0001c0 16 dc 1a bc d3 4a 14 bc b9 07 42 bb 27 90 aa 3a
       -0.009451887 -0.009051043 -0.0029606654 0.0013012931
0001d0 0b af 2a 3b 36 2a 21 bb 65 fa 49 3c d2 0f 9d 3a
       0.0026044275 -0.002459181 0.012327765 0.0011982864
0001e0 c4 96 96 ba 8e 09 04 3c b3 d2 2a 3a f4 da 9f 3b
       -0.0011489023 0.008058919 0.0006516382 0.004878396
0001f0 f5 4e c7 3a d9 3d 06 bc 25 a4 8e ba 23 0a 17 3c
       0.0015206026 -0.008193457 -0.0010882659 0.009218725

action_model._continuous_distribution.log_sigma f4 [1, 2]
000000 56 b6 43 bb 43 cb 50 3b
       -0.002986332 0.0031859435

action_model._continuous_distribution.mu.weight f4 [2, 128]
000000 0d 22 c1 3a fe c5 13 3c be ff f0 bb a1 84 14 bd
       0.0014734879 0.009019373 -0.0073547056 -0.036259297
000010 ff ff 31 bd 3e 51 69 bc b9 29 c9 bb 0f 0f be bc
       -0.043457028 -0.014240561 -0.006139007 -0.02320054
000020 af 01 d2 bb 0a fd 9a 3c 26 60 be bc 17 34 a0 bc
       -0.006408892 0.018919487 -0.023239207 -0.019556088
000030 25 13 86 bc 61 53 01 bb de 0d 6d bc bb 50 55 3c
       -0.01636655 -0.0019733536 -0.014468638 0.013019736
000040 2a 52 dc 3b c9 21 e7 3b 99 0a 0a bb 04 e7 18 3d
       0.006723662 0.007053588 -0.0021063446 0.03732969
000050 1f fe 84 bb 53 4d f8 bc f7 92 53 bc e2 fa 86 3c
       -0.004058614 -0.030310309 -0.012913457 0.016477052
000060 dd 31 a8 3c fe 23 17 3d 7c b4 7d 3c 3b c1 8d 3b
       0.02053159 0.03689956 0.015484925 0.0043260134
000070 be 62 86 bc 11 3c 47 bc 57 2d 22 bc 2a cb e5 ba
       -0.016404506 -0.012160317 -0.009898505 -0.0017531861
000080 1b fd 3e bc ea 6e 52 3c c6 7c 00 3c 5f 8d 7a 3a
       -0.011657025 0.012843827 0.007842248 0.0009557809
000090 3c 1e 81 bc f6 13 19 3c d1 df db bb a2 93 4e bd
       -0.015761487 0.009343138 -0.0067100306 -0.050433762
0000a0 44 69 21 3c ce 15 46 3b cb 98 92 3c 29 07 e3 bc
       0.009851757 0.00302254 0.017895123 -0.027713375
0000b0 25 b1 09 3d 27 1a 1e 3c 3d ae 45 3d 63 db 8b 3c
       0.033616204 0.00964979 0.04826187 0.017072385
0000c0 44 bd 7e 3c 5b 79 2f 3b 3e bd fc 3c 39 3b 4a 3c
       0.015548054 0.0026775214 0.030851956 0.012343221
0000d0 09 37 4d bc 18 55 40 3c 0c ff 94 bc bb fa b7 bc
       -0.012525328 0.011739038 -0.018188022 -0.022458425
0000e0 15 b0 1b bc 67 1f ac ba 77 c1 f0 bb 21 bd a5 bc
       -0.00950243 -0.0013131917 -0.0073472816 -0.020231785
0000f0 42 f0 0a 3d ff aa 18 3c 38 90 b6 3c dd 44 4e 3b
       0.033920534 0.009318112 0.022285566 0.0031474151
000100 51 e6 aa 3b df f0 d8 3b dc 70 a3 bc 7f 82 09 3d
       0.005215444 0.006620511 -0.019951276 0.033571716
000110 b0 c5 ec ba d1 6b 8d bb ad c3 af 3b 09 cf 8c 3c
       -0.0018064287 -0.004315831 0.0053639025 0.017188566
000120 46 b8 81 bc 94 19 45 39 f3 93 35 3d fb f6 23 bc
       -0.015834939 0.00018796913 0.04433055 -0.010007615
000130 17 8e a5 bc b8 c1 b1 bc e2 23 7a bb 78 65 08 bd
       -0.020209355 -0.021698818 -0.003816836 -0.033299893
000140 4c 46 8c 3b 1c 5b 08 bc 29 cb 41 bb dd eb d5 3b
       0.004280841 -0.008322503 -0.0029570556 0.0065283612
000150 8e 22 22 3c 48 a3 f4 3b 02 a5 19 bc ce 85 0e 3c
       0.009895934 0.0074657537 -0.00937772 0.008698894
000160 cb 1b 53 3b dd 0f a1 3b 17 2d 03 3d e7 92 f8 bc
       0.003221261 0.004915221 0.032025423 -0.030343486
000170 06 3e e3 bc d8 c1 07 bb 69 bf 38 3a db 4b 0e bd
       -0.027739536 -0.0020714905 0.00070475653 -0.03474031
000180 42 56 14 bc b2 a6 27 3c 41 61 de 39 fd 50 20 3d
       -0.009053769 0.010232614 0.000424156 0.039139736
000190 ef dd a2 bc e1 1c bb bb 94 db e7 3c b4 8b aa 3a
       -0.019881217 -0.0057102297 0.028302945 0.0013011605
0001a0 de 63 ee bb 64 6a 01 3d 67 7d fa 3b 30 4d ef bb
       -0.0072750887 0.031595603 0.0076443437 -0.0073029026
0001b0 71 87 a7 3b 7e 94 ce 3b 45 bd 99 3a 5e d6 02 bc
       0.0051125814 0.0063043227 0.001172938 -0.007985679
0001c0 d2 67 ba 3c a3 85 ff 3a a7 6b 21 3c ae 88 18 bc
       0.022754584 0.0019494783 0.0098523265 -0.009309931
0001d0 b5 67 b3 bb 52 7c e3 3c 33 d6 e7 bc 45 ec af bc
       -0.0054750093 0.027769241 -0.02830038 -0.021474967
0001e0 63 ca ae 3c 10 07 26 bb a0 95 e6 3c d7 4b f0 bc
       0.02133674 -0.00253338 0.028147519 -0.029333038
0001f0 c5 16 3f bb 31 0e cb 3c 11 74 14 bc 12 2e 85 bc
       -0.0029157859 0.02478704 -0.0090608755 -0.01625732
000200 8c 7f e7 bb 64 92 dd bc 25 b2 04 3d 35 09 cf bc
       -0.0070647653 -0.027047344 0.032396454 -0.025272945
000210 17 9b 2c 3c cf 62 03 bd 1e d3 27 bc 95 9e 9c bb
       0.010535023 -0.032076653 -0.010243205 -0.0047796466
000220 83 e7 b4 3c f5 be 49 3b f1 1b 29 39 c7 86 59 3d
       0.02208305 0.0030783985 0.00016127505 0.05310705
000230 ea 71 1d 3d f0 14 04 3c 30 09 9d bb 0c cd 9e 39
       0.038438715 0.0080616325 -0.004792355 0.0003028888
000240 16 37 17 bc 76 98 28 ba 63 ea a8 bb 97 b9 76 3c
       -0.009229442 -0.000643141 -0.005154894 0.0150588965
000250 0d bd 30 bc f6 70 7a 3c 7a 44 0c bc d1 ab 09 bc
       -0.010787261 0.015285721 -0.008561248 -0.008402781
000260 97 32 1e 3b 67 12 28 3a fb 2b 34 bd e0 60 f5 bc
       0.002413904 0.00064114336 -0.043987256 -0.02995342
000270 34 60 ce bc d9 f4 79 3b 43 af cc bc 28 75 3b 3c
       -0.025192358 0.0038140325 -0.024985915 0.011441506
000280 c3 54 b7 b9 8a ed a3 bb d0 03 59 bc da fc 64 bb
       -0.00034967632 -0.005002682 -0.013245538 -0.003494075
000290 23 45 ac ba 2d fb 27 3b 22 15 60 bc 1e b9 06 3d
       -0.0013143163 0.002563189 -0.013676913 0.032891385
0002a0 3e f6 b9 bc 1e 03 e4 3b c5 47 55 3c e1 25 df 3c
       -0.022700425 0.0069583794 0.0130175995 0.027239742
0002b0 1b b1 9c bc da bc b9 3c 5b eb af bc ee 32 9a 3c
       -0.01912742 0.02267306 -0.02147453 0.018823113
0002c0 d0 96 84 bb b4 bc c5 bb ae 81 63 bc f9 b8 98 bc
       -0.0040462986 -0.006034458 -0.0138858985 -0.01864289
0002d0 3e 9d 84 bc 2d 56 76 3c f3 dd 08 bd 8a af 16 bc
       -0.01618826 0.015035194 -0.033414792 -0.009197125
0002e0 03 b4 45 bd d1 87 1b 3c b1 51 3c 3c a5 7c dd bc
       -0.048267376 0.00949283 0.011494086 -0.027036974
0002f0 e6 70 0d bd 0e 52 05 3d d2 1d 71 bc 10 55 a8 bc
       -0.034531496 0.032548957 -0.014716582 -0.020548373
000300 c0 cd 45 3c ea 05 8a bc 13 c3 ad 3c 82 d2 a1 bb
       0.01207298 -0.016848523 0.021211183 -0.0049384246
000310 48 ca 3d 3c 1c e3 f5 3c 7d fb 27 3c 84 49 0a bc
       0.011583872 0.03001552 0.010252831 -0.008440379
000320 78 c8 cd 3c b8 3e b7 3a 6e f6 2a 3c bb 76 1a bc
       0.025120005 0.0013980484 0.01043473 -0.009427722
000330 8d e2 a9 3b c8 73 ae 3b 0e 79 04 bc a5 09 93 39
       0.0051844777 0.005323861 -0.008085502 0.0002804521
000340 ac 10 94 3c ee bb 34 bb 5b 3d 73 3c 6f 77 4b bd
       0.018074356 -0.0027577835 0.014846171 -0.049674448
000350 bd b8 b6 3c 8f 67 bc ba d1 1f fd 3b 8c de 05 bc
       0.022304887 -0.0014374125 0.00772474 -0.008170735
000360 74 69 20 bc 17 50 96 3c ff d9 ea ba 66 ff 47 bc
       -0.009790767 0.018348737 -0.0017917751 -0.012206888
000370 8f 58 bd bc 28 52 63 bc 2f a7 a6 bc 66 b4 04 3c
       -0.023113517 -0.013874568 -0.020343391 0.008099651
000380 c5 81 5f 3c 1a 02 e5 bb 7e d9 15 bc 73 d4 08 3c
       0.013641779 -0.006988776 -0.009146092 0.008351433
000390 a8 78 f0 3c 7b 9b 82 3c f8 1c 8c bc 73 69 02 bc
       0.029354408 0.01594328 -0.017103657 -0.007959711
0003a0 47 8e 11 3c 07 dc 96 bc 21 31 71 3c 08 a3 89 bc
       0.008884019 -0.018415464 0.014721186 -0.016801372
0003b0 18 92 96 3b 41 0f 83 3c 9a 00 18 bc aa c8 d5 bc
       0.0045950525 0.015998485 -0.009277487 -0.02609666
0003c0 59 2b 26 bc 00 b5 10 3a 6d ce 03 bd dc 56 73 bb
       -0.010142171 0.0005520135 -0.032179285 -0.003713063
0003d0 8f 69 16 bb d1 0b 93 3c eb b7 9c 3c ea 97 db bc
       -0.0022951101 0.01794997 0.019130668 -0.026805837
0003e0 e1 d8 91 bb 89 0e fa 3c 4f 41 b2 bc 52 91 d6 3b
       -0.004450903 0.030524509 -0.021759657 0.0065480852
0003f0 b5 7e c4 3c d7 5f 11 38 b7 b0 bb bc 7a ce 52 3c
       0.0239862 3.465995e-05 -0.022911413 0.012866611

action_model._continuous_distribution.mu.bias f4 [2]
000000 c7 cd 94 bb de e3 ee 3a
       -0.004541132 0.0018225869
