Goodminton/Assets/results/Badminton/Badminton/Badminton-430.onnx (onnx, 74586 bytes, 7 tensors)

network_body._body_endoder.seq_layers.0.weight f4 [128, 5]
0.086833745 0.004966376 0.34050533 -0.7454713 0.48860535 -0.11841856 -0.15415873 0.45677683
-0.037983153 0.374771 -0.115577266 -0.090614006 -0.2459211 -0.018987808 -0.32123575 -0.7098159
0.2697846 -0.06705099 0.42431194 -0.38944158 0.08881344 0.09021047 0.051625736 0.35657787
0.2648299 0.42807272 -0.6319985 0.25310096 -0.22792764 -0.75327855 -0.15592098 0.23547012
0.32804406 0.2545335 0.4686217 -0.34589374 -0.15451993 -0.03381978 0.36178133 0.98635626
-0.6296716 -0.42166558 0.21517906 0.49515718 0.5056016 -0.16353163 0.23995882 -0.07439876
0.58346313 -0.22320919 0.27140862 -0.028716447 0.37918893 -0.28060415 0.052829098 0.81040406
-0.76001585 0.30814397 -0.7187865 -0.10381843 -0.2552593 -0.16391093 -0.4574739 -0.2834207
-0.20563193 0.60939986 -0.011619345 -0.07691445 -0.22699301 0.18367717 0.36045647 0.54296434
-0.3979609 -0.7398436 0.14083694 -0.12911461 -0.24134897 0.22722654 -1.3290014 -0.60027045
-0.25160518 0.96746886 0.6342537 -0.30411932 -0.88369346 -0.4588188 0.37706873 -1.1868923
-0.32061404 -0.53427625 -0.34452248 0.2871617 -0.3664734 0.5941049 0.38739267 -0.5395466
-0.6444242 0.02263921 -0.54395676 0.10971143 -0.6766743 -0.49439785 0.12100379 -0.0799516
0.9913639 -0.0464434 0.6167018 0.7300737 -0.5925918 -0.43436575 0.3330966 0.13414054
-0.70846367 -0.90906966 0.011592049 -0.26468194 -0.34698594 0.6058765 0.059582178 -0.11470965
-0.07356102 -0.20111427 -0.33371285 0.05509142 0.928846 0.46020058 -0.9215839 -0.8346513
0.122864254 0.19681177 0.22770955 0.68309337 0.5757732 0.16758667 -0.34738338 0.5615941
-0.07255104 0.17673302 -0.011655455 0.25402257 -0.12553331 -0.7227382 0.07332474 0.023668613
0.3988779 0.069059566 -0.36934164 -0.2261992 1.2412513 0.014656518 -0.5772036 -0.08423145
0.54116046 0.21718888 -0.51666445 -0.6183781 -0.033409018 -0.1610057 0.6936021 0.27628934
0.37810516 -0.18007073 0.4280938 -0.3338988 -0.5732282 -0.06478238 -0.36798638 0.13511811
-0.8370768 0.43456054 -0.027303865 -0.058199275 -0.77674806 0.36723047 0.5836826 0.9774029
0.53907216 0.27880147 0.29519778 -0.5672487 -0.25466648 -0.32225913 0.3041299 -0.21102205
-0.6467269 0.8322369 0.3332815 -0.08519179 0.5229414 -0.1559517 -0.49488416 0.3084263
0.06437964 -0.5664552 -0.38794163 0.13839914 0.084096976 0.16590883 -0.52023566 0.03546081
0.98589385 -0.3606362 -0.20568594 0.49306414 -0.11501549 -0.40379763 -0.6367253 0.08999864
-0.19950643 -0.59197843 0.40780112 -0.44706246 0.34503588 -0.2851073 -0.12154349 -0.12492497
-0.5397539 -0.27393752 -0.5049645 0.15502001 0.276191 -0.17202155 -0.6423613 0.93423903
-0.29671907 -0.32486454 0.03323926 0.58204925 -0.56219226 -0.40896162 0.45109844 0.12928234
0.72719777 0.102018245 0.68965864 0.29856157 0.10083397 0.6166019 -0.05629883 -0.22652522
-0.4544568 0.21033448 -0.3899879 -0.28144816 0.2864562 0.3054387 0.14125963 -0.1804279
0.015242996 0.28646976 -0.2215371 0.18185319 0.21959268 -0.23673157 -0.5881156 0.4199809
00000000: e4d5 b13d fbbc a23b b756 ae3e 35d7 3ebf
00000010: 7b2a fa3e 6e85 f2bd c9db 1dbe a7de e93e
00000020: 3994 1bbd fce1 bf3e c6b3 ecbd d693 b9bd
00000030: bed2 7bbe 528c 9bbc 0379 a4be 7fb6 35bf
00000040: 3521 8a3e 0852 89bd 6a3f d93e e364 c7be
00000050: d2e3 b53d 44c0 b83d 8275 533d 6091 b63e
00000060: c997 873e 592c db3e a7ca 21bf 7396 813e
00000070: dd65 69be ddd6 40bf c0a9 1fbe 141f 713e
00000080: 64f5 a73e 3752 823e 2fef ef3e fc18 b1be
00000090: 793a 1ebe 9c86 0abd 673b b93e d881 7c3f
000000a0: 2832 21bf 8de4 d7be e657 5c3e 3e85 fd3e
000000b0: 1b6f 013f d674 27be c4b7 753e 615e 98bd
000000c0: d75d 153f f390 64be 12f6 8a3e c13e ebbc
000000d0: 0d25 c23e 59ab 8fbe 5363 583d a476 4f3f
000000e0: 6690 42bf 0cc5 9d3e 6402 38bf c29e d4bd
000000f0: 59b1 82be 44d8 27be 053a eabe 851c 91be
00000100: 2d91 52be a101 1c3f 115f 3ebc 5385 9dbd
00000110: db70 68be de15 3c3e c08d b83e b6ff 0a3f
00000120: 88c1 cbbe 6466 3dbf 8f37 103e 9f36 04be
00000130: 2f24 77be 13ae 683e b81c aabf 53ab 19bf
00000140: 65d2 80be 0aac 773f 735e 223f 87b5 9bbe
00000150: bc39 62bf 4cea eabe 270f c13e 16ec 97bf
00000160: 8627 a4be 54c6 08bf 4065 b0be dc06 933e
00000170: 67a2 bbbe 4217 183f 5558 c63e ba1f 0abf
00000180: fcf8 24bf dd75 b93c c040 0bbf 63b0 e03d
00000190: 873a 2dbf b721 fdbe d6d0 f73d aabd a3bd
000001a0: 06ca 7d3f 6f3b 3ebd 2be0 1d3f 1ce6 3a3f
000001b0: 19b4 17bf 3065 debe a38b aa3e 235c 093e
000001c0: e05d 35bf cab8 68bf 94ec 3d3c 6484 87be
000001d0: 24a8 b1be b91a 1b3f 710c 743d e5ec eabd
000001e0: 29a7 96bd e6f0 4dbe 69dc aabe 8aa7 613d
000001f0: dac8 6d3f 699f eb3e ecec 6bbf b5ab 55bf
00000200: 41a0 fb3d 0689 493e b12c 693e 35df 2e3f
00000210: df65 133f d79b 2b3e 3cdc b1be a2c4 0f3f
00000220: a495 94bd 80f9 343e 86f6 3ebc 3f0f 823e
00000230: ce8b 00be 5f05 39bf 482b 963d aee4 c13c
00000240: b939 cc3e 1a6f 8d3d 591a bdbe c3a0 67be
00000250: 53e1 9e3f e421 703c 9dc3 13bf 8a81 acbd
00000260: 7e89 0a3f c366 5e3e 1f44 04bf 074e 1ebf
00000270: e5d7 08bd aede 24be e88f 313f cc75 8d3e
00000280: 0097 c13e 7664 38be 1c2f db3e c9f4 aabe
00000290: 15bf 12bf a0ac 84bd b668 bcbe 675c 0a3e
000002a0: aa4a 56bf b87e de3e 5bac dfbc 5d62 6ebd
000002b0: f6d8 46bf a205 bc3e 396c 153f 1437 7a3f
000002c0: a200 0a3f 11bf 8e3e 2a24 973e 3637 11bf
000002d0: a563 82be 26ff a4be eab6 9b3e 2a16 58be
000002e0: e58f 25bf 7a0d 553f dfa3 aa3e 0879 aebd
000002f0: 7ddf 053f cdb1 1fbe 7561 fdbe 0dea 9d3e
00000300: 79d9 833d 3503 11bf 49a0 c6be 81b8 0d3e
00000310: 093b ac3d 01e4 293e 2a2e 05bf 5b3f 113d
00000320: 8a63 7c3f 4fa5 b8be 569f 52be e772 fc3e
00000330: 3e8d ebbd 90be cebe 6e00 23bf 3551 b83d
00000340: 6a4b 4cbe e68b 17bf 4fcb d03e 5fe5 e4be
00000350: 8ba8 b03e 96f9 91be cbeb f8bd aad8 ffbd
00000360: 502d 0abf 8a41 8cbe 5a45 01bf 91bd 1e3e
00000370: e868 8d3e 6b26 30be ca71 24bf 4a2a 6f3f
00000380: 90eb 97be a554 a6be e425 083d 2e01 153f
00000390: d5eb 0fbf 6b63 d1be 60f6 e63e 9762 043e
000003a0: a229 3a3f f1ee d03d 788d 303f 10dd 983e
000003b0: 0a82 ce3d 9fd9 1d3f 9a99 66bd 3af6 67be
000003c0: 90ae e8be ec61 573e 7eac c7be f919 90be
000003d0: 63aa 923e 7662 9c3e 5da6 103e 17c2 38be
000003e0: c2bd 793c 2aac 923e 9fda 62be b937 3a3e
000003f0: e7dc 603e c369 72be be8e 16bf bd07 d73e

network_body._body_endoder.seq_layers.0.bias f4 [128]
-0.0020716975 0.0041594957 0.001214017 -0.0052958285 0.00037691894 -0.0023823595 0.0020128274 -0.0038528692
-0.0013513025 -0.001138153 0.0003492466 0.0007811297 0.0008692851 -0.011211911 0.00029600738 -0.001976161
-0.0013941597 0.001491826 0.00028131058 -0.001078058 0.0027984688 -0.0038781695 0.003154722 -0.0042571095
-0.005264467 -0.004067826 0.0013530205 -0.0014789753 0.0011557557 0.0011551024 -0.0013617317 -0.004099032
0.00030520637 0.0045276894 -0.0008072094 -0.0032931028 -0.0030331118 0.004069543 -0.009073607 -0.0019314111
0.0014606514 0.004092673 -0.0014138027 -0.0036004789 -0.003023513 -0.0050439104 0.004888867 0.0003410664
-0.00035691014 -0.0008344198 6.748045e-05 0.0041450597 0.001969304 0.001650299 -0.0029173265 -0.0007020639
0.002340189 0.0049249865 -0.0059952205 -0.0014932428 0.00040930914 0.004863155 -0.0011702683 -0.0065056095
0.0021101485 0.0019491371 -0.003129995 -0.0021086775 -0.004692847 0.004738196 0.00089161145 0.0035622376
0.0010478236 0.0016598292 -0.0030452828 -0.00053422566 -3.010437e-05 0.004617827 -0.0017151724 0.0032102284
-0.00013169249 -0.0040122247 0.0019860386 -0.004849005 -0.002736433 -0.000796194 -0.00068186084 0.0027179697
-0.008639152 0.0004850296 -0.0019001152 -0.00045836184 0.0025592486 -0.0033445845 -0.0024406451 0.0033311686
-0.00099298 -0.001860694 0.0003651661 -0.00069367 0.0022453729 0.0008614888 -0.012589665 -0.0067180307
0.0019877818 -0.0046613864 0.0017716946 -0.0029788052 -0.0015315532 -0.0018869579 -0.000106227446 0.004013625
-0.0024076197 -0.002556084 0.0019427002 0.00189005 0.0013849523 -0.00083392434 -0.001994566 -0.001861347
0.0022787564 -0.002306539 -0.0008715338 -0.0014047142 8.708633e-05 -0.0012725298 -0.0033326468 -0.0041262773
00000000: 51c5 07bb 614c 883b a71f 9f3a a188 adbb
00000010: 349d c539 5c21 1cbb a4e9 033b 6b80 7cbb
00000020: 301e b1ba 142e 95ba 161b b739 bac4 4c3a
00000030: bce0 633a 2ab2 37bc 7031 9b39 7b82 01bb
00000040: 3dbc b6ba 6089 c33a de7c 9339 a04d 8dba
00000050: 8466 373b e328 7ebb 74bf 4e3b 397f 8bbb
00000060: 8d81 acbb 664b 85bb d657 b13a 2dda c1ba
00000070: ba7c 973a ce66 973a 227c b2ba 2c51 86bb
00000080: 1b04 a039 035d 943b e89a 53ba 19d1 57bb
00000090: 2cc7 46bb cd59 853b 77a9 14bc 6727 fdba
000000a0: 5473 bf3a d41b 863b 594f b9ba 03f6 6bbb
000000b0: 2126 46bb 6347 a5bb ca32 a03b 28d1 b239
000000c0: ab1f bbb9 f7bc 5aba 4a84 8d38 48d3 873b
000000d0: 700f 013b d84e d83a 9e30 3fbb b60a 38ba
000000e0: db5d 193b c861 a13b 8e73 c4bb eab8 c3ba
000000f0: 8b98 d639 1a5b 9f3b b063 99ba 022d d5bb
00000100: 6b4a 0a3b 307a ff3a 9a20 4dbb bd31 0abb
00000110: 74c6 99bb de42 9b3b 08bb 693a 6e74 693b
00000120: 2057 893a a08e d93a 5e93 47bb 470b 0cba
00000130: a488 fcb7 2451 973b a3cf e0ba b262 523b
00000140: ef16 0ab9 fb78 83bb 3328 023b 67e4 9ebb
00000150: ba55 33bb adb7 50ba e8be 32ba f71f 323b
00000160: 3b8b 0dbc 924b fe39 490d f9ba 4950 f0b9
00000170: 11b9 273b d130 5bbb 3bf3 1fbb bc4f 5a3b
00000180: e126 82ba 88e2 f3ba c473 bf39 68d7 35ba
00000190: 1b27 133b 89d5 613a e244 4ebc ed22 dcbb
000001a0: 7245 023b 8bbe 98bb 3538 e83a 0f38 43bb
000001b0: 66be c8ba cd53 f7ba 6dc6 deb8 ba84 833b
000001c0: 28c9 1dbb f983 27bb 34a2 fe3a 8ebb f73a
000001d0: 4a87 b53a b79b 5aba 44b7 02bb 71f8 f3ba
000001e0: 3057 153b 4e29 17bb a577 64ba 631e b8ba
000001f0: 1ea2 b638 04cb a6ba 8968 5abb b935 87bb

network_body._body_endoder.seq_layers.2.weight f4 [128, 128]
0.0788491 -0.046702087 0.06310845 -0.092749484 -0.0774336 0.006813201 0.105076216 -0.035416678
0.1264216 -0.08909928 -0.052013084 0.061686978 0.20952688 0.051685244 0.14333178 0.08932968
0.027748115 -0.14336668 0.018837146 8.413342e-05 -0.119366676 -0.035891313 -0.015261933 -0.062369637
-0.027469233 -0.009430558 -0.20428748 -0.04848034 0.034755837 0.06698932 -0.09781987 -0.07068229
-0.007566814 0.011654741 -0.22707579 -0.04839116 0.006051449 -0.053700007 -0.07936437 -0.040278405
0.1554663 0.07016398 0.13018604 -0.04615807 0.06295504 -0.00040464287 -0.029009402 0.2061176
-0.009341615 0.00654332 -0.11181447 -0.042382196 0.079915166 -0.041180234 -0.105638675 -0.11888342
0.014648317 0.03993901 0.1242867 0.0016865282 -0.012086673 0.18622795 -0.00014802013 0.06322887
0.04917465 -0.080336 -0.02025693 -0.00302721 0.06816881 -0.026259497 0.1360226 -0.02697946
-0.0017999092 0.09336101 0.0019903427 -0.17427239 0.09240483 -0.045287754 0.068471946 0.020516703
-0.071848676 0.02420962 -0.046966948 0.10556186 -0.035595793 0.13761966 0.020015378 -0.05134742
0.10967188 0.015743995 -0.06870917 0.08765087 0.042095173 0.054568503 -0.048541833 0.054945815
0.16674532 -0.052637227 -0.081097305 0.14316493 -0.07978575 0.03297725 0.039543517 -0.11888556
-0.04456137 0.06315919 0.090808675 0.02516773 0.08734625 -0.005156544 -0.12184676 -0.11537639
-0.00898595 -0.015680963 0.13161752 0.1754421 -0.07587988 0.03850372 -0.15245096 -0.011398479
-0.077623926 0.02405619 -0.08762343 0.0964033 0.08252282 -0.032986946 -0.09087499 0.03437135
0.059360854 -0.0068301596 0.15068224 -0.05093659 -0.13221776 0.09237757 -0.008457504 0.04601934
-0.09522986 -0.037004605 -0.1329133 0.15177496 0.036775053 -0.10065405 0.022528082 0.17252825
-0.037714828 -0.02671474 0.08888553 -0.07889455 -0.03779364 -0.07986819 0.13511877 -0.1129102
0.0163869 -0.028563097 0.06762275 0.000590446 0.03706716 -0.07354182 -0.06048047 -0.037877716
-0.12927237 0.18696739 -0.025320936 -0.091177806 -0.09867475 -0.023930445 0.052302457 -0.044153877
0.06175818 -0.0016902062 -0.124415636 -0.015812013 0.013526335 0.08405704 -0.024943912 0.093532614
-0.044369023 0.13502702 -0.2244547 -0.0033430983 -0.061142746 0.037921984 0.029491626 0.2081738
0.041440517 0.036574017 -0.022057004 0.015264866 0.089847244 -0.085334495 0.041487306 -0.10978904
0.034012854 0.20079659 -0.02946692 0.14083804 -0.011313007 -0.072706655 -0.021120254 0.031318948
0.07017993 -0.017842151 0.019083302 -0.104826264 0.12023626 0.15874371 -0.060107064 -0.05459965
-0.016606944 0.08976436 -0.08407133 -0.043328255 -0.09291068 -0.031417303 0.12995213 -0.02644057
-0.038463905 0.00044635904 0.032962225 -0.19516855 -0.11445177 -0.0069523314 0.009897245 -0.07258887
-0.11379471 -0.021773716 -0.03153579 0.23102777 -0.017988969 0.07131221 0.12725277 0.07848646
-0.060143135 0.0015773175 -0.03366775 -0.07111504 0.15171249 0.04629448 -0.12640709 -0.08141802
0.15511432 -0.20529696 0.072692536 -0.11239024 0.030520057 -0.013744731 0.020665238 -0.018022913
0.053046696 -0.10818683 -0.054136023 -0.09867074 -0.11601734 -0.13874099 0.20241287 0.058230244
00000000: a37b a13d b04a 3fbd 013f 813d 71f3 bdbd
00000010: 8295 9ebd 4641 df3b 3332 d73d 1411 11bd
00000020: aa74 013e af79 b6bd ac0b 55bd 7cab 7c3d
00000030: 378e 563e e8b3 533d 91c5 123e 7bf2 b63d
00000040: 0450 e33c b7ce 12be 5c50 9a3c c970 b038
00000050: 8476 f4bd c502 13bd 300d 7abc 4e77 7fbd
00000060: 2807 e1bc a182 1abc bd30 51be 5293 46bd
00000070: 235c 0e3d b231 893d c955 c8bd e0c1 90bd
00000080: 09f3 f7bb 87f3 3e3c 8e86 68be cf35 46bd
00000090: 3c4b c63b 8af4 5bbd c989 a2bd f8fa 24bd
000000a0: 8f32 1f3e 22b2 8f3d 7d4f 053e 3f10 3dbd
000000b0: 92ee 803d 3f26 d4b9 20a5 edbc 7e10 533e
000000c0: 930d 19bc 5969 d63b fcfe e4bd f498 2dbd
000000d0: 90aa a33d 9bac 28bd 1759 d8bd 2779 f3bd
000000e0: 7fff 6f3c 1697 233d 068a fe3d 7f0e dd3a
000000f0: 2e07 46bc 8ab2 3e3e da35 1bb9 237e 813d
00000100: 5c6b 493d 3387 a4bd dcf1 a5bc 2864 46bb
00000110: 179c 8b3d 281e d7bc 8249 0b3e 0704 ddbc
00000120: eeea ebba 0f34 bf3d 6970 023b 7674 32be
00000130: be3e bd3d a77f 39bd 053b 8c3d a512 a83c
00000140: 6625 93bd 4153 c63c 6a60 40bd d130 d83d
00000150: e5cc 11bd 2bec 0c3e 4af7 a33c ac51 52bd
00000160: a79b e03d 8df9 803c 65b7 8cbd 4d82 b33d
00000170: fd6b 2c3d 3983 5f3d cdd3 46bd dd0e 613d
00000180: 49bf 2a3e 229a 57bd 5816 a6bd d499 123e
00000190: b666 a3bd 2713 073d 62f8 213d 467a f3bd
000001a0: fc85 36bd 9b59 813d e6f9 b93d 8e2c ce3c
000001b0: 97e2 b23d 3af8 a8bb cb8a f9bd 754a ecbd
000001c0: ce39 13bc 5d75 80bc bec6 063e 18a7 333e
000001d0: e966 9bbd 14b6 1d3d 1b1c 1cbe b0c0 3abc
000001e0: 4bf9 9ebd 7d11 c53c ea73 b3bd 186f c53d
000001f0: b901 a93d 521d 07bd ab1c babd f9c8 0c3d
00000200: 5e24 733d 88cf dfbb 724c 1a3e e3a2 50bd
00000210: 1864 07be 7430 bd3d 5891 0abc c77e 3c3d
00000220: df07 c3bd 2492 17bd 6d1a 08be e56a 1b3e
00000230: 70a1 163d b623 cebd d08c b83c 3fab 303e
00000240: dd7a 1abd dfd8 dabc 9e09 b63d 7793 a1bd
00000250: 81cd 1abd ef91 a3bd 935c 0a3e 773d e7bd
00000260: d23d 863c 28fd e9bc cc7d 8a3d 29c8 1a3a
00000270: bcd3 173d 189d 96bd 5fba 77bd aa25 1bbd
00000280: fa5f 04be 6174 3f3e da6d cfbc 6ebb babd
00000290: fd15 cabd c809 c4bc 1a3b 563d b2da 34bd
000002a0: 25f6 7c3d e989 ddba a0cd febd 3288 81bc
000002b0: 909d 5d3c 1926 ac3d 2d57 ccbc 078e bf3d
000002c0: 4bbc 35bd 8644 0a3e 74d7 65be e217 5bbb
000002d0: d170 7abd 1554 1b3d 6c98 f13c 832b 553e
000002e0: 88bd 293d a3ce 153d e4b0 b4bc 7d19 7a3c
000002f0: d501 b83d dac3 aebd 98ee 293d 14d9 e0bd
00000300: 1051 0b3d 9f9d 4d3e 9c64 f1bc d937 103e
00000310: 315a 39bc 3ae7 94bd 6204 adbc 4c48 003d
00000320: 7fba 8f3d b429 92bc 9654 9c3c 27af d6bd
00000330: 6e3e f63d b68d 223e d332 76bd e2a3 5fbd
00000340: 490b 88bc 60d6 b73d 972d acbd f878 31bd
00000350: f447 bebd 6eaf 00bd 2c12 053e e599 d8bc
00000360: 548c 1dbd 4c05 ea39 6603 073d 44da 47be
00000370: b165 eabd 62d0 e3bb 0e28 223c 79a9 94bd
00000380: 330d e9bd cb5e b2bc ac2b 01bd 8b92 6c3e
00000390: 9a5d 93bc 230c 923d 8d4e 023e 82bd a03d
000003a0: a658 76bd febd ce3a 32e7 09bd c3a4 91bd
000003b0: 855a 1b3e 489f 3d3d dc70 01be 7ebe a6bd
000003c0: 4ad6 1e3e 5e39 52be d3df 943d db2c e6bd
000003d0: 3305 fa3c 9531 61bc 254a a93c caa4 93bc
000003e0: 7e47 593d 0f91 ddbd bcbd 5dbd e313 cabd
000003f0: 809a edbd 1e12 0ebe 5245 4f3e d682 6e3d

network_body._body_endoder.seq_layers.2.bias f4 [128]
0.0030815147 0.0017096648 0.005470738 -0.0006338212 -0.0053118053 0.0009433088 -0.006052542 -0.0036288898
0.000970544 0.0008216367 -0.00023298257 0.0027852135 0.0024001491 -0.0011635162 0.0006394576 0.0020208324
-8.914466e-05 -0.0024649177 -0.0041237753 -0.005732279 0.0011580855 -0.0022903907 -0.0040585776 0.0052134665
0.0007630106 0.000986546 0.0026045584 3.6854486e-05 -0.0011775584 -0.002067751 -0.0001362711 0.00034926576
0.00104555 -0.004629786 -0.0013235501 0.002866452 -0.0010312779 0.0013084066 0.0013467259 -0.00017989315
-0.0031113257 -0.00259488 0.0010881468 0.003680037 -0.00075340486 -0.00018160685 0.00016664295 0.0020375901
0.0002189736 0.0016297968 0.0026314377 -0.0030746644 -0.0036862884 0.0028876497 -0.0047882237 0.0005872596
0.0100752 -0.0016460478 -0.0044042547 0.0020230042 -0.00043939726 -0.009132053 4.942238e-06 -0.0008679723
-0.0012938072 -0.0058540893 0.002153142 -0.00011582702 -0.003809954 -0.00058806303 -0.0009660184 -0.0013720844
-0.0027788426 -0.0035322644 -0.00082819007 -0.004095547 0.0045329593 -0.0012416574 0.0012086252 0.0017076656
-0.0021410126 0.0016342815 -0.0009097655 -0.0013021248 -0.004379412 -0.005826192 0.0049516205 -0.0028945329
-0.0040054605 -0.0017560368 -0.0022618282 -0.0019587062 0.0023948876 0.00041907158 0.00043289512 0.0036244341
0.00470951 -0.00092402525 -0.0024543265 -0.0024669627 0.0029365418 -0.00091837667 -0.0005244753 -0.001824556
0.0024569675 0.0026629858 0.0026300787 0.0026263231 0.005719598 -0.0036681425 0.0042973915 9.709641e-06
-0.003461777 0.0026932221 -0.0012752558 -0.0042918026 0.0022178742 -0.0019579858 -0.0024767898 -0.0032434375
-0.00030057828 -0.0062203123 -0.0005822514 0.0075050844 -0.0012544653 -0.0025582947 -0.0020699669 -0.004273115
00000000: 3df3 493b d516 e03a e043 b33b 0527 26ba
00000010: a70e aebb 6248 773a 6754 c6bb abd2 6dbb
00000020: 1b6c 7e3a 1b63 573a c84c 74b9 2188 363b
00000030: d24b 1d3b 2081 98ba 46a1 273a f16f 043b
00000040: 2df3 bab8 758a 21bb bc20 87bb d7d5 bbbb
00000050: e7ca 973a 611a 16bb d1fd 84bb bad5 aa3b
00000060: c604 483a fe4e 813a 3db1 2a3b 3494 1a38
00000070: 4e58 9aba 1b83 07bb ffe3 0eb9 a81d b739
00000080: d60a 893a 76b5 97bb f97a adba 16db 3b3b
00000090: f22b 87ba d77e ab3a 9f84 b03a b3a1 3cb9
000000a0: 62e7 4bbb dd0e 2abb 26a0 8e3a c72c 713b
000000b0: 2580 45ba b86d 3eb9 e0bc 2e39 1789 053b
000000c0: 479c 6539 e89e d53a 3374 2c3b 4f80 49bb
000000d0: a895 71bb b93e 3d3b 88e6 9cbb 53f2 193a
000000e0: 7412 253c 33c0 d7ba 9151 90bb 6194 043b
000000f0: e75e e6b9 9b9e 15bc 80d5 a536 a388 63ba
00000100: f794 a9ba a9d3 bfbb ba1b 0d3b 28e8 f2b8
00000110: 6cb0 79bb 3e28 1aba 663c 7dba 83d7 b3ba
00000120: 3e1d 36bb 907d 67bb e51a 59ba f033 86bb
00000130: 3889 943b 1cbf a2ba bb6a 9e3a c0d3 df3a
00000140: 3b50 0cbb 6335 d63a 547d 6eba 0fac aaba
00000150: 2c81 8fbb a4e9 bebb 3441 a23b 34b2 3dbb
00000160: 3d40 83bb d12a e6ba 2e3b 14bb a35d 00bb
00000170: 8cf3 1c3b d6b6 db39 33f6 e239 ea87 6d3b
00000180: 3c52 9a3b 493a 72ba c4d8 20bb c4ac 21bb
00000190: ff72 403b 37bf 70ba f17c 09ba f125 efba
000001a0: 1305 213b 7d85 2e3b 665d 2c3b 641e 2c3b
000001b0: 776b bb3b 3865 70bb 22d1 8c3b 97e6 2237
000001c0: fbde 62bb c580 303b 7c26 a7ba 40a2 8cbb
000001d0: c159 113b 8d51 00bb a351 22bb da8f 54bb
000001e0: ef96 9db9 c3d3 cbbb 3ba2 18ba 36ed f53b
000001f0: df6c a4ba 10a9 27bb 48a8 07bb 7d05 8cbb

action_model._continuous_distribution.log_sigma f4 [1, 2]
-0.008556243 -0.004952368
00000000: 7c2f 0cbc 7947 a2bb

action_model._continuous_distribution.mu.weight f4 [2, 128]
-0.007026691 0.009943364 -0.0042429217 -0.017633453 -0.0020216987 -0.01332679 0.0017821286 0.01688663
-0.00314001 -0.007603366 -0.040471923 -0.017646886 0.007908562 0.01552025 -0.014429912 0.0042191246
0.032829594 -0.0054885154 -0.013575333 -0.009753128 0.019599745 -0.010285274 -0.005194477 0.0007339222
0.007915543 -2.5801394e-06 0.031101068 0.024041599 -0.018878292 0.008270227 -0.0014167574 -0.04033617
0.013553722 0.0069257505 0.0050787423 -0.01943056 -0.01134178 0.0020272348 -0.006493967 0.027163334
0.014407045 -0.016018586 0.00860955 0.035908915 0.009346677 0.013475297 -0.02810742 -0.0061060605
0.022753436 -0.0036182413 -0.0109839635 -0.008695636 0.0017000813 -0.0013672002 0.020266218 0.016692953
0.0061043524 -8.4250394e-05 -0.011841354 -0.011140378 0.020671826 0.0051467614 -0.023340622 -0.012984557
0.018572949 -0.0039725946 -0.011546392 0.023696575 0.018516291 0.005609936 -0.0071130423 0.021407139
0.0019257778 0.049902357 -0.00978311 -0.01518031 -0.025067149 -0.019335287 -0.0006323181 0.03432412
-0.0129149025 0.006957768 -0.0046188403 0.023592237 0.008682886 -0.009566017 -0.026309887 0.011589258
-0.015479127 0.001871744 -0.012097757 0.012894404 -0.009998707 0.009413157 0.009174407 0.022844559
-0.006536475 0.014676952 0.016873397 0.011998065 -8.110846e-05 0.010668634 -0.03327869 0.0141160665
-0.028239802 0.014404728 -0.021972511 0.025184669 0.0030337833 0.0033325101 -0.0445333 0.004094113
0.0016338452 0.013918114 0.0164047 -0.014680381 0.026327945 -0.0022259073 -0.00436894 -0.006384397
0.016819598 0.0048380625 -0.02189445 -0.0072208443 -0.016242946 -0.013690232 -0.02416797 0.011941476
-0.014999187 -0.025066616 -0.034711935 0.041329958 0.003455095 -0.038173955 0.015466234 0.01424407
-0.011996472 0.016734608 0.003197736 -0.0017141771 -0.004899845 -0.022912418 0.00197687 -0.011780036
0.0055027916 0.0029379763 -0.010911151 0.02235906 -0.010702427 0.02662129 -0.010936522 -0.018988762
0.00028676895 0.007260953 0.0016154676 -0.028650265 0.034634463 0.007137381 0.021427182 -0.0027385126
-0.029706439 0.032155123 0.0049093436 -0.023815349 0.017313378 0.035317622 -0.015711112 -0.033214413
0.015136414 0.015825829 -0.017721146 -0.0063542137 -0.0029576635 -0.024982085 0.0062622507 0.0057722353
-0.028566524 -0.047968626 0.010443671 0.0049067186 -0.00605838 0.004482666 0.004846537 -0.010191367
-0.021083537 -0.032104477 0.019104095 0.03390437 0.014713679 -0.00367058 -0.0071014157 0.021551717
0.0026983141 -0.010779432 -0.010916021 0.006833183 0.010130263 -0.005082734 0.0045354487 0.0014736746
0.009604699 0.005623486 -0.015614355 -0.020477336 -0.014222235 0.006081943 -0.0115227485 -0.0021267904
0.009445279 0.024269471 -0.03122964 0.008443976 -0.024607835 -0.005209251 0.013261261 0.004083242
-0.003068428 0.0468078 0.0071713906 0.004364153 -0.01772033 -0.017928865 -0.011037955 -0.03178261
-0.03731415 0.012775355 -0.020859856 0.0053942148 -0.007945739 0.017318679 0.0003211932 0.034094516
-0.018498616 0.0029821703 -0.0012884052 0.00025586848 0.025697932 0.022984788 -0.01872884 0.019806707
0.007635675 -0.018646995 0.024728889 -0.016793218 0.008665055 0.0070819687 -0.0019563425 0.0027795895
-0.016555775 0.0014203038 0.014887855 0.011081926 -0.019429546 0.024055205 0.015071771 0.010829023
00000000: 2840 e6bb 7ee9 223c 3508 8bbb 0874 90bc
00000010: 7a7e 04bb 9c58 5abc 5096 e93a d455 8a3c
00000020: a0c8 4dbb a825 f9bb e3c5 25bd 3490 90bc
00000030: ea92 013c a648 7e3c 706b 6cbc 9540 8a3b
00000040: 5378 063d 01d9 b3bb 136b 5ebc 95cb 1fbc
00000050: a58f a03c 9183 28bc 6e36 aabb af64 403a
00000060: 32b0 013c 7526 2db6 abc7 fe3c e3f2 c43c
00000070: a6a6 9abc d97f 073c 7db2 b9ba 8a37 25bd
00000080: 6e10 5e3c 68f1 e23b 946b a63b d62c 9fbc
00000090: e0d2 39bc 5bdb 043b 58cb d4bb a485 de3c
000000a0: 870b 6c3c 6939 83bc 120f 0d3c 3a15 133d
000000b0: ce22 193c 7ec7 5c3c 8841 e6bc 5915 c8bb
000000c0: 6a65 ba3c 0420 6dbb 15f6 33bc 2478 0ebc
000000d0: 43d5 de3a a033 b3ba 5705 a63c a9bf 883c
000000e0: 0507 c83b 96af b0b8 3d02 42bc 2286 36bc
000000f0: f657 a93c 2aa6 a83b d534 bfbc 2ebd 54bc
00000100: 4c26 983c 8a2c 82bb 142d 3dbc 521f c23c
00000110: 7aaf 973c 8ed3 b73b 8614 e9bb 065e af3c
00000120: 616a fc3a 6a66 4c3d 5649 20bc d6b6 78bc
00000130: 9f59 cdbc 0965 9ebc 26c2 25ba 7397 0c3d
00000140: 0799 53bc fdfd e33b a459 97bb 8244 c13c
00000150: aa42 0e3c c9ba 1cbc d587 d7bc dfe0 3d3c
00000160: 2a9c 7dbc 4f55 f53a ac35 46bc 0d43 533c
00000170: 9ed1 23bc a439 1a3c 4150 163c 8324 bb3c
00000180: ed2f d6bb 9977 703c 143a 8a3c 8893 443c
00000190: c618 aab8 7fcb 2e3c 3c4f 08bd 1347 673c
000001a0: 2857 e7bc cf01 6c3c b2ff b3bc 1450 ce3c
000001b0: 70d2 463b 3e66 5a3b 8d68 36bd e927 863b
000001c0: bf26 d63a cd08 643c 2663 863c fb85 70bc
000001d0: b4ad d73c 87e0 11bb 5329 8fbb 3434 d1bb
000001e0: 41c9 893c 9c88 9e3b fd5b b3bc d59c ecbb
000001f0: ed0f 85bc ff4c 60bc e8fb c5bc 2ea6 433c
00000200: 26bf 75bc 8158 cdbc 1a2e 0ebd 9a49 293d
00000210: e06e 623b 4b5c 1cbd 1666 7d3c f65f 693c
00000220: da8c 44bc 0417 893c 1c91 513b 3dae e0ba
00000230: e18e a0bb d3b2 bbbc 608e 013b 0d01 41bc
00000240: c350 b43b 108b 403b afc4 32bc 592a b73c
00000250: 3b59 2fbc e414 da3c 192f 33bc 528e 9bbc
00000260: 7a59 9639 4aed ed3b 19be d33a f6b3 eabc
00000270: dedc 0d3d b1e0 e93b 0f88 af3c 9e78 33bb
00000280: eb5a f3bc 17b5 033d 8fde a03b 6818 c3bc
00000290: c9d4 8d3c 36a9 103d 97b4 80bc d60b 08bd
000002a0: b9fe 773c 2ba5 813c f02b 91bc 0237 d0bb
000002b0: 5cd5 41bb 3ba7 ccbc 9133 cd3b 0525 bd3b
000002c0: 5804 eabc c07a 44bd ee1b 2b3c 8ac8 a03b
000002d0: 6085 c6bb 54e3 923b b3cf 9e3b b1f9 26bc
000002e0: 62b7 acbc fc7f 03bd 3180 9c3c 4fdf 0a3d
000002f0: a511 713c 1d8e 70bb feb2 e8bb 3a8d b03c
00000300: 33d6 303b 379c 30bc 1cd9 32bc e5e8 df3b
00000310: 67f9 253c 108d a6bb 1a9e 943b 5028 c13a
00000320: 075d 1d3c 3845 b83b 5ad3 7fbc 16c0 a7bc
00000330: 6104 69bc 094b c73b e9c9 3cbc 9f61 0bbb
00000340: 5fc0 1a3c c5d0 c63c 4dd5 ffbc 9a58 0a3c
00000350: 5f96 c9bc 5db2 aabb c345 593c b7cc 853b
00000360: ae17 49bb 89b9 3f3d fcfd ea3b 2b01 8f3b
00000370: 3a2a 91bc 8edf 92bc 8ad8 34bc 7b2e 02bd
00000380: b9d6 18bd b94f 513c 4ae2 aabc f4c1 b03b
00000390: d82e 02bc e7df 8d3c d265 a839 b1a6 0b3d
000003a0: 698a 97bc 8470 433b b4df a8ba 1626 8639
000003b0: 7884 d23c 984a bc3c 396d 99bc ad41 a23c
000003c0: af34 fa3b 95c1 98bc 3d94 ca3c ee91 89bc
000003d0: e0f7 0d3c dc0f e83b fb35 00bb c629 363b
000003e0: fa9f 87bc 7d29 ba3a 31ec 733c f790 353c
000003f0: b62a 9fbc 6c0f c53c 97ef 763c 376c 313c

action_model._continuous_distribution.mu.bias f4 [2]
-0.000762787 -0.0018833427
00000000: c5f5 47ba 7fda f6ba
