Goodminton/Assets/results/Badminton/Badminton/Badminton-1819.pt (torch, 439033 bytes, 36 tensors)

network_body._body_endoder.seq_layers.0.weight f4 [128, 5]
00000000: e816 953f fa06 a1bd b434 17bf 3b32 bf3e
00000010: 4cd4 df3e 66f3 953e 1d61 1fbf 862f 38bd
00000020: a002 94be cea1 893e 0dbf 9ebe b9b1 74bf
00000030: c815 aa3e 67cd 773e 728c 533e 667b 0abf
00000040: 6a73 8cbe 326d 75bd c20c dbbe 6a48 22bf
00000050: 41a6 d53e d06c f83e 66e4 e23e 2d9a c03d
00000060: e5d2 b13e 4756 a43f 26e6 d23e 10d6 b8be
00000070: dfe7 683c dda2 f53e 42a9 88be a335 a6bd
00000080: 39d2 843e 903d 40be f981 36bf 96a8 813d
00000090: 180b bdbd 6ddc 83bf dc52 153f 6270 3abe
000000a0: f06b b63e 0f96 5b3f 1c65 eb3e db42 2dbf
000000b0: f148 d53e fbb7 05bf 63a6 eb3e 766c 81be
000000c0: 4f41 84bc b442 483f ec72 a63e d63a d63d
000000d0: 892d 8cbe 0cb0 cb3d 018a e8be f027 5fbe
000000e0: 7a3e 8ebe b427 343d d33e 913e dcc5 833e
000000f0: e415 f0bd 36b4 31bf 501e eabe 323f f0be
00000100: cd53 7a3e d15b 5a3c 28ef f33e 6b0c f63e
00000110: c327 013e 6e67 5cbe 3a07 203e d6f3 39be
00000120: 132a c23d 21e1 683f bc07 9dbf bc4d d6bc
00000130: 87c6 11bf 9b8f c6be cf01 e23e af70 abbd
00000140: 7264 5c3e 9113 053f fb9c 153d 80a6 b53e
00000150: a5e8 3f3e 1f55 c93e aba4 6abf bf98 e8bd
00000160: 5f94 61bf 3c5f 163e 37af aebe 89a5 cfbc
00000170: 9223 12bf a38c 8cbd cb98 ec3e 8b43 f33e
00000180: 914e 7dbe da6e 15bf d7ea a7bb 5544 203f
00000190: 6909 553e abfc 81be a48a 483d 1a51 00bf
000001a0: 91c5 aa3e 25d2 2ebe a383 1d3e 1bbb b9be
000001b0: 1f9d 963e 25d3 52be 82b1 223f f866 c1be
000001c0: e0e5 18bf f7fd a73e 2df3 8e3e d680 d83e
000001d0: ff1e 213e 00fe a73e 788a 03bd fe01 fcbd
000001e0: 0ec3 19be bb6f c9be 31b3 da3e 2df2 b7be
000001f0: e7f4 8b3e 3231 933e 9c21 653f afd5 2c3f
00000200: cfc7 a83e 3926 8fbd 5434 66be 97a5 5c3f
00000210: 1d57 203e 59b2 ccbe d97f 503e 9a11 4f3e
00000220: ae75 c63d 9635 dfbe 3492 27be 301e b0bd
00000230: 0965 5f3f 1f9d 623f fefe 99bc ee41 2abe
00000240: e73b c23e 56d9 bcbe e40f a33d e8c6 383f
00000250: b94b 77be a3d6 99bd 0568 5ebf 6ea2 813e
00000260: 241d a63f 5901 863e 426b 3e3f 8074 113f
00000270: 83a9 6fbe 2254 fe3e e9b9 2bbd 7e40 89bd
00000280: 8019 68be abbd 933e 00be 4d3f 3c77 cf3e
00000290: 6a0d 603f 30ce 873f 0757 b03e 7e2d 2ebf
000002a0: fbce 7b3e 94f4 753e 6c1a 00bf 4fb8 57be
000002b0: 19f8 1dbe 56ab 03bf 8d88 413f e640 f9be
000002c0: 73e0 c2be 0bad 21be 7717 e03e b364 733f
000002d0: 67a4 9ebe 187e b63d 5a4c 04bf fbcc 60be
000002e0: 6833 3dbf 0bef 07be cc66 bd3e f9d8 d73d
000002f0: 90a0 0dbf a297 b6bd 036e bebd 5297 4abf
00000300: 0d85 22be 3126 083e be71 d2bc 2c59 94be
00000310: fe34 093f 3dc1 673e ce8e 42bf f94f b63e
00000320: 2b5c c63e 5e85 033f 8867 893e 62fb 1abf
00000330: 362d 7cbe ee9a f9bd d87a 2fbe 75df bb3d
00000340: be49 e1be baa9 d4be a29e 01bf 2313 d53e
00000350: ef50 a3be a9ba 0f3e b2eb 22be f917 173f
00000360: f135 6ebe 66b4 15bf 2d18 3b3e a577 e5be
00000370: 6db3 213e 8478 7fbf c613 40bf 323e 6cbf
00000380: f758 54be 9678 783f 8b74 7f3e e329 073e
00000390: 2ac6 ae3e 12af 2dbf edc7 eb3e 1511 f4be
000003a0: 561d 94bf 9b09 02bf 098f 94bf 66e1 c63d
000003b0: e016 743d 6395 9ebe e0c0 713e d5ac fe3e
000003c0: cabf bbbe 486c 743e a114 163b 122f 90bc
000003d0: 5e92 993d 7b7d f13e 275e efbe dd91 243f
000003e0: 46d6 4f3b 9908 66bd 4299 a2be 6e1c a13e
000003f0: 2234 3f3f 11b5 003e 65db b8be e89c 063f
1.1647615 -0.07862659 -0.59064794 0.3734301 0.43716657 0.2928726 -0.6225756 -0.044967197
-0.28908253 0.2688126 -0.31005135 -0.95583683 0.33219743 0.24199449 0.20659044 -0.5409454
-0.27431804 -0.05991859 -0.4278317 -0.63391745 0.41728404 0.48520517 0.4431488 0.09404407
0.34731212 1.283883 0.41191214 -0.36100817 0.014215439 0.47975817 -0.26691633 -0.08115699
0.25941637 -0.18773484 -0.7129207 0.06330983 -0.092306316 -1.0301644 0.5832956 -0.18206933
0.35629225 0.85775846 0.45975578 -0.6768014 0.41657212 -0.52233857 0.4602538 -0.25278062
-0.016144423 0.7822678 0.32509553 0.10460441 -0.2737849 0.09945688 -0.4541779 -0.21792579
-0.2778204 0.043983176 0.28368244 0.25736892 -0.11722925 -0.69415605 -0.45726252 -0.46923214
0.2444603 0.013327555 0.476434 0.4805635 0.12612824 -0.2152383 0.15627757 -0.18159422
0.09480681 0.9096852 -1.2267985 -0.026160114 -0.56943554 -0.38781437 0.44142005 -0.08371102
0.21522692 0.5198298 0.03652666 0.35478592 0.1874109 0.39322755 -0.91657513 -0.11357259
-0.8811702 0.14684767 -0.34118053 -0.025347488 -0.57085526 -0.06862762 0.46210322 0.4751247
-0.24737002 -0.5837227 -0.0051244306 0.62604266 0.20804371 -0.25388083 0.048960343 -0.5012375
0.33353856 -0.17072351 0.15382247 -0.36275563 0.2941675 -0.20588358 0.63552105 -0.3777387
-0.5972576 0.32810947 0.27919903 0.42285794 0.1573448 0.32810974 -0.032114476 -0.123050675
-0.15015814 -0.39343056 0.42714837 -0.35926953 0.27335283 0.2874847 0.8950441 0.67513555
0.32964942 -0.06989712 -0.22480899 0.8619017 0.15658231 -0.39979818 0.2036127 0.20221558
0.09690414 -0.4359557 -0.16364366 -0.08599508 0.8726354 0.88521 -0.018798348 -0.16626713
0.37936327 -0.36884564 0.07962015 0.72178507 -0.2414998 -0.07511642 -0.8687747 0.25319237
1.2977643 0.26172903 0.7438241 0.5681839 -0.23404507 0.49673563 -0.041925345 -0.06701754
-0.22665977 0.28855643 0.8036804 0.40520656 0.8752047 1.0609798 0.34441397 -0.68038166
0.24590676 0.2401908 -0.50040317 -0.21066402 -0.15426673 -0.5143331 0.75598985 -0.48682326
-0.38061866 -0.15788667 0.43767902 0.9507553 -0.30984804 0.08910769 -0.51679003 -0.21953194
-0.73906565 -0.13274781 0.3699249 0.10539431 -0.55323124 -0.089156404 -0.09298327 -0.79137146
-0.15871067 0.13295819 -0.025689002 -0.28974283 0.53596485 0.22632308 -0.7599915 0.3560789
0.38742194 0.5137538 0.268368 -0.6053983 -0.24626622 -0.121877536 -0.17136705 0.091734804
-0.44001573 -0.4153574 -0.5063268 0.41616163 -0.31897685 0.14036049 -0.15910223 0.59020954
-0.23262765 -0.5847839 0.18270941 -0.44817844 0.15791102 -0.9979327 -0.7503017 -0.922824
-0.20737062 0.97059 0.24946801 0.13199572 0.34135562 -0.6784526 0.4605097 -0.47669283
-1.1571453 -0.50795907 -1.1606151 0.0971096 0.059592128 -0.30973348 0.23608732 0.49741235
-0.3666976 0.23869431 0.002290048 -0.01760057 0.074986205 0.47166047 -0.4675152 0.6428507
0.003171341 -0.056160543 -0.3175755 0.31467003 0.74688923 0.12569071 -0.36104885 0.5258317

network_body._body_endoder.seq_layers.0.bias f4 [128]
00000000: a4a0 a2bb 2fe8 5e3b 454e b0bb 8ee2 25bc
00000010: 4042 fc3b 2bf4 16bc 2b61 b9bb d490 65bb
00000020: 2520 d73b 897f 5bbb d2df a53a c4e5 783b
00000030: 4b22 2f38 b478 463a ef8b 3cbc 5a62 be39
00000040: ceed 093c 833f a1bb 5a45 96bb db22 68bb
00000050: 300c 11bb 2632 b7bb 57d8 23bc c6b6 7fbb
00000060: d8c1 ae3a 2be9 e73b 071f 7ebb 8b53 263c
00000070: cb96 4cbb 50ae 03bc 1386 313b f60e f93b
00000080: 6625 31bb f577 d7bb 97fc 40bb 3221 6abc
00000090: 3980 f13b fc0b 4cbb f94d ef3b c50a d9bb
000000a0: 2798 e3ba da9b 86b9 d768 29bb 3562 f4bb
000000b0: 87b1 44bb 28f0 90bb 883f 5abc 3718 f8bb
000000c0: fd07 eeb9 5ad2 653b 015a 183b 5b87 17bc
000000d0: 97ea c8bb b9e0 1a3b 20e0 143b 165a 9ebb
000000e0: fa60 0b3a 3ef8 883a 96d9 2fbb 9360 87bb
000000f0: e76c 883b 4559 1ebb f685 21bc d3a8 41bb
00000100: 844d 81bb 9a50 ca3a fb30 023b 0e13 a3bb
00000110: 6c01 2bba 4cb4 a43b ea0c b6bb 1d26 88ba
00000120: 3ac0 bfba 627c 2bbb 4128 4eba c280 9ab9
00000130: 05be cf3b 7dbd 83bb fd9f 8dbb c455 ae38
00000140: 758e 8c39 c551 c23a e09f c9bb f95d d3ba
00000150: 8f20 cbba de9c 863b 941d 893b b278 413b
00000160: a434 61bb 82a7 beb9 bc14 1bbb 983b 0c3c
00000170: 2a96 87bb 7466 20bb 5ed8 72bb 81a1 acbb
00000180: cfad 71bb efe7 8dbb d182 c5bb 3123 d53a
00000190: d4fd 04bc 45ed 0bbc 269e f33a 4bfa 303b
000001a0: 6d6b 993b e1c3 97bb caab 8d3b 4c14 c7b9
000001b0: 05d0 bbbb c7b0 1e3b 9373 5fbb 530c f8bb
000001c0: 2d01 66bc e059 c73b 6a9a 34bb cc3f 29bb
000001d0: b287 b83a 66ff 033b 99dd d6bb 8636 103c
000001e0: 84cb 07bb fea3 6d3b 86e2 1b3b 5ff9 743b
000001f0: 23b8 333b 39dd 223b 4a49 84bb ccaa ac3b
-0.0049629975 0.0034012904 -0.005380424 -0.010124816 0.0076983273 -0.009213488 -0.0056573353 -0.0035028951
0.006565111 -0.0033492765 0.0012655205 0.0037978748 4.175519e-05 0.0007571087 -0.011507972 0.00036312902
0.008418513 -0.0049209013 -0.004585904 -0.0035421166 -0.0022132508 -0.005590695 -0.01000031 -0.0039018854
0.0013332916 0.0070773563 -0.0038775818 0.010151754 -0.003121781 -0.008037165 0.002708797 0.0076006604
-0.0027030348 -0.0065755793 -0.002944743 -0.014290141 0.0073700217 -0.0031135073 0.0073029962 -0.0066235983
-0.001736407 -0.0002567459 -0.0025849843 -0.0074579963 -0.003001304 -0.00442316 -0.013320811 -0.007571246
-0.0004540085 0.0035068006 0.0023247006 -0.00924858 -0.006131481 0.002363248 0.0022716597 -0.0048325164
0.000531688 0.0010449958 -0.0026832572 -0.0041313856 0.004163373 -0.0024162096 -0.009858599 -0.002955009
-0.003946008 0.0015435398 0.001986562 -0.0049766367 -0.0006523344 0.005026376 -0.0055557387 -0.0010387335
-0.0014629432 -0.0026166667 -0.00078642747 -0.000294691 0.0063397908 -0.0040203915 -0.0043220506 8.312942e-05
0.0002680902 0.0014825395 -0.006153092 -0.0016126028 -0.0015497374 0.0041080555 0.004184434 0.0029521403
-0.0034363652 -0.00036364427 -0.0023663482 0.00855913 -0.004137774 -0.002447513 -0.0037055234 -0.005268276
-0.003687728 -0.004330627 -0.0060275574 0.0016261098 -0.008117158 -0.008540456 0.0018586561 0.0027004655
0.0046819956 -0.004631505 0.0043234574 -0.0003797136 -0.005731585 0.0024214254 -0.0034095987 -0.0075698285
-0.014038366 0.006083712 -0.0027557858 -0.002582538 0.0014078526 0.0020141243 -0.006557178 0.008802062
-0.002072067 0.0036261077 0.0023786142 0.0037380082 0.0027422986 0.0024851097 -0.004037057 0.005269384

network_body._body_endoder.seq_layers.2.weight f4 [128, 128]
00000000: 4e6c 8bbd 4d58 64bc 1e26 a73d a179 79bd
00000010: dbd5 e2bc f7c3 2f3d a927 d0bd 7406 8dbd
00000020: efb7 f4bc a8bf 2f3d 405b b7bc 5761 36bd
00000030: 70e2 093e e150 ddbc d457 debd 5554 dabd
00000040: 1931 29bd e6b9 af3d b7fc cebc f62e 2e3e
00000050: 4373 18be 2086 6f3d 96c0 4a3d 07a6 1c3d
00000060: d2e7 d3bc 1889 44bd 9220 b2bc b633 77be
00000070: f6ac f93b a02b 5c3d 3191 373e b9bb 4bbd
00000080: 5374 c2bc 4da7 373e e525 e33d 35be de3c
00000090: 3202 23bc 594f ba3d d792 c13d 22d8 9cbd
000000a0: bd37 14bd e19d d83c 44c9 983d 945c c53c
000000b0: d7a3 033d f5bd 1abb 781e 5c3d 8b13 90be
000000c0: e4c8 223d 0d8a a6bc 42f9 b63d 5e8e 503c
000000d0: 8657 8f3c 351b a8bd 9908 c8bc 5318 2dba
000000e0: 296b 9abc 0a83 133d 12a2 813e 261a 5c3d
000000f0: d842 003e b2c3 8cbd 3a98 8f3c 2704 83be
00000100: 4d44 403e 9b7e d1bd 1cef 013e 2170 043e
00000110: 2630 c23c a2ea ba3d 3d4c 41bd 2bbf 633d
00000120: 4483 ba3d a7ce 20bc df11 233c 127a 433d
00000130: bc59 50bd e06a 193d 82b3 d3bd d1c5 6dbd
00000140: 4613 63bd 384a c13d 871c e43d ab79 943c
00000150: 8766 373c 8b34 44bc 4732 223d 5e57 e23d
00000160: 1e76 03be 0a7f 573b c1f8 303d fce3 28bd
00000170: 7e41 a93d 8309 4ebd 5087 9c3d 117e 3c3e
00000180: 6eda ff3d 8183 8e3d cc3b cb3d be5f 03be
00000190: d217 3cbe 12e4 753c bdd7 97be 276f 0e3e
000001a0: ea8a c23b 2963 fabd b9b6 1c3e 6607 0bbe
000001b0: 427e d23d 267d f7bd f277 1bbd b080 793d
000001c0: b413 49bb edfb c13b 5aae 2bbe b262 c93b
000001d0: f382 903d 6fbb b5bc 398e 043d 8da9 1abc
000001e0: d651 fb3c 6ed6 663d a993 1dbe dafb 513d
000001f0: 302e e3bc 3320 7c3d 65f0 5e3d 985c cabc
00000200: 216e dabd 815b 503c 51f4 c3bc f90e c43d
00000210: 71aa f6ba b0cd 333d 6f3e 9e3d 7d45 263c
00000220: 0f90 8ebd 3ae1 a53d d2b2 1fbd e207 563c
00000230: 5155 10bc a5de d83c 41da c2bc 351f e73b
00000240: 263b 3dbe 7152 313d 87c8 123e c5b1 b5bc
00000250: 2bd1 b63d 030a e93d a292 42bd 9570 f33c
00000260: 8406 313e 54ed 96bd b3de 54bc 6ec1 bbbd
00000270: 4f86 803d 5721 0cbd 3f68 34bc b52b ffbd
00000280: 1d2f 123d fcb7 03be 05a6 d2bd 754c b5bd
00000290: 4776 2abe 9ece 11bd 0da9 15be 5d75 823d
000002a0: a023 113c 5630 fb3d 3c7e bb3c 92e4 fc3a
000002b0: 9c53 993d e5a4 fdbd 3ac8 a43c 6e02 f23d
000002c0: 398e d33d 33c7 0f3d be20 d53a 590e 28bc
000002d0: 92d4 8f3d 721e febd b8db 8dbd c6df de3d
000002e0: 3917 04be 45d9 babd a4b4 76bd a24d cc3d
000002f0: 7209 2b3d e4d6 113e 49dd b5bd c6f8 2bbe
00000300: 9078 c6bc d687 3a3d d876 e0bd 3bb9 093d
00000310: 5416 833d 0cd7 14bd b46d b9bd 352d b5bb
00000320: 5f40 013d 65df 3c3c 3d13 0b3c 4ea5 22bb
00000330: c7b4 233d a719 fdb8 076c 10be 3b7a de3d
00000340: bd09 83bb 338b 2cbe 3f65 bdbd 1a4c 123e
00000350: 7d62 843d 0e62 66be 4df0 4bbc 1d4a eb3d
00000360: 0176 17bc e594 26bc 0557 2e3e 3ed7 9b3d
00000370: 0ed4 1dbe ce56 713d 2304 9bbc 6c8d 79bd
00000380: 974d 8dbc 1ee9 0fbd 4eec 7a3d 5b0a 16bc
00000390: 9649 40bd 31ac 2a3d 515b 9e3b 2309 71bd
000003a0: b470 883c f914 aebc 955f a8bd 0662 123c
000003b0: a96b 403c fc15 303e 9382 bf3c b5ca 283d
000003c0: d71e b5bb 1946 2d3c 5157 783b 1a58 24be
000003d0: 69a0 27bd 8d0f d2bd c890 d4bb bfc3 8a3d
000003e0: c08d 3d3d d128 1b3e 3237 a9ba 84d5 50bc
000003f0: 2b83 b5bd 0cfc 143e 8e8d 833b c95f 863d
-0.06807767 -0.013937068 0.08161567 -0.06090701 -0.027689865 0.042911496 -0.101638146 -0.068859965
-0.029872863 0.042907387 -0.022382379 -0.044526424 0.13465285 -0.027016105 -0.10856596 -0.10660616
-0.04130659 0.08580379 -0.025266988 0.17010102 -0.14887719 0.05847752 0.04950007 0.038244274
-0.025867376 -0.047982305 -0.021744046 -0.2414082 0.0076194955 0.05375254 0.1792648 -0.049739573
-0.023737108 0.17934914 0.11091212 0.027190307 -0.009949254 0.090971656 0.094518356 -0.076584116
-0.03618597 0.02644247 0.07460263 0.024091996 0.03213867 -0.0023611758 0.053739995 -0.2813991
0.039742365 -0.0203295 0.08934261 0.0127292555 0.01749779 -0.08208314 -0.024418162 -0.0006603051
-0.018849926 0.03601364 0.25318962 0.053735875 0.12525499 -0.068732634 0.017528642 -0.25589105
0.18776055 -0.10229226 0.12688869 0.12933399 0.0237046 0.09126784 -0.047191847 0.055602234
0.09107068 -0.009814895 0.009952991 0.047723837 -0.050866827 0.03745544 -0.10336973 -0.05804998
-0.055438302 0.09437984 0.11138254 0.018124422 0.011193878 -0.011975418 0.03959873 0.1105182
-0.12838027 0.0032882118 0.04320598 -0.041233048 0.08264445 -0.05030204 0.07642996 0.18407466
0.12492834 0.06958676 0.09923515 -0.12829491 -0.18368462 0.0150079895 -0.29656783 0.13909589
0.00593697 -0.122259445 0.15304078 -0.13577041 0.10277988 -0.12084417 -0.037956186 0.06091374
-0.003068191 0.0059199245 -0.16765729 0.0061457986 0.070562266 -0.022184102 0.032362197 -0.009439838
0.03067867 0.05635684 -0.15388359 0.051265575 -0.027731985 0.061554145 0.054428477 -0.024702355
-0.10665537 0.012717129 -0.02392021 0.09573168 -0.0018819106 0.04389733 0.07726752 0.010148403
-0.06961071 0.08099599 -0.038988896 0.013063403 -0.0088094035 0.026473353 -0.023785712 0.0070532807
-0.18479595 0.043291513 0.14334308 -0.022179494 0.089266144 0.11378863 -0.04750312 0.02971677
0.17287642 -0.073694855 -0.012992549 -0.09167753 0.06275617 -0.034211483 -0.011011182 -0.12459508
0.035689462 -0.12863153 -0.10285572 -0.08852474 -0.16646682 -0.035597436 -0.14615269 0.063700415
0.008858591 0.12265079 0.022887342 0.0019294193 0.0748665 -0.12384967 0.020115007 0.1181687
0.10329861 0.03510208 0.0016260368 -0.010257327 0.070229664 -0.12408151 -0.06926674 0.10882525
-0.12899484 -0.09123472 -0.060230866 0.09975745 0.041757055 0.1424213 -0.088800974 -0.16794118
-0.02422741 0.0455397 -0.10960168 0.033623915 0.06400743 -0.036337897 -0.09054127 -0.0055290707
0.03155553 0.011527871 0.0084884735 -0.0024817768 0.039967325 -0.00012068758 -0.14103709 0.10863157
-0.0039989636 -0.16849975 -0.09247827 0.14286843 0.06464098 -0.22498342 -0.012447429 0.11488745
-0.009244443 -0.010167335 0.17025383 0.076094136 -0.15412924 0.058920674 -0.018922871 -0.060925886
-0.017248912 -0.035134427 0.061260514 -0.009157742 -0.046945177 0.04166812 0.004832663 -0.058846604
0.016655304 -0.021250235 -0.08221356 0.008934503 0.011744418 0.17195886 0.023377692 0.04120894
-0.005527358 0.010575795 0.0037893842 -0.16049233 -0.040924463 -0.10256872 -0.006486986 0.06775617
0.04627776 0.15152289 -0.0012910126 -0.012746219 -0.08862909 0.14549273 0.0040146774 0.06561238

network_body._body_endoder.seq_layers.2.bias f4 [128]
00000000: f3fe 09bb 5023 9bba 8bdc 343a 7c65 d0ba
00000010: 1326 29bb 8150 f8ba d992 81bb c8db 75ba
00000020: 08e3 1fbc 4c4f aeb9 4388 3dbc f047 2dbb
00000030: 8573 48bb 0397 ffba 4b99 57b8 2354 56ba
00000040: 690e c0bb 6a84 153b 70b4 a7bb f905 693a
00000050: ac1e 11bb 222e 103a 0b62 02bb e063 75bb
00000060: c90c f7bb 978c 543a 0f44 e9bb 6fd0 05bb
00000070: 22c5 87bb 8909 2cbb d460 183b 1b09 9fbb
00000080: 5feb 913b f8ba ffbb 15a9 c0bb ee33 7ebb
00000090: 62eb bfbb 1a88 02bb 028d 8d39 a28d d63a
000000a0: 04c3 f0b9 8a24 d5ba ebf7 7339 98da d9bb
000000b0: 6392 1dbb 0d8a f33a ab7a 233c 739d b3ba
000000c0: 7785 03bb 1ee9 90ba 2f85 b5bb fcac b2bb
000000d0: bf54 f1ba 0f21 20bb 1524 493a 8176 0fbc
000000e0: d2b9 483b 9c9a eb3a 4f68 acb9 f514 9bbb
000000f0: 06ba 02bb fc78 d0ba fd46 ecbb 95f5 02bc
00000100: 7dfd 99b8 2291 85ba de07 a9b8 673f c9ba
00000110: 6ad1 fd3b c5b3 f7bb 90b9 9f3b 6a78 de3b
00000120: 56de d9ba ed0d 21bb 518d a1b7 d963 e6bb
00000130: a8c2 aeba c0ec ac3a f524 baba bc2b 6dba
00000140: 6c7d 283b c273 29bb 2031 80bb 8940 023c
00000150: da2f 84ba 3697 c1bb 294d fcba a4cc 883a
00000160: 9356 77ba 58a5 96bb 29f2 6dbb 7ff0 d9ba
00000170: 5504 41bb 0306 12ba 1805 cabb 8f70 883a
00000180: 3899 84ba 067d b43a 94fe 3939 446e b0bb
00000190: a9ae 16b9 e0dd 31bb 4a99 76bc 2f79 92bb
000001a0: c26f afba bdb4 823b 4dd0 b8bb dd0c 9f3b
000001b0: 3ba8 6f3b 7ecd 9fbb ec81 5d3b 360d 5abb
000001c0: 846d 1c3b 8694 1eb9 1d4d 1bbb dd9b e0bb
000001d0: 316b a8bb 3cc0 a7bb e1d1 22bc c12b 4fbb
000001e0: b17d 2cbb 80bd 7ebb 38ae 6ebb e94f 41ba
000001f0: b15f 143b 8059 5e3a 901d b0ba 1653 93bb
-0.0021056503 -0.0011836085 0.00068993185 -0.0015899385 -0.0025810048 -0.001894489 -0.003954273 -0.0009378758
-0.009758718 -0.00033246947 -0.011568132 -0.0026440583 -0.0030586433 -0.0019499961 -5.140276e-05 -0.00081759895
-0.005861093 0.002281452 -0.0051179454 0.00088891346 -0.0022143526 0.00055000384 -0.0019894864 -0.0037443563
-0.007539366 0.0008108108 -0.007118709 -0.0020418426 -0.004143373 -0.00262508 0.0023251073 -0.0048533804
0.0044531072 -0.007804271 -0.005879531 -0.0038788277 -0.0058569172 -0.0019917549 0.00026998675 0.0016369114
-0.00045921665 -0.00162615 0.00023266643 -0.006648373 -0.0024043552 0.0018580571 0.009977977 -0.001370354
-0.0020068565 -0.0011055802 -0.0055395584 -0.0054527503 -0.0018412097 -0.0024433767 0.0007672918 -0.008756281
0.0030628336 0.0017975154 -0.00032884112 -0.004732723 -0.0019947304 -0.0015905197 -0.007210611 -0.007993122
-7.3428244e-05 -0.0010190348 -8.060013e-05 -0.0015353978 0.0077459114 -0.007559272 0.0048744157 0.006789257
-0.0016622047 -0.002457495 -1.9258501e-05 -0.0070309457 -0.0013333159 0.0013193116 -0.0014201688 -0.00090473494
0.0025709523 -0.002585635 -0.003912106 0.007949957 -0.0010085062 -0.0059079183 -0.001924907 0.0010436964
-0.0009435203 -0.004597347 -0.0036307669 -0.001662746 -0.0029452045 -0.0005570354 -0.006165158 0.0010409522
-0.0010116464 0.001377017 0.00017737813 -0.0053842384 -0.0001437018 -0.0027140304 -0.015051195 -0.0044700126
-0.0013384747 0.003988831 -0.0056400658 0.0048538283 0.003656878 -0.0048767915 0.0033799363 -0.0033272034
0.0023868987 -0.00015123383 -0.0023697086 -0.006854518 -0.0051397313 -0.0051193517 -0.009937734 -0.0031611773
-0.0026320035 -0.0038870275 -0.003641976 -0.0007374273 0.0022640044 0.00084819645 -0.0013436545 -0.0044959886

action_model._continuous_distribution.log_sigma f4 [1, 2]
00000000: 49d8 9ebc 0836 a53b
-0.019390242 0.0050418414

action_model._continuous_distribution.mu.weight f4 [2, 128]
00000000: a8dc 6bbc 8a61 54bc 4928 ae3b 52d0 92bc
00000010: 6c51 083c 56f6 c5b9 e0f6 2eb9 ad4a 4fbc
00000020: 695b 2c3b 696d 97bb ea9a 823b 3479 14bc
00000030: 782c 203c 187f 183c 4bca e5bc 1c46 db3c
00000040: 6af2 b83c cde6 bf3c 7ff7 a6bb 1e63 dcba
00000050: a051 543c 93c6 d93c 7e45 cebb 2347 34bc
00000060: 3edb a93c 38e0 9ebc dec9 f5b9 fd27 3a3c
00000070: 0b62 bfbc 919a b7bc 3758 af3c fd5c 5d3b
00000080: da5a 663b 77fa d7ba 1f91 ddbb 12ee ce3b
00000090: 0e24 483b 0e9d 19bb 14ad 6abc 9c52 f6bc
000000a0: 3f50 babc c448 5abc 3968 4c3c 7a08 303c
000000b0: 3b9b 1f3c c2e4 863c 56e5 02bb 0b77 a5bc
000000c0: 4fad 8bbc e768 a53c 6e63 303b 5443 08bc
000000d0: 2f32 27bc 0e69 aeba 497d a53c f4e7 eebc
000000e0: 0b9d e43c 7625 613d fa3b b63c 3404 1b3c
000000f0: 3b0d a6bc 5799 6cbc 1fe3 ba39 3a38 84bb
00000100: 39a7 1cbc b068 abbc da4a 233c 2fe7 2fbc
00000110: d7d4 583d 40ee e5b9 f24e b63c 5242 50bb
00000120: 4bff 183c f13e 2c3c fee5 32ba 1f9f eb3b
00000130: 5af7 c03c e998 073d 3416 253c 5eeb c1bb
00000140: 66c2 ff3b 3457 5d3c 3919 393c 648d a03c
00000150: c69e 4abd 81f8 06b9 4795 963b 42ec d4bc
00000160: 3233 51bb 61e0 10bc f24e afbc a277 b2bb
00000170: c77c 813c d979 653c 4f60 e4b9 d64e b43c
00000180: 2e83 f53b f2f5 9a3b 5074 e33b 67b3 4e3c
00000190: 5cbe 56bc 0b83 feba e0ab a3bb 29b2 a93b
000001a0: db0c 07bd f791 093d 61a6 953c 4987 ceba
000001b0: 37d0 30bc c855 fbbb d979 533d 2a4d 29bc
000001c0: 4fca f9bb d508 7bbc f0be 26bc 9b7d fa3b
000001d0: d21c ea3a 59b7 e8bb 606d c2bc 0e8b 0b3c
000001e0: f8a5 58bb e660 34bb 6945 5c3b f64e a03c
000001f0: 7447 973c 550f e93a b158 fdbc cc70 343c
00000200: 7749 2bbc e1b4 a2bc e22d 5aba bb0e 14bc
00000210: 9230 70bc e625 7abb e297 5dbc d737 6ebc
00000220: 3058 323a bc58 c5bb 8732 01bb 0037 bd3b
00000230: ba8a 963c fd67 573c 45aa b23b 6b47 1abc
00000240: 4677 393c a7e5 8ebc 6306 37bc afaa b6bc
00000250: 770f c8bc 9e07 f3bb 33bf c73c 063a 2e3c
00000260: 9aca 4e3b df8c 393d 278b b23c 56b9 c03c
00000270: 9d56 95bc 5416 11bc a55f d3bc c940 513c
00000280: 83d7 d83c 8916 e33c 4b79 ef3b 23a3 c23c
00000290: 5201 93bb 8551 773c a520 e53c 318b 803c
000002a0: b01d a3bc 5014 49bc ad59 6dbb 62d4 19bc
000002b0: 7368 47bc f1c9 10bd b4ff e03c 3628 7b3c
000002c0: 88bb 903c 3146 823c 59bb 073c 70b6 67bc
000002d0: c500 bcbc 561a 2cbd 93ce d83c 4cc2 783b
000002e0: 6b12 d0bc 070b 88bc 17aa 4c3c ad51 b6bb
000002f0: 7126 71bc b97d ddbb 00fd 3d3a 8886 2b3b
00000300: 488c 823c e5e2 ce3c 1958 f73a 72d2 113d
00000310: cf17 69bc 220d a9bb d3a2 e7bc 3735 983c
00000320: c788 e93b 5085 afbb bffb 58bc 561f 5c3c
00000330: 8677 67bc 96e4 11bc c46d 14bb 3a85 08bc
00000340: f34a 77bc 7bec f9ba bc0f 053c c4f6 7dbc
00000350: 1e62 d8bb 1d3e 263c 9127 81bb 0cb7 4dba
00000360: 1e83 aa3c 1241 82bb 95cc 0eba ce73 3a3b
00000370: fc05 1e3c f422 4d3b e409 c1bb 545c 213c
00000380: 1228 9bbc fe64 66bb 46e8 9f3b 0647 adb9
00000390: caa7 443c e2e2 76bc 8264 bd3b f4b3 e43b
000003a0: c12f 1cbd 1a0a 8a3b fefc a0bb 76fd ee3c
000003b0: 935e 543b 9e93 0bbc 4587 4abb 037d acbc
000003c0: d54f 063d 12a8 1bbd e205 a4bb 8bf2 48bb
000003d0: 95a0 2d3b 23a5 d3bc 20d8 ce3c 872b a7bb
000003e0: f172 55bc 4d73 0bbb d848 113b da0c f7bb
000003f0: 572c cdbb ec36 5e3c 463b ccbc bc3e 5f3c
-0.01439587 -0.012962708 0.005314861 -0.0179216 0.008320194 -0.00037758303 -0.00016685901 -0.012652081
0.0026299602 -0.004621197 0.0039857524 -0.0090621 0.009776227 0.009307645 -0.028050562 0.02676683
0.02257653 0.023425484 -0.005095422 -0.0016814207 0.012958914 0.026583945 -0.006294905 -0.011003288
0.020734426 -0.019394025 -0.00046880444 0.011362073 -0.02336218 -0.02241257 0.021404369 0.003377735
0.0035149367 -0.0016477843 -0.0067616845 0.0063150013 0.0030539068 -0.002343956 -0.014323492 -0.030068688
-0.022743342 -0.013323013 0.0124760205 0.0107442085 0.0097416 0.016466502 -0.001997312 -0.020198366
-0.017050413 0.020191623 0.0026914733 -0.0083168335 -0.010204836 -0.0013306455 0.020201342 -0.029163338
0.027906915 0.054967366 0.022245396 0.009461451 -0.02026998 -0.014440856 0.00035645903 -0.004035023
-0.009561353 -0.020923942 0.0099665765 -0.010736271 0.052937355 -0.00043855794 0.022254441 -0.0031777811
0.00933821 0.010513053 -0.00068244326 0.0071905996 0.023555446 0.03310481 0.010076094 -0.0059179505
0.0078051565 0.01350956 0.011297517 0.01959867 -0.049467824 -0.00012871811 0.004595432 -0.025991563
-0.0031921384 -0.008842559 -0.021399949 -0.0054463902 0.015806569 0.0140061015 -0.00043559304 0.022010248
0.0074924445 0.004729026 0.0069413558 0.012616015 -0.013106909 -0.0019417716 -0.0049948543 0.005178709
-0.032971244 0.03358647 0.018267812 -0.0015756871 -0.01079183 -0.007670138 0.051629875 -0.010333339
-0.007622994 -0.01532193 -0.010177359 0.007644368 0.0017861372 -0.007101935 -0.023733795 0.00851704
-0.003305791 -0.0027523576 0.0033610708 0.019568902 0.018466689 0.0017781059 -0.03092608 0.011013221
-0.010454527 -0.01986164 -0.0008322877 -0.009036715 -0.014660018 -0.0038169562 -0.013524981 -0.01453968
0.0006803302 -0.006022541 -0.0019713955 0.005774379 0.018376697 0.013147351 0.0054524266 -0.009416441
0.011319941 -0.017443491 -0.011170956 -0.022298185 -0.024421437 -0.0074166795 0.024383163 0.010633951
0.0031553865 0.04530036 0.021794869 0.023525875 -0.018229777 -0.008855421 -0.025802443 0.012771794
0.026469951 0.027720707 0.0073081604 0.02375943 -0.0044862414 0.015095119 0.027969668 0.015691372
-0.019911617 -0.012272909 -0.003621678 -0.009389015 -0.012170899 -0.035348836 0.027465679 0.015329411
0.017667547 0.01590261 0.008284413 -0.014142618 -0.022949586 -0.042017303 0.02646569 0.0037957607
-0.025399407 -0.01660682 0.012491724 -0.0055639357 -0.014718638 -0.006759372 0.0007247478 0.0026172716
0.015936032 0.025254676 0.001887086 0.035601087 -0.014226868 -0.0051590363 -0.028275883 0.018580062
0.007126901 -0.0053564683 -0.013243615 0.013435205 -0.014127618 -0.008904597 -0.0022648433 -0.008332545
-0.015093553 -0.0019067669 0.008121427 -0.015500728 -0.0066034934 0.010146645 -0.0039414843 -0.00078474055
0.020814475 -0.003975042 -0.0005447355 0.0028450373 0.0096449815 0.0031301351 -0.0058910716 0.009848673
-0.018940005 -0.003515541 0.004879984 -0.00033050048 0.012002895 -0.0150687415 0.0057798037 0.00697946
-0.03813148 0.00421263 -0.0049129715 0.029173594 0.0032405003 -0.008519081 -0.003090338 -0.021055704
0.032790978 -0.03800208 -0.005005584 -0.0030662145 0.002649342 -0.02583558 0.02524954 -0.0051016244
-0.013027892 -0.0021278441 0.0022168662 -0.007539374 -0.0062613892 0.013562899 -0.024930608 0.013625797

action_model._continuous_distribution.mu.bias f4 [2]
00000000: d3f2 553a 9cab 9dba
0.0008161489 -0.0012029293

exp_avg f4 [128, 5]
00000000: 0c37 eb3a feb9 4936 1057 d43a 0000 0000
00000010: e73a 5b18 3d50 bdba b905 b836 cb75 74ba
00000020: 0000 0000 ec2b 2a99 fd86 5eb8 1501 edb6
00000030: 9585 abb9 0000 0000 7771 de17 d1ec 15ba
00000040: 71bd 2138 313a 143a 0000 0000 44a3 cc98
00000050: 19a2 e5ba 3ad5 8037 3516 9d39 0000 0000
00000060: d918 fe96 5a89 76ba d5c0 17b7 d293 21ba
00000070: 0000 0000 fcf6 cf97 bd2c 2739 2ad3 49b6
00000080: 7a2c 03b9 0000 0000 56b1 fd97 993e 76ba
00000090: 8d89 a436 71da cfb7 0000 0000 55c8 4298
000000a0: 2686 b3ba 3baa f336 8c6d dc38 0000 0000
000000b0: 8f8b 5f97 c250 01bb 0d02 e637 00d9 9c38
000000c0: 0000 0000 489e 2999 8cd9 ca37 67b1 1636
000000d0: 492a 9039 0000 0000 1fa7 0b17 8094 3fb9
000000e0: f5aa 8bb5 f062 6338 0000 0000 d443 3618
000000f0: a444 bfba a47a e936 9bf2 afb9 0000 0000
00000100: 6595 2299 1f99 57ba b736 8f37 aa8f f239
00000110: 0000 0000 c0ec 2d99 0f80 2cb9 46d5 82b6
00000120: fbd6 d3b8 0000 0000 41ff 9d17 43ba ec3a
00000130: 6d17 fdb5 d22e f039 0000 0000 4661 3018
00000140: e7c0 9aba cfdb 8537 f478 163a 0000 0000
00000150: 0662 e497 9698 b2ba 3105 7b36 1b22 80b9
00000160: 0000 0000 e320 b397 71bf 8d39 569b aab6
00000170: 77d2 70ba 0000 0000 c713 8e98 e8b9 a63a
00000180: 1fd8 bb36 1e00 f439 0000 0000 6614 9098
00000190: 3a5d 8fba 086b 7937 cdfe 843a 0000 0000
000001a0: 6415 5398 ac04 7539 a7ac 80b6 da43 303a
000001b0: 0000 0000 a5e2 b218 e2d8 243a a025 4235
000001c0: 8915 003a 0000 0000 04e8 b317 f9bd 14bb
000001d0: fef4 ee37 cbd7 ca39 0000 0000 0601 3b18
000001e0: 1b1e 20ba 32ef 0e38 186f 203a 0000 0000
000001f0: e455 1f99 fe06 73ba c825 6e35 5334 9038
00000200: 0000 0000 1212 0e98 3b0d ac39 b742 99b7
00000210: e052 9eb9 0000 0000 1de2 c518 fc26 b03a
00000220: 5c5f 0737 76a2 7439 0000 0000 b348 5498
00000230: 49d3 44b8 34b5 9936 de76 8f37 0000 0000
00000240: 5dfa b298 be38 053a 1d59 11b8 4b4d 28ba
00000250: 0000 0000 adbf e414 203d 6fba 0a45 5537
00000260: 04d8 1737 0000 0000 edee 3716 df97 81ba
00000270: c616 0fb8 f9d2 20ba 0000 0000 2188 3217
00000280: 261a 00ba 300d b337 1c23 ca39 0000 0000
00000290: dddc 2018 c70b 7a3a 290a 09b6 3334 23b9
000002a0: 0000 0000 955f 8197 f3d2 c6ba 2969 4038
000002b0: 1567 b839 0000 0000 d8b4 1399 95fd 5d3a
000002c0: 02b5 13b7 029a b739 0000 0000 aa0b c618
000002d0: 80e7 143a 9635 e7b6 fa28 1f3a 0000 0000
000002e0: 583b ab18 53a6 afba a3d0 4338 7b5c e739
000002f0: 0000 0000 0ade d098 99ea 3839 e25b 1cb6
00000300: 37a2 5a3a 0000 0000 f243 3a18 65a8 4cb9
00000310: 3f53 34b7 a079 b4b9 0000 0000 a63b 7718
00000320: 6476 13ba 1314 1538 a596 853a 0000 0000
00000330: e76a 2898 cf26 0b38 3c07 34b6 ec78 94b8
00000340: 0000 0000 fff7 f117 9612 5cba 6f86 5937
00000350: 94b3 2c39 0000 0000 32ab 6798 19a0 92ba
00000360: ff41 79b5 dfdb 4739 0000 0000 12ad 1917
00000370: 700c e93a f973 dbb5 9f02 12ba 0000 0000
00000380: e4c7 3f99 3747 1bba 9ffe be36 d27c 113a
00000390: 0000 0000 cb51 e217 e44d f83a 428e 05b4
000003a0: 62bc 48b8 0000 0000 7f56 8998 dd90 19ba
000003b0: 05bb c935 ffa4 8d39 0000 0000 4b75 2717
000003c0: 9b7f 9c38 666b 31b7 f020 95b9 0000 0000
000003d0: 0677 9f17 9ea2 1f38 822b ba37 6e6b e539
000003e0: 0000 0000 a969 4d97 a5b5 a339 cb42 d336
000003f0: 74ba 5d39 0000 0000 3756 c698 e982 3f3a
0.0017945482 3.0059596e-06 0.0016200263 0.0 2.8334825e-24 -0.0014443469 5.4842935e-06 -0.0009325414
0.0 -8.797664e-24 -5.3054642e-05 -7.0632764e-06 -0.00032715188 0.0 1.4375056e-24 -0.00057191873
3.8561822e-05 0.0005654423 0.0 -5.289762e-24 -0.0017519622 1.535808e-05 0.0002996192 0.0
-4.1051594e-25 -0.0009404622 -9.045199e-06 -0.00061636895 0.0 -1.3439409e-24 0.00015943027 -3.0074248e-06
-0.00012509702 0.0 -1.6394508e-24 -0.0009393483 4.903594e-06 -2.4778043e-05 0.0 -2.5175054e-24
-0.0013696596 7.261782e-06 0.00010510822 0.0 -7.2231334e-25 -0.0019731973 2.7419092e-05 7.479079e-05
0.0 -8.76906e-24 2.418158e-05 2.2455004e-06 0.00027497325 0.0 4.512426e-25 -0.000182705
-1.0406062e-06 5.421316e-05 0.0 2.3557193e-24 -0.00145926 6.9582184e-06 -0.00033559356 0.0
-8.405374e-24 -0.0008224416 1.7072407e-05 0.00046264875 0.0 -8.991702e-24 -0.00016450904 -3.89913e-06
-0.00010101307 0.0 1.0210322e-24 0.0018060881 -1.8856787e-06 0.0004581125 0.0 2.2796577e-24
-0.0011806757 1.5957192e-05 0.00057400693 0.0 -1.4758899e-24 -0.0013625796 3.7404936e-06 -0.00024439473
0.0 -1.1575906e-24 0.0002703625 -5.0844783e-06 -0.0009186635 0.0 -3.672611e-24 0.0012720199
5.598194e-06 0.00046539394 0.0 -3.7243725e-24 -0.0010937818 1.4866477e-05 0.0010146737 0.0
-2.728191e-24 0.00023366761 -3.8347966e-06 0.0006723978 0.0 4.6240774e-24 0.00062884216 7.2325383e-07
0.00048860215 0.0 1.1626173e-24 -0.002269624 2.8485894e-05 0.0003868922 0.0 2.41697e-24
-0.00061080017 3.4078206e-05 0.000612007 0.0 -8.237453e-24 -0.0009270756 8.871689e-07 6.876201e-05
0.0 -1.8362193e-24 0.00032816254 -1.8270088e-05 -0.00030197855 0.0 5.1151623e-24 0.0013439353
8.06883e-06 0.00023330175 0.0 -2.7437062e-24 -4.6926816e-05 4.58085e-06 1.710228e-05 0.0
-4.6264724e-24 0.00050820026 -3.4653687e-05 -0.0006420209 0.0 2.309772e-26 -0.0009126235 1.2711864e-05
9.050596e-06 0.0 1.4858014e-25 -0.000988718 -3.4115066e-05 -0.0006134953 0.0 5.768672e-25
-0.0004886709 2.1344604e-05 0.000385546 0.0 2.0791023e-24 0.0009538498 -2.0420505e-06 -0.00015564337
0.0 -8.360558e-25 -0.0015169069 4.5874305e-05 0.00035172017 0.0 -7.636243e-24 0.00084682676
-8.804027e-06 0.00035019225 0.0 5.119358e-24 0.0005680248 -6.8905747e-06 0.00060714746 0.0
4.4262386e-24 -0.0013401009 4.668593e-05 0.00044128657 0.0 -5.3990942e-24 0.00017635002 -2.3299294e-06
0.0008340212 0.0 2.407424e-24 -0.00019517688 -1.0748218e-05 -0.00034422893 0.0 3.1954117e-24
-0.00056252466 3.5543064e-05 0.001019199 0.0 -2.1767463e-24 3.3176326e-05 -2.68263e-06 -7.0797134e-05
0.0 1.5636863e-24 -0.00083951035 1.2965508e-05 0.00016470096 0.0 -2.9942482e-24 -0.0011186629
-9.2855765e-07 0.00019060027 0.0 4.965541e-25 0.0017780196 -1.6350524e-06 -0.00055698486 0.0
-9.914836e-24 -0.00059233926 5.692083e-06 0.0005549911 0.0 1.4625555e-24 0.0018944112 -1.2438343e-07
-4.785916e-05 0.0 -3.550101e-24 -0.0005858073 1.5030097e-06 0.00027016547 0.0 5.4108655e-25
7.462428e-05 -1.0575028e-05 -0.00028444035 0.0 1.030518e-24 3.8060003e-05 2.2193188e-05 0.00043758325
0.0 -6.6372434e-25 0.00031225118 6.2960657e-06 0.00021145662 0.0 -5.1268855e-24 0.0007305579

exp_avg_sq f4 [128, 5]
00000000: eba1 3838 e7b5 0333 4415 4937 0000 0000
00000010: 0000 0000 6511 4b38 254c 6d33 d46e 6d37
00000020: 0000 0000 0000 0000 3799 3d36 5f55 0232
00000030: ea55 6836 0000 0000 0000 0000 7592 2037
00000040: f7cc 1d32 4b9d 1437 0000 0000 0000 0000
00000050: f9d7 fd36 750b 6832 c7bc 9936 0000 0000
00000060: 0000 0000 2b21 da36 a961 0732 4523 6e36
00000070: 0000 0000 0000 0000 8252 0b37 6a01 9d32
00000080: fe3b f536 0000 0000 0000 0000 9143 0337
00000090: c66d bc30 84db a136 0000 0000 0000 0000
000000a0: 6614 2c37 0350 4232 adeb 2e36 0000 0000
000000b0: 0000 0000 60e6 4737 0f48 1232 1c26 9d37
000000c0: 0000 0000 0000 0000 0134 5836 b495 8931
000000d0: 494e a035 0000 0000 0000 0000 ced4 ae37
000000e0: a36d f332 f206 7037 0000 0000 0000 0000
000000f0: 7179 9337 6fb0 a531 b428 8537 0000 0000
00000100: 0000 0000 5b7f 2e37 054d 4333 73b5 a137
00000110: 0000 0000 0000 0000 cee0 ee35 ecef 1a31
00000120: 496a 7035 0000 0000 0000 0000 fa4e 7837
00000130: cd62 3931 45d1 9737 0000 0000 0000 0000
00000140: 8925 6a36 0feb 2d32 d41b 9736 0000 0000
00000150: 0000 0000 0ed8 d937 140b 6d32 aec0 2d37
00000160: 0000 0000 0000 0000 2438 6236 beb7 9430
00000170: 404d 1a36 0000 0000 0000 0000 76f6 ab37
00000180: 93be a532 c9c8 c836 0000 0000 0000 0000
00000190: f326 ae36 070b 6732 a829 b236 0000 0000
000001a0: 0000 0000 a0c7 6236 0d2b 3831 6b87 1a36
000001b0: 0000 0000 0000 0000 26e7 fa36 23c5 7f31
000001c0: 1a4f 0a36 0000 0000 0000 0000 e9ee d037
000001d0: 5e56 4833 57e8 a237 0000 0000 0000 0000
000001e0: eed7 8237 4b02 6f33 ce66 b437 0000 0000
000001f0: 0000 0000 ca82 6336 79d3 2832 7330 8b36
00000200: 0000 0000 0000 0000 1a60 5b36 eaec 5832
00000210: 0e53 9f36 0000 0000 0000 0000 2f22 2637
00000220: d100 9a31 aa09 f036 0000 0000 0000 0000
00000230: e509 ae37 2e5a 0233 0c07 1137 0000 0000
00000240: 0000 0000 451f 9436 5964 8732 7140 ce36
00000250: 0000 0000 0000 0000 c997 4937 efda b032
00000260: 6bec 1937 0000 0000 0000 0000 8a5b 9137
00000270: b3f7 2433 c378 8837 0000 0000 0000 0000
00000280: 5d99 8136 fc2f b032 1ea0 2037 0000 0000
00000290: 0000 0000 5b3c 3737 e338 0c32 0c0b 2337
000002a0: 0000 0000 0000 0000 8c60 4d37 f671 a132
000002b0: b671 b536 0000 0000 0000 0000 7311 0337
000002c0: ebbd 2a32 2f49 e036 0000 0000 0000 0000
000002d0: 9531 0037 0ef6 c031 3569 b736 0000 0000
000002e0: 0000 0000 a855 3d37 5f7e e832 ffcc 3237
000002f0: 0000 0000 0000 0000 df22 ba36 a654 3f31
00000300: 35fb 6e36 0000 0000 0000 0000 cb9b d936
00000310: 2daf b832 e3b9 1937 0000 0000 0000 0000
00000320: b540 2d38 c227 4833 94a6 8437 0000 0000
00000330: 0000 0000 0c54 0035 56b3 3c31 2b61 bd35
00000340: 0000 0000 0000 0000 eafa b136 3594 5931
00000350: 6454 9c36 0000 0000 0000 0000 0682 7b38
00000360: f850 1833 006e b837 0000 0000 0000 0000
00000370: bdba aa37 63ba 0532 e77f b536 0000 0000
00000380: 0000 0000 0981 5c36 7a2f 9831 1679 4436
00000390: 0000 0000 0000 0000 5377 8337 d0ee 0f32
000003a0: 8b5e 9e36 0000 0000 0000 0000 7f8e cf36
000003b0: 28fc 6f31 a662 0636 0000 0000 0000 0000
000003c0: 4c1d 1136 5977 1931 1a3c fe35 0000 0000
000003d0: 0000 0000 afeb 4a37 9ec3 af32 0cdf c936
000003e0: 0000 0000 0000 0000 f1f9 a836 30af c332
000003f0: 4a4a 3337 0000 0000 0000 0000 85d9 5a36
4.4019816e-05 3.0666254e-08 1.1985485e-05 0.0 0.0 4.841517e-05 5.5250116e-08 1.4152105e-05
0.0 0.0 2.8252377e-06 7.586407e-09 3.4620703e-06 0.0 0.0 9.570843e-06
9.185206e-09 8.85811e-06 0.0 0.0 7.56513e-06 1.3506782e-08 4.581732e-06 0.0
0.0 6.5007675e-06 7.88024e-09 3.5485293e-06 0.0 0.0 8.304256e-06 1.8277849e-08
7.308553e-06 0.0 0.0 7.82394e-06 1.371e-09 4.823729e-06 0.0 0.0
1.0256748e-05 1.1310479e-08 2.6065202e-06 0.0 0.0 1.1914963e-05 8.514703e-09 1.8733605e-05
0.0 0.0 3.2216778e-06 4.004244e-09 1.1943713e-06 0.0 0.0 2.0841511e-05
2.833878e-08 1.4306732e-05 0.0 0.0 1.7580316e-05 4.82219e-09 1.587379e-05 0.0
0.0 1.040086e-05 4.5472024e-08 1.927719e-05 0.0 0.0 1.7797809e-06 2.254633e-09
8.956163e-07 0.0 0.0 1.480034e-05 2.6977205e-09 1.8098051e-05 0.0 0.0
3.4890566e-06 1.01233715e-08 4.5033903e-06 0.0 0.0 2.5969024e-05 1.37977345e-08 1.0356465e-05
0.0 0.0 3.3709302e-06 1.082064e-09 2.2992754e-06 0.0 0.0 2.0499556e-05
1.9295191e-08 5.983839e-06 0.0 0.0 5.1901384e-06 1.3448477e-08 5.309663e-06 0.0
0.0 3.3792821e-06 2.6799996e-09 2.3026612e-06 0.0 0.0 7.47749e-06 3.7219443e-09
2.0609646e-06 0.0 0.0 2.4906783e-05 4.664468e-08 1.9420097e-05 0.0 0.0
1.5597758e-05 5.564861e-08 2.1505544e-05 0.0 0.0 3.3901765e-06 9.82697e-09 4.148163e-06
0.0 0.0 3.2689481e-06 1.2626723e-08 4.748238e-06 0.0 0.0 9.90233e-06
4.4820827e-09 7.1536824e-06 0.0 0.0 2.0747024e-05 3.035e-08 8.644314e-06 0.0
0.0 4.414384e-06 1.5761701e-08 6.1467804e-06 0.0 0.0 1.2015874e-05 2.0588656e-08
9.174556e-06 0.0 0.0 1.7327973e-05 3.8409507e-08 1.6268697e-05 0.0 0.0
3.8623534e-06 2.0510917e-08 9.574023e-06 0.0 0.0 1.0921703e-05 8.162007e-09 9.718129e-06
0.0 0.0 1.2241431e-05 1.879469e-08 5.407458e-06 0.0 0.0 7.812271e-06
9.938485e-09 6.68424e-06 0.0 0.0 7.640939e-06 5.6159086e-09 5.4660727e-06 0.0
0.0 1.1285221e-05 2.7065822e-08 1.0657356e-05 0.0 0.0 5.5472915e-06 2.7842275e-09
3.5610985e-06 0.0 0.0 6.4852406e-06 2.150008e-08 9.162791e-06 0.0 0.0
4.1306677e-05 4.660229e-08 1.5813195e-05 0.0 0.0 4.780602e-07 2.7459541e-09 1.4109877e-06
0.0 0.0 5.3042213e-06 3.1661902e-09 4.6589867e-06 0.0 0.0 5.9964157e-05
3.54639e-08 2.1985732e-05 0.0 0.0 2.0352536e-05 7.783998e-09 5.40911e-06 0.0
0.0 3.2857663e-06 4.4291797e-09 2.9276757e-06 0.0 0.0 1.5671982e-05 8.377995e-09
4.719773e-06 0.0 0.0 6.1856695e-06 3.4922412e-09 2.0024977e-06 0.0 0.0
2.1623737e-06 2.2332272e-09 1.8941967e-06 0.0 0.0 1.2095013e-05 2.0461638e-08 6.016233e-06
0.0 0.0 5.035887e-06 2.2780654e-08 1.0686528e-05 0.0 0.0 3.2611144e-06

exp_avg f4 [128]
00000000: 2790 0f39 3344 06b9 a5e9 d737 86f6 8839
00000010: e915 92b9 c85a 16b9 3b44 c3b6 c730 1ab8
00000020: 7c3a 60b9 eacd 4339 eba0 bdb7 c53a 00b7
00000030: 3091 6939 6b09 edb8 c9fa 82b8 36b5 c936
00000040: 4e81 59b9 e883 50b9 e5f2 4f39 b078 af39
00000050: 28ac 6eb9 c93b 7eb9 8095 5b37 6498 86b9
00000060: d377 2a39 7df4 52b9 a5d4 eeb8 22e6 9439
00000070: 1899 8638 9f82 24b9 b881 2039 4e15 03ba
00000080: 84ce d638 4b04 7539 56f7 c139 a52b 3db9
00000090: e9b8 7db9 9db1 cd39 8da3 b8b8 8969 ceb7
000000a0: 07b9 8438 575a afb7 5f43 5438 cfd7 ffb8
000000b0: 18cc 333a 9051 29b9 cfe5 cb39 d641 f1b8
000000c0: 6cb4 a4b7 2d77 1e39 535c 1b38 5cb1 d538
000000d0: f8e1 3239 dcf7 68b9 b6a6 a639 1ab5 57b9
000000e0: 746b 82b9 17e3 e739 fe3a 65b8 9429 af39
000000f0: 2cff 52b9 f6f4 bd39 5a4f 9bb9 2bab 08b9
00000100: 19a6 8438 8a0e a2b9 5814 84b9 5fc7 5339
00000110: a9fe 20b9 dedd e639 8ea6 59b8 93c7 54b8
00000120: 1fe7 4d39 fa33 86b9 8024 1fb9 d2f8 34b9
00000130: ee5d 123a 5a91 dc37 9671 2839 608f edb5
00000140: 5f66 d138 2218 6c39 8812 a137 90d9 9139
00000150: c4b8 b838 51c7 89b9 a7bb fd38 1818 1738
00000160: 1c26 12b9 354a 91b9 baba d238 fbd4 89b7
00000170: ded4 3a39 ea43 1db8 93f1 0b39 053c 3a39
00000180: 2b38 c438 22a6 4eb9 f40f 0a39 a05f 40b9
00000190: f6c3 fab8 5abd 11b8 cb7e 7fb8 badd b9b9
000001a0: cdd3 0839 73b7 4439 4711 d3b8 c280 3e38
000001b0: ae6f 36b9 2f42 6d39 81e9 ac39 7cd1 9b38
000001c0: 7eca 9939 9fe6 b338 205b f139 a9ba b238
000001d0: 7133 57b9 8a26 24b9 2876 adb8 c579 f7b7
000001e0: b476 d2b9 9f6c 9b39 d017 1a39 981a dcb9
000001f0: c7e6 d039 8354 ae39 a9c5 a239 40e3 8039
0.00013691244 -0.00012804642 2.5738796e-05 0.00026123616 -0.00027863614 -0.00014338933 -5.819396e-06 -3.676189e-05
-0.00021384092 0.00018673358 -2.2605489e-05 -7.643078e-06 0.00022274698 -0.00011302795 -6.2455954e-05 6.0113625e-06
-0.00020742902 -0.00019885565 0.00019831544 0.0003346852 -0.00022761582 -0.000242456 1.3088225e-05 -0.00025672012
0.00016257101 -0.0002011824 -0.000113883325 0.00028400222 6.418134e-05 -0.00015688919 0.00015307113 -0.0005000428
0.00010242782 0.0002336662 0.00036996108 -0.00018040703 -0.00024196845 0.0003923298 -8.8042674e-05 -2.4606257e-05
6.3287145e-05 -2.0903693e-05 5.0607483e-05 -0.00012199545 0.00068587204 -0.0001614748 0.00038890398 -0.000115040384
-1.9634339e-05 0.0001511245 3.7040863e-05 0.00010189667 0.00017059583 -0.00022217579 0.00031786197 -0.00020571463
-0.0002487559 0.00044228949 -5.4652795e-05 0.0003340958 -0.0002012222 0.000362314 -0.00029623025 -0.00013033736
6.3251886e-05 -0.0003090988 -0.0002519216 0.000201968 -0.00015353657 0.00044034322 -5.1891948e-05 -5.0730607e-05
0.00019636423 -0.00025597197 -0.00015177019 -0.0001725883 0.00055834546 2.6293728e-05 0.00016064043 -1.7699604e-06
9.984965e-05 0.00022515704 1.9201325e-05 0.00027818652 8.808219e-05 -0.0002627918 0.00012098933 3.6023644e-05
-0.00013937842 -0.00027711844 0.00010048361 -1.643085e-05 0.00017817641 -3.7494967e-05 0.00013346066 0.00017760701
9.3564704e-05 -0.0001970758 0.00013166649 -0.0001834617 -0.000119574295 -3.474704e-05 -6.0914823e-05 -0.0003545115
0.00013048873 0.00018760357 -0.00010064482 4.5419445e-05 -0.00017398476 0.00022626737 0.0003298037 7.4299955e-05
0.00029333303 8.578342e-05 0.00046034995 8.5224696e-05 -0.00020523161 -0.00015654616 -8.271291e-05 -2.9501398e-05
-0.00040142762 0.00029644833 0.00014695455 -0.00041981484 0.00039844794 0.00033250832 0.00031046316 0.00024583377

exp_avg_sq f4 [128]
00000000: c67b 1c36 9196 2f36 2454 8434 1198 3d35
00000010: f931 fd34 8bb7 e634 1ad5 2335 c50d f634
00000020: 19b1 0635 beef a235 f0b4 4534 df37 b535
00000030: d76d b935 e08e a235 7352 d833 c0e0 ba35
00000040: 6030 ad34 32af c735 4e81 7734 7154 9035
00000050: a0f0 e234 1e22 7f34 91ad cc34 ff85 e535
00000060: 3aa5 c935 4fa5 9534 4ffb ae34 27f7 3c35
00000070: 590c 9b35 65ee e334 0c85 7435 7bb3 ac35
00000080: 8cb5 0f35 4714 4f35 df23 4235 2a44 1635
00000090: eefb 0d35 5179 7235 67f5 ba34 4f78 2c35
000000a0: e03b 1236 9022 a233 a65c d234 8e38 5d36
000000b0: 0871 8d35 e894 7b34 94ab 5b35 91ab b934
000000c0: b9a0 4234 3a51 4535 3265 2a35 9ed6 9434
000000d0: 72a4 8134 1e4e ec34 decf ae35 cd56 a735
000000e0: 0228 0d36 dce1 1a36 99e4 5235 5007 dd35
000000f0: 2f07 a135 be0e 8835 0ea0 f434 2078 0635
00000100: 62ef 5c35 966d ad35 3c12 bb35 a2a3 f234
00000110: fe66 8e35 d022 aa35 3256 8734 44ba 5235
00000120: 2479 ca35 51b8 ce35 bdbf 4035 b596 1b36
00000130: ab42 3736 6bcc a135 f7ba 8934 ba1b 2535
00000140: c853 2336 c62c ab35 f263 9534 4c76 4c35
00000150: 3631 1b35 6d69 bf35 6b1e 3a34 8a15 ab35
00000160: 2431 2e35 e016 6035 2e0d ab34 dd58 6634
00000170: a377 7634 9cc4 0b35 3f69 a535 b2a7 6335
00000180: ffa6 bc35 aa6d 0235 9aa4 8035 ae02 3035
00000190: 85a2 ea34 e9cb 5d35 2c0c e035 8fca a236
000001a0: 32fb 6b35 23f7 0036 31cb 2135 6c7d a234
000001b0: bbb9 ae34 efc9 0036 1212 2535 849f 4334
000001c0: ba95 9634 4a07 b435 3de1 6d36 0f5c 6334
000001d0: f2db 3934 9d37 5535 838e e834 fa61 ad34
000001e0: 1de0 4036 c312 5635 dcae ca34 16d2 0a35
000001f0: 5e85 da35 d93d e135 2b86 8f35 b49d ac35
2.3317857e-06 2.6164673e-06 2.4648136e-07 7.062927e-07 4.7161282e-07 4.2974384e-07 6.1032335e-07 4.583109e-07
5.01766e-07 1.2139715e-06 1.841288e-07 1.3501812e-06 1.3815542e-06 1.2111523e-06 1.0073281e-07 1.3923491e-06
3.2258959e-07 1.4877644e-06 2.3050708e-07 1.0753412e-06 4.2270858e-07 2.3761137e-07 3.8124247e-07 1.7100828e-06
1.5023754e-06 2.787369e-07 3.2592877e-07 7.039511e-07 1.1551994e-06 4.24555e-07 9.109069e-07 1.2867234e-06
5.3535837e-07 7.7143017e-07 7.232283e-07 5.5978546e-07 5.28932e-07 9.0328564e-07 3.4823753e-07 6.4250065e-07
2.1790547e-06 7.55e-08 3.918296e-07 3.2964485e-06 1.0538215e-06 2.3430368e-07 8.1833537e-07 3.4583766e-07
1.8126129e-07 7.350642e-07 6.3477194e-07 2.7723303e-07 2.4147772e-07 4.4015263e-07 1.3024508e-06 1.2467732e-06
2.1033925e-06 2.3079256e-06 7.856375e-07 1.6467911e-06 1.1997525e-06 1.013708e-06 4.5564997e-07 5.0093695e-07
8.2304734e-07 1.2921398e-06 1.3937893e-06 4.519507e-07 1.0609799e-06 1.2676119e-06 2.5208425e-07 7.850215e-07
1.5085429e-06 1.5401839e-06 7.180459e-07 2.3184523e-06 2.730793e-06 1.2054928e-06 2.5654273e-07 6.150764e-07
2.433766e-06 1.2753524e-06 2.7826133e-07 7.6168067e-07 5.781361e-07 1.4261292e-06 1.7333666e-07 1.2746762e-06
6.489156e-07 8.347979e-07 3.1860822e-07 2.1452747e-07 2.2954059e-07 5.206764e-07 1.2324089e-06 8.480812e-07
1.4055694e-06 4.8588356e-07 9.584649e-07 6.556901e-07 4.3704145e-07 8.2625644e-07 1.6692843e-06 4.851557e-06
8.790986e-07 1.9217339e-06 6.0272856e-07 3.0266108e-07 3.2545162e-07 1.9191027e-06 6.1493586e-07 1.8218822e-07
2.8048618e-07 1.3413166e-06 3.5446858e-06 2.1174513e-07 1.7309483e-07 7.942961e-07 4.3317058e-07 3.2295048e-07
2.874068e-06 7.9748514e-07 3.775266e-07 5.171472e-07 1.6281081e-06 1.6781806e-06 1.0693378e-06 1.2860896e-06
