Goodminton/Assets/results/Badminton/Badminton/Badminton-4647.pt (torch, 439033 bytes, 36 tensors)

network_body._body_endoder.seq_layers.0.weight f4 [128, 5]
000000 1c a2 fc bc aa e7 53 bf 92 3d d1 3e 5b ae ac 3e
       -0.030839019 -0.82775366 0.40867287 0.33726773
000010 d4 bb 84 3f b5 75 e9 be 7a 84 8c 3e d2 59 96 3e
       1.036982 -0.45597616 0.27444822 0.29365402
000020 30 c8 0b bc bf 04 e9 3c 83 ec cb bd e5 76 22 3e
       -0.008531615 0.028444646 -0.099572204 0.15865667
000030 ea 6e df 3e c8 d7 74 bf d9 f3 48 3f 6f a3 84 3e
       0.43639308 -0.95641756 0.7849708 0.2590594
000040 34 92 08 3f 10 4f 79 be bd bc 03 bd 55 c9 cf 3e
       0.5334809 -0.24346566 -0.032162417 0.40583292
000050 69 4d 26 be db 00 e4 3e 3e 30 b7 be f7 33 19 be
       -0.16240467 0.44531903 -0.35778993 -0.1496123
000060 92 23 38 3f 53 c6 f6 3e 59 db 7d 3f f6 4b 45 bf
       0.71929276 0.48198184 0.9916282 -0.7706903
000070 64 84 16 3f 38 24 53 bf f3 75 32 bf 23 a1 f0 be
       0.5879576 -0.8247714 -0.69711226 -0.46997938
000080 92 6b 66 3d 95 46 5c 3d 83 2e 16 3b 2a 14 e3 3d
       0.05625493 0.05377825 0.0022915907 0.1108783
000090 0a dd d4 3e a8 50 29 bf 5a 5f e4 be ef e1 26 bf
       0.4157489 -0.66138697 -0.44603997 -0.651885
0000a0 45 43 38 3e 5d 39 fd be 00 5c 19 be 2d 22 36 bd
       0.17994411 -0.49457827 -0.14976501 -0.044466186
0000b0 7b 8a 91 bf 56 12 46 3f 55 5b 12 bf 4a e4 36 3e
       -1.1370386 0.7737173 -0.5717061 0.17860523
0000c0 54 fe 17 3f 2f e4 ed be c4 d5 cd be 7c 63 9c 3e
       0.5937245 -0.46463153 -0.40202153 0.3054465
0000d0 f5 ea 3b bf ea a4 84 3e c6 81 85 be cc 2e 2b bb
       -0.7340539 0.2590707 -0.26075572 -0.0026120422
0000e0 44 16 0a bf 75 c4 3f bf 0b 74 22 be 35 d3 aa 3e
       -0.53940225 -0.74909145 -0.1586458 0.33364263
0000f0 00 ba 18 bf 61 57 fd be 13 c6 6f 3b 98 f6 9b bd
       -0.59658813 -0.49480727 0.0036586567 -0.076153934
000100 b5 ae 4e 3e 9a a8 9f 3e 71 d5 24 3f a6 88 75 3e
       0.20183833 0.3118332 0.64388186 0.23977908
000110 b5 d9 53 bf 4d 3c 6c be bf 47 d8 3d c7 17 a0 3f
       -0.8275407 -0.23069878 0.105605595 1.2507256
000120 1b f8 20 3f a7 7b ff bd 25 75 ad 3e e0 12 8b 3e
       0.6287858 -0.12474757 0.33878437 0.27162838
000130 2f b5 14 bd 26 8f 9e 3e b0 dc 85 be 56 24 01 bf
       -0.036305603 0.3096859 -0.26144934 -0.5044607
000140 37 15 96 bd de 1d 18 bf 1d f3 f7 3e 3a d3 72 3f
       -0.07328265 -0.59420574 0.48427668 0.94853556
000150 89 d6 95 bc 84 20 49 3f f6 99 3d bd bd fe 23 bf
       -0.018290775 0.7856524 -0.046289407 -0.64060575
000160 ce 28 89 3f 09 df 0d 3f 1a 03 82 be 2a 3c 99 bd
       1.0715578 0.5541845 -0.2539299 -0.074821785
000170 68 9e db be 39 0a ff 3e df 1e 13 be a9 06 18 3e
       -0.42894292 0.49812487 -0.14367245 0.1484629
000180 13 b3 5b be 09 54 27 bf 81 e8 88 3e 62 8e 38 bf
       -0.2145503 -0.653626 0.26739886 -0.7209226
000190 e2 ad 0e be d4 ff 6f 3f be fb 78 3e 9c 51 71 3e
       -0.13933519 0.9374974 0.24314782 0.23566288
0001a0 84 f8 0c bf 52 41 da 3d f8 5e 23 3e 9e f3 27 3f
       -0.55066705 0.1065699 0.15954196 0.65606105
0001b0 43 10 11 3f e2 9e fe bc 80 a1 1a bf 94 ee 5d bd
       0.5666544 -0.03108162 -0.6040268 -0.054182604
0001c0 68 e6 bc bd 47 7a f1 be d6 73 b7 3e 8c 0d e9 be
       -0.09223634 -0.47163603 0.35830563 -0.45518148
0001d0 7c 8a 1a bf 45 5f 5a be 0f 6a 82 be 76 2c 88 3e
       -0.6036756 -0.21325405 -0.2547154 0.2659642
0001e0 cc 3d d2 3e da a5 93 bc ec d4 f3 be dd be 90 be
       0.41062772 -0.01802342 -0.47623384 -0.28270617
0001f0 6b c1 e7 be 4e c1 10 3f ce ca 85 bd 14 42 82 bf
       -0.45264754 0.5654496 -0.065328225 -1.0176415
000200 c2 61 3a 3e a6 3b 50 bf dc dd 9d 3e 6b 0c 5c be
       0.18201354 -0.81341016 0.30833328 -0.21489112
000210 f1 da 56 be 7e 42 c9 be 90 5f bb be c4 12 b4 3e
       -0.20981957 -0.39308542 -0.36596346 0.35170567
000220 30 d2 76 3e 9d 4b 61 3e 19 27 66 3e 83 a7 aa bd
       0.24103618 0.220015 0.22475852 -0.083327316
000230 b4 b5 2a be 48 e7 1c bf 0b b4 c0 3d 62 75 52 3e
       -0.16670877 -0.6129041 0.094093405 0.2055259
000240 2d a3 3f 3d 12 5c 22 3d 8b 5d c0 3d c6 56 a6 3e
       0.046786476 0.039638586 0.09392842 0.32488078
000250 4b 10 7e bd 53 05 de 3e fe 58 3b 3e d1 28 91 3e
       -0.062027257 0.43363437 0.18295667 0.28351453
000260 29 81 79 3f 8a f1 03 3f 3e 21 22 bf cb bb c4 3d
       0.9746271 0.51540434 -0.63331974 0.09606131
000270 43 9c a3 be c1 8d fc be c8 9c fc 3d 11 f8 3e bf
       -0.31955156 -0.493269 0.12334591 -0.7459727
000280 ac 1a 69 3f 47 0c 51 bd 7e 63 46 3f 88 4d 0a bd
       0.91056323 -0.0510371 0.77495563 -0.033765346
000290 78 28 11 be d6 2b 0c be 71 6f f8 be aa c7 12 3f
       -0.14175594 -0.13688597 -0.48522523 0.57335913
0002a0 54 12 93 be 95 70 3b bf b8 9d c3 be fb 78 d2 be
       -0.2872492 -0.7321866 -0.38206267 -0.41107926
0002b0 e6 fe 0f 3d b0 85 b3 3d 58 09 2b 3f 4e a8 1b be
       0.0351552 0.08765733 0.6681113 -0.15200922
0002c0 c3 4d 96 bd 9f b1 95 3d ed a0 37 be 00 38 c6 3d
       -0.073390506 0.07309269 -0.17932482 0.0967865
0002d0 49 2d c7 3e 21 74 d8 bd 33 da 6f be 19 8b 9c be
       0.38901737 -0.10569025 -0.2342308 -0.30574873
0002e0 98 0d 91 bc 47 90 74 bf ba 73 12 3c 99 66 83 3e
       -0.017706677 -0.9553265 0.008938724 0.25664213
0002f0 45 8b ff 3e f6 3a 9b 3c 38 82 4d be 5b 1d 00 3f
       0.49910942 0.018949013 -0.20069206 0.5004479
000300 d2 28 f3 3c 81 54 26 3f f6 26 7f bc e2 77 33 be
       0.02968255 0.6497269 -0.015573254 -0.175262
000310 47 42 4a 3e c1 cd fe bd 87 3f fa bd ed 7a 21 bf
       0.19751845 -0.12441588 -0.12219148 -0.63078195
000320 c2 46 16 bf e0 14 cf be c7 29 41 3e 46 4a 75 3e
       -0.5870172 -0.40445614 0.18863593 0.23954114
000330 6e 91 8e 3e 1d e9 82 be 7c 56 fc be 12 71 0e 3f
       0.2784533 -0.25568476 -0.49284732 0.5564128
000340 fd 0c 9a 3d c6 b4 8f bf a3 b4 7b 3e c4 95 cb bd
       0.075220086 -1.1227043 0.24580626 -0.09940675
000350 ca ae a3 3e f6 f3 a6 3e 4b 48 d3 bd 0e f6 d2 3e
       0.3196929 0.32608002 -0.10316523 0.4120335
000360 ed 3a 4c 3e 98 8a ea 3d eb ac 5c 3e d1 8c b7 3d
       0.19944353 0.11452216 0.21550338 0.089624055
000370 5e 8c a0 be 58 8e 6a bf fc eb ce be 7c a0 83 3e
       -0.31357092 -0.9162345 -0.40414417 0.25708377
000380 51 32 27 bf e7 95 ba be 6b be 6e be 73 85 7e bf
       -0.6531115 -0.3644249 -0.23314826 -0.9942238
000390 3b 91 80 be 1c a6 a5 3e 9f 79 74 3d 68 ec 93 bc
       -0.25110802 0.32353294 0.0596863 -0.018057063
0003a0 66 03 d4 3e 28 80 26 be 9f d3 e3 be 7f ac 0c 3f
       0.41408843 -0.16259825 -0.44497392 0.5495071
0003b0 44 01 b9 be 88 58 a8 3e a7 36 b9 bd d6 5c 03 bf
       -0.36133778 0.32880044 -0.09043627 -0.5131353
0003c0 2e d6 2d 3e 2a 4c 22 3e e4 31 37 be 87 15 a4 be
       0.16976234 0.15849367 -0.17890126 -0.32047674
0003d0 41 93 6d 3e ce 90 65 bf 42 e3 43 3e 60 8e 67 bf
       0.23200704 -0.8967408 0.1912966 -0.9045162
0003e0 ee 5e 0c 3f 51 3c 99 be 65 da 3c bd 0d 61 b0 be
       0.5483235 -0.2992883 -0.046106715 -0.34449044
0003f0 bd 4d c1 3e 43 20 b8 be eb 83 d1 3e 44 fa 98 be
       0.37754622 -0.35962114 0.40920958 -0.29878438

network_body._body_endoder.seq_layers.0.bias f4 [128]
000000 f5 01 37 3c 4a 58 93 3c 64 75 a3 bc 5e bb 94 bc
       0.0111699 0.017986435 -0.019953437 -0.01815575
000010 19 01 0e bc 74 35 1d bc 5a 9b 9e 3c e1 e3 de b9
       -0.008667254 -0.009595264 0.019361187 -0.00042512923
000020 a2 f7 2c ba a2 e9 cd bb ec e1 b3 bb b2 97 05 3b
       -0.00065981795 -0.0062839547 -0.0054895785 0.0020384607
000030 6d cf aa 3b 12 9d ba bb 95 d8 74 3c 64 59 d0 bb
       0.0052127154 -0.005694994 0.014944215 -0.0063583124
000040 06 53 69 3c 9e bc 5f bc 9f f4 9d 3a 2d d5 a7 bb
       0.014240986 -0.01365581 0.0012051052 -0.005121848
000050 af 23 7a bb f7 06 ad bb 06 1b f4 bb 8d 45 0a bb
       -0.0038168242 -0.0052803713 -0.0074495105 -0.0021098584
000060 ff d9 4c ba b0 a2 39 ba 07 93 87 bc b3 a5 6e bc
       -0.00078144664 -0.0007081432 -0.0165496 -0.014565873
000070 8e d3 3c 3c fb 0a 94 3c 3a 40 9e 3c 4a 7e 92 bc
       0.011525048 0.018071642 0.019317735 -0.017882485
000080 e2 49 ae 3b a4 23 4d 3c 84 19 ff 3b c6 79 43 bc
       0.005318866 0.012520704 0.007785024 -0.0119308885
000090 69 b6 86 bc 14 34 96 3c 23 8a 5b 3c 3b a7 18 3b
       -0.016444402 0.01833538 0.013399634 0.0023293037
0000a0 aa 1e 0b 3b 8c 18 3e 3c fe 99 89 bc 8a 60 df bb
       0.0021227994 0.011602532 -0.016797062 -0.0068169283
0000b0 5e b1 80 bb 0a be 87 bc 17 67 77 3c 50 01 de bb
       -0.003927394 -0.01657011 0.015100262 -0.006775059
0000c0 cc 3a ee b9 19 75 28 3c 88 c5 76 3c 2e 6b bd 3a
       -0.00045438705 0.0102818245 0.015061744 0.0014451498
0000d0 60 38 ff ba e1 f0 c4 bc b7 7e 65 ba 09 78 86 3c
       -0.0019471757 -0.024040641 -0.0008754539 0.01641466
0000e0 03 03 34 3b f4 b1 31 3c 4d 02 0b 3b eb 2f e4 3b
       0.0027467615 0.01084565 0.0021211088 0.00696372
0000f0 a1 df e0 bb e0 b4 5a 3c 54 72 b3 3a 9e c7 7a 3c
       -0.006862596 0.013348788 0.0013690689 0.0153063815
000100 da 5a 5d bc 05 1b 90 3c 9d e7 f6 38 ca fd 67 bb
       -0.01351043 0.017591009 0.000117733354 -0.0035399073
000110 e1 50 8e 3c 39 d5 68 bc 50 7a b9 3b 0d fe 88 bc
       0.01737255 -0.0142109925 0.0056603327 -0.016722703
000120 9c 13 8b b9 71 ef 3a bc a3 85 44 3c f7 64 0e bb
       -0.00026526756 -0.011409626 0.011994752 -0.002172766
000130 0d 22 f4 3b 42 ef 0b 3c 4f c2 03 3c d0 6d 65 bc
       0.007450348 0.00854093 0.008041932 -0.014003232
000140 95 27 bb bb 43 06 44 3b 0a 0a 4b bc ff 0c af 3b
       -0.0057115057 0.002991096 -0.01239253 0.0053421254
000150 20 05 f7 bb e0 83 99 3c 91 37 60 bc 10 da 37 3c
       -0.0075384527 0.01873964 -0.013685123 0.011221424
000160 5c 81 aa bc 38 6f 1b bc 0a d8 52 bc 26 d4 31 bb
       -0.020813636 -0.009486966 -0.012868891 -0.0027134507
000170 95 64 85 3c f7 da 89 3b ab 00 fa bb 68 48 99 3c
       0.016283313 0.004207011 -0.007629474 0.018711284
000180 b2 32 65 bb 2b 65 39 bb 0b 1c 9a bc b0 a1 95 3c
       -0.0034972844 -0.002828906 -0.0188122 0.018265575
000190 06 78 14 bc 8f a6 41 3b c3 5a 46 3b 3e eb 09 bb
       -0.009061819 0.002954874 0.00302665 -0.0021044756
0001a0 69 4b 39 bc 9d 3f f6 bb 13 4a 1e 3c a3 38 e7 3b
       -0.011309483 -0.0075149075 0.009661215 0.007056312
0001b0 a6 fd 03 3b 47 04 89 3c 22 18 5b bc 3c 58 ae 3b
       0.00201402 0.016725672 -0.013372453 0.005320577
0001c0 4c b2 8b 3c 79 92 19 bc 3e 84 76 bc 61 b1 29 3b
       0.017052792 -0.009373301 -0.015046177 0.002589308
0001d0 20 1d 0d bc b9 b2 69 3c 7e 17 07 3a 4f 9b 19 bc
       -0.008612901 0.014263802 0.0005153342 -0.009375407
0001e0 03 f7 87 3c 53 a7 bd 3a cb 47 3f bc f0 09 b3 3b
       0.016597277 0.0014469422 -0.011674832 0.005463831
0001f0 46 5b aa 3c 9e 70 ac bb ab 43 90 3c a6 95 e5 3b
       0.020795476 -0.0052624485 0.017610392 0.007006365

network_body._body_endoder.seq_layers.2.weight f4 [128, 128]
000000 90 59 a8 bd af ed 63 3d 39 59 b9 3c a1 9f 96 bd
       -0.08220208 0.055646595 0.022625552 -0.073546655
000010 4a 27 33 be 37 03 23 3e 70 40 e6 3d 97 a7 ec 3d
       -0.17495456 0.15919195 0.11242759 0.11555403
000020 b1 71 17 bd aa 01 c3 3d b4 1c 6c bd 5e 82 40 3d
       -0.03697366 0.09521802 -0.05764456 0.046999328
000030 b6 3b 9c bc 4a 88 23 3d 66 cd 6d 3e 8c 96 ad 3c
       -0.019071441 0.039924897 0.23222885 0.02118995
000040 7f 75 87 3d 58 39 91 3c e2 84 af bd da 5f 64 bd
       0.066142075 0.017727539 -0.08570267 -0.055755474
000050 37 74 24 bd c6 74 12 3d d2 1c a5 3d df 3f 52 bc
       -0.040149894 0.035755895 0.08062138 -0.012832611
000060 a0 b5 9d 3d ce 36 8b bd a5 16 39 3d 3e f4 63 3d
       0.07700658 -0.067975625 0.04518761 0.05565285
000070 4a 29 98 bd 79 25 85 bc 11 3a b3 bd 4a 34 94 bc
       -0.0742975 -0.01625322 -0.0875131 -0.01809134
000080 da 3b c0 bd e1 92 c9 bd 36 43 17 3e 06 9c ce 3d
       -0.09386416 -0.09842468 0.14771733 0.10088353
000090 f4 3e 2a 3c c2 3b ce bc 4e 31 85 bd 67 8b 6b bd
       0.010390986 -0.02517498 -0.06503545 -0.05750599
0000a0 b0 55 0e bb 4c 15 97 3d e7 36 62 be b2 62 90 3c
       -0.0021718554 0.07377109 -0.22091256 0.017625187
0000b0 4d e5 b9 bc b5 34 12 3e da 66 09 bd e5 bf 79 3d
       -0.022692347 0.14277919 -0.033545353 0.06097402
0000c0 0c f0 62 bd 8f fa 47 bd e8 91 06 bc 52 92 85 3d
       -0.055404708 -0.048822936 -0.008213498 0.06522049
0000d0 55 9a 55 3c 71 78 d8 3c 24 df 9f 3b 17 5c fa bd
       0.013037284 0.026424618 0.0048788954 -0.12224596
0000e0 e5 45 26 3d bf 96 8f bc 43 d8 d9 bd 71 7e 24 3d
       0.040594 -0.017527936 -0.10636952 0.040159646
0000f0 ee f3 9e bc be ec b3 3b 23 32 42 3e 14 b7 ba 3d
       -0.019403424 0.0054908684 0.18964438 0.09116951
000100 6e f0 83 3e cf 99 b3 3d 86 63 08 be 76 71 dd 3d
       0.2576937 0.08769571 -0.13319215 0.108126566
000110 5a 9d 54 3d 81 d4 86 3c 57 7b 6b be 07 86 f7 bd
       0.051907875 0.016458752 -0.22996269 -0.120861106
000120 70 06 bc bc a8 a2 c9 bd d9 0b 6c 3d b5 a6 48 3d
       -0.022952288 -0.09845477 0.057628486 0.04898711
000130 61 92 96 3c c0 76 33 3d a2 c4 eb 3c 4d e4 c9 3d
       0.018380346 0.04381442 0.028780285 0.09857998
000140 f2 25 70 bd 89 35 82 3d 56 9e b9 3d 7f 6c 27 be
       -0.058629937 0.06357867 0.09063403 -0.16349982
000150 a6 cd 80 b9 2c f2 81 bd 4d e3 92 bd 48 0d 88 3d
       -0.00024567283 -0.06345019 -0.071722604 0.06643158
000160 37 dd c8 3c 66 49 d8 3d 76 9b b1 3d e3 f6 1c bd
       0.024519546 0.10560875 0.0867223 -0.038321387
000170 34 7a e0 3a 1b a6 8c 3d 97 bb e4 bc 16 fd 6d bc
       0.0017126263 0.068676196 -0.027921481 -0.014525672
000180 9f 51 75 3d 91 54 02 3d 76 36 e8 3d 13 85 55 3d
       0.059892293 0.03181893 0.113385126 0.052128863
000190 ea ae 82 3d 60 e1 11 bd d8 be 98 3d 4b 2a 3d bd
       0.063810185 -0.035615325 0.074582756 -0.04618291
0001a0 9d 33 a9 bc 42 7f 9f bd 87 9b 18 3c de 60 8f bc
       -0.020654494 -0.077879444 0.009314424 -0.017502245
0001b0 e5 d5 ed bd c9 ff 0d bc aa 35 a0 3d 94 e4 bc 3b
       -0.11613063 -0.008666941 0.078227356 0.0057645533
0001c0 40 e2 58 3d 0b 36 1a 3d 01 81 09 3d e7 e2 75 bd
       0.052950144 0.037649196 0.033570293 -0.060030844
0001d0 d9 44 5d 3e fe 97 55 be 18 17 de bd 13 c8 92 3d
       0.21608295 -0.20858762 -0.108442485 0.071670674
0001e0 72 c9 ef bc cc 47 93 3d 20 d9 99 3d 17 f8 09 be
       -0.029270861 0.071914285 0.075121164 -0.13473545
0001f0 8e 9b 84 bd 08 d1 fe 3b 87 30 5e bd 49 46 fa 3d
       -0.06474982 0.0077763833 -0.054245498 0.12220437
000200 ff 98 ba bd 3c 6e 9c bb 46 4f 07 be de 8e c7 3d
       -0.09111213 -0.004773883 -0.13213834 0.09744047
000210 f7 21 57 3d ca c5 39 bd 2d c1 a4 3c f5 4e c1 bc
       0.052522626 -0.045354642 0.020111645 -0.02359722
000220 0c 1a 76 bd 5d ef 81 bd 15 cb c5 3d ce bd dd bc
       -0.060083434 -0.06344483 0.096578754 -0.027068045
000230 07 ad 9c bd 45 57 be bc 89 04 d3 bc 4e 41 fa bd
       -0.0765019 -0.023234973 -0.025758998 -0.12219487
000240 2d 25 df bc bd 1a 0d 3e 6a 08 09 be 08 15 4f 3d
       -0.027239406 0.13779731 -0.13382116 0.050557166
000250 b2 56 9d bc be cc ce 3d 52 16 bb 3d f5 84 21 3d
       -0.019206379 0.10097645 0.09135117 0.03943344
000260 d4 b4 f5 bd 43 62 a1 bc 65 f9 c7 3c 9c ed 15 be
       -0.11997381 -0.019700175 0.024410913 -0.14641422
000270 a7 26 2c 3e 93 cd 30 be 2f 35 8a bd a7 c7 78 3d
       0.1681162 -0.1726592 -0.06748425 0.06073728
000280 e0 8a bb 3d a5 55 66 be 59 b3 98 3c a1 d2 e2 bd
       0.09157348 -0.22493608 0.018640207 -0.110753305
000290 88 05 36 3d 0a 69 dd 3d 75 63 04 be 33 0d c9 3c
       0.04443887 0.1081105 -0.12928565 0.024542427
0002a0 9f 0f 90 bc f9 25 a9 bd b9 2b 7f 3d e4 ca f7 bc
       -0.017585574 -0.08259196 0.062297557 -0.030248113
0002b0 56 42 a0 3d 0c 7e f0 bd 5b e7 c6 bb fb 18 e6 3d
       0.078251526 -0.117427915 -0.00607006 0.112352334
0002c0 b2 3b 47 3d dc a5 9c bd 96 a7 43 bc 5f 43 52 bd
       0.048640914 -0.07648823 -0.011941811 -0.05133378
0002d0 11 c9 89 bd c5 9d 26 bd 36 ce ab bc f6 4c 5e 3b
       -0.067278035 -0.040677804 -0.020972352 0.0033920384
0002e0 2c de 1b bd 29 dd d7 bc 98 0a 85 3e 5d cf 35 3e
       -0.038053676 -0.026350575 0.25984645 0.17754884
0002f0 5c fb 9b bc 44 6e 5a be 3d a1 50 bd 6f 93 8e bc
       -0.019040756 -0.21331125 -0.05093502 -0.017404286
000300 2e 64 46 bd a8 f1 63 3c 44 71 05 bd 13 9b 13 3e
       -0.048435383 0.013912596 -0.03257872 0.14414625
000310 e8 c1 f1 bd 5f 47 cf bd ff d8 a2 bd 5e a0 3f be
       -0.11804563 -0.10121035 -0.07951545 -0.18713519
000320 33 b4 f2 3c b6 d9 b5 3c 99 b5 99 bd 29 c4 d8 3d
       0.029626941 0.02219854 -0.0750534 0.105842896
000330 51 c9 29 bd 60 24 80 3c 06 ad a6 3d af e3 33 bd
       -0.041451756 0.015642345 0.0813847 -0.043918308
000340 a1 c0 a3 3d d7 42 3d be ec c7 c7 bd 2a a1 24 be
       0.079957254 -0.18482529 -0.09754929 -0.16077104
000350 38 04 21 bd 7b a9 65 bd 06 42 f2 3b 8d d0 05 3d
       -0.039310664 -0.056069832 0.0073931245 0.032669593
000360 68 c4 d4 bd 1e 00 9a 3c 01 f8 b8 3d 48 ea 98 3d
       -0.10389024 0.018798884 0.09031678 0.074665606
000370 32 d3 c9 bc 6a ee 8f bd f5 02 9b 3d 2a 9b cc 3c
       -0.024636839 -0.07027896 0.075689234 0.024976332
000380 27 c7 84 bc e8 b5 78 3d 78 ff fe bb b4 9b cc bd
       -0.016208244 0.060720354 -0.007781919 -0.099906355
000390 ae d5 a9 bb c9 23 b7 3d 5c ba 86 bd be cf 14 be
       -0.0051829433 0.08942372 -0.06578514 -0.14532372
0003a0 51 15 40 3b 12 80 79 3d 75 67 31 3e 6f 28 33 be
       0.002930958 0.060913153 0.17324622 -0.17495893
0003b0 fe e6 6b bd d2 c8 9d bc d1 73 0d bd 0b f1 87 3d
       -0.05759334 -0.019260798 -0.03453428 0.06637772
0003c0 50 4d eb bd 8c 30 16 3e c2 a6 e0 3d 2e c7 42 be
       -0.114893556 0.14666957 0.109693065 -0.19021294
0003d0 07 16 c6 3d 0f ab d7 3c 86 3f bc 3b c6 41 56 bd
       0.0967217 0.026326684 0.0057448773 -0.05230882
0003e0 a0 c2 aa 3a dc 31 47 bd 5c 08 27 bd 15 19 1c bc
       0.0013027973 -0.048631534 -0.040779456 -0.009527464
0003f0 fb 72 48 bd d9 45 0e 3d e7 bb d1 bc cc 9f 1b 3d
       -0.04893778 0.03473458 -0.025602294 0.03799419

network_body._body_endoder.seq_layers.2.bias f4 [128]
000000 0f ac 87 3a 4e dd 18 bc be bb d5 bb 43 14 86 3c
       0.001035096 -0.009330107 -0.0065226248 0.016367083
000010 33 4a 14 3c 4c cb 6b bc 6d 1f 24 bc 91 aa 04 3c
       0.009050894 -0.0143917315 -0.010017258 0.008097307
000020 3d b0 17 3c 63 51 43 bb e9 03 96 3b 1e e3 7c bb
       0.009258327 -0.002980315 0.004578103 -0.003858752
000030 aa e8 19 3c 3b df 3d bc 88 fb b9 bb 7d 49 ac 3c
       0.00939385 -0.011588867 -0.005675737 0.021031136
000040 24 8f 16 bc d9 d3 38 3b 9d 00 90 3b e0 2c 28 bc
       -0.009189401 0.0028202443 0.0043946044 -0.010264605
000050 5b cf 69 bc 9a 8c 24 bc e4 24 60 3c 02 50 42 3c
       -0.014270629 -0.010043288 0.01368067 0.011859896
000060 49 cc f1 3b b8 3b 26 bc 03 88 da ba 3a 01 26 bc
       0.007379089 -0.010146074 -0.0016672615 -0.010132128
000070 0e ae 8f 3a dd dc f4 3b 68 86 af bb 3f 2b 7e bc
       0.0010961907 0.007472618 -0.0053565986 -0.01551324
000080 0c 5f fa bb 37 7f 89 3c fd 5f c7 3c 48 e7 09 3b
       -0.007640725 0.016784294 0.024337763 0.0021042395
000090 e8 be 03 bc 38 41 5c 3c 93 44 3c bc f8 b0 1d bc
       -0.008041121 0.013443284 -0.011490959 -0.009624712
0000a0 57 e1 55 bc df ac b6 bb f7 e1 b6 3b 58 22 78 bc
       -0.0130542135 -0.005574807 0.0055811363 -0.015144907
0000b0 36 99 ce 3c 39 99 97 3c f6 51 bb 3b 3a 5f 6f bc
       0.025219541 0.01850568 0.0057165576 -0.014610106
0000c0 05 bc e3 bb 87 e9 86 bb 32 f3 70 bb 97 c0 4f 3c
       -0.006949904 -0.004117194 -0.003676605 0.012680194
0000d0 ce a3 20 bc c1 9a 76 bb 08 78 5d bb ab ec 53 bc
       -0.009804679 -0.0037628862 -0.0033793468 -0.012934844
0000e0 48 c3 53 bb c5 4d 0c bc 17 40 4e bb 62 ce 4a 3c
       -0.0032312442 -0.008563464 -0.0031471306 0.012378307
0000f0 6b 0b 77 3c 00 83 20 bc a3 00 8c 3b 41 a9 07 3c
       0.015078406 -0.009796858 0.004272537 0.008280099
000100 3d 52 58 3c 07 49 03 bc 8f e7 3a bb 67 ff af 3c
       0.013203201 -0.008013017 -0.0028519367 0.02148409
000110 4d ba dd 39 b1 0b 93 3c c6 90 4f bc 95 4d bf 3c
       0.0004229121 0.01794991 -0.012668794 0.023352424
000120 b7 f9 0c bb 2d e1 40 bb 73 9b 7d 3a bb ea 1a 3a
       -0.0021511146 -0.002943109 0.0009674348 0.00059096114
000130 62 75 7c bc 2a dc 3c 3a ec 86 b0 bb ee b6 6f 3c
       -0.015408846 0.0007204438 -0.0053871777 0.014631016
000140 d1 bb b7 bb ae 80 2a bb 57 96 3c bc d2 f4 04 bb
       -0.0056071063 -0.002601664 -0.011510453 -0.0020287526
000150 b2 68 58 bc 42 fa e8 bb 2a dc 86 3c d1 70 2c 3c
       -0.013208555 -0.007109911 0.016462404 0.010524944
000160 0c 86 46 3c 29 96 15 3c 48 6f f3 3b fa 5d 4d bb
       0.01211692 0.009130039 0.0074290372 -0.0031336532
000170 fc 59 d5 bb 3d e6 42 bc 53 9e 01 bc 31 c2 0c bc
       -0.006510971 -0.011895713 -0.007911283 -0.008591221
000180 23 b8 48 ba a6 a8 52 3c 38 03 03 bc 0d 93 c1 3c
       -0.0007656833 0.012857592 -0.007996373 0.02362969
000190 78 9f b9 3c 89 b9 ef 3b 62 c5 ab 3c 1d 11 11 3a
       0.022659048 0.0073158187 0.020968143 0.0005533861
0001a0 4d 30 0a ba 00 f6 23 3b 42 c6 ae 3c bd 39 dd 3b
       -0.00052714796 0.0025018454 0.021334771 0.0067512677
0001b0 96 64 4d bb 20 66 07 3c 8f d1 77 bb 79 b0 48 bc
       -0.0031340471 0.008264095 -0.0037814116 -0.012249106
0001c0 b1 fb 8f 3b 7a 1c 46 3c 10 dc 96 bc 6a c0 92 b9
       0.0043940176 0.01209175 -0.01841548 -0.0002799065
0001d0 90 c8 57 3b e7 f2 8a 3c 54 6c 82 bb 5a 8b 71 bc
       0.003292594 0.016961528 -0.003980199 -0.014742697
0001e0 44 c4 c3 bb 3f 42 d2 bb 03 a0 9a bb 3f 1e 7a 3c
       -0.0059743244 -0.0064165886 -0.004718782 0.015266
0001f0 96 e9 fc ba 4f 58 30 bc 4a 15 8b ba c1 b8 39 bc
       -0.0019295688 -0.010763242 -0.0010611203 -0.011335553

action_model._continuous_distribution.log_sigma f4 [1, 2]
000000 f0 f6 3f bd e7 a2 d9 3b
       -0.046866357 0.006641734

action_model._continuous_distribution.mu.weight f4 [2, 128]
000000 2c eb 53 3c b2 69 03 bd 22 2d bf 39 2a 25 14 3d
       0.012934487 -0.03208322 0.00036463985 0.036168255
000010 92 08 ae 3c 9a de a4 bb f9 39 e8 bc fc 33 2c 3d
       0.021244321 -0.005031419 -0.028347956 0.042041764
000020 80 1e 7a 3c 3c cd 01 3c a0 8e 2a 3c 3c aa ab 3c
       0.015266061 0.007922467 0.010409981 0.020955198
000030 a4 e3 eb 3b 58 ab 86 bc b0 4f d0 bc 2b 0f 24 3d
       0.0071987677 -0.016439125 -0.025428623 0.040053528
000040 a1 8f 91 ba ad 8c f5 3c 09 69 61 bc 54 52 c9 bc
       -0.0011105427 0.029974306 -0.0137579525 -0.02457539
000050 8e a1 81 3a 98 ae 4e bc 5c dc 2f 3d c1 2d c0 3c
       0.0009890066 -0.012614869 0.04293476 0.023459317
000060 18 38 41 3c a4 3c b7 3b fe eb 25 3b d1 d7 02 bc
       0.011793159 0.0055919457 0.0025317664 -0.007986025
000070 1e 03 4e 3c 88 eb c0 3b 19 2a 04 bd 2a 62 5e bc
       0.012573985 0.0058874525 -0.03226671 -0.013573209
000080 0a 4c 85 bc 67 4c c5 3c 60 e5 fe 3c d9 48 eb 3b
       -0.01627161 0.024084283 0.031115234 0.007180315
000090 a2 83 2c bc 5d 83 50 3d a8 5e 6a bb b5 12 84 bc
       -0.010529431 0.050906528 -0.0035761986 -0.016122201
0000a0 74 5e 96 bb 48 e0 2f bd 83 29 38 3c 57 51 eb bb
       -0.0045888964 -0.0429385 0.011240366 -0.0071813273
0000b0 ce a0 8f 3c ba 51 dd 3c 1a 10 2c 3c 5a 4a e0 bb
       0.017532732 0.02701651 0.010501886 -0.006844801
0000c0 af f3 8f bc 74 cc f1 ba e1 9f 07 bd 9f 53 e4 3c
       -0.017572252 -0.0018447773 -0.033111457 0.027871905
0000d0 06 bf d3 bc c8 da 04 3c f6 39 23 3b 37 e7 b1 bb
       -0.025847923 0.008108802 0.0024906374 -0.0054291743
0000e0 5d d6 f3 3b 31 85 1c bc e0 96 ce 3b f8 80 00 3a
       0.0074413256 -0.00955324 0.006304607 0.00049020303
0000f0 9c ab a7 3c 3f b7 de bc 34 af 3c 3c e3 b7 32 3c
       0.020467572 -0.027186988 0.011516381 0.0109081
000100 6b 46 13 3d cb ca 5d bc 71 1f 83 ba bf 2a a4 3c
       0.035955828 -0.013537119 -0.0010003877 0.020039914
000110 0d 54 93 3c 73 13 dd 3c 1a 07 b0 bc 49 2f 0e 3d
       0.017984414 0.026986813 -0.021487761 0.034713063
000120 1e e8 82 3c 31 3a a7 3c 1e ec a1 3a db 68 1c 3c
       0.015979823 0.02041349 0.0012353694 0.009546484
000130 f6 88 1f bc a4 1a 02 bd 62 c9 e0 bc 72 50 b4 3c
       -0.009737244 -0.031763688 -0.027439777 0.022011016
000140 14 61 35 b7 2d 29 46 3c d9 22 d1 39 14 08 fa 3b
       -1.08110435e-05 0.012094778 0.0003988955 0.0076303575
000150 69 f0 eb bc eb d9 0f bc 38 cd 61 3d f2 fd 0c 3d
       -0.02880116 -0.008779983 0.055127352 0.03442187
000160 86 14 ff 3c 20 c5 87 3c ab aa 75 3c 37 c0 83 ba
       0.031137716 0.016573489 0.014994304 -0.0010051791
000170 33 0a ed 3b 9f 63 d0 3a 1b eb f0 3a 51 8f a3 bb
       0.007233882 0.001589883 0.0018380614 -0.00499145
000180 c7 41 ba bc 1d 5e b9 3c 84 35 cf b9 21 7e 32 3d
       -0.022736443 0.022627885 -0.0003952199 0.043577317
000190 77 a6 82 3c d4 1a fc 3a dd 62 91 3c 8c 52 0c bd
       0.015948517 0.001923407 0.017747337 -0.03425841
0001a0 51 e1 b1 bb b6 0e f5 3c 89 80 95 3c 58 76 91 bc
       -0.005428471 0.029914241 0.018249767 -0.017756626
0001b0 e5 43 82 bc 14 ed f6 3c c6 7f 39 bd 2d 9b 52 3b
       -0.015901515 0.030142345 -0.04528787 0.003213595
0001c0 8d 32 ed 3b 41 b4 9b 3c 88 7a 33 bc 31 ab c2 bc
       0.007238692 0.01900685 -0.010954507 -0.023763271
0001d0 f1 3a 17 3c 0e f5 0f 3d 82 90 91 bb b3 1d 9c bb
       0.009230361 0.03514581 -0.0044422755 -0.0047642826
0001e0 af 3c 87 bc 56 4d 81 3b e7 2f 54 3c bb 80 1e 3d
       -0.016508428 0.0039459867 0.012950874 0.038696986
0001f0 e4 de 01 bc c1 45 bc bb 0e 68 4d bb 9d 4a 9e ba
       -0.007926676 -0.00574562 -0.003134254 -0.001207668
000200 1d ff 23 3c de 29 71 3c 14 8a 77 bc 6e e2 2b 3c
       0.010009554 0.014719455 -0.015108604 0.010490997
000210 05 9b c9 3c 2b 6a ac 3b 5c 70 50 3c e2 7c 83 bb
       0.024610052 0.0052616796 0.012722101 -0.00401269
000220 8b 52 d1 3b 81 08 5c 3c 39 3e 82 3c 86 b6 ce 3c
       0.0063880137 0.013429762 0.01589881 0.025233518
000230 36 af c1 3c 58 27 8c bc bc b8 d7 3a c9 7d b3 3c
       0.023643117 -0.017108604 0.0016458253 0.021910565
000240 b6 41 04 bb 28 09 d4 bc cd 0e da bc ee a5 6c bc
       -0.0020180768 -0.025883272 -0.026618386 -0.014443858
000250 eb 0d 3b bb e7 c5 11 bc 08 e2 15 3c 75 d3 f1 3c
       -0.0028542231 -0.008897281 0.009148128 0.029519776
000260 fd 64 26 3c 5c c2 4b bc d1 c3 33 3c 8f b7 07 3b
       0.010155913 -0.012436476 0.010971979 0.0020708775
000270 77 fe c3 3b b1 0f 06 3d ce 6f a5 3a a3 1a ab 3a
       0.0059812623 0.03272981 0.0012621821 0.0013054203
000280 89 86 02 3d 74 1f 12 3d d0 87 25 3c 74 f4 ed bb
       0.031866584 0.035674527 0.010103181 -0.007261807
000290 02 52 d5 3c f7 98 0a bc 09 cf 31 bc e8 05 0b bc
       0.026040081 -0.008459321 -0.010852584 -0.008485295
0002a0 dd 26 61 bc 57 ed b9 bb 2a 25 0c 3d 85 db 1b bc
       -0.013742176 -0.005674045 0.03421513 -0.009512787
0002b0 bc aa 96 3c 2d 00 47 3c 4a 20 da 3b 45 52 44 bc
       0.01839196 0.012146038 0.006656681 -0.011982505
0002c0 2d 8f a8 3c 0d c1 91 3c 43 10 53 3b 32 ae c5 3b
       0.020576084 0.01779225 0.0032205738 0.0060327286
0002d0 e6 7d dd 3c ea 7f 2e bc 97 42 f8 bc ba 7c 1b 3c
       0.027037572 -0.010650614 -0.03030519 0.009490186
0002e0 1d 44 f1 3c 56 83 29 bb 40 7e b8 3b 7a ec 30 3d
       0.029451424 -0.0025865636 0.0056302845 0.04319427
0002f0 d5 64 d0 3b 32 37 fd bb 15 ac 82 3c f5 8e 2d 3c
       0.0063596764 -0.007727527 0.015951196 0.010593166
000300 89 08 ec 3b 6b 99 db 3c a1 8b 0d bd aa 2c ce 3c
       0.007203166 0.026806554 -0.03455699 0.025167782
000310 65 4d 27 bb a0 33 8a 3c f3 08 d3 ba 71 46 1d 3c
       -0.0025528308 0.01687032 -0.001610069 0.009599314
000320 60 a4 92 bc 61 80 34 bc 34 80 eb 3c 9a 39 c5 3c
       -0.017900646 -0.011016936 0.028747655 0.024075318
000330 f8 44 5f 3b 01 4c 24 3d 0b 5a ac 3c 7a 3b 0e 3b
       0.0034068208 0.040111545 0.02103903 0.0021702931
000340 87 32 d9 3b e2 22 96 bc 9b c3 bd bb f9 0d 4c bd
       0.006628338 -0.01832718 -0.0057911403 -0.049818013
000350 86 4c 23 bc 49 78 ae 3c 12 f9 a2 bb 7a f4 42 3b
       -0.009966975 0.02129759 -0.004973539 0.002974777
000360 0f f2 31 3d c1 81 3d 3d 62 96 c9 3b 71 bb 1b 3c
       0.043443736 0.04626632 0.00615196 0.009505139
000370 4c f3 a9 bc ce bf bd bb 7e ad b4 bc 60 2f cf 3c
       -0.020745896 -0.005790687 -0.022055384 0.025291145
000380 c9 ba 61 3c f6 48 9c 3c 2e d2 2c bc b6 0a 55 3c
       0.013777443 0.01907776 -0.010548158 0.013003042
000390 61 5c e6 3b bb 83 7a bb 21 9f b7 3c 02 ad 19 3d
       0.0070300554 -0.003822549 0.022414746 0.03751851
0003a0 e3 21 a7 3c 10 df 1e bd ec 1d b2 3c 93 e9 82 3d
       0.0204019 -0.038786948 0.021742783 0.06392207
0003b0 40 26 d8 bc eb a8 9a 3b 32 64 3a 3c b6 01 bf bb
       -0.026385427 0.0047198436 0.0113764275 -0.0058290614
0003c0 d5 4b 07 3d 84 f9 86 3c c7 5f 8d bc e5 d6 c6 bc
       0.033031303 0.0164764 -0.017257584 -0.024272392
0003d0 90 6a 99 bc e0 e1 7b bb b0 91 e2 bc 42 f9 8f bb
       -0.01872757 -0.0038434193 -0.02765736 -0.0043937275
0003e0 a3 a8 bc bc d6 33 4f 3b 5f 43 90 3c e6 13 50 3d
       -0.023029631 0.003161659 0.01761025 0.050800227
0003f0 c9 e8 ff 3c da e5 26 3b 5a db 82 bc 0b bc 35 bc
       0.03123893 0.0025466592 -0.015973736 -0.011092196

action_model._continuous_distribution.mu.bias f4 [2]
000000 78 6a 4f 3c 07 fc b8 3b
       0.0126596615 0.0056452784

exp_avg f4 [128, 5]
000000 70 13 95 b9 54 e2 7f 38 d3 77 b2 3a 00 00 00 00
       -0.00028433977 6.1007522e-05 0.0013616033 0.0
000010 86 fd 00 99 64 24 74 b9 97 64 8c b8 71 84 b3 39
       -6.6686436e-24 -0.0002328321 -6.6944565e-05 0.00034240217
000020 00 00 00 00 17 41 0b 19 fd b9 51 ba 32 31 96 b7
       0.0 7.199276e-24 -0.00080004317 -1.7904302e-05
000030 cd fc b4 b9 00 00 00 00 18 7d 2f 18 92 67 8a 39
       -0.00034520627 0.0 2.2681376e-24 0.00026398577
000040 74 06 03 36 e2 7d c3 38 00 00 00 00 ed 91 68 98
       1.9524277e-06 9.321772e-05 0.0 -3.005897e-24
000050 99 5b 04 bb 64 cb aa 37 92 ed 44 3a 00 00 00 00
       -0.0020196198 2.036029e-05 0.00075122074 0.0
000060 e9 ce ee 18 7a f8 49 3b 35 c1 b8 38 fb 1f 4d 3a
       6.1730484e-24 0.003081827 8.809791e-05 0.0007824895
000070 00 00 00 00 c7 29 b4 17 2f 2f b1 b9 30 0b 2f 37
       0.0 1.1642773e-24 -0.00033795225 1.0433418e-05
000080 46 00 74 b9 00 00 00 00 45 df c9 96 de 85 02 bb
       -0.00023269755 0.0 -3.2614204e-25 -0.0019916217
000090 91 82 71 36 9e 65 a6 3a 00 00 00 00 f6 46 92 19
       3.5987798e-06 0.0012695079 0.0 1.5124707e-23
0000a0 af 51 1f 3b 9e 67 17 b7 be df 07 bb 00 00 00 00
       0.0024310162 -9.024427e-06 -0.0020732726 0.0
0000b0 be f8 0e 99 b2 42 a4 39 4c ae ce b7 6d 9f 35 bb
       -7.391461e-24 0.0003133021 -2.4638277e-05 -0.0027713433
0000c0 00 00 00 00 f4 61 08 99 1a 99 b1 bb c1 c7 2e 37
       0.0 -7.050817e-24 -0.0054198625 1.0417717e-05
0000d0 ef 2e 8d 3b 00 00 00 00 e5 ff 2b 1a 0d 47 d7 b9
       0.0043085734 0.0 3.556868e-23 -0.00041060933
0000e0 94 15 29 b7 8b b2 b5 b8 00 00 00 00 a8 4e 89 18
       -1.0078209e-05 -8.664009e-05 0.0 3.5493092e-24
0000f0 ef 5b c8 b9 9f 71 f0 36 fe 42 03 3a 00 00 00 00
       -0.00038215469 7.1657846e-06 0.0005007236 0.0
000100 a3 ea 42 17 20 d4 8b 3a 78 6d 0c b7 9d a7 2d bb
       6.2980934e-25 0.0010668077 -8.370138e-06 -0.002649761
000110 00 00 00 00 03 92 37 99 09 98 0f 3b 18 1a 07 38
       0.0 -9.490365e-24 0.0021910688 3.221081e-05
000120 03 ba 11 3a 00 00 00 00 e4 70 aa 98 f6 62 94 39
       0.0005559029 0.0 -4.405796e-24 0.0002830249
000130 f3 bd fb 37 b7 d0 e9 39 00 00 00 00 49 20 13 99
       3.0009984e-05 0.00044596728 0.0 -7.606242e-24
000140 32 b7 a9 39 8b 36 27 b7 e4 0c bd b8 00 00 00 00
       0.00032370683 -9.966675e-06 -9.014623e-05 0.0
000150 6e 86 4a 98 89 1b 42 3a ec 40 0f b8 59 84 79 ba
       -2.6175758e-24 0.0007404616 -3.415432e-05 -0.00095183175
000160 00 00 00 00 7a cf ea 18 d8 65 f8 ba d3 1b da b7
       0.0 6.069708e-24 -0.001895125 -2.6000582e-05
000170 5c e0 60 3a 00 00 00 00 66 9b 9d 19 d7 68 95 ba
       0.0008578354 0.0 1.6296184e-23 -0.0011399043
000180 bd cd f7 36 c3 6c 18 3b 00 00 00 00 30 93 05 19
       7.3851247e-06 0.0023258186 0.0 6.905663e-24
000190 84 d4 1e 3a 93 ac 80 b8 6d 50 76 ba 00 00 00 00
       0.0006058889 -6.13566e-05 -0.00093961396 0.0
0001a0 48 97 72 18 2c 35 c8 ba 0f 80 69 38 1b b0 b0 3a
       3.1354144e-24 -0.0015274636 5.5670793e-05 0.0013480218
0001b0 00 00 00 00 90 3c 54 99 05 61 12 39 78 b9 0b b6
       0.0 -1.0972374e-23 0.00013959788 -2.082057e-06
0001c0 a1 ab 12 b9 00 00 00 00 00 6f 4b 97 c2 32 a3 b8
       -0.00013987582 0.0 -6.573294e-25 -7.7819e-05
0001d0 52 d0 63 b8 4b bb 2d ba 00 00 00 00 0b 35 1c 18
       -5.431503e-05 -0.0006627335 0.0 2.0189307e-24
0001e0 e7 1c c0 39 30 a9 29 37 f2 95 fb 39 00 00 00 00
       0.00036642628 1.0112577e-05 0.0004798617 0.0
0001f0 22 f0 88 18 10 3c 0b bb 38 f0 0b 38 d2 4d 94 3a
       3.539765e-24 -0.0021245517 3.3363904e-05 0.0011314696
000200 00 00 00 00 36 05 6c 19 0c b7 30 3a af 31 7e b5
       0.0 1.2201966e-23 0.00067411433 -9.469467e-07
000210 23 bd 9b b9 00 00 00 00 69 cb 7e 98 c6 82 df ba
       -0.00029704822 0.0 -3.2931426e-24 -0.0017052523
000220 45 2b 18 b8 44 94 e5 b8 00 00 00 00 5b 98 d8 18
       -3.6279922e-05 -0.000109471875 0.0 5.598853e-24
000230 24 fa 9a b8 9b 15 bd 35 0a fd 68 39 00 00 00 00
       -7.3898846e-05 1.4087885e-06 0.00022219509 0.0
000240 71 9c 8b 17 d9 15 dd 3a 99 3e a3 37 4a cd 8b 39
       9.022156e-25 0.0016867473 1.9460264e-05 0.00026665098
000250 00 00 00 00 37 45 bc 98 10 7d ac 3b 62 0b e0 38
       0.0 -4.866675e-24 0.005263932 0.000106832726
000260 38 e0 83 3a 00 00 00 00 96 76 aa 99 c6 3a d2 39
       0.0010061329 0.0 -1.7625484e-23 0.0004009811
000270 cf fd f2 35 94 ff ac b9 00 00 00 00 a1 b4 c7 17
       1.8104273e-06 -0.00032996817 0.0 1.2905671e-24
000280 2d aa 01 ba ab 4a 4f 38 0e b6 a7 3a 00 00 00 00
       -0.00049463176 4.9422186e-05 0.0012795345 0.0
000290 85 27 65 19 ff 0c 1d b9 05 e6 02 b8 53 86 34 39
       1.18470034e-23 -0.00014977528 -3.1208638e-05 0.00017216177
0002a0 00 00 00 00 c0 78 00 18 cf 30 30 39 1c f9 23 b8
       0.0 1.6604575e-24 0.0001680285 -3.909423e-05
0002b0 af 09 e4 b8 00 00 00 00 70 99 fd 16 ce cb 56 b9
       -0.00010873691 0.0 4.0971187e-25 -0.00020484554
0002c0 ad a3 f4 37 1f 66 dd 39 00 00 00 00 a9 31 10 98
       2.9163284e-05 0.0004222849 0.0 -1.8636636e-24
0002d0 85 3c 56 3a 2d 41 40 b7 63 27 aa ba 00 00 00 00
       0.000817247 -1.1459267e-05 -0.0012981709 0.0
0002e0 22 a4 3b 99 99 a0 a2 39 e0 d6 c4 37 f3 52 de 3a
       -9.70082e-24 0.00031018702 2.346508e-05 0.0016961977
0002f0 00 00 00 00 a1 d0 51 18 0e fc 95 b9 cb d0 10 b8
       0.0 2.7117948e-24 -0.0002860729 -3.452673e-05
000300 17 47 93 b9 00 00 00 00 80 10 35 19 e5 88 f2 b9
       -0.0002809099 0.0 9.360813e-24 -0.0004625983
000310 93 37 af b7 50 fd 14 b9 00 00 00 00 52 62 10 18
       -2.0887504e-05 -0.00014208746 0.0 1.8661203e-24
000320 95 9d 2a b9 a3 f6 94 b7 a4 ac 19 b9 00 00 00 00
       -0.00016271167 -1.7757824e-05 -0.0001465553 0.0
000330 b3 88 0e 94 4b ce 5b ba 33 48 27 b9 61 e1 09 bb
       -7.196127e-27 -0.0008384927 -0.00015953257 -0.0021038877
000340 00 00 00 00 94 7d 85 19 06 35 38 39 6e 9c 4d b7
       0.0 1.3802598e-23 0.0001756736 -1.2255374e-05
000350 c3 d7 82 38 00 00 00 00 78 fb cf 98 1f f5 b7 ba
       6.239072e-05 0.0 -5.3762164e-24 -0.0014034844
000360 7c 93 cc 36 da 1a 8d 3a 00 00 00 00 89 a6 3f 19
       6.096843e-06 0.0010765449 0.0 9.9081e-24
000370 12 a2 a2 b8 79 3f a8 b6 cf 74 de b9 00 00 00 00
       -7.75495e-05 -5.0141794e-06 -0.0004243017 0.0
000380 c9 5c be 18 32 ce 8e bb 4e 9c 4d b8 dc 91 22 3b
       4.9207538e-24 -0.0043580765 -4.902138e-05 0.0024806177
000390 00 00 00 00 e6 08 07 1a 68 5b 4d 3b d0 4e 86 37
       0.0 2.7924534e-23 0.0031335 1.6010745e-05
0003a0 25 4f c0 b9 00 00 00 00 c0 82 f5 17 21 e1 81 3a
       -0.0003668006 0.0 1.586576e-24 0.0009909013
0003b0 db 6a 21 38 7b 80 70 3a 00 00 00 00 46 b0 2f 19
       3.8484908e-05 0.00091744185 0.0 9.082886e-24
0003c0 b4 00 62 3b e9 b6 a5 37 6c 8f 2f bb 00 00 00 00
       0.0034485282 1.9754707e-05 -0.0026788367 0.0
0003d0 36 10 3b 99 bd 24 f6 ba d5 a8 14 b8 ae 81 05 38
       -9.670947e-24 -0.0018779259 -3.5443187e-05 3.1830445e-05
0003e0 00 00 00 00 b1 11 8e 19 0d dc 2b 3b 22 b7 6f 37
       0.0 1.4689601e-23 0.002622369 1.4288149e-05
0003f0 dc f4 8c 39 00 00 00 00 d8 e5 d5 98 51 f5 ee b9
       0.00026885315 0.0 -5.5291292e-24 -0.00045577672

exp_avg_sq f4 [128, 5]
000000 a2 5c 9b 38 ee 06 d3 34 d7 c1 37 39 00 00 00 00
       7.40823e-05 3.9306855e-07 0.00017524451 0.0
000010 00 00 00 00 e3 c3 1f 39 b7 b3 ca 34 62 2b 18 39
       0.0 0.00015236395 3.7756192e-07 0.00014512011
000020 00 00 00 00 00 00 00 00 2a 50 c8 37 9e f8 02 34
       0.0 0.0 2.3879187e-05 1.219764e-07
000030 99 7b 6f 38 00 00 00 00 00 00 00 00 b1 9f 28 38
       5.709715e-05 0.0 0.0 4.0203046e-05
000040 7e 40 24 33 aa 3c 65 37 00 00 00 00 00 00 00 00
       3.824288e-08 1.3663588e-05 0.0 0.0
000050 ca 2e d5 37 9e 45 70 32 5e dd 2c 38 00 00 00 00
       2.5413367e-05 1.3985668e-08 4.121416e-05 0.0
000060 00 00 00 00 f6 d9 ca 38 df 1f bb 33 8f ec d3 37
       0.0 9.672709e-05 8.7136634e-08 2.5263316e-05
000070 00 00 00 00 00 00 00 00 e7 e9 e2 38 49 fc 39 34
       0.0 0.0 0.000108200875 1.7321248e-07
000080 c2 3a 08 39 00 00 00 00 00 00 00 00 ce 27 74 38
       0.0001299186 0.0 0.0 5.8211204e-05
000090 1c cb bf 31 8e 5c 11 39 00 00 00 00 00 00 00 00
       5.5819225e-09 0.00013862757 0.0 0.0
0000a0 71 77 2a 38 5a c1 dc 32 44 7d 43 38 00 00 00 00
       4.0642397e-05 2.5699297e-08 4.6608286e-05 0.0
0000b0 00 00 00 00 31 a9 8b 38 a2 69 93 33 03 1d e8 37
       0.0 6.659551e-05 6.8644354e-08 2.7670065e-05
0000c0 00 00 00 00 00 00 00 00 c6 91 d5 38 67 4a 22 33
       0.0 0.0 0.00010183784 3.7786233e-08
0000d0 2d 78 3a 39 00 00 00 00 00 00 00 00 a0 67 2a 38
       0.00017783111 0.0 0.0 4.0627667e-05
0000e0 2e c4 53 31 6b 6b 36 38 00 00 00 00 00 00 00 00
       3.0816056e-09 4.3492222e-05 0.0 0.0
0000f0 f6 de 68 37 14 4f be 32 56 9e 9e 37 00 00 00 00
       1.388019e-05 2.2154872e-08 1.8908799e-05 0.0
000100 00 00 00 00 8c e0 d9 37 63 6f 42 33 8b 39 cc 37
       0.0 2.5972979e-05 4.527045e-08 2.434549e-05
000110 00 00 00 00 00 00 00 00 d8 a4 54 38 e5 c7 34 34
       0.0 0.0 5.069826e-05 1.6836528e-07
000120 89 44 7b 38 00 00 00 00 00 00 00 00 dd 7e 2b 37
       5.990689e-05 0.0 0.0 1.0221932e-05
000130 ac e0 81 32 62 ad 75 36 00 00 00 00 00 00 00 00
       1.5119745e-08 3.6608767e-06 0.0 0.0
000140 e3 06 89 37 f2 73 82 33 b7 f2 d4 37 00 00 00 00
       1.633488e-05 6.074687e-08 2.5385392e-05 0.0
000150 00 00 00 00 97 17 e3 38 89 6e 06 34 d3 0f 95 38
       0.0 0.000108285974 1.2519935e-07 7.107821e-05
000160 00 00 00 00 00 00 00 00 3f ac 70 38 f7 af 1a 33
       0.0 0.0 5.7380876e-05 3.6015958e-08
000170 7f 96 52 38 00 00 00 00 00 00 00 00 c7 31 87 38
       5.0208062e-05 0.0 0.0 6.4465734e-05
000180 67 72 b5 32 bc 15 3c 38 00 00 00 00 00 00 00 00
       2.1123197e-08 4.4842935e-05 0.0 0.0
000190 17 36 50 38 6e 5e 1d 34 5b 8c 60 38 00 00 00 00
       4.964144e-05 1.4656118e-07 5.3536478e-05 0.0
0001a0 00 00 00 00 fc ba d8 38 2b 3e 87 34 e0 d7 8f 38
       0.0 0.00010334511 2.5190943e-07 6.858981e-05
0001b0 00 00 00 00 00 00 00 00 1e 9b da 36 aa f3 1e 32
       0.0 0.0 6.5149643e-06 9.252213e-09
0001c0 12 d7 d3 36 00 00 00 00 00 00 00 00 f5 fb c4 38
       6.3133275e-06 0.0 0.0 9.392939e-05
0001d0 1a 53 c1 33 ed 26 b6 38 00 00 00 00 00 00 00 00
       9.002379e-08 8.685687e-05 0.0 0.0
0001e0 7e dd 89 38 58 9c 56 33 3a 8a cf 37 00 00 00 00
       6.573925e-05 4.996795e-08 2.474069e-05 0.0
0001f0 00 00 00 00 24 64 10 38 fa 06 84 32 31 56 54 38
       0.0 3.442554e-05 1.5369995e-08 5.062501e-05
000200 00 00 00 00 00 00 00 00 ba ef e7 37 a4 47 a6 32
       0.0 0.0 2.7648977e-05 1.9357522e-08
000210 9b 0d 43 38 00 00 00 00 00 00 00 00 9a 55 3e 38
       4.6504294e-05 0.0 0.0 4.5379253e-05
000220 c5 3e 8b 33 b1 8c 64 37 00 00 00 00 00 00 00 00
       6.4841096e-08 1.3622616e-05 0.0 0.0
000230 2c c6 bc 37 39 7f 67 33 8c 80 c6 37 00 00 00 00
       2.2503627e-05 5.3899587e-08 2.3663299e-05 0.0
000240 00 00 00 00 98 b4 8a 38 c1 8b 59 34 a5 9e 99 38
       0.0 6.613991e-05 2.0260542e-07 7.3251584e-05
000250 00 00 00 00 00 00 00 00 e4 71 55 39 65 b3 30 35
       0.0 0.0 0.0002035569 6.582616e-07
000260 ab 8d 6a 39 00 00 00 00 00 00 00 00 1c c5 00 38
       0.00022368754 0.0 0.0 3.070115e-05
000270 96 7b 33 31 0f cf 24 38 00 00 00 00 00 00 00 00
       2.6118179e-09 3.9293485e-05 0.0 0.0
000280 29 ca 46 39 04 59 00 34 b9 a7 51 38 00 00 00 00
       0.00018958062 1.1953313e-07 4.9985687e-05 0.0
000290 00 00 00 00 4b e4 bd 38 06 4c bc 34 18 48 10 39
       0.0 9.054745e-05 3.5073043e-07 0.00013759767
0002a0 00 00 00 00 00 00 00 00 fd 98 17 38 72 ce 80 33
       0.0 0.0 3.6143687e-05 5.998017e-08
0002b0 fd d1 be 37 00 00 00 00 00 00 00 00 e3 73 81 37
       2.2747548e-05 0.0 0.0 1.5431962e-05
0002c0 db f2 48 33 e8 14 91 37 00 00 00 00 00 00 00 00
       4.6787004e-08 1.7295082e-05 0.0 0.0
0002d0 84 2d 97 38 17 79 82 33 dc 73 34 38 00 00 00 00
       7.208719e-05 6.075623e-08 4.3023247e-05 0.0
0002e0 00 00 00 00 6c b3 79 38 0f 2c 69 34 01 8c c8 38
       0.0 5.9533326e-05 2.1715844e-07 9.562821e-05
0002f0 00 00 00 00 00 00 00 00 97 c3 bf 38 57 6e 14 34
       0.0 0.0 9.144021e-05 1.3823716e-07
000300 9a 34 ab 38 00 00 00 00 00 00 00 00 fa 39 5c 37
       8.163713e-05 0.0 0.0 1.3126521e-05
000310 ea 44 41 32 bf 0d 78 37 00 00 00 00 00 00 00 00
       1.1249748e-08 1.4785152e-05 0.0 0.0
000320 79 d2 93 37 15 a6 d2 32 b3 df 59 37 00 00 00 00
       1.7621775e-05 2.4522743e-08 1.2986292e-05 0.0
000330 00 00 00 00 7a 73 08 39 24 c6 e5 34 2a d2 2f 39
       0.0 0.00013012989 4.279874e-07 0.00016767593
000340 00 00 00 00 00 00 00 00 34 6d f9 37 98 de cf 32
       0.0 0.0 2.9733965e-05 2.4199196e-08
000350 14 01 ef 36 00 00 00 00 00 00 00 00 eb 6d 8d 38
       7.1228806e-06 0.0 0.0 6.743878e-05
000360 b9 31 32 33 08 ac da 37 00 00 00 00 00 00 00 00
       4.1489077e-08 2.6067733e-05 0.0 0.0
000370 9f 53 eb 37 5d 74 a9 31 13 a9 7e 38 00 00 00 00
       2.8053122e-05 4.9317763e-09 6.071578e-05 0.0
000380 00 00 00 00 49 23 80 38 1e 93 e7 32 00 ba 49 38
       0.0 6.110088e-05 2.695884e-08 4.809536e-05
000390 00 00 00 00 00 00 00 00 0d bc 04 39 04 9e c0 34
       0.0 0.0 0.00012658555 3.5877758e-07
0003a0 3c 5d 00 39 00 00 00 00 00 00 00 00 7a 28 00 39
       0.00012241764 0.0 0.0 0.0001222211
0003b0 44 49 08 34 d4 b0 55 38 00 00 00 00 00 00 00 00
       1.2692641e-07 5.094784e-05 0.0 0.0
0003c0 2d 80 de 38 6a 0f 50 33 33 0e b9 38 00 00 00 00
       0.000106096595 4.8442793e-08 8.824132e-05 0.0
0003d0 00 00 00 00 c1 e9 12 38 b1 17 89 32 1d 17 b5 38
       0.0 3.5026813e-05 1.5959673e-08 8.635058e-05
0003e0 00 00 00 00 00 00 00 00 20 c2 46 39 90 58 3d 35
       0.0 0.0 0.00018955069 7.053686e-07
0003f0 d2 fe 92 39 00 00 00 00 00 00 00 00 7b 46 a3 37
       0.00028037146 0.0 0.0 1.9463934e-05

exp_avg f4 [128]
000000 71 10 e6 39 db c3 c9 37 8f 04 45 b9 f1 ff 5f 38
       0.00043881268 2.405227e-05 -0.00018789082 5.3405707e-05
000010 66 6b 87 b9 0d 73 41 3a 5c ed 26 3a 6e 56 3d b9
       -0.00025829225 0.00073795096 0.0006367767 -0.00018056642
000020 bd 97 e7 39 55 0f bb 39 2a ac 94 ba 6a 82 9a 38
       0.00044172807 0.00035678843 -0.0011342813 7.367584e-05
000030 8d 6b 9a 38 6e 86 e8 39 01 5f f1 39 5c 85 14 39
       7.363325e-05 0.00044350646 0.00046037885 0.0001416406
000040 94 7b 56 38 dc 8e 04 39 9f 3b a1 b9 43 35 97 b9
       5.1136667e-05 0.0001264172 -0.00030752734 -0.00028840647
000050 a5 dc 27 b9 d1 32 ec 38 05 fa 1e b8 db 20 89 37
       -0.00016008558 0.00011262822 -3.7902984e-05 1.6346972e-05
000060 b3 3b fa 37 8f 7a 08 b9 a6 69 5b 39 78 59 b1 b9
       2.9830122e-05 -0.00013015627 0.00020924825 -0.0003382673
000070 2a e7 fe 38 eb 31 b7 39 c9 e1 9d 3a 70 5e 6f 38
       0.000121547215 0.00034941672 0.0012045439 5.7069992e-05
000080 61 57 04 b9 7c 23 c7 38 96 44 d5 b7 02 7d 1d 38
       -0.00012621052 9.495669e-05 -2.5423516e-05 3.754814e-05
000090 ec 17 6d 39 b3 6d a4 39 b9 3b dc 38 00 02 33 b8
       0.00022610993 0.0003136225 0.00010501542 -4.267879e-05
0000a0 0b 38 aa 38 f2 dd 07 ba 4f ba 5d b4 4b 1f ba b9
       8.1166705e-05 -0.0005182914 -2.0650008e-07 -0.000355
0000b0 75 d6 bb 38 11 a3 7b ba b0 44 0f 3a 47 29 a5 38
       8.9568006e-05 -0.0009599189 0.00054652523 7.8755016e-05
0000c0 6e dc 53 3a 70 f5 a6 b9 34 98 2b 3a 25 f4 0e 38
       0.0008081858 -0.00031844852 0.00065458124 3.4082816e-05
0000d0 72 0b bf b8 b6 04 d8 b7 97 64 f3 b9 31 40 15 3a
       -9.1097216e-05 -2.57514e-05 -0.00046423517 0.0005693464
0000e0 b3 49 c1 b5 a4 ea c2 b8 d1 fa 3d 38 bc 1d 8d 39
       -1.440107e-06 -9.294346e-05 4.5294702e-05 0.0002691577
0000f0 46 3c 76 39 39 d0 68 39 3b 79 97 38 6f f0 c0 38
       0.00023482842 0.00022202813 7.222822e-05 9.200058e-05
000100 d1 41 0f 39 74 68 76 3a a4 49 ca 38 0d 59 11 ba
       0.00013662061 0.000939972 9.645827e-05 -0.00055445806
000110 e6 69 99 38 8d 99 4e b9 c3 b3 92 39 59 4c 67 39
       7.315334e-05 -0.00019702893 0.00027981223 0.00022058318
000120 1d 1a 60 38 09 50 df b8 e8 9a c6 38 2f 65 80 3a
       5.343008e-05 -0.00010648376 9.470229e-05 0.000979578
000130 0f 7c ba 39 a8 b2 fd 39 29 46 4b b9 86 3d 4a 39
       0.00035569115 0.0004838903 -0.00019385725 0.0001928714
000140 2b c6 60 b7 9a f0 80 38 fc 0e 60 3a 1d c3 8e 38
       -1.339758e-05 6.148331e-05 0.0008547155 6.80743e-05
000150 e5 bb 84 b9 a3 36 c1 39 06 16 76 b9 31 13 83 37
       -0.00025316994 0.00036852536 -0.00023468593 1.5625354e-05
000160 19 27 aa 39 4b 09 01 ba c5 96 5f 39 ac 4c 26 39
       0.00032454057 -0.0004922344 0.00021323103 0.00015859556
000170 10 84 f0 39 74 19 a4 b9 20 90 da 39 18 00 27 37
       0.0004587476 -0.00031299482 0.00041687582 9.9539975e-06
000180 6d a4 71 38 b5 da e7 b8 56 ff b2 b9 9c bf 5d 39
       5.761201e-05 -0.00011055676 -0.00034141046 0.00021147582
000190 31 8b 1c 39 0a 03 b8 b8 4b f7 8d 34 98 e8 3a 38
       0.00014929172 -8.77437e-05 2.6443226e-07 4.4562476e-05
0001a0 ee d2 4d 39 3a 24 32 ba b1 11 42 39 e6 00 52 b8
       0.00019628901 -0.00067955593 0.00018507872 -5.006874e-05
0001b0 95 b4 99 36 bb a8 a5 37 91 05 2c 39 91 17 69 b9
       4.580778e-06 1.9748104e-05 0.00016405272 -0.00022229391
0001c0 69 8c 70 b5 f5 ac 0c b9 4f 99 b5 39 04 6b 0f 39
       -8.961129e-07 -0.00013415872 0.00034637234 0.00013677409
0001d0 da 4f 1f ba 2c fa a4 37 c4 e4 dc b8 b6 24 81 38
       -0.00060772675 1.9666819e-05 -0.000105330284 6.158037e-05
0001e0 ea 5c 6f 39 a4 51 4b 39 75 44 04 b9 8f ad 4e 3a
       0.0002282743 0.00019390002 -0.00012614003 0.00078841386
0001f0 95 5f 04 3a 1a c4 2e 39 42 3d a6 38 74 2b 31 b9
       0.0005049643 0.00016666987 7.926907e-05 -0.00016896223

exp_avg_sq f4 [128]
000000 1e 61 25 37 0b 57 42 37 01 1e 57 36 52 ce 12 36
       9.857378e-06 1.1583567e-05 3.2054961e-06 2.187579e-06
000010 60 c1 32 36 4c 1a a6 36 f8 e8 1d 37 7a 69 01 37
       2.6636626e-06 4.950247e-06 9.4121715e-06 7.713557e-06
000020 02 f1 66 36 6d a3 79 36 d8 12 41 37 35 69 5d 36
       3.4412956e-06 3.7199018e-06 1.1508084e-05 3.2992805e-06
000030 ee 20 b2 35 93 38 02 36 c8 70 95 36 84 6b 16 35
       1.3271617e-06 1.940444e-06 4.4536755e-06 5.603581e-07
000040 b4 b9 d1 35 e4 06 fc 36 8d 2a 93 36 1f 7b 91 36
       1.562576e-06 7.5109874e-06 4.385895e-06 4.33567e-06
000050 1e c3 83 36 78 5d e2 36 01 a1 0d 35 22 23 e6 36
       3.926819e-06 6.746206e-06 5.2760885e-07 6.858624e-06
000060 4d 7c 7b 36 b4 5f 6d 36 17 d2 4a 36 68 90 1a 36
       3.7474267e-06 3.5371459e-06 3.0222634e-06 2.3031844e-06
000070 cc 58 f5 35 18 1d b3 36 be 89 90 37 93 22 3c 36
       1.8279766e-06 5.3380027e-06 1.7230279e-05 2.8034308e-06
000080 51 a9 1e 37 d2 af 16 37 32 2c 17 36 a4 eb ad 35
       9.456956e-06 8.981633e-06 2.2526478e-06 1.2958085e-06
000090 89 ce 9a 36 e3 83 ce 36 be 8d ed 36 ea 9c 8f 35
       4.6136015e-06 6.154632e-06 7.0796514e-06 1.0699998e-06
0000a0 b6 f2 9f 35 61 7f 45 37 e3 37 c8 35 ef e7 76 36
       1.1917061e-06 1.1771773e-05 1.4917426e-06 3.679186e-06
0000b0 a6 62 6f 36 b0 14 94 36 91 27 22 37 94 d3 e8 36
       3.5671196e-06 4.413152e-06 9.665165e-06 6.9387697e-06
0000c0 32 ce 01 37 09 34 a8 36 24 51 98 37 2b 86 db 35
       7.737008e-06 5.012848e-06 1.8157596e-05 1.635582e-06
0000d0 0d d2 97 36 d9 89 9d 36 96 85 9b 35 bb 98 b8 36
       4.524604e-06 4.695012e-06 1.1587279e-06 5.5014075e-06
0000e0 a7 8e be 35 7a 7e d7 35 ca 28 26 35 f2 f9 cc 36
       1.419762e-06 1.6055558e-06 6.1899175e-07 6.1087712e-06
0000f0 e7 47 52 37 3f 37 0a 37 93 ab ef 36 3d 29 ff 35
       1.25337165e-05 8.238304e-06 7.142729e-06 1.9010982e-06
000100 51 90 19 36 fa 02 7f 37 ec cd 72 37 0a 94 90 36
       2.288278e-06 1.5199877e-05 1.4472269e-05 4.3087684e-06
000110 cc 44 f5 36 92 00 3c 36 83 d5 7a 36 38 1d c7 36
       7.309578e-06 2.8014515e-06 3.7377183e-06 5.9340637e-06
000120 b4 cf 01 36 27 a0 2e 36 f9 b7 02 37 aa 18 20 37
       1.9343397e-06 2.6021241e-06 7.791438e-06 9.542486e-06
000130 1a e4 4e 37 96 45 41 37 f2 eb 3b 37 06 79 43 36
       1.2331666e-05 1.1519898e-05 1.1201004e-05 2.912771e-06
000140 ad a4 2e 35 ee be 8b 36 74 f9 80 36 4b 29 39 36
       6.5059686e-07 4.16475e-06 3.8437374e-06 2.7591184e-06
000150 15 b2 6c 36 77 43 6c 37 14 2f 84 36 69 d7 1c 35
       3.5270398e-06 1.4082404e-05 3.939387e-06 5.842799e-07
000160 bc 56 33 36 c3 42 b5 36 f7 10 8a 36 52 9d 98 36
       2.6723565e-06 5.4019924e-06 4.1146955e-06 4.5482675e-06
000170 0a 06 15 37 a1 b1 5b 37 d2 41 df 36 52 4f d6 36
       8.882498e-06 1.3094775e-05 6.6535804e-06 6.386931e-06
000180 bc 58 8a 35 c9 4f ce 35 e0 71 bc 36 22 15 17 37
       1.0307626e-06 1.5371417e-06 5.6160934e-06 9.005222e-06
000190 54 96 85 35 f2 2e 95 36 30 48 fc 35 f0 e3 5f 36
       9.953023e-07 4.446011e-06 1.8796472e-06 3.3362267e-06
0001a0 82 0f b5 36 06 1d c3 36 bf 1a ad 36 d4 e8 1e 37
       5.3960257e-06 5.8148316e-06 5.1589154e-06 9.471743e-06
0001b0 4c f5 c5 35 e2 12 c8 36 cd 55 ff 35 cb 40 57 37
       1.4749035e-06 5.9626627e-06 1.9023952e-06 1.2830084e-05
0001c0 fd 9f 0d 37 59 5c e1 36 93 41 f7 36 34 44 0b 36
       8.441505e-06 6.716273e-06 7.3688075e-06 2.0752314e-06
0001d0 40 61 46 36 b7 2f 58 36 75 a2 0e 37 50 e7 38 36
       2.9560906e-06 3.2214282e-06 8.5016845e-06 2.7552778e-06
0001e0 ad 43 39 36 bc 22 01 35 0d 21 bd 35 1e 1d 95 36
       2.760654e-06 4.810679e-07 1.4091216e-06 4.4439357e-06
0001f0 3d 0c e3 36 34 71 2d 35 78 0a 4d 37 28 65 ab 36
       6.766552e-06 6.4612254e-07 1.222139e-05 5.1079733e-06
