Goodminton/Assets/results/Badminton/Badminton/Badminton-324.pt (torch, 438968 bytes, 36 tensors)

network_body._body_endoder.seq_layers.0.weight f4 [128, 5]
0.33608866 -0.013974131 0.43457887 0.015212713 0.29508486 0.5021099 0.47776145 -0.52645886
0.16066408 -0.057887316 -0.08058491 -0.5102234 -0.100936465 0.82421845 -0.52050215 -0.059805043
0.29115275 0.23022224 0.25058967 -0.28567138 -0.17416108 0.8320226 0.9220614 0.20690145
0.13464697 -0.39479655 0.039527774 -0.93937486 -0.40427053 -0.24223004 -0.33454606 -0.35718492
-0.022499736 -0.37945488 0.6398642 -0.2554193 0.6851722 0.62273604 0.27979082 0.7432341
0.30753338 -0.6229 0.03591637 0.5201297 0.25600544 -0.31462118 0.17054828 0.21503383
0.2970744 0.24808657 -0.03769212 0.64168996 0.32921758 0.88489354 -0.28308016 0.11084954
-0.2916946 -0.08519239 0.36033028 -0.08641766 -0.34712142 -0.07842433 0.01647508 -0.61533993
-0.18012755 0.11882838 0.42965886 0.048996843 0.48635408 0.42172396 -0.42604443 -0.53184193
0.092753924 -0.014628092 0.26895708 0.43673974 -0.22017965 0.021812348 0.4810706 -0.13023461
-0.09204659 0.5801959 0.31723067 0.3274302 -0.10951185 0.25251964 0.76304823 0.13421555
-0.048844628 -0.19030355 0.30205837 -1.0272107 0.3547363 -0.48297763 0.37272635 0.18502799
0.07517604 0.5442065 0.3153324 0.37506947 0.14764865 -0.45143843 0.14752446 0.14620042
0.08633595 -0.0003395952 0.34238198 -0.87160224 0.15058544 0.37869138 -0.36620897 0.1487945
0.025148531 -0.087352425 -1.0684489 0.17388321 0.3118577 0.46989268 -0.10415142 0.00603008
-0.08542687 -0.21973115 -0.0040553263 0.15088001 0.28473297 0.12739234 -0.26082852 0.20020223
-0.1558872 -0.63224345 -0.10248676 0.5133547 0.10423964 0.65689045 -0.6086006 0.8293508
0.6605821 -0.31384066 -0.34516296 0.5154158 0.51655453 -0.3036872 0.22735435 -0.493776
-0.08687362 -0.99623775 -0.544694 -0.54192686 -0.25972652 0.26194143 -0.5603219 0.2884557
-0.8121105 -0.1413493 0.45315197 0.20843655 0.67661464 -0.7480398 -0.0008112942 0.61323243
-0.34307984 -0.12769061 0.08952902 -0.26914963 -0.2189002 -0.0058192164 -0.35900724 -0.5221113
0.3887475 -0.4839287 -0.23597343 0.2990492 -0.6755513 -0.009709684 -0.32858935 -0.023810081
0.20728299 0.28985897 0.24137329 0.5224421 0.7525234 -0.27892968 -0.5348976 -0.4010823
0.18690497 0.29827052 -0.14586574 0.21678811 0.12532686 -0.325088 -0.25609142 -0.2957466
-0.9346604 -0.43441382 0.24682784 -0.046061397 -0.16758092 -0.17276618 0.51580113 -0.6215128
-0.13585004 0.11350085 -0.07300296 0.61919945 -0.4326471 0.29292685 0.4579144 -0.29260397
0.6970146 -0.6489863 -0.37248603 0.28089267 0.10942157 0.37152857 -0.44390845 -0.56736004
-0.20734872 0.6312445 0.59129566 0.44401208 0.022106202 0.4785963 -0.05042085 -0.6588649
0.18213564 0.014933235 -0.18935485 0.2504591 0.37706533 -0.43100616 0.8096836 0.09284333
0.5708139 0.7754107 0.10393533 -0.1337017 -0.14569037 -0.0005771824 0.5028081 0.9322435
0.9811234 0.6249382 0.21406005 0.8272508 -0.23617241 0.534917 -0.0049248314 0.35518423
-0.4808734 -0.33770704 0.22997266 -0.22504275 0.1791999 -0.07633008 -0.09279142 -0.12693505
00000000: d013 ac3e c1f3 64bc 1f81 de3e be3e 793c
00000010: 5d15 973e 468a 003f 269d f43e 02c6 06bf
00000020: 2085 243e 401b 6dbd b409 a5bd 009e 02bf
00000030: c7b7 cebd fbff 523f a13f 05bf 22f6 74bd
00000040: f911 953e 61bf 6b3e 4a4d 803e 8543 92be
00000050: 4857 32be 6fff 543f 370c 6c3f f9dd 533e
00000060: e5e0 093e c622 cabe e0e7 213d df7a 70bf
00000070: 8cfc cebe 270b 78be 9f49 abbe f1e0 b6be
00000080: 5e51 b8bc e947 c2be 24ce 233f 52c6 82be
00000090: 7267 2f3f a16b 1f3f be40 8f3e 9744 3e3f
000000a0: 0475 9d3e 6076 1fbf 0b1d 133d 3827 053f
000000b0: 2513 833e 0716 a1be 35a4 2e3e d431 5c3e
000000c0: 231a 983e 680a 7e3e 0d63 1abd cb45 243f
000000d0: 358f a83e 6288 623f e2ef 90be 1505 e33d
000000e0: ff58 95be 5979 aebd 367d b83e befb b0bd
000000f0: e6b9 b1be ef9c a0bd bff6 863c eb86 1dbf
00000100: 5b73 38be 4b5c f33d 3ffc db3e eab0 483d
00000110: 6703 f93e 34ec d73e 7f22 dabe cb26 08bf
00000120: c5f5 bd3d aaaa 6fbc beb4 893e 5a9c df3e
00000130: c676 61be cfaf b23c e34e f63e 395c 05be
00000140: ec82 bcbd b887 143f 0f6c a23e eea4 a73e
00000150: c047 e0bd 414a 813e 2157 433f cd6f 093e
00000160: 4e11 48bd efde 42be 65a7 9a3e a47b 83bf
00000170: ff9f b53e d848 f7be fdd5 be3e fa77 3d3e
00000180: e5f5 993d 1e51 0b3f 4073 a13e 1b09 c03e
00000190: 3531 173e f022 e7be a710 173e 90b5 153e
000001a0: e7d0 b03d b20b b2b9 b14c af3e 5321 5fbf
000001b0: 1233 1a3e d6e3 c13e be7f bbbe 965d 183e
000001c0: 4b04 ce3c d4e5 b2bd efc2 88bf 710e 323e
000001d0: d0ab 9f3e c695 f03e 574d d5bd fa97 c53b
000001e0: 48f4 aebd 3401 61be 8be2 84bb 4a80 1a3e
000001f0: 85c8 913e 2373 023e 518b 85be d001 4d3e
00000200: e5a0 1fbe b5da 21bf 94e4 d1bd 376b 033f
00000210: 987b d53d f929 283f 40cd 1bbf 5650 543f
00000220: e91b 293f b9af a0be 33b9 b0be 4af2 033f
00000230: eb3c 043f e47c 9bbe 94cf 683e 35d0 fcbe
00000240: ccea b1bd 7009 7fbf 1171 0bbf b8bb 0abf
00000250: e0fa 84be 301d 863e 4271 0fbf 77b0 933e
00000260: 79e6 4fbf dfbd 10be 8903 e83e 6470 553e
00000270: 9e36 2d3f 897f 3fbf 08ad 54ba cdfc 1c3f
00000280: 29a8 afbe 54c1 02be fe5a b73d fbcd 89be
00000290: 6027 60be 20af bebb cccf b7be 16a9 05bf
000002a0: ea09 c73e 81c5 f7be 05a3 71be fa1c 993e
000002b0: eef0 2cbf 5e15 1fbc dd3c a8be 5c0d c3bc
000002c0: fe41 543e 6568 943e 8f2a 773e c4be 053f
000002d0: 60a5 403f dfcf 8ebe 0def 08bf a95a cdbe
000002e0: 0464 3f3e eab6 983e d45d 15be b4fd 5d3e
000002f0: af55 003e ef71 a6be 6a1e 83be 196c 97be
00000300: e745 6fbf 7d6b debe 70c0 7c3e e0aa 3cbd
00000310: 559a 2bbe 9ee9 30be 8b0b 043f 761b 1fbf
00000320: 461c 0bbe 2273 e83d 9382 95bd db83 1e3f
00000330: ec83 ddbe 82fa 953e c273 ea3e 30d0 95be
00000340: 8c6f 323f f723 26bf 7db6 bebe 2ad1 8f3e
00000350: 6b18 e03d fe38 be3e f847 e3be 823e 11bf
00000360: 3953 54be 3d99 213f 275f 173f 8d55 e33e
00000370: 1118 b53c 930a f53e 1886 4ebd 5fab 28bf
00000380: c481 3a3e 87aa 743c 3de6 41be 2d3c 803e
00000390: b50e c13e d7ac dcbe 6d47 4f3f a524 be3d
000003a0: dc20 123f 5181 463f 0cdc d43d 19e9 08be
000003b0: db2f 15be 0e4e 17ba 08b8 003f 83a7 6e3f
000003c0: e72a 7b3f f3fb 1f3f 8f32 5b3e b5c6 533f
000003d0: 2ed7 71be 52f0 083f 7b60 a1bb b5da b53e
000003e0: 0a35 f6be f0e7 acbe f47d 6b3e 9b71 66be
000003f0: 2e80 373e f252 9cbd 6e09 bebd 43fb 01be

network_body._body_endoder.seq_layers.0.bias f4 [128]
-0.001187725 -0.0031142386 -0.00031925904 -0.0027142498 -0.00333689 -0.0035944944 -0.002479936 -0.004360282
0.0010558065 0.0035908388 0.0070099914 -0.0003690526 9.269061e-05 0.0048721787 -0.0016255929 -9.570961e-05
0.0053777928 9.379423e-05 0.00061834825 0.002362456 -0.00041607657 -0.002509906 -0.0035939207 -0.0010865406
0.0015083366 -0.0017812863 -0.002939066 0.0003186499 0.000850016 0.0031109322 0.0015997129 0.0004477234
-0.0052718073 -0.0014114009 -0.0020283367 0.0038772225 -0.0014044585 -0.00054664473 -0.0024889233 0.0014814641
0.00035952945 -0.0009742769 0.003029672 0.00097520073 0.0008508947 0.002067536 0.0021354868 0.0019529101
0.0005865412 0.002389427 -0.0053285393 0.0019510409 0.0036096452 0.0028898686 -0.0009656875 0.0006063408
0.0029353765 -0.00054907176 -0.004931179 0.0016014923 -3.7865873e-05 -0.004121065 -0.000116111434 0.0002023509
-0.0010099759 0.0014601743 0.00016451627 -0.0065255323 -0.002125347 -0.00793758 -0.0025227626 -0.0025227815
-0.0035799774 -0.00047138444 -0.0022012831 -0.0004195145 0.002498127 0.0037187191 0.0010820437 -0.004865672
-0.00024597655 0.0007085919 -0.0004785786 0.0020173022 -0.0010740348 -0.0012962916 0.0020171881 -0.0053686313
-0.00031531852 -0.0014446683 -0.006402994 0.0009989328 -0.0021177214 0.0003975191 -0.001943238 -0.0008734684
0.0009950702 -0.00033834 0.0017339395 -0.0009780925 -0.005137262 4.7133362e-05 -0.003469541 -0.011515358
-0.0005570828 -0.0011404833 -0.005443843 0.00035580184 -0.0019521228 -0.0022272565 0.003657842 0.0017560195
0.0004212758 -0.0029838495 0.0029790597 0.004374006 6.651601e-05 0.0007430263 -0.0019537192 -0.0009398278
-0.002245456 0.0067992085 -6.124505e-05 0.0010336448 -0.0048141363 -0.007784199 -0.00045925024 -0.0010477685
00000000: 70ad 9bba 4118 4cbb 3962 a7b9 8ee1 31bb
00000010: b9af 5abb 9c91 6bbb 6c86 22bb b2e0 8ebb
00000020: fd62 8a3a 4754 6b3b 12b4 e53b 677d c1b9
00000030: e462 c238 cca6 9f3b d911 d5ba b5b7 c8b8
00000040: 3238 b03b 65b3 c438 a618 223a 6fd3 1a3b
00000050: da24 dab9 3c7d 24bb fc87 6bbb 416a 8eba
00000060: 61b3 c53a 0d7a e9ba 589d 40bb 7710 a739
00000070: 9cd3 5e3a c8e0 4b3b 75ad d13a 6bbc ea39
00000080: 20bf acbb c1fe b8ba d8ed 04bb 0019 7e3b
00000090: cf15 b8ba b54c 0fba 341d 23bb b02d c23a
000000a0: 3a7f bc39 9e66 7fba 768d 463b 9da4 7f3a
000000b0: 940e 5f3a 807f 073b 86f3 0b3b caf8 ff3a
000000c0: 1dc2 193a ef97 1c3b 079b aebb 12ba ff3a
000000d0: cc8f 6c3b f363 3d3b 3126 7dba d8f2 1e3a
000000e0: 725f 403b 95ef 0fba ba95 a1bb 2ae9 d13a
000000f0: 2cd2 1eb8 000a 87bb da80 f3b8 282e 5439
00000100: 2b61 84ba 5263 bf3a 0082 2c39 22d4 d5bb
00000110: 6849 0bbb a00c 02bc ef54 25bb 4055 25bb
00000120: 0e9e 6abb 2624 f7b9 6743 10bb 48f2 dbb9
00000130: 9eb7 233b c1b5 733b 5dd3 8d3a 3770 9fbb
00000140: 6af6 80b9 ccc0 393a bbe9 fab9 b734 043b
00000150: a1c6 8cba 54e8 a9ba cd32 043b 58eb afbb
00000160: 5651 a5b9 065b bdba 35d0 d1bb 9fee 823a
00000170: 78c9 0abb 1c6a d039 3fb4 feba 79f9 64ba
00000180: 046d 823a 3a63 b1b9 5b45 e33a 5733 80ba
00000190: 7a56 a8bb 10b1 4538 3d61 63bb eaaa 3cbc
000001a0: 3209 12ba 457c 95ba 4462 b2bb ea8a ba39
000001b0: 5fde ffba 2af7 11bb 68b8 6f3b 3d2a e63a
000001c0: aede dc39 b08c 43bb 543c 433b d253 8f3b
000001d0: 837e 8b38 a7c7 423a f809 00bb c75e 76ba
000001e0: 8028 13bb e5cb de3b b070 80b8 5d7b 873a
000001f0: e7bf 9dbb 9812 ffbb 86c7 f0b9 4755 89ba

network_body._body_endoder.seq_layers.2.weight f4 [128, 128]
0.12396202 0.035408568 -0.0059025898 -0.09890006 -0.06380312 0.0058617387 -0.06953668 0.034810264
-0.10346159 0.11183303 -0.05925349 -0.16291782 -0.07868596 0.033372518 0.03288905 0.09035431
-0.14757815 -0.09628576 -0.0047518075 -0.0684938 0.085154936 -0.0701688 0.17697549 -0.019484827
0.07293419 0.055324107 0.07358412 -0.10183522 -0.0317865 0.008116337 -0.06923305 0.02144738
-0.0433601 -0.075341046 -0.098883756 0.08749654 0.17712168 -0.05440007 -0.07882665 0.13336124
-0.099843726 0.120120816 0.029775834 -0.09537531 0.06161309 0.1000213 -0.19688258 -0.07638084
-0.024525857 0.04233413 0.12589121 0.032927234 -0.10939116 -0.06974948 -0.051594604 0.0024512673
0.09078399 0.15576826 0.005568768 -0.08672564 -0.10377413 0.049843796 0.03332043 -0.0718203
-0.046401497 -0.04090193 -0.13510549 -0.018074557 -0.13632637 -0.060141195 0.017145913 0.04139671
-0.023646867 -0.109235294 -0.0845338 -0.10933925 0.046538316 -0.0051628016 -0.050633688 -0.115695536
-0.092858694 0.02006013 -0.09196363 -0.090813465 -0.088046834 0.035909448 0.16762872 0.028074598
0.041064247 -0.20658489 0.06340839 -0.061957195 -0.072331406 0.042484872 -0.06448653 -0.03009438
-0.13042445 -0.087539054 -0.106541485 0.03737729 -0.036692243 -0.09535828 0.036811166 0.15526666
-0.059504714 0.0110152215 0.067257665 0.0069667725 -0.00077304733 -0.069934666 -0.048871137 -0.109384455
0.018542467 -0.03735195 0.009167012 0.0055598384 0.08244819 0.03450836 -0.08489144 -0.007838102
-0.20969348 -0.014286581 0.022226647 -0.12154169 -0.15330832 -0.06185955 -0.117333025 0.028818177
0.17370439 -0.0868057 0.07859419 -0.008556738 -0.043526676 -0.11190671 0.074290946 -0.059194032
-0.089122854 0.08574115 0.10997038 0.010174128 0.06531284 0.105242774 0.15780784 0.1514381
-0.19150911 0.05490105 0.091990225 -0.123877235 -0.059947647 -0.16647291 0.04041234 0.01940884
-0.030273158 -0.02790804 -0.25400734 -0.061419226 0.104276165 0.02311911 0.034790516 0.051427998
-0.057652798 -0.036316354 0.003299925 -0.09798941 -0.048169088 0.050265405 0.055737186 -0.11857626
0.034441512 0.014797765 -0.10374597 0.0820092 0.105915904 -0.041904867 0.021298664 -0.029574914
0.20078959 0.01787448 0.0584752 -0.051876076 0.049609862 0.02218733 -0.05556333 -0.15140472
0.0041498244 0.08871546 -0.060064413 -0.08341913 -0.05132543 0.18410262 0.076617934 0.12690239
-0.02861411 -0.16525447 -0.15388438 -0.043438476 -0.09327206 -0.05148461 0.10112987 -0.10123254
-0.012254453 0.07080367 -0.06600704 -0.03217733 0.0557834 0.16626678 0.17613585 0.16906437
0.12679644 -0.11777434 -0.07187945 -0.067595035 -0.034371074 -0.024901401 -0.047439683 0.09669768
0.093049645 0.059624135 -0.009896166 -0.1369436 0.009676071 -0.100444704 0.0020754167 0.07472059
-0.026514878 0.11132422 -0.06556439 -0.006789775 0.11883647 -0.0045225676 0.15448372 0.025148174
0.0046688276 -0.020038374 -0.13354516 -0.05583267 0.010927932 -0.09047507 0.14484951 -0.03049178
-0.03528865 -0.05432238 -0.117200375 -0.12623122 -0.039204005 -0.23704758 -0.0023606885 0.093905285
0.066867486 -0.050156973 -0.103489295 -0.029181119 -0.22967044 -0.17181768 0.055783495 0.052551966
00000000: cddf fd3d 9308 113d 836a c1bb 1d8c cabd
00000010: 36ab 82bd d413 c03b 3f69 8ebd 3595 0e3d
00000020: ace3 d3bd b708 e53d cab3 72bd eed3 26be
00000030: 1b26 a1bd 9fb1 083d abb6 063d ae0b b93d
00000040: ba1e 17be 7831 c5bd 0db5 9bbb 7a46 8cbd
00000050: b665 ae3d a9b4 8fbd 1039 353e a59e 9fbc
00000060: 855e 953d 889b 623d 45b3 963d fc8e d0bd
00000070: 9032 02bd 62fa 043c 0fca 8dbd 6ab2 af3c
00000080: 5c9a 31bd 684c 9abd 9183 cabd 6331 b33d
00000090: 635f 353e 9cd2 5ebd de6f a1bd d98f 083e
000000a0: de7a ccbd e701 f63d 73ec f33c 2154 c3bd
000000b0: 025e 7c3d f8d7 cc3d 969b 49be 8f6d 9cbd
000000c0: 73ea c8bc 8d66 2d3d a0e9 003e b5de 063d
000000d0: 7908 e0bd d1d8 8ebd dd54 53bd 71a5 203b
000000e0: f5ec b93d b781 1f3e 367a b63b 369d b1bd
000000f0: 8887 d4bd 0229 4c3d 017b 083d 8516 93bd
00000100: 7f0f 3ebd c888 27bd 1859 0abe 1811 94bc
00000110: 2499 0bbe 9d56 76bd 9675 8c3c 998f 293d
00000120: 13b7 c1bc c1b6 dfbd 0f20 adbd 42ed dfbd
00000130: f69e 3e3d b82c a9bb 4565 4fbd c8f1 ecbd
00000140: b32c bebd 2455 a43c 6d57 bcbd 69fc b9bd
00000150: e651 b4bd c915 133d dda6 2b3e b3fc e53c
00000160: fc32 283d fd8a 53be 42dc 813d d4c6 7dbd
00000170: 7d22 94bd 9e04 2e3d 8411 84bd 7d88 f6bc
00000180: fd8d 05be ad47 b3bd 6c32 dabd ee18 193d
00000190: 9b4a 16bd 344b c3bd 4ec7 163d 39fe 1e3e
000001a0: 37bb 73bd 3079 343c 63be 893d 8649 e43b
000001b0: 54a6 4aba e839 8fbd 1a2d 48bd f504 e0bd
000001c0: 5fe6 973c 5cfe 18bd 3c31 163c 4e2f b63b
000001d0: 99da a83d a358 0d3d 90db adbd 626b 00bc
000001e0: e3b9 56be 4412 6abc a814 b63c d9ea f8bd
000001f0: dbfc 1cbe 7160 7dbd 4c4c f0bd 1914 ec3c
00000200: 90df 313e 30c7 b1bd fef5 a03d 8f31 0cbc
00000210: 0749 32bd 582f e5bd da25 983d 7175 72bd
00000220: 0b86 b6bd 0e99 af3d 2738 e13d 63b1 263c
00000230: bdc2 853d 8689 d73d 6198 213e 9712 1b3e
00000240: f71a 44be ecdf 603d 5f65 bc3d 59b3 fdbd
00000250: aa8b 75bd e077 2abe 6987 253d 4aff 9e3c
00000260: 6aff f7bc 679f e4bc 400d 82be ba92 7bbd
00000270: be8e d53d 4a64 bd3c 8080 0e3d 2aa6 523d
00000280: 5725 6cbd 75c0 14bd 8e43 583b acae c8bd
00000290: f34c 45bd 19e3 4d3d ad4c 643d 1cd8 f2bd
000002a0: 8b12 0d3d 5372 723c c478 d4bd 70f4 a73d
000002b0: 70ea d83d 70a4 2bbd 897a ae3c 1747 f2bc
000002c0: c99b 4d3e 806d 923c b183 6f3d 027c 54bd
000002d0: b633 4b3d 34c2 b53c 6096 63bd d709 1bbe
000002e0: 40fb 873b 73b0 b53d 1a06 76bd a6d7 aabd
000002f0: 9d3a 52bd 6685 3c3e dde9 9c3d b3f2 013e
00000300: 2368 eabc 7838 29be de93 1dbe 8bec 31bd
00000310: 6c05 bfbd 87e1 52bd 2d1d cf3d 0253 cfbd
00000320: e7c6 48bc 8401 913d b32e 87bd 60cc 03bd
00000330: 227d 643d d741 2a3e f55c 343e 361f 2d3e
00000340: edd6 013e ac33 f1bd 8835 93bd 446f 8abd
00000350: afc8 0cbd 06fe cbbc 1d50 42bd 6f09 c63d
00000360: d090 be3d 7038 743d 8723 22bc f13a 0cbe
00000370: 6288 1e3c f4b5 cdbd b703 083b 1c07 993d
00000380: bb35 d9bc f4fd e33d 9f46 86bd c37c debb
00000390: 8960 f33d 0c32 94bb fb30 1e3e 8b03 ce3c
000003a0: f7fc 983b 8427 a4bc 10c0 08be ccb0 64bd
000003b0: 120b 333c fe4a b9bd 6e53 143e e6c9 f9bc
000003c0: d58a 10bd 2581 5ebd c006 f0bd c242 01be
000003d0: 6194 20bd 9abc 72be c8b5 1abb 6a51 c03d
000003e0: d2f1 883d 6671 4dbd 32f2 d3bd 3e0d efbc
000003f0: ba2e 6bbe f9f0 2fbe 3c7d 643d bb40 573d

network_body._body_endoder.seq_layers.2.bias f4 [128]
-0.0052846232 -0.0014017166 0.0010199184 0.0040956982 -0.0033343965 -0.0021247335 -0.0024118777 0.008355432
-0.0020148347 0.006277841 0.0005082148 0.0006824794 -0.000102051374 0.0012781343 0.0015983501 -0.0024111136
-0.0013793807 0.00045881767 0.00036969094 -0.001047578 0.007180694 -0.002465514 0.0026329586 -0.0006817751
-0.0015071908 0.007002048 -0.0011478395 -0.00027946758 -0.0015364534 -0.001100299 -0.00090036314 0.00068274286
-0.0068485998 0.0016018457 0.0023758549 -0.00022435319 0.0009636721 0.00054372684 -0.002559561 0.0015591128
-0.004949965 0.001836955 -0.0036186404 0.0040164823 -0.0041565523 0.0075003398 -0.0015757071 -0.0010053588
0.00075648865 -0.004182212 -0.0041169394 -0.0031879318 0.0009042852 -0.0076262485 -0.002223457 -0.0010521782
-0.0070619136 -0.0010088814 0.00599061 0.0032235018 -0.0011305482 0.0013100386 -0.0012924985 -0.0019387727
0.002799644 -0.001187234 0.010462067 -0.0015251541 0.0020704016 -0.00029202393 0.0004891162 -0.009349356
-0.0057233213 0.0018566325 -0.0016011392 -0.003383607 0.0061842464 0.0018857901 -0.004226746 0.0007537011
-0.001323576 -0.003031524 -0.0029745644 9.443085e-05 -0.0043636635 -0.00074397353 -0.0023252 -0.0011412504
0.00013873179 -0.0015424117 0.0024659645 -0.0015762667 0.0026062203 0.0013300871 0.0060877427 0.00011263247
0.0007401524 0.00090547244 -0.0028938814 -0.0010437351 0.00090967916 0.0019658208 -0.00039323635 0.0029448082
-0.0002851241 -0.0033640957 -0.0069338796 -0.0025796106 -0.0010329728 -0.0037388548 -0.002202465 0.0007756969
5.5022196e-05 0.0030005628 0.006641374 0.0012110203 0.0030180663 -0.00080755894 -0.0006994149 -0.0031774167
-0.0008485708 0.0008177998 -0.0012586368 -0.0030319877 0.0033075516 -0.0021496834 -0.0022786655 0.0061764205
00000000: a22a adbb ceb9 b7ba c8ae 853a 3535 863b
00000010: e485 5abb 1d3f 0bbb 9810 1ebb 39e5 083c
00000020: 510b 04bb 59b6 cd3b b839 053a 6be8 323a
00000030: 6a04 d6b8 1287 a73a bb7f d13a c603 1ebb
00000040: 56cc b4ba 778d f039 14d3 c139 e34e 89ba
00000050: 074c eb3b 7694 21bb b78d 2c3b 27b9 32ba
00000060: ee8c c5ba 7071 e53b 1a73 96ba 8185 92b9
00000070: d262 c9ba e837 90ba 5906 6cba 19fa 323a
00000080: 386a e0bb 06f5 d13a 3bb4 1b3b 5a40 6bb9
00000090: f19e 7c3a e488 0e3a 4fbe 27bb 255b cc3a
000000a0: 5133 a2bb fbc5 f03a b626 6dbb b29c 833b
000000b0: b033 88bb 69c5 f53b f587 ceba 3ec6 83ba
000000c0: 184f 463a f00a 89bb 64e7 86bb 9fec 50bb
000000d0: 8d0d 6d3a 9ce5 f9bb 6bb7 11bb 3ee9 89ba
000000e0: a067 e7bb 713c 84ba e14c c43b 6341 533b
000000f0: e72e 94ba 9ab5 ab3a 0e69 a9ba 6b1e feba
00000100: 3b7a 373b f69c 9bba 1769 2b3c aee7 c7ba
00000110: 93af 073b ca1a 99b9 0838 003a 0b2e 19bc
00000120: b38a bbbb 405a f33a 51dd d1ba 81bf 5dbb
00000130: 38a5 ca3b 9e2c f73a 8480 8abb 0694 453a
00000140: d77b adba 88ac 46bb e9f0 42bb 2d09 c638
00000150: 10fd 8ebb 3807 43ba 6262 18bb 0296 95ba
00000160: 8878 1139 c02a caba 059c 213b bc9a ceba
00000170: 1fcd 2a3b 5156 ae3a b07b c73b 1935 ec38
00000180: c906 423a 3a5d 6d3a 46a7 3dbb f0cd 88ba
00000190: 8977 6e3a 00d5 003b 4a2b ceb9 affd 403b
000001a0: b57c 95b9 2978 5cbb 9935 e3bb af0e 29bb
000001b0: d164 87ba 9307 75bb 3b57 10bb 2358 4b3a
000001c0: a2c7 6638 17a5 443b e29f d93b 19bb 9e3a
000001d0: c0ca 453b 5db2 53ba f058 37ba 353c 50bb
000001e0: 9f72 5eba 9e61 563a d8f8 a4ba 50b4 46bb
000001f0: 82c3 583b b4e1 0cbb aa55 15bb 9263 ca3b

action_model._continuous_distribution.log_sigma f4 [1, 2]
-0.0032089448 -0.010010561
00000000: 294d 52bb 5603 24bc

action_model._continuous_distribution.mu.weight f4 [2, 128]
0.003448582 0.02505782 0.0035266716 -0.041859332 0.013648046 -0.018417355 0.0066290433 -0.027264042
0.022548677 -0.010248201 0.009936334 0.027342655 0.010382867 -0.040170927 -0.010793124 -0.047794074
0.018368794 -0.002428227 -0.017307863 -0.0036125726 -0.03175834 0.008834246 0.010532213 0.009038457
0.018285675 0.023623914 0.025153909 0.012125199 0.00018896507 0.015426971 -0.0018988663 -0.0059219687
0.0024715902 0.0031504955 0.018346393 0.0042198114 -0.0057510273 0.008636388 -0.02418882 -0.018289715
0.013546432 -0.018956786 -0.020348191 0.005180858 0.023163471 -0.025677208 -0.0063675204 0.004424082
0.018782746 -0.008988527 0.0011229607 0.005522022 -0.020190937 -0.0114664985 -0.002994134 0.016972188
0.009435443 -0.035560224 -0.016522836 0.018859616 -0.010418572 0.008257677 0.0008150411 -0.04252678
-0.003461599 -0.015458345 -0.027248269 -0.023960019 -0.0031028227 0.0046210964 -0.027920322 0.0042246766
-0.011385714 -0.017508669 -0.013988118 0.005492373 0.00792572 0.034726497 0.01341916 -0.02776236
0.00651507 -0.020081162 -0.011758022 -0.0134343 0.019770324 -0.010250653 0.00321795 0.005782125
0.026762363 -0.013123686 0.013262172 0.015495069 0.008892501 -0.023019457 -0.020862559 -0.03176717
-0.0004384699 0.036419857 0.005989119 -0.006255856 -0.0019152752 0.043011766 -0.0015890239 -0.026152499
-0.011611961 0.0145411985 0.021250928 0.0010550243 0.0054619024 -0.0020840997 0.009207174 -0.009533695
-0.012501949 0.008919568 -0.01101889 -0.02197168 -0.036379572 -0.0024797032 0.015922109 -0.003962365
0.0176468 -0.0036843568 0.004394315 -0.01474182 0.023126915 -0.0036669679 -0.0009779793 -0.012975939
-0.013365625 -0.029591972 0.008929088 -0.006608701 -0.01857454 -0.019819194 -0.020455692 0.0022612636
0.0077139144 0.012842482 -0.012617282 -0.021410491 0.034779366 -0.0033529664 0.0038858 -0.008423337
-0.017589118 0.01575692 -0.0006537545 0.00062777597 0.017465392 0.009451376 -0.0018806817 0.0007116305
-0.018532101 -0.0012840753 0.019216346 0.0015404064 -0.008969652 -0.017366149 -0.019336212 -0.0019230866
-0.0090952 0.02779914 0.0034074483 -0.04093717 0.0071061286 -0.013832745 -0.008952405 0.003777612
-0.014405726 -0.01785963 -0.041484788 0.0027640248 -0.0023938965 0.016816152 -0.01223923 -0.010367708
0.008630309 -0.0001519117 0.007933556 -0.011507541 0.014165129 -0.0087427925 -0.011760237 -0.029986763
-0.0345543 0.004285101 0.016833067 -0.009535008 0.014060306 0.0030675486 0.0023998609 0.016890524
0.010277666 -0.01314675 0.021882195 -0.037657645 0.021864744 -0.03790614 0.020263238 -0.011034179
-0.005847863 0.014453947 -0.013262569 0.017078605 -0.0025945713 0.010050916 -0.009582029 0.04431515
-0.009348475 0.003330728 0.0025546502 0.024986858 0.016238373 0.02162121 -0.003871041 -0.0016453814
0.0042510247 -0.03125432 0.0068532634 0.0033128068 0.015506769 0.008210634 0.00864037 -0.020783717
0.026194824 -0.007677233 -0.0042321463 0.022371553 0.03284336 -0.011620069 -0.040876552 0.009609591
0.0159238 0.0157022 -0.017139873 -0.010471867 -0.008309043 -0.0028560476 -0.0030522586 0.010914457
0.017949749 0.017609457 0.013477663 0.020193677 -0.007709247 -0.011809677 0.034544695 -0.027157577
0.005920867 0.01405859 0.0012516691 -0.012751036 -0.002084698 -0.0092631355 -0.010391379 -0.0092367325
00000000: 9b01 623b 0f46 cd3c bb1f 673b b174 2bbd
00000010: 0e9c 5f3c fedf 96bc 7238 d93b d758 dfbc
00000020: 01b8 b83c 12e8 27bc 01cc 223c b4fd df3c
00000030: e71c 2a3c 458a 24bd a5d5 30bc b8c3 43bd
00000040: 277a 963c e422 1fbb 38c9 8dbc e9c0 6cbb
00000050: 0815 02bd 83bd 103c 4e8f 2c3c 0916 143c
00000060: d7cb 953c f086 c13c 920f ce3c c5a8 463c
00000070: ed24 4639 68c1 7c3c 61e3 f8ba 130d c2bb
00000080: 67fa 213b 8b78 4e3b 2d4b 963c 5846 8a3b
00000090: 1d73 bcbb a37f 0d3c a227 c6bc 50d4 95bc
000000a0: dbf1 5d3c 434b 9bbc 40b1 a6bc 30c4 a93b
000000b0: 52c1 bd3c 0259 d2bc a2a6 d0bb e4f7 903b
000000c0: 46de 993c 9d44 13bc 4f30 933a 14f2 b43b
000000d0: 7767 a5bc fbdd 3bbc 3c39 44bb 4209 8b3c
000000e0: 1e97 1a3c 99a7 11bd e65a 87bc 7b7f 9a3c
000000f0: a9b2 2abc 354b 073c 7ba8 553a 9030 2ebd
00000100: fedb 62bb 0045 7dbc c337 dfbc cd47 c4bc
00000110: ba58 4bbb 916c 973b 29b9 e4bc 286f 8a3b
00000120: 258b 3abc 576e 8fbc 6b2e 65bc 5df9 b33b
00000130: e1da 013c 5f3d 0e3d 09dc 5b3c e46d e3bc
00000140: 5e7c d53b 4081 a4bc b8a4 40bc 8a1b 5cbc
00000150: 60f5 a13c 5bf2 27bc 3ee4 523b fb77 bd3b
00000160: be3c db3c bb04 57bc 9549 593c 08df 7d3c
00000170: dab1 113c 4d93 bcbc f5e7 aabc 4b1e 02bd
00000180: 6fe2 e5b9 fd2c 153d 5f40 c43b ecfd ccbb
00000190: f909 fbba 1b2d 303d cb46 d0ba c43d d6bc
000001a0: 1840 3ebc 353e 6e3c 6d16 ae3c be48 8a3a
000001b0: c2f9 b23b 6495 08bb b0d9 163c 3733 1cbc
000001c0: fad4 4cbc 6123 123c 9388 34bc f4fd b3bc
000001d0: bf02 15bd 8482 22bb 156f 823c bad6 81bb
000001e0: 0690 903c 4075 71bb 30fe 8f3b ad87 71bc
000001f0: a874 bd3c 8351 70bb 8a2f 80ba 0899 54bc
00000200: 7ffb 5abc dd6a f2bc 4f4b 123c cd8d d8bb
00000210: a229 98bc dd5b a2bc b292 a7bc b531 143b
00000220: 01c5 fc3b 4669 523c b7b8 4ebc 0e65 afbc
00000230: cf74 0e3d 71bd 5bbb e8a8 7e3b 0902 0abc
00000240: 0e17 90bc a814 813c b960 2bba 5591 243a
00000250: 9513 8f3c f2d9 1a3c 3581 f6ba b78c 3a3a
00000260: a2d0 97bc 6b4e a8ba 996b 9d3c 76e7 c93a
00000270: 72f5 12bc 7443 8ebc fa66 9ebc 1410 fcba
00000280: 0904 15bc 06bb e33c 7f4f 5f3b bcad 27bd
00000290: 87da e83b bda2 62bc 1cad 12bc d091 773b
000002a0: ff05 6cbc 5c4e 92bc f4eb 29bd a424 353b
000002b0: ebe2 1cbb 07c2 893c 0d87 48bc 52dd 29bc
000002c0: 2466 0d3c 7d4a 1fb9 bffb 013c 208a 3cbc
000002d0: db14 683c ee3d 0fbc 02ae 40bc cda6 f5bc
000002e0: cf88 0dbd 086a 8c3b 80e5 893c b938 1cbc
000002f0: 335d 663c ed08 493b fc46 1d3b ff5d 8a3c
00000300: a863 283c 7765 57bc 4a42 b33c e73e 1abd
00000310: b11d b33c 7843 1bbd 17ff a53c b3c8 34bc
00000320: 6e9f bfbb 3fd0 6c3c 3f4b 59bc 6ee8 8b3c
00000330: af09 2abb 99ac 243c f1fd 1cbc cd83 353d
00000340: 592a 19bc 5848 5a3b eb6b 273b 3db1 cc3c
00000350: 5606 853c f71e b13c 4ab1 7dbb d7a9 d7ba
00000360: 2e4c 8b3b 8804 00bd 5791 e03b ad1b 593b
00000370: 1a10 7e3c e585 063c 5790 0d3c 9d42 aabc
00000380: 8796 d63c 4c91 fbbb d1ad 8abb 8c44 b73c
00000390: c286 063d 1a62 3ebc 2c6e 27bd 8c71 1d3c
000003a0: a172 823c e6a1 803c eb68 8cbc 3292 2bbc
000003b0: a722 08bc 872c 3bbb 6708 48bb 8dd2 323c
000003c0: 5a0b 933c b541 903c 6ad1 5c3c 366d a53c
000003d0: da9d fcbb 607d 41bc bd7e 0d3d 9179 debc
000003e0: d503 c23b 0056 663c 0c0f a43a b9e9 50bc
000003f0: 6e9f 08bb 68c4 17bc 9a40 2abc aa55 17bc

action_model._continuous_distribution.mu.bias f4 [2]
0.00021198532 0.0016096178
00000000: 6048 5e39 d0f9 d23a

exp_avg f4 [128, 5]
-0.0018102549 -0.00010156651 1.7094011e-05 0.00017068484 -2.9011195e-05 -0.00011494306 2.8697461e-05 -0.000795084
0.00012053658 5.3659092e-05 0.0013012179 -3.3400247e-05 0.0013105983 0.000103430306 -2.080859e-05 0.0005074283
-8.564124e-06 -0.00050211564 -1.5401492e-05 -1.6406779e-06 2.9008057e-05 -3.7991824e-05 0.00031055635 0.0002577621
-2.6993193e-06 0.0014069962 2.8496477e-06 -0.002204875 4.653798e-06 -6.0967805e-06 -0.0003976829 2.3852422e-06
-0.0018161561 -9.0841843e-07 7.420167e-07 0.0011945772 1.583541e-05 -1.34694465e-05 -7.3782503e-06 3.70557e-07
-0.0001335392 2.2329916e-05 0.0016320524 9.1841175e-05 4.4083095e-05 0.00044361796 1.4478453e-05 0.00030968606
-6.109005e-06 9.612271e-07 0.0006513938 -3.358688e-05 -0.0005781723 -2.680754e-06 7.2110292e-06 0.00021127918
1.9549785e-05 0.00022908163 6.0945982e-05 4.0854262e-05 -0.0012646219 8.541788e-06 -0.0023245127 3.1669114e-07
4.12078e-06 0.0006066155 3.6230833e-06 1.410855e-06 -0.00013804641 4.861337e-06 0.0006844417 6.476577e-06
0.00039361845 -4.8507452e-05 1.025697e-06 -0.00027253816 -3.420355e-05 -0.0007570459 -9.589815e-05 -1.5606096e-05
0.00038613446 3.2482243e-05 -9.1334674e-05 -0.00014602812 -3.3219096e-06 -0.0011112866 -5.1474948e-05 6.606078e-05
-5.918769e-05 -1.3535795e-05 0.00079768826 3.8469618e-05 0.00036895968 3.417355e-05 -1.198767e-05 0.002643884
2.4564153e-05 0.00026839745 0.00027035136 7.5932994e-06 -0.00022002545 -3.8599355e-05 -0.00014026611 0.00010189803
-9.330524e-06 -0.0013990515 -4.0554244e-07 -0.0006467574 9.739649e-06 5.9560585e-05 0.00095271843 -2.7466403e-05
0.001628777 0.0001245471 -1.0646008e-05 0.0005511949 -2.6596646e-05 -0.0009661073 1.1013802e-05 2.3283278e-06
0.0005692469 3.202276e-05 8.15472e-06 -0.00011555136 1.6366098e-06 -0.000533376 -2.532788e-05 -0.0008992101
-0.00014094265 -2.7754098e-05 0.0020081268 5.6766778e-05 -0.0014643049 -0.00015882833 2.0101366e-05 -0.00047754674
7.2465064e-06 0.00011734443 -0.00015294742 -1.1524473e-05 -0.0012777387 8.061342e-06 -0.0007091246 -0.00024397619
-2.0149642e-05 0.0005960314 -1.2771522e-05 0.0005038165 4.61487e-05 -8.475566e-06 0.00019377649 -2.1080286e-05
-0.00033670312 -1.6296455e-05 -7.279603e-06 -0.0005464075 3.2928823e-05 0.0023467855 9.423107e-05 3.635537e-05
-6.7131725e-05 -2.308518e-05 0.00046202372 6.492401e-05 -3.29292e-06 0.00034084896 -1.2452052e-06 0.0010676489
4.3592427e-05 3.32659e-05 -0.00045144252 8.733833e-06 0.0015205323 -9.38409e-09 3.8893744e-05 0.0012168486
5.5569373e-05 -8.3991945e-05 0.00012304026 1.4842855e-07 0.00061777205 -3.0042835e-05 -0.0006245047 5.313231e-05
-2.7544138e-06 4.1393843e-05 7.702263e-07 0.00072991836 6.5324726e-05 2.2977232e-05 0.00045084336 1.345679e-05
-0.002407611 7.2923235e-06 6.5968084e-06 -0.00058468786 -1.0188331e-05 0.000724941 9.659116e-05 -1.3555529e-06
-0.00055033766 -5.3726485e-06 0.0005040712 3.5189845e-05 -1.2683026e-05 0.0012635193 4.7270587e-06 -5.383374e-05
4.088946e-06 -7.0538495e-06 -7.625088e-05 1.1497494e-05 0.00046057787 -0.00023385769 3.9173674e-06 -8.568106e-05
2.0533547e-05 0.0010878452 -9.9599965e-05 -3.308336e-07 0.0002171639 -3.7994414e-05 -0.00063850125 -2.1770806e-05
-1.3576706e-05 0.0002589861 6.772601e-05 -6.089675e-05 -0.00014925425 1.0036689e-05 0.00073219195 3.2279448e-05
0.0006869251 -7.758204e-05 2.2834458e-05 -0.00015731632 -2.2618872e-06 0.0011293001 -2.266992e-05 9.0175587e-07
7.0848204e-05 5.0654107e-05 0.0007133034 -7.67621e-05 1.7703178e-05 0.0008398931 5.390878e-05 0.00022087463
3.1750387e-05 1.883006e-05 -0.00053530454 -9.114618e-06 0.000108972876 4.030438e-06 -1.0670384e-05 -0.00012044092
00000000: 1346 edba 1b00 d5b8 1c65 8f37 ddf9 3239
00000010: 115d f3b7 960d f1b8 54bb f037 2f6d 50ba
00000020: 95c8 fc38 0310 6138 a18d aa3a 3e17 0cb8
00000030: 62c8 ab3a b9e8 d838 1b8e aeb7 f004 053a
00000040: a2ae 0fb7 69a0 03ba 7432 81b7 4335 dcb5
00000050: 5456 f337 6959 1fb8 2bd2 a239 3e24 8739
00000060: f425 35b6 f56a b83a 933c 3f36 aa7f 10bb
00000070: d227 9c36 f292 ccb6 1880 d0b9 2612 2036
00000080: 160c eeba 0ada 73b5 002f 4735 5c93 9c3a
00000090: 49d6 8437 d5fa 61b7 b092 f7b6 f7f0 c634
000000a0: a806 0cb9 2151 bb37 97ea d53a db9a c038
000000b0: dde5 3838 6595 e839 7be8 7237 5c5d a239
000000c0: f4fb ccb6 8303 8135 4cc2 2a3a a3df 0cb8
000000d0: 7c90 17ba 01e7 33b6 45f6 f136 d38a 5d39
000000e0: d8fe a337 a235 7039 40a0 7f38 ee5a 2b38
000000f0: abc1 a5ba b34e 0f37 da56 18bb b305 aa34
00000100: 3b45 8a36 4705 1f3a 1924 7336 9c5c bd35
00000110: 8dc0 10b9 911e a336 1b6c 333a 5f51 d936
00000120: 935e ce39 7b74 4bb8 aeaa 8935 74e3 8eb9
00000130: c875 0fb8 7e74 46ba ed1c c9b8 d6e9 82b7
00000140: 1772 ca39 8b3d 0838 ee8a bfb8 201f 19b9
00000150: f9ed 5eb6 97a8 91ba cee6 57b8 1c8a 8a38
00000160: 4c40 78b8 cc17 63b7 f41b 513a 705a 2138
00000170: ee70 c139 9255 0f38 a71e 49b7 0345 2d3b
00000180: 1e0f ce37 b2b7 8c39 f2bd 8d39 f2c9 fe36
00000190: a2b6 66b9 bee5 21b8 6614 13b9 17b2 d538
000001a0: 4c8a 1cb7 6160 b7ba 54b9 d9b4 288b 29ba
000001b0: 7967 2337 b1d0 7938 dabf 793a a767 e6b7
000001c0: b07c d53a dc98 0239 429c 32b7 107e 103a
000001d0: dd1b dfb7 5d42 7dba ebc7 3837 5e40 1c36
000001e0: 8339 153a 2d50 0638 41d0 0837 2a54 f2b8
000001f0: 7ca9 db35 42d2 0bba 3577 d4b7 f8b8 6bba
00000200: 01ca 13b9 79d1 e8b7 c79a 033b dd18 6e38
00000210: ebed bfba 288b 26b9 5b9f a837 3d5f fab9
00000220: 0427 f336 d016 f638 8360 20b9 3c59 41b7
00000230: cc79 a7ba 333f 0737 8ce4 39ba dcd3 7fb9
00000240: 0707 a9b7 fd3e 1c3a 4545 56b7 8e12 043a
00000250: ca8f 4138 4732 0eb7 7b30 4b39 92d5 b0b7
00000260: 8787 b0b9 5fb4 88b7 5043 f4b6 c93c 0fba
00000270: 0e1d 0a38 87cc 193b ec9d c538 487c 1838
00000280: 12c9 8cb8 0ca7 c1b7 c63b f239 d027 8838
00000290: effb 5cb6 f9b3 b239 ed20 a7b5 5af0 8b3a
000002a0: 03d7 3638 fd86 0b38 97af ecb9 8787 1237
000002b0: 994c c73a aa37 21b2 d721 2338 aa7e 9f3a
000002c0: 2913 6938 d524 b0b8 5e04 0139 bb5f 1f34
000002d0: fbf1 213a 7f04 fcb7 cdb5 23ba 62da 5e38
000002e0: 78d8 38b6 4d9e 2d38 8cc1 4e35 fe57 3f3a
000002f0: f2fe 8838 3bbf c037 2c5f ec39 79c4 6137
00000300: 03c9 1dbb 95b0 f436 275a dd36 bd45 19ba
00000310: 8cee 2ab7 f809 3e3a fc90 ca38 71f0 b5b5
00000320: 8944 10ba b346 b4b6 a523 043a cf98 1338
00000330: 2fc9 54b7 ac9c a53a 209d 9e36 8acb 61b8
00000340: c733 8936 1bb0 ecb6 e1e8 9fb8 5ce5 4037
00000350: b779 f139 b237 75b9 ee71 8336 abaf b3b8
00000360: 753f ac37 0796 8e3a 53e0 d0b8 6c9d b1b4
00000370: 7eb6 6339 315c 1fb8 1861 27ba 73a0 b6b7
00000380: 82c7 63b7 87c8 8739 2008 8e38 636b 7fb8
00000390: 2281 1cb9 4063 2837 92f0 3f3a cb63 0738
000003a0: c312 343a 8ab3 a2b8 a08c bf37 47f5 24b9
000003b0: edca 17b6 0605 943a 482b beb7 3110 7235
000003c0: 5794 9438 6f75 5438 fbfc 3a3a 57fb a0b8
000003d0: 4981 9437 462c 5c3a 1d1c 6238 959a 6739
000003e0: b82b 0538 3ff5 9d37 ae53 0cba fcea 18b7
000003f0: 5e88 e438 333d 8736 f304 33b7 3a95 fcb8

exp_avg_sq f4 [128, 5]
5.7325324e-06 5.8376988e-09 2.3786272e-06 3.2589332e-07 6.3726815e-09 6.0958882e-06 8.1487694e-10 1.6173964e-05
3.9848653e-09 6.5352864e-08 8.117435e-06 1.3256853e-09 1.4876467e-05 2.3554348e-08 5.3232544e-08 1.3841709e-06
4.002302e-09 3.3876968e-06 2.0430761e-08 5.0977733e-09 2.6055252e-06 7.197412e-09 2.9237485e-06 9.500291e-08
2.0068038e-09 7.568825e-06 2.6256325e-10 7.741407e-06 5.7224316e-11 2.3710216e-08 2.61207e-06 3.837778e-10
5.548509e-06 1.3728543e-10 3.2969852e-10 3.1106085e-06 6.412363e-09 4.2118695e-06 2.8209318e-08 1.4188194e-10
1.2493059e-05 2.920078e-09 1.381948e-05 1.2037427e-08 8.499528e-09 2.505014e-07 3.991238e-10 3.893696e-07
6.057e-09 7.525004e-11 1.0002941e-06 1.9853903e-09 9.271249e-07 3.544548e-08 1.4826321e-08 4.407913e-06
1.3922102e-09 1.547795e-05 3.9302225e-08 5.090706e-08 1.2246433e-06 7.652283e-10 7.5262574e-06 3.2982017e-10
6.26698e-09 2.1169162e-06 2.9470224e-09 3.0712847e-06 2.246029e-07 7.856537e-10 4.9987824e-07 5.096048e-10
1.330283e-06 7.541154e-09 2.096337e-10 2.3728328e-06 8.4403246e-10 2.2345148e-06 3.729084e-08 6.728665e-09
5.182625e-06 6.4506747e-09 2.9993098e-06 8.7099416e-08 2.0950983e-09 4.6975842e-06 4.3827835e-09 2.3896807e-06
1.3833946e-08 6.41019e-09 1.0963063e-06 1.5979466e-09 1.5221241e-06 2.4708152e-10 5.8052746e-10 1.0115025e-05
1.4036557e-08 5.3206372e-06 1.357805e-07 2.1585627e-09 2.5310064e-06 1.981307e-09 1.5119974e-06 1.258945e-08
5.268571e-09 1.3634683e-05 7.400694e-11 1.980723e-05 2.5112135e-09 4.6120316e-08 1.5464217e-05 9.3695665e-09
6.5935487e-06 9.0143445e-08 2.5338892e-08 1.7598576e-06 7.130969e-09 5.5285013e-06 1.2083585e-07 1.4340101e-10
5.010044e-06 2.9850789e-09 3.282129e-06 8.1270144e-08 2.2730541e-10 5.0555554e-06 3.9572923e-09 3.169184e-06
3.6076955e-08 2.7290218e-08 7.081345e-06 2.9031852e-09 2.6976998e-06 9.7136315e-08 1.6788803e-07 3.262424e-06
1.6118625e-09 3.7225644e-05 4.39926e-09 2.5211948e-09 7.7682735e-06 4.348646e-09 3.4123157e-06 1.1039946e-08
6.239816e-09 5.2384885e-06 1.4365082e-09 7.864719e-06 5.5654206e-09 1.04370095e-08 1.8247151e-06 6.69896e-10
1.2848498e-06 1.3454806e-09 2.7176652e-09 7.1931236e-06 1.7108558e-10 2.5528838e-05 3.4808176e-09 1.428349e-08
3.6927015e-06 4.1733217e-09 3.3292147e-06 2.0430868e-08 4.1391575e-09 1.2960885e-05 1.09889396e-10 3.933216e-05
6.6098765e-10 1.9763144e-08 6.996486e-06 1.9609653e-10 1.454822e-05 5.9688765e-10 2.586438e-08 5.166131e-06
6.1974976e-09 3.278425e-06 1.6511263e-08 8.838006e-10 2.5794798e-06 1.7422563e-09 4.7718117e-06 3.183616e-09
1.3039076e-08 9.3235474e-07 3.8587e-10 4.80621e-07 8.0966117e-10 4.234629e-08 1.5017148e-05 4.015683e-10
2.6569423e-05 2.232879e-10 4.013166e-08 1.2988982e-06 1.5672066e-10 6.6242715e-06 1.2514754e-08 2.694539e-09
2.7836873e-06 6.1187094e-10 1.2750486e-06 3.4954613e-08 2.7063388e-08 2.1292021e-06 1.4248093e-10 3.0716212e-06
1.0936924e-08 6.3413563e-09 4.585278e-06 3.169843e-09 2.0801378e-06 2.2184685e-07 3.185703e-09 4.216027e-06
4.3448307e-09 3.6750155e-06 9.602676e-08 1.1974763e-10 2.614867e-06 8.957295e-10 7.3650385e-06 4.6941273e-10
2.8057003e-09 2.2946388e-06 3.777512e-09 1.8532705e-06 1.7185558e-07 1.8650018e-08 4.5429465e-06 5.568207e-09
4.7041003e-06 4.061641e-07 7.919064e-09 2.2425384e-06 6.860655e-10 7.418052e-06 3.9943124e-08 3.3234446e-10
5.0195813e-06 1.9987492e-09 6.6895795e-06 1.7605913e-08 5.2003475e-08 2.136496e-06 2.994602e-09 2.0144178e-06
4.173955e-09 3.4594734e-08 7.2702204e-07 2.589413e-09 1.8220636e-06 1.2670922e-08 5.31774e-09 3.3166457e-06
00000000: 145a c036 f194 c831 81a0 1f36 70f6 ae34
00000010: b3f6 da31 488b cc36 defd 5f30 53ad 8737
00000020: 3feb 8831 1e58 8c33 1e30 0837 6833 b630
00000030: f095 7937 8f54 ca32 cda1 6433 c0c7 b935
00000040: 9f84 8931 3058 6336 b87f af32 7d28 af31
00000050: 95da 2e36 1b4d f731 9e35 4436 6704 cc33
00000060: 11e8 0931 b6f7 fd36 7e58 902f 17e1 0137
00000070: daac 7b2e 51ab cb32 054b 2f36 ecfb d22f
00000080: 542d ba36 6af2 162f f140 b52f d9bf 5036
00000090: be53 dc31 af53 8d36 f250 f232 3700 1c2f
000000a0: 4899 5137 8eaa 4831 37da 6737 2acd 4e32
000000b0: 5205 1232 a67c 8634 ae6b db2f 8d0a d134
000000c0: ef1d d031 027a a52e d841 8635 5b6f 0831
000000d0: 8adf 7835 b83c 1833 d9b6 7e32 afe7 9336
000000e0: 0b58 bf30 a5d6 8137 41cd 2833 e8a4 5a33
000000f0: 6c5e a435 2858 5230 0f8a fc36 1052 b52f
00000100: f054 d731 5810 0e36 9184 4a31 451c 4e36
00000110: 602a 7134 77f5 5730 5f2f 0635 4014 0c30
00000120: 2d8c b235 598e 0132 a47e 662f f53c 1f36
00000130: 8101 6830 acf4 1536 b629 2033 f731 e731
00000140: 69e6 ad36 bca4 dd31 c047 4936 690b bb33
00000150: 5cf9 0f31 f19f 9d36 5f97 9631 675e 2036
00000160: 57aa 6d32 a140 dc31 cc24 9335 bf9e db30
00000170: c94b cc35 a2d5 872f fd92 1f30 b4b3 2937
00000180: 6e25 7132 ed87 b236 0fcb 1134 d655 1431
00000190: 5cda 2936 8527 0831 d6ef ca35 fd48 5832
000001a0: d706 b531 84c0 6437 34be a22e b427 a637
000001b0: bc91 2c31 d315 4633 27b9 8137 caf7 2032
000001c0: 273e dd36 e294 c133 d0a8 d932 3f34 ec35
000001d0: ab04 f531 7781 b936 1bbf 0134 ccab 1d2f
000001e0: f31b a836 1022 4d31 8c42 5c36 bc86 ae33
000001f0: c9ec 792f e4a2 a936 b6f8 8731 2bae 5436
00000200: 08f3 1a33 d36b ea32 4a9c ed36 6081 4731
00000210: 210a 3536 4199 d033 b644 3434 04f0 5a36
00000220: 5f88 dd30 bb22 1c38 4d28 9731 5441 2d31
00000230: 7b54 0237 186b 9531 23ff 6436 32aa 3d32
00000240: 0166 d631 46c6 af36 a46e c530 b6f2 0337
00000250: f539 bf31 744e 3332 bce8 f435 be23 3830
00000260: 1a73 ac35 e4eb b830 acc1 3a31 765c f136
00000270: 4f1c 3c2f c326 d637 3133 6f31 7463 7532
00000280: 21d0 7736 ed64 8f31 796b 5f36 f47f af32
00000290: 6a38 8e31 9472 5937 3ba6 f12e 96f8 2438
000002a0: dfb0 3530 9dc3 a932 5bc3 ea36 449c 572f
000002b0: 2114 7437 3c12 2430 602c de32 ba58 ad36
000002c0: c4f1 d431 ea02 5c36 a7d4 8d32 f0ef 7230
000002d0: 201b 2d36 3274 ef30 8d1d a036 c4c6 5a31
000002e0: 7602 6032 ee46 7a35 6022 d42f 0604 0135
000002f0: d78e 5e30 3de0 3533 29f2 7b37 b7c3 dc2f
00000300: 67e1 de37 f581 752f 3a5d 2c33 cd55 ae35
00000310: f250 2c2f 0f46 de36 7800 5732 d52a 3931
00000320: 62cf 3a36 9730 2830 5622 ab35 0121 1633
00000330: 0579 e832 6ae3 0e36 d1a8 1c2f 0d22 4e36
00000340: 1ae5 3b32 29e3 d931 3ddb 9936 78d4 5931
00000350: 7f98 0b36 cc34 6e34 7beb 5a31 6577 8d36
00000360: 8949 9531 49a0 7636 4537 ce33 f6a9 032f
00000370: 137b 2f36 5c37 7630 3321 f736 fc07 0130
00000380: 67ce 4031 98fd 1936 59cb 8131 e4bd f835
00000390: 4d87 3834 d333 a032 9d6f 9836 7752 bf31
000003a0: ead7 9d36 c50e da34 690c 0832 847e 1636
000003b0: 9195 3c30 95e8 f836 ee8d 2b33 53b5 b62f
000003c0: e06d a836 5e5a 0931 0d77 e036 d03b 9732
000003d0: 6d5a 5f33 b960 0f36 98c9 4d31 6f2f 0736
000003e0: 7f6a 8f31 5095 1433 9328 4335 6ff1 3131
000003f0: a18d f435 4eaf 5932 56b7 b631 8a93 5e36

exp_avg f4 [128]
-0.0006387194 0.00076973886 -0.0005930602 9.378122e-06 -0.00015716301 0.000698435 0.0002570928 -3.8780367e-05
6.047178e-05 2.0338928e-05 -0.00016543052 0.00014005581 0.00042094698 -2.75215e-05 -1.8197e-05 -0.00019317615
8.347876e-05 -0.00037213607 0.00017882884 0.00028625285 -0.00037584448 0.0005306091 -0.00043886938 -0.00013846149
0.00012363507 -7.3073998e-06 0.0005260419 0.00052255567 0.00026066383 -0.0002389422 3.3257857e-05 6.7201936e-06
-0.00012897309 2.9922587e-05 -6.53327e-05 0.00031426846 -1.8804985e-05 -0.00017776013 0.0007973341 -0.00010536663
-2.8014361e-05 -0.00010459654 -6.109746e-05 -1.7173203e-05 -0.00036558678 0.00042483205 0.00013397202 -2.838181e-05
0.0005180983 0.00038099717 -4.2968444e-05 -0.000100050514 -0.0006018715 -0.00023861558 0.00011416716 -0.00020298026
-0.00029353157 -0.00044256976 0.000293437 8.203541e-05 7.148022e-05 0.000372307 -7.389295e-05 0.00021870805
-0.0002202409 -0.00013443001 0.00039988913 -7.263662e-05 0.0006523244 0.00012609432 0.00023285866 1.5269218e-06
0.0001232457 0.00025511807 0.000105828316 -0.00045708154 -0.00014687415 8.130926e-05 -0.0003879268 0.00088619423
1.6352955e-05 -0.00045852317 0.0005120645 0.0003001216 0.00015632197 2.2849901e-05 0.0001836055 9.552482e-05
0.00039071875 3.0171215e-05 -0.000118709664 -0.00049633207 -2.3270242e-05 -3.9573733e-05 0.00033577348 9.620665e-05
-5.3707154e-05 0.00046925203 0.0004058877 0.00031193852 0.00017352158 -0.0010721517 -0.00012511612 3.503233e-05
-6.6325185e-05 -3.05366e-05 7.6475146e-05 0.00042794604 0.0008722531 0.00019604444 -0.0003978472 0.000291073
-0.00070994656 0.0003707106 -0.00036164036 -0.0003634328 0.00028348004 -0.00048755723 0.0009228508 -6.3284686e-05
-3.0587555e-05 0.00031475493 0.00032065477 0.00036521725 0.0003116835 -0.00013614382 0.0001820379 -1.8929359e-05
00000000: bc6f 27ba 4dc8 493a 9977 1bba ba56 1d37
00000010: 20cc 24b9 2e17 373a 69ca 8639 1aa8 22b8
00000020: 14a3 7d38 849d aa37 6b77 2db9 f2db 1239
00000030: 8cb2 dc39 f9dd e6b7 c3a5 98b7 548f 4ab9
00000040: 5111 af38 421b c3b9 0084 3b39 3514 9639
00000050: fe0c c5b9 9318 0b3a 0d18 e6b9 f92f 11b9
00000060: 09a4 0139 1632 f5b6 13e6 093a 1efc 083a
00000070: b5a9 8839 8f8c 7ab9 5a7e 0b38 067e e136
00000080: f33c 07b9 4402 fb37 3a03 89b8 66c4 a439
00000090: 66bf 9db7 1f65 3ab9 3004 513a 47f8 dcb8
000000a0: 6200 ebb7 d75a dbb8 7321 80b8 2c0f 90b7
000000b0: 3aac bfb9 febb de39 d77a 0c39 7915 eeb7
000000c0: fdd0 073a 93c0 c739 0439 34b8 36d2 d1b8
000000d0: eac6 1dba e234 7ab9 076d ef38 19d7 54b9
000000e0: 24e5 99b9 b508 e8b9 73d8 9939 6d0a ac38
000000f0: a7e7 9538 3332 c339 faf6 9ab8 ff54 6539
00000100: 77f0 66b9 c8f5 0cb9 36a8 d139 7d54 98b8
00000110: c000 2b3a 3038 0439 852b 7439 a2f0 cc35
00000120: 843b 0139 5ec1 8539 25f0 dd38 72a4 efb9
00000130: 3b02 1ab9 9484 aa38 a762 cbb9 7d4f 683a
00000140: b42d 8937 f065 f0b9 113c 063a a459 9d39
00000150: 5cea 2339 caad bf37 3a86 4039 7f54 c838
00000160: 62d9 cc39 3118 fd37 c4f3 f8b8 481c 02ba
00000170: 7734 c3b7 f9fb 25b8 c10a b039 8dc2 c938
00000180: 9e43 61b8 f105 f639 53cd d439 ae8b a339
00000190: 58f3 3539 7187 8cba 9a31 03b9 aeef 1238
000001a0: 1018 8bb8 6d14 00b8 4861 a038 f25d e039
000001b0: eaa7 643a 4791 4d39 2696 d0b9 289b 9839
000001c0: b51b 3aba ef5b c239 8c9a bdb9 208b beb9
000001d0: 0ca0 9439 d39e ffb9 78eb 713a b5b7 84b8
000001e0: 234b 00b8 b105 a539 8e1d a839 a17a bf39
000001f0: 7469 a339 d4c1 0eb9 6de1 3e39 7dca 9eb7

exp_avg_sq f4 [128]
2.3883356e-07 4.4713076e-07 4.2953627e-07 1.0124743e-07 1.8719946e-07 3.2383363e-07 1.303517e-07 1.6119404e-07
4.2335685e-07 1.601471e-08 5.123802e-08 3.3529423e-07 1.4201954e-07 9.446606e-08 2.5414703e-08 6.385659e-08
2.1381149e-07 1.7390644e-07 4.437829e-08 3.6715645e-07 1.0342473e-07 5.805058e-07 4.7380556e-07 1.7270348e-07
1.432889e-07 1.4878518e-07 2.1930965e-07 6.037751e-07 2.3794979e-07 3.3122808e-07 9.2083695e-08 5.5099514e-07
1.8059836e-07 7.9985733e-07 3.9095718e-07 1.6688129e-07 1.11271596e-07 3.5952795e-08 7.0477853e-07 1.1305838e-07
7.457795e-08 6.96612e-08 1.6302202e-07 1.32973e-07 1.7428246e-07 9.9445586e-08 1.9000782e-07 1.414316e-07
2.6212894e-07 1.384812e-07 7.122823e-08 8.7520185e-08 5.7391065e-07 7.5777045e-08 1.1991159e-07 1.314104e-07
1.4783159e-07 5.3299965e-07 1.2348805e-07 6.4627066e-08 1.8165575e-07 2.875179e-07 2.7690757e-07 3.1399762e-07
1.4611284e-07 2.3195652e-07 2.1800166e-07 5.668981e-08 2.862924e-07 2.3301364e-08 3.6840765e-07 3.320144e-07
1.4490035e-08 9.5238136e-08 4.009385e-07 3.1727723e-07 2.459772e-07 5.4977004e-08 1.5263731e-07 5.4736853e-07
1.0001751e-07 7.130091e-07 5.273481e-07 1.4413304e-07 5.5531734e-07 1.6593694e-08 4.277564e-07 2.4009432e-07
3.8493008e-07 2.1698071e-08 1.1115525e-07 1.8456046e-07 2.608763e-07 2.720692e-07 7.899031e-08 4.48564e-07
8.444679e-08 8.5540796e-07 2.4281215e-07 8.025987e-07 6.445849e-08 1.0340468e-06 1.0301634e-07 2.5462027e-08
6.0640225e-08 8.543958e-08 2.5425104e-08 2.1709306e-07 6.7573467e-07 4.1461504e-07 3.0649247e-07 3.239922e-07
3.0508744e-07 7.85223e-08 9.284275e-07 1.5064259e-07 1.5561287e-07 7.1515603e-07 3.976592e-07 2.41562e-08
3.179839e-08 3.293967e-07 1.5118127e-07 3.768316e-07 5.642824e-08 4.0598962e-08 7.3030954e-08 5.638417e-08
00000000: 0939 8034 2f0d f034 049b e634 5d6d d933
00000010: ff00 4934 5bdb ad34 cdf6 0b34 ae14 2d34
00000020: b949 e334 b890 8932 cc10 5c33 7d02 b434
00000030: 097e 1834 44dd ca33 864f da32 8821 8933
00000040: 0e94 6534 0abb 3a34 729a 3e33 991d c534
00000050: 591a de33 0ed4 1b35 575f fe34 5f70 3934
00000060: f4da 1934 c2c1 1f34 617b 6b34 1c13 2235
00000070: 247f 7f34 a4d3 b134 8cbf c533 19e8 1335
00000080: 80ea 4134 c7b5 5635 bfe4 d134 fb2f 3334
00000090: 35f4 ee33 846a 1a33 0330 3d35 80ca f233
000000a0: a927 a033 a698 9533 270b 2f34 57c7 0e34
000000b0: 6622 3b34 ca8e d533 f404 4c34 6cdc 1734
000000c0: baba 8c34 6cb1 1434 22f6 9833 bbf2 bb33
000000d0: d70e 1a35 dfba a233 0cc1 0034 d119 0d34
000000e0: a3bb 1e34 7513 0f35 2398 0434 1bc9 8a33
000000f0: 270d 4334 295c 9a34 e3a9 9434 8193 a834
00000100: 31e3 1c34 b90f 7934 d713 6a34 1b7b 7333
00000110: bab3 9934 3e28 c832 90c9 c534 b63f b234
00000120: d9ef 7832 b885 cc33 9140 d734 4056 aa34
00000130: d90e 8434 db1f 6c33 a0e4 2334 e1ee 1235
00000140: 35c9 d633 9d65 3f35 168f 0d35 fdc2 1a34
00000150: 1e11 1535 eb89 8e32 64a6 e534 50e6 8034
00000160: 63a8 ce34 9062 ba32 3fb4 ee33 982b 4634
00000170: 910e 8c34 e810 9234 62a1 a933 2bd2 f034
00000180: 1d59 b533 309f 6535 d95b 8234 2a72 5735
00000190: 6e6c 8a33 94c9 8a35 d539 dd33 97b7 da32
000001a0: 5139 8233 e87a b733 6566 da32 161a 6934
000001b0: 2264 3535 4298 de34 018c a434 26f1 ad34
000001c0: e6ca a334 17a0 a833 0d39 7935 52c0 2134
000001d0: 8a16 2734 26f9 3f35 dd7d d534 0c80 cf32
000001e0: b392 0833 f0d7 b034 6454 2234 574f ca34
000001f0: 825b 7233 085f 2e33 31d5 9c33 0d2b 7233
