Goodminton/Assets/results/Badminton/Badminton/Badminton-1295.pt (torch, 439033 bytes, 36 tensors)

network_body._body_endoder.seq_layers.0.weight f4 [128, 5]
-0.04889952 -0.6226978 -0.17078224 0.1415368 -0.37657103 0.06405127 -0.033245057 0.100835636
0.048356853 0.16250917 0.2292204 0.005616485 -1.0636272 -0.8772761 0.2221165 0.34456682
-0.60697246 0.38572675 0.9578949 -1.2697936 -0.25721705 0.70600444 0.114929035 -0.009180226
-0.5507228 -0.1316664 -0.024963273 0.28335527 -0.74730164 -0.37613162 -0.11068566 -0.5127475
-0.6494174 0.6057606 -0.5987245 0.95262915 0.4118842 0.30000463 -0.45865944 0.27939954
-0.37051073 0.4314455 0.520612 -0.29630092 0.29655328 -0.5454179 0.8827349 -0.60121775
-0.08128456 0.38664785 0.41536686 1.2475613 -0.32692394 0.3804246 0.25508577 -0.5551043
-0.04411741 0.42228916 0.20783952 0.029797446 -0.25534868 0.098505884 -0.10423273 0.17789748
-0.09693529 0.11735089 0.1924618 0.37689024 0.6594125 0.15161884 0.2166366 0.3637685
-0.5503109 0.6396783 -0.63383067 0.82736444 0.40049693 -0.19235218 -0.18683934 0.43751982
0.5406917 -0.41264367 -0.15342171 -0.759239 0.245522 0.1867879 0.06974574 -0.05997893
-0.3072106 -1.0339696 0.045112982 -0.34647477 0.51227355 -0.36178514 -0.4297155 -0.3904791
-0.03936208 -0.54745936 -0.115972206 -0.4171159 0.09282397 -0.7839252 0.61115927 -0.45180446
-0.123111635 0.5889192 0.115460336 -0.12104537 0.033814237 0.48125404 0.71837324 0.46972752
-0.05565908 -0.46277824 0.6008761 0.040390152 0.63505065 0.24886397 -0.22072542 -0.13431475
-0.4806617 -0.34132418 0.35999477 -0.30604348 -0.19612648 0.3393225 -0.5583807 0.4438924
0.69955915 0.26236618 0.23011975 0.022466537 0.03413177 -0.8244773 0.03430355 0.5001974
0.22104828 -0.1676906 0.59851116 0.12739809 -0.043571185 0.9483421 0.49888656 -0.27998978
0.70667404 0.3627261 0.2120469 -0.041906614 -0.1892355 0.29809964 0.2640578 -0.014109622
0.2050348 0.14668179 -0.72362787 0.051857002 0.38603818 1.0680676 0.5494359 -0.17019334
-0.027967934 0.14371498 0.19185159 -0.037732936 -0.90278083 0.2981823 0.56213534 -0.5907781
0.17867222 -0.37044734 0.17313176 0.9184824 0.15164168 0.14075157 0.15067773 -0.09524299
-0.45459613 -0.6333322 0.15992667 0.38152558 -0.29302952 -0.20878853 -0.5118782 -0.06692207
-0.90207636 0.45780396 0.32220423 0.70225143 -0.034001745 -0.305003 -0.35792202 0.32413313
0.26135397 -0.38096532 1.0323397 -0.12174669 0.08690631 0.07189502 1.0050477 0.21084704
-0.31633985 -0.26282194 -0.12127574 -2.8604485e-05 -0.12948035 0.13737333 0.036844596 -0.7845154
-0.4369887 0.32795465 -0.50815797 0.09481671 -0.47109604 0.13149102 0.5524934 -0.08711744
-0.7269761 -0.03226267 0.42319703 -0.04404524 -0.0028759665 -0.17710604 0.40168166 0.5603596
0.7055627 0.55045867 -0.050211105 -0.27919012 -1.5812901 0.62770796 -0.23649192 0.86561716
-0.07865325 1.1160179 -0.19258133 -0.8338779 -0.07726087 -0.5433826 -0.5872669 -0.106546745
-0.19271673 -0.13516153 -0.41599977 -0.2428548 0.17864682 -0.29055384 -0.09238454 0.23077396
-0.06781438 0.14969204 0.30743575 0.1728129 0.052301373 -0.32513967 -0.17401259 1.000685
00000000: dd4a 48bd 1f69 1fbf 8ae1 2ebe 06ef 103e
00000010: ebcd c0be 502d 833d f82b 08bd ea82 ce3d
00000020: d611 463d ce68 263e c1b8 6a3e 7e0a b83b
00000030: f024 88bf 2b95 60bf 8272 633e 106b b03e
00000040: 8c62 1bbf fa7d c53e 9a38 753f 9988 a2bf
00000050: f4b1 83be b5bc 343f ea5f eb3d a968 16bc
00000060: 2bfc 0cbf 8fd3 06be c77f ccbc f113 913e
00000070: 294f 3fbf 5394 c0be 2aaf e2bd 6c43 03bf
00000080: 3840 26bf 2013 1b3f 0246 19bf 81df 733f
00000090: 7ce2 d23e 359a 993e 69d5 eabe 750d 8f3e
000000a0: 95b3 bdbe 6de6 dc3e d446 053f c1b4 97be
000000b0: d5d5 973e 82a0 0bbf eafa 613f 68e9 19bf
000000c0: 8578 a6bd b5f6 c53e f7aa d43e 17b0 9f3f
000000d0: 9362 a7be 03c7 c23e 9a9a 823e 511b 0ebf
000000e0: 75b4 34bd 4936 d83e e2d3 543e c619 f43c
000000f0: 10bd 82be 74bd c93d f877 d5bd c22a 363e
00000100: 0286 c6bd aa55 f03d b514 453e c2f7 c03e
00000110: 42cf 283f f841 1b3e fcd5 5d3e dd3f ba3e
00000120: 2de1 0cbf f5c1 233f ba42 22bf 28ce 533f
00000130: ef0d cd3e f8f7 44be d052 3fbe 9902 e03e
00000140: c56a 0a3f 0846 d3be 951a 1dbe 7d5d 42bf
00000150: 1f6a 7b3e 5445 3f3e dbd6 8e3d 77ac 75bd
00000160: b54a 9dbe 1e59 84bf 64c8 383d 2465 b1be
00000170: 5c24 033f e73b b9be ac03 dcbe e0ec c7be
00000180: 223a 21bd 4c26 0cbf d682 edbd 3790 d5be
00000190: 7e1a be3d 52af 48bf ef74 1c3f ea52 e7be
000001a0: f421 fcbd 69c3 163f 7876 ec3d a3e6 f7bd
000001b0: cc80 0a3d ee66 f63e 4fe7 373f 2080 f03e
000001c0: c7fa 63bd 45f1 ecbe 04d3 193f 2570 253d
000001d0: ae92 223f 32d6 7e3e d805 62be ce89 09be
000001e0: 4a19 f6be 0bc2 aebe 3c51 b83e bbb1 9cbe
000001f0: 61d5 48be aebb ad3e 0af2 0ebf dd45 e33e
00000200: 4f16 333f dc54 863e 83a4 6b3e be0b b83c
00000210: c1cd 0b3d f210 53bf e181 0c3d f00c 003f
00000220: 7b5a 623e 16b7 2bbe 0738 193f a574 023e
00000230: b377 32bd 8cc6 723f 0f6e ff3e d25a 8fbe
00000240: 97e8 343f 3cb7 b93e d322 593e 45a6 2bbd
00000250: f3c6 41be 84a0 983e 9532 873e 0b2c 67bc
00000260: a5f4 513e c033 163e ad3f 39bf 0268 543d
00000270: cca6 c53e 70b6 883f d5a7 0c3f 2a47 2ebe
00000280: 021d e5bc 052a 133e be74 443e da8d 1abd
00000290: a51c 67bf 5aab 983e 1ae8 0f3f 3c3d 17bf
000002a0: daf5 363e 46ab bdbe 7449 313e aa21 6b3f
000002b0: f547 1b3e 2e21 103e 434b 1a3e c20e c3bd
000002c0: d3c0 e8be 0f22 22bf d1c3 233e 5257 c33e
000002d0: f707 96be a9cc 55be 730a 03bf 700e 89bd
000002e0: 7aee 66bf 4865 ea3e f4f7 a43e c0c6 333f
000002f0: 6a45 0bbd 5a29 9cbe 8e41 b7be c7f4 a53e
00000300: 30d0 853e e30d c3be b523 843f 5456 f9bd
00000310: effb b13d b23d 933d 67a5 803f 49e8 573e
00000320: 4cf7 a1be 9990 86be 6a5f f8bd aaf3 efb7
00000330: 7f96 04be 98ab 0c3e 5cea 163d 00d6 48bf
00000340: fcbc dfbe ace9 a73e a416 02bf 432f c23d
00000350: 8033 f1be 95a5 063e 3570 0d3f a16a b2bd
00000360: 1b1b 3abf dd25 04bd 48ad d83e c868 34bd
00000370: b67a 3cbb 495b 35be 38a9 cd3e ba73 0f3f
00000380: c29f 343f dcea 0c3f 29aa 4dbd 02f2 8ebe
00000390: b767 cabf 78b1 203f f02a 72be 1699 5d3f
000003a0: f514 a1bd add9 8e3f 0a34 45be 0679 55bf
000003b0: f23a 9ebd 1f1b 0bbf 2057 16bf 2e35 dabd
000003c0: 8957 45be c967 0abe ecfd d4be eeae 78be
000003d0: 31ef 363e 79c3 94be 1b34 bdbd 0250 6c3e
000003e0: 44e2 8abd df48 193e 3868 9d3e ddf5 303e
000003f0: f739 563d b578 a6be 5b30 32be 7216 803f

network_body._body_endoder.seq_layers.0.bias f4 [128]
-0.00531704 -0.0041097947 -0.004934882 -0.0027116903 -0.0122871 -0.017056216 0.0017450423 -0.000111874986
0.00058525044 0.0014216178 -0.004208572 0.00329313 0.0005281898 -0.0025119446 -0.0040452066 -0.0009932581
0.0009311236 -0.0038872815 -0.0071006427 -0.0069840015 0.0024454624 0.0032585012 0.00392289 0.0072158
-0.0077649835 -0.0011846469 0.008274262 0.0077245664 0.005917233 0.003213929 0.006145956 -0.0019857334
0.007188252 -0.007844964 0.004996336 -2.1248921e-05 -0.0029561021 0.007984696 -0.012212202 0.002559686
-0.0036051413 -0.00020859111 -0.0045230337 0.00419564 -0.0050160508 -0.0014219466 0.0001492545 0.008404844
-0.0037280587 -0.007383688 -0.0027674763 -0.0006292005 0.0057070083 0.0005791585 0.0036704254 -0.005441392
0.002496313 -0.01307452 -0.0032733392 0.006896068 0.0026348443 0.0063278046 -0.0022585616 -0.001623774
-0.010158826 0.00047188424 -0.0015779677 0.00812805 0.0020856434 0.009300556 -0.00032895658 -0.0062138005
-0.0039654044 -0.00075549394 0.005863181 -0.00258208 -0.002728578 1.3864556e-06 -0.0065850397 0.0020626823
0.0025218616 0.0041405363 0.0018168367 -0.0037698357 0.008149305 -8.017593e-05 0.0018302255 -0.008369762
0.003970553 -0.0064758607 0.0043294076 -0.0020544878 -0.013041598 0.005117494 0.000115195646 0.0056006215
-0.0004858588 -0.00689758 -0.002762508 -0.002971867 -0.004712442 -0.0039893957 -0.013306497 -0.007288488
0.00017955567 -0.0022965022 -0.0025288179 -0.0103537785 -0.0030119885 -0.0031805055 -0.0004594409 0.006401567
0.005628333 0.00227905 0.005483817 -0.0028554804 -0.0035552343 -0.01202861 -0.0025053413 9.156602e-05
-0.0007346835 -0.0024108298 -0.0065132026 0.0009909287 0.008549314 0.00064435584 0.005566677 -0.0007212435
00000000: 903a aebb 75ab 86bb cab4 a1bb 9db6 31bb
00000010: d54f 49bc 7ab9 8bbc e7b9 e43a 6d9e eab8
00000020: 7e6b 193a 9455 ba3a 10e8 89bb 8ed1 573b
00000030: 3876 0a3a 709f 24bb a78d 84bb 3630 82ba
00000040: a616 743a c3c1 7ebb 82ac e8bb 0dda e4bb
00000050: 0d44 203b 948c 553b 968b 803b 8572 ec3b
00000060: 6771 febb 2746 9bba c590 073c 5c1e fd3b
00000070: 59e5 c13b c8a0 523b 0464 c93b 1423 02bb
00000080: 6e8b eb3b 2a88 00bc 4eb8 a33b b63f b2b7
00000090: 2abb 41bb 3ed2 023c b015 48bc 68c0 273b
000000a0: 3c44 6cbb 40b9 5ab9 f535 94bb 947b 893b
000000b0: af5d a4bb 9c60 baba 3381 1c39 79b4 093c
000000c0: 7252 74bb ddf2 f1bb 8c5e 35bb eef0 24ba
000000d0: db01 bb3b abd2 173a 858b 703b b44d b2bb
000000e0: 2f99 233b 8336 56bc 8585 56bb 69f8 e13b
000000f0: 5aad 2c3b 7959 cf3b 6004 14bb d0d4 d4ba
00000100: 3471 26bc 3b67 f739 cfd3 ceba 832b 053c
00000110: 4aaf 083b 5c61 183c ce77 acb9 239d cbbb
00000120: 39f0 81bb 570c 46ba ed1f c03b 1d38 29bb
00000130: f1d1 32bb 4016 ba35 51c7 d7bb 112e 073b
00000140: d145 253b 56ad 873b ec22 ee3a 590f 77bb
00000150: aa84 053c 2024 a8b8 2de4 ef3a 5421 09bc
00000160: 6a1b 823b 7533 d4bb b4dd 8d3b 96a4 06bb
00000170: 6dac 55bc a7b0 a73b 3195 f138 6b85 b73b
00000180: ddba feb9 1805 e2bb 320b 35bb a8c3 42bb
00000190: d46a 9abb 7ab9 82bb 7e03 5abc 45d4 eebb
000001a0: 1c47 3c39 ea80 16bb 86ba 25bb e5a2 29bc
000001b0: c864 45bb 0770 50bb 1de1 f0b9 3cc4 d13b
000001c0: e16d b83b 1d5c 153b 97b1 b33b 0323 3bbb
000001d0: effe 68bb a613 45bc a730 24bb 2207 c038
000001e0: c697 40ba 03ff 1dbb b46c d5bb 0de2 813a
000001f0: 6c12 0c3c fde9 283a ac68 b63b d511 3dba

network_body._body_endoder.seq_layers.2.weight f4 [128, 128]
-0.10946564 0.028055985 -0.06958494 -0.06328634 0.10775559 -0.0130999135 -0.1696041 -0.010900532
-0.12502451 -0.0026570435 0.0036327413 -0.042414945 0.058085535 0.008585568 0.11545017 0.033916682
0.046038274 -0.041671358 -0.01999911 0.15281917 -0.19054696 -0.11483233 0.16164744 -0.13297635
0.068310834 0.0051963185 -0.043845233 -0.021557262 0.042647764 -0.048443872 0.120832756 -0.039896738
-0.19200598 0.007301389 -0.10394959 0.00030683004 0.17621806 0.020948138 -0.018652886 -0.084110305
0.057600513 0.098039486 -0.1403314 -0.0017207842 0.056363326 -0.117504016 0.0145470975 0.12357567
0.039176226 -0.08742079 0.09417297 -0.117713675 0.11430756 0.07236918 0.09603946 0.03896828
-0.015939377 0.029180575 -0.12760186 0.11960761 0.030818773 -0.12140202 -0.037150305 0.08098234
-0.024882203 0.024919262 0.11738873 -0.05017527 -0.005720591 -0.038930625 -0.08313624 0.15999605
-0.02707571 -0.08115356 0.12705511 -0.006954405 -0.048337143 0.07417942 -0.08235321 -0.13130522
-0.038141478 0.047603577 -0.14135876 -0.13525455 -0.037642363 -0.03630769 -0.022883875 -0.06819161
-0.011768517 -0.051542718 -0.06013253 -0.008051599 0.10629819 -0.059834246 -0.04171147 -0.019316975
0.010348671 0.17203896 0.061474934 -0.025597507 0.09016193 -0.083692536 0.04163727 0.034788337
-0.10664297 0.09116284 -0.010564066 -0.010195114 0.16263866 0.11600593 -0.0035276043 0.10157076
0.2449725 0.13859394 -0.109956965 -0.03147699 0.031160833 0.09389321 -0.11575668 0.10889785
0.032298535 -0.06142083 0.11441204 0.005842109 0.13767819 -0.15867047 -0.111040525 0.064038835
0.022759115 -0.05793388 0.054387175 0.08598772 0.007724346 0.07160235 -0.006162918 0.03558962
0.042922556 -0.03482564 0.025622215 0.09243932 -0.024866076 0.024148865 0.05518248 0.009092136
-0.016750148 0.09300187 0.16527377 0.076131046 -7.260133e-05 -0.067038566 -0.012867222 0.002624071
0.0013797046 0.07549856 0.034879502 0.020984517 -0.05301116 0.15082727 -0.020591449 -0.050044894
-0.0074534 0.124253914 0.04294168 0.07311426 0.04652789 -0.004155478 0.047939483 -0.0039409655
0.078409955 0.16807416 -0.04834179 -0.015969815 -0.004529707 -0.029686596 0.10359408 0.020149592
-0.018323738 0.22011617 0.025900284 -0.016685855 0.023374448 -0.1293917 0.24385875 0.009887023
0.21193573 0.028279798 -0.080824845 0.0072784293 0.020520944 -0.06738142 -0.04379171 0.04111069
0.027173495 -0.22719315 0.0052940035 -0.099872276 0.016016813 -0.14063916 0.052096967 0.029752377
0.1309654 -0.03475584 -0.12936027 0.037655294 -0.1480642 0.014670924 -0.07000388 0.05932322
-0.106724925 -0.104253925 -0.068756185 -0.05385532 -0.058228355 -0.0228914 0.08390892 0.16062427
-0.18757835 0.11398375 -0.0666161 0.023764485 -0.0128632905 -0.11379056 0.03202779 0.046869956
0.03189002 -0.094008684 -0.041670974 -0.02011397 0.030816145 -0.03378428 0.039406445 0.06418519
0.068718925 0.054323945 0.07553616 0.12269908 0.03366922 0.048011594 0.071678296 -0.16738392
0.107059054 0.1786315 -0.0029404105 -0.14799654 0.113135196 -0.15678684 0.15572613 0.1189847
-0.06954299 -0.07824886 -0.10514376 -0.07588206 -0.090696596 -0.22104739 -0.0070611676 0.037725415
00000000: 852f e0bd aad5 e53c 8d82 8ebd 459c 81bd
00000010: f6ae dc3d 05a1 56bc b2ac 2dbe 2598 32bc
00000020: 6d06 00be cb21 2ebb 4913 6e3b 4bbb 2dbd
00000030: 19eb 6d3d 7baa 0c3c 2471 ec3d 38ec 0a3d
00000040: a192 3c3d 96af 2abd 2cd5 a3bc a17c 1c3e
00000050: be1e 43be 362d ebbd e886 253e f42a 08be
00000060: 8de6 8b3d e145 aa3b 0f97 33bd db98 b0bc
00000070: 6caf 2e3d 156d 46bd 2a77 f73d c36a 23bd
00000080: 379d 44be 7d40 ef3b 86e3 d4bd 08de a039
00000090: 8272 343e 6e9b ab3c f0cd 98bc 0642 acbd
000000a0: 84ee 6b3d edc8 c83d 09b3 0fbe f08b e1ba
000000b0: 3bdd 663d f2a5 f0bd f356 6e3c 3e15 fd3d
000000c0: 4077 203d ac09 b3bd c2dd c03d de13 f1bd
000000d0: 151a ea3d 4b36 943d 56b0 c43d 349d 1f3d
000000e0: 4c93 82bc 1a0c ef3c 10aa 02be d6f4 f43d
000000f0: a777 fc3c 9fa1 f8bd eb2a 18bd 12da a53d
00000100: c3d5 cbbc 7b23 cc3c 8169 f03d 9584 4dbd
00000110: cc73 bbbb b875 1fbd 5543 aabd 01d6 233e
00000120: e1cd ddbc d633 a6bd bc1a 023e c7e1 e3bb
00000130: 2bfd 45bd 61eb 973d cda8 a8bd e074 06be
00000140: 3d3a 1cbd f8fb 423d 5ac0 10be 2b80 0abe
00000150: e12e 1abd 5fb7 14bd f776 bbbc 0ba8 8bbd
00000160: bdd0 40bc 751e 53bd 874d 76bd dbea 03bc
00000170: deb2 d93d c114 75bd a5d9 2abd a23e 9ebc
00000180: 798d 293c fb2a 303e 24cd 7b3d ddb1 d1bc
00000190: d1a6 b83d fe66 abbd d88b 2a3d 377e 0e3d
000001a0: a167 dabd 95b3 ba3d e714 2dbc 6809 27bc
000001b0: c08a 263e 8494 ed3d 612f 67bb 5504 d03d
000001c0: 12da 7a3e 92eb 0d3e 1e31 e1bd 04ee 00bd
000001d0: 0145 ff3c 154b c03d d711 edbd d605 df3d
000001e0: 784b 043d 6994 7bbd dc50 ea3d 2a6f bf3b
000001f0: 83fb 0c3e 837a 22be 3769 e3bd cb26 833d
00000200: 5371 ba3c 134c 6dbd 16c5 5e3d 541a b03d
00000210: 831c fd3b 41a4 923d 4ef2 c9bb 6cc6 113d
00000220: 90cf 2f3d 55a5 0ebd aee5 d13c d450 bd3d
00000230: f1b3 cbbc d7d3 c53c 0607 623d 2ff7 143c
00000240: 9b37 89bc c477 be3d 873d 293e 98ea 9b3d
00000250: 8b41 98b8 844b 89bd 0ad1 52bc 9bf8 2b3b
00000260: 34d7 b43a fd9e 9a3d cfdd 0e3d b9e7 ab3c
00000270: 3b22 59bd 7772 1a3e 66af a8bc e0fb 4cbd
00000280: a73b f4bb d678 fe3d 9de3 2f3d eebc 953d
00000290: 0794 3e3d ad2a 88bb 315c 443d 3723 81bb
000002a0: 6695 a03d a21b 2c3e 0a02 46bd 21d3 82bc
000002b0: f06d 94bb 4e31 f3bc 2229 d43d c210 a53c
000002c0: aa1b 96bc 2266 613e d52c d43c c6b0 88bc
000002d0: c57b bf3c 427f 04be 1cb6 793e 2efd 213c
000002e0: ae05 593e 09ab e73c 7f87 a5bd e47f ee3b
000002f0: 8a1b a83c 45ff 89bd f05e 33bd af63 283d
00000300: f39a de3c 52a5 68be 5279 ad3b d689 ccbd
00000310: b135 833c b603 10be a163 553d 42bb f33c
00000320: cb1b 063e 245c 0ebd 0577 04be 703c 1a3d
00000330: 249e 17be 515e 703c 325e 8fbd e8fc 723d
00000340: 9992 dabd 1583 d5bd 0bd0 8cbd 6597 5cbd
00000350: db80 6ebd bf86 bbbc 71d8 ab3d b07a 243e
00000360: 8a14 40be 5070 e93d 066e 88bd bdad c23c
00000370: 8dc0 52bc 060b e9bd 922f 033d b6fa 3f3d
00000380: 1c9f 023d a087 c0bd 2faf 2abd 0dc6 a4bc
00000390: 2472 fc3c 6361 0abd a768 213d 8673 833d
000003a0: 82bc 8c3d c982 5e3d b4b2 9a3d a849 fb3d
000003b0: bce8 093d cea7 443d 12cc 923d b166 2bbe
000003c0: c741 db3d 2deb 363e e7b3 40bb 688c 17be
000003d0: 6db3 e73d bb8c 20be ac76 1f3e 40ae f33d
000003e0: 8e6c 8ebd f040 a0bd 9d55 d7bd 0e68 9bbd
000003f0: 23bf b9bd 3f5a 62be 5e61 e7bb f785 1a3d

network_body._body_endoder.seq_layers.2.bias f4 [128]
-0.0031506952 -0.004216087 0.003902519 -0.0020916087 -0.0009840052 -0.006235916 -0.00013258235 -0.0023922748
-0.0060549984 -0.0006523597 0.0003686 -0.0052099745 0.0045214514 -0.007696579 -0.0010704057 0.005990459
-0.0036889205 -0.006182189 -0.0013544176 -0.0003451526 -0.0041497247 -1.1494445e-05 0.0024540361 -0.0055155745
0.008634069 -0.0012164706 -0.006530974 -0.0031008178 -0.007412076 0.0007587438 0.0020459674 5.400363e-05
0.0013383391 -0.0030999614 -0.0013485263 0.002318633 -0.0041013723 6.8602094e-05 0.0014586401 0.002552622
-0.0028499893 0.0004213948 -0.005056196 -0.0015991955 -0.008202645 -0.0030153892 0.0031306862 0.0027128216
-6.942954e-05 -0.0013223774 -0.006197354 0.0012214318 -0.007567233 8.6848406e-05 0.0029501948 0.011472775
0.0003403239 0.008567144 -0.0046250764 -0.008196941 -0.003090273 0.004413948 0.002893601 0.0034620953
0.0034517199 -0.00021017509 -0.005103315 -0.0062763523 0.002187984 -0.0064713806 0.00014412176 -0.0040284693
-0.0013989841 -0.0049349833 -0.0037211252 -0.0021683772 -0.0004915147 0.0007680834 0.0072509525 -3.975431e-05
-0.002964123 0.005227979 0.0052809757 -0.011117555 3.1808748e-05 0.00035555693 -0.00013172251 -0.0025713416
0.0020032257 -0.0026365663 0.003953701 -0.0029551405 0.0003462479 0.0016727899 0.003467926 -0.0019511615
-0.003860132 0.0010313655 -0.0077215005 0.0023909165 0.0044055744 -0.0034117328 0.00067531265 -0.00024096805
-0.0011756873 -0.006564931 0.0039184503 -0.002560028 0.003677477 -0.005756995 -0.006230761 -0.0050316774
-0.010538412 0.001501276 0.0032026684 -0.003173712 -0.002285318 -0.0036113046 -0.0011684881 -0.00047947132
-0.007829774 -0.0011557705 -0.001143441 -0.0066935834 0.006022842 0.0038056143 0.0113211265 0.0038977005
00000000: e57b 4ebb 1a27 8abb 67c1 7f3b 5f13 09bb
00000010: bcf9 80ba a856 ccbb ce05 0bb9 b6c7 1cbb
00000020: 0269 c6bb 1e03 2bba a840 c139 6fb8 aabb
00000030: af28 943b 9633 fcbb db4c 8cba 9d4b c43b
00000040: d1c1 71bb f693 cabb b786 b1ba 99f5 b4b9
00000050: 6afa 87bb 44d8 40b7 e5d3 203b febb b4bb
00000060: e975 0d3c fb71 9fba c801 d6bb 1737 4bbb
00000070: 00e1 f2bb 6fe6 463a a315 063b f581 6238
00000080: 356b af3a b928 4bbb 09c1 b0ba 35f4 173b
00000090: ce64 86bb 78de 8f38 d72f bf3a e449 273b
000000a0: e3c6 3abb a7ee dc39 72ae a5bb 199c d1ba
000000b0: 6364 06bc d69d 45bb 332c 4d3b 98c9 313b
000000c0: b39a 91b8 9f53 adba 2c13 cbbb 7318 a03a
000000d0: 8df6 f7bb 6222 b638 0e58 413b 4ef8 3b3c
000000e0: 806d b239 355d 0c3c f48d 97bb 764c 06bc
000000f0: 2d86 4abb e1a2 903b 92a2 3d3b 52e4 623b
00000100: 4036 623b 7262 5cb9 b639 a7bb dca9 cdbb
00000110: 4864 0f3b e00d d4bb 641f 1739 4001 84bb
00000120: 1e5e b7ba a4b5 a1bb 1fde 73bb 551b 0ebb
00000130: fed8 00ba 3459 493a 6699 ed3b debd 26b8
00000140: bb41 42bb 774f ab3b 090c ad3b 6826 36bc
00000150: 626a 0538 0b6a ba39 fe1e 0ab9 f483 28bb
00000160: 8d48 033b 3eca 2cbb 0c8e 813b 08ab 41bb
00000170: 9b88 b539 8441 db3a 2546 633b 1ebe ffba
00000180: 45fa 7cbb e22e 873a a404 fdbb ecb0 1c3b
00000190: a35c 903b 6197 5fbb 7707 313a 5eac 7cb9
000001a0: 8519 9aba a21e d7bb 5866 803b 25c6 27bb
000001b0: d301 713b 2da5 bcbb 692b ccbb c5e0 a4bb
000001c0: 4ea9 2cbc 77c6 c43a dce3 513b 0dfe 4fbb
000001d0: 46c5 15bb a3ab 6cbb f427 99ba 8d61 fbb9
000001e0: 7448 00bc 397d 97ba 83df 95ba d955 dbbb
000001f0: 435b c53b 9d67 793b 3f7c 393c 9070 7f3b

action_model._continuous_distribution.log_sigma f4 [1, 2]
-0.009306344 -0.005828761
00000000: a379 18bc 31ff bebb

action_model._continuous_distribution.mu.weight f4 [2, 128]
0.006936573 0.002198889 -0.018065235 0.0002976214 0.013730101 0.005812002 0.015392406 0.022902368
0.0040251473 0.015460603 0.012902023 -0.00018163837 0.006704415 -0.0057010674 -0.0025594935 -0.029284103
0.006001297 0.012046548 -0.0006004735 0.003924071 -0.0058212755 0.011722759 0.002513371 0.012038961
-0.063675106 -0.027236167 0.005046589 -0.0058516334 0.020619279 0.010133072 0.008416344 0.012252857
-0.034587223 -0.020759802 0.018174425 0.009651977 -0.0030590745 0.013411959 0.028071767 -0.012245947
0.011546444 -0.007530406 0.007535358 0.028621204 0.013278584 -0.010236607 0.036068644 -0.020547932
0.011586738 0.0170181 -0.002268772 -0.010705509 -0.031403698 -0.0011357735 -0.021011235 -0.010750469
0.0071870056 -0.0016740673 0.011889375 0.0092782015 0.012193995 -0.042583365 0.02611995 -0.043699067
0.0056566964 -0.010761435 -0.005851261 0.00907906 -0.00038413424 0.018178612 0.021784334 0.0064966227
0.01186637 0.016586201 -0.00051410793 0.02442723 0.018730247 0.025325885 -0.009375091 -0.0049393293
-0.005913998 0.00065599 -0.021031482 0.005261795 -0.021260237 0.028126774 0.0016992815 0.012989063
0.0072248722 -0.0036249163 -0.023793908 0.009654326 -0.017894618 0.024006143 -0.010383139 0.01959717
-0.00039627586 0.0015812989 -0.0008874153 0.013753637 0.026430568 -0.0031887481 -0.015935654 -0.019330077
0.012927918 0.029488562 -0.021776484 0.003701332 -0.008957083 -0.0064897253 -0.0015099628 0.013868826
0.002319325 -0.013179886 -0.031934917 -0.0043125106 -0.009987221 0.021335343 0.004137524 -0.012527027
0.03053696 -0.009694618 -0.010983328 0.0008852059 -0.011075705 -0.031772576 -0.036032964 -0.0023707568
0.00399297 0.01917941 0.0018211508 -0.00627741 0.0011049642 0.013877061 0.008140837 0.03001411
0.0049625756 0.0008267279 -0.00742695 0.017065123 -0.0024970036 0.0012098147 -0.005013337 -0.032041624
0.024635706 0.019256828 0.028068548 -0.01157625 0.024929812 0.012120697 -0.036573663 -0.0006908313
-0.025584634 0.016975895 0.0032008898 -0.0012294259 -0.008736733 -0.0040637837 -0.0035659424 -0.023397556
0.022424296 -0.005676134 0.005506186 -0.034088425 0.008094345 -0.014452508 -0.026972285 -0.036407817
-0.0128340935 -0.004586303 -0.0018357836 -0.012752104 -0.01946935 0.019252017 0.0065319706 -0.019042317
-0.018564409 0.01768263 -0.004847773 -0.0035919354 0.013669219 -0.03187039 -0.007077486 -0.019970631
-0.03085285 -0.0077409344 0.00042116802 -0.020471238 0.012409581 -0.008236249 0.0113729695 -0.0059660748
-0.017807115 0.0017386568 0.0039529423 0.005189806 -0.021091536 0.007117173 -0.015308545 0.02026675
-0.029500218 0.013085391 0.0075498275 -0.008449007 0.011481887 -0.0011496668 -0.021429198 -0.0054393043
0.0012113018 -0.03597818 -0.010255482 -0.00017537008 -0.012309738 0.021310532 0.0023952092 -0.0024476652
-0.030859975 -0.002120898 -0.017916678 0.002795402 0.046589177 0.040151685 -0.013686729 -0.017935803
-0.001994267 -0.017927878 -0.001875292 -0.029587712 -0.0068317745 0.022939278 0.007885974 0.0018717379
0.0024054719 0.014230007 -0.022144577 0.010474696 -0.014316963 0.00917666 0.02698804 0.0007341363
0.0007910371 -0.0055826697 -0.016547784 0.012626436 0.0005516184 -0.026567457 0.01663505 0.012864003
0.001877912 0.014785852 -0.0009885817 0.019627037 -0.0133326985 0.0029329774 -0.012148073 -0.028981743
00000000: 314c e33b 3c1b 103b 8bfd 93bc 110a 9c39
00000010: 38f4 603c 9b72 be3b 6e30 7c3c bf9d bb3c
00000020: 62e5 833b 784e 7d3c 0263 533c 2e76 3eb9
00000030: b6b0 db3b 05d0 babb 2dbd 27bb 37e5 efbc
00000040: 87a6 c43b e25e 453c 1869 1dba 7e95 803b
00000050: 66c0 bebb d110 403c 5eb7 243b 103f 453c
00000060: 1868 82bd 621e dfbc db5d a53b 0fbf bfbb
00000070: c3e9 a83c 2f05 263c b5e4 093c 35c0 483c
00000080: 55ab 0dbd 7610 aabc 88e2 943c 5323 1e3c
00000090: c17a 48bb d5bd 5b3c c3f6 e53c 39a3 48bc
000000a0: 4c2d 3d3c a0c1 f6bb 2aeb f63b 0477 ea3c
000000b0: 6b8e 593c 71b7 27bc b7bc 133d 2354 a8bc
000000c0: 4dd6 3d3c 8b69 8b3c aeaf 14bb 2966 2fbc
000000d0: 2aa1 00bd 3cde 94ba c11f acbc bc22 30bc
000000e0: f980 eb3b 616c dbba a7cb 423c 9903 183c
000000f0: 52c9 473c e56b 2ebd 81f9 d53c cbfd 32bd
00000100: cf5b b93b bb50 30bc efbb bfbb 56c0 143c
00000110: a065 c9b9 50eb 943c 0f75 b23c 9fe1 d43b
00000120: 2a6b 423c c9df 873c 33c5 06ba 9d1b c83c
00000130: 2d70 993c 3b78 cf3c fb99 19bc 19da a1bb
00000140: 36ca c1bb bef6 2b3a 374a acbc 236b ac3b
00000150: f329 aebc 1f6a e63c 6dba de3a 14d0 543c
00000160: 9fbe ec3b 0190 6dbb 71eb c2bc 2e2d 1e3c
00000170: bc97 92bc 88a8 c43c 0b1e 2abc 3f8a a03c
00000180: 3fc3 cfb9 9643 cf3a 6fa1 68ba ef56 613c
00000190: eb84 d83c 51fa 50bb 7d8b 82bc 1c5a 9ebc
000001a0: 9ecf 533c ff91 f13c 9964 b2bc 0c92 723b
000001b0: bbc0 12bc c3a7 d4bb f2e9 c5ba 133a 633c
000001c0: d1ff 173b 73f0 57bc 30ce 02bd f64f 8dbb
000001d0: 71a1 23bc 75c7 ae3c 1194 873b 293e 4dbc
000001e0: a628 fa3c 2dd6 1ebc 6bf3 33bc 2a0d 683a
000001f0: e076 35bc f623 02bd 4d97 13bd b35e 1bbb
00000200: 76d7 823b 231e 9d3c aeb3 ee3a bbb2 cdbb
00000210: 72d4 903a 9d5c 633c 2561 053c 27e0 f53c
00000220: 1a9d a23b c5b8 583a c65d f3bb 28cc 8b3c
00000230: c5a4 23bb a592 9e3a eb46 a4bb 143e 03bd
00000240: d2d0 c93c 7fc0 9d3c 03f0 e53c 50aa 3dbc
00000250: 9b39 cc3c e395 463c 44ce 15bd e718 35ba
00000260: de96 d1bc 0811 8b3c 05c6 513b b024 a1ba
00000270: 8424 0fbc 7d29 85bb 96b2 69bb 3bac bfbc
00000280: 28b3 b73c ddfe b9bb 3c6d b43b 4ea0 0bbd
00000290: 259e 043c 36ca 6cbc fbf4 dcbc 5d20 15bd
000002a0: 1746 52bc b348 96bb ad9e f0ba 33ee 50bc
000002b0: 307e 9fbc 68b6 9d3c 240a d63b a2fe 9bbc
000002c0: 6314 98bc 2adb 903c 11da 9ebb ad66 6bbb
000002d0: dcf4 5f3c 878a 02bd 41ea e7bb 7399 a3bc
000002e0: 1ebf fcbc aaa7 fdbb 37d0 dc39 4cb3 a7bc
000002f0: 8e51 4b3c 55f1 06bc b155 3a3c 107f c3bb
00000300: 3ae0 91bc a4e3 e33a af87 813b 400f aa3b
00000310: 28c8 acbc 2d37 e93b b1d0 7abc 7506 a63c
00000320: 71aa f1bc 1c64 563c 8b64 f73b b46d 0abc
00000330: 861e 3c3c 6bb0 96ba 498c afbc 313c b2bb
00000340: 8bc4 9e3a db5d 13bd 9c06 28bc 8ce3 37b9
00000350: c9ae 49bc 6d93 ae3c f1f8 1c3b 0269 20bb
00000360: 0fce fcbc c4fe 0abb ffc5 92bc 1033 373b
00000370: 4bd4 3e3d 1876 243d 4d3e 60bc 1bee 92bc
00000380: 40b2 02bb 7cdd 92bc 5ccc f5ba ee61 f2bc
00000390: 14dd dfbb 27eb bb3c 2c34 013c 1a55 f53a
000003a0: 1fa5 1d3b fa24 693c 8b68 b5bc 0f9e 2b3c
000003b0: b291 6abc b459 163c 0616 dd3c 0e73 403a
000003c0: 9a5d 4f3a d4ee b6bb 388f 87bc 1cdf 4e3c
000003d0: 7c9a 103a ffa3 d9bc 3a46 883c 8ac3 523c
000003e0: 4524 f63a 5c40 723c 4c93 81ba e1c8 a03c
000003f0: 6471 5abc 3237 403b b608 47bc 1f6b edbc

action_model._continuous_distribution.mu.bias f4 [2]
-0.0027365913 -0.0035272657
00000000: 6258 33bb b329 67bb

exp_avg f4 [128, 5]
0.00035265752 1.7144333e-07 -0.0007287197 5.1082565e-20 -1.1888344e-19 0.0002631232 6.856371e-05 0.0013215378
-3.9796923e-20 3.1911378e-20 0.0005516624 8.135542e-07 0.0007690589 -3.934251e-19 2.1044674e-19 0.0010030697
4.9527524e-05 0.0012539405 -1.8292377e-19 2.228168e-19 -0.00064748514 8.864137e-05 0.0016202208 2.6694926e-20
-1.3815656e-20 0.00041552229 3.9942453e-05 0.0007466351 9.101988e-20 -3.3685056e-20 -0.00023717587 -3.373496e-06
0.00067396264 -3.0667489e-19 2.6057585e-19 -0.00106229 -2.9077344e-05 -0.00045965958 1.8166411e-19 -5.258296e-20
-6.300009e-05 -2.6470543e-05 -0.0006384355 1.1347638e-19 -3.999652e-20 -0.00070481474 -2.9141565e-06 -0.0003281459
2.609898e-19 -1.6888229e-19 0.0016823853 1.7297849e-05 -9.170926e-05 4.3732913e-20 -2.0816693e-20 0.00062588335
-3.4944722e-05 -0.00063610764 1.06887225e-19 -4.0762003e-20 -0.00036925444 -2.0954567e-05 -0.0007783786 1.0548642e-19
-1.0003506e-19 -0.00016513889 -2.6341706e-05 -0.0006338217 -1.2442201e-19 -5.1335527e-20 0.00027436402 -8.12963e-06
-0.00040951505 -5.770438e-20 2.0730754e-20 0.0024167467 3.0292473e-05 0.00023343993 -3.9286126e-19 8.353566e-20
-0.0011435668 -1.8651946e-05 -0.000607408 2.171465e-19 -8.280151e-20 -0.00031387803 -9.794467e-06 8.657142e-05
1.0560396e-19 -2.912351e-20 -0.0007429795 -1.7387874e-05 -0.00039899012 -5.9112666e-20 1.8331313e-20 0.0003229687
-2.2266204e-06 0.0003924296 -1.3962748e-19 1.2274176e-19 0.0009435355 -0.00014371486 -0.003021829 3.149972e-20
-2.6610607e-20 -0.0015902789 -4.816757e-05 -0.0010486437 2.7276348e-19 -1.2363728e-19 -0.0005473337 -4.1125877e-05
-0.0017122906 9.7212405e-20 -1.1909355e-19 -0.0012032291 -0.00012485066 -0.0024355338 5.633233e-20 -2.120769e-20
-0.0016706187 0.0001336221 0.0025356854 -1.795307e-20 2.2011929e-20 -0.00038562823 -7.9692734e-05 -0.0016876989
-6.749647e-20 -6.7138806e-20 -0.0008559433 -4.238291e-05 -0.0016553777 2.214102e-19 -7.628855e-20 0.00044837157
2.4941228e-06 -0.0001144141 -2.0202098e-20 -8.071024e-20 0.00010323065 -0.00018180767 -0.0033196402 -1.319991e-19
7.05061e-20 -0.0026557075 -4.6960802e-05 -0.0008007693 4.2398714e-19 -6.9455564e-20 -0.00294495 -5.252627e-05
-0.0008301024 6.519352e-19 -2.746107e-19 -0.00084306626 -9.404168e-05 -0.0020314027 -1.6563415e-19 4.1337847e-20
-0.0012760481 -4.294192e-05 -0.0009761064 1.0208659e-19 -1.0965897e-19 -0.00080587424 2.849371e-06 0.00032439857
1.347024e-19 -3.5932277e-20 -0.00057751656 -0.00011719493 -0.0026348487 -2.5917656e-20 -7.0950196e-20 0.00012204716
4.23467e-06 -0.00034187382 -2.0193172e-20 -8.6725176e-20 -0.00046322675 -6.6116168e-06 -0.0006061375 4.784666e-20
-4.2559363e-20 -0.0005308198 -0.00014794953 -0.0027328464 -8.6703695e-20 -1.541739e-21 -0.0009699796 5.6539073e-05
0.0009975991 3.5813806e-20 -1.8979674e-20 -0.0007608697 9.707974e-06 0.00015406549 -1.2761264e-19 7.791716e-20
0.00033626307 -3.3680394e-06 6.4506858e-06 -8.8256934e-20 3.7333967e-20 0.00097297935 -6.2565396e-06 0.0010860807
-4.943749e-19 2.71996e-19 7.0463097e-06 -4.0508303e-06 -0.0013125932 6.6592376e-20 -9.649659e-20 -0.00029663628
-8.978204e-07 -4.6965513e-05 1.9388622e-20 -7.9023625e-21 -0.00047461808 -2.940535e-07 0.00015117352 -7.0819004e-20
2.7438473e-20 -0.001614288 -1.8896551e-05 -0.0011044379 4.1438042e-19 -9.438341e-20 -0.0005120635 2.4296967e-05
0.0007875374 -2.1004842e-19 1.5313558e-19 -0.0010109163 1.246551e-05 -9.599689e-05 3.1548055e-20 1.975369e-20
-0.000537589 7.42531e-06 -0.00089872564 2.675868e-19 -2.43333e-19 -0.0002135534 -2.1744113e-06 -0.00019248133
-1.0044315e-19 3.545798e-20 0.00096126826 1.8008386e-05 -8.674276e-05 -2.4043431e-19 7.625247e-20 -0.0019999074
00000000: e4e4 b839 fc15 3834 8d07 3fba 083b 711f
00000010: 515a 0ca0 ccf3 8939 ddc9 8f38 7337 ad3a
00000020: 87ef 3b9f 7db2 161f 709d 103a 0563 5a35
00000030: ab9a 493a b83c e8a0 a073 7820 6f79 833a
00000040: c6bb 4f38 435b a43a 51f5 57a0 1f87 8320
00000050: febb 29ba f9e4 b938 975d d43a 5f20 fc1e
00000060: 357c 829e 75da d939 e287 2738 d5b9 433a
00000070: 24ea d61f bc12 1f9f 6ab2 78b9 3864 62b6
00000080: deac 303a 6607 b5a0 1cd1 9920 8a3c 8bba
00000090: 1feb f3b7 77fe f0b9 9c78 5620 e650 789f
000000a0: ea1e 84b8 0f0d deb7 ae5c 27ba 22f8 0520
000000b0: d3e0 3c9f 51c3 38ba d490 43b6 ff0a acb9
000000c0: aa0f 9a20 8a61 47a0 7c83 dc3a d91a 9137
000000d0: 0954 c0b8 d985 4e1f ad9b c49e 5212 243a
000000e0: 9c91 12b8 76c0 26ba 5d61 fc1f 3d7e 409f
000000f0: 7e98 c1b9 97c7 afb7 1b0c 4cba a112 f91f
00000100: 7c33 ec9f 2229 2db9 62f8 dcb7 0e27 26ba
00000110: 3fe4 12a0 d86c 729f 84d8 8f39 7f64 08b7
00000120: 2eb4 d6b9 2840 889f e3cb c31e 4862 1e3b
00000130: 971c fe37 8ec7 7439 84e7 e7a0 353e c51f
00000140: bce3 95ba c076 9cb7 763a 1fba 402e 8020
00000150: 7182 c39f ff8f a4b9 ea52 24b7 ad8d b538
00000160: ad59 f91f 2a88 099f 83c4 42ba 2ddc 91b7
00000170: 8c2f d1b9 6a93 8b9f 6522 ad1e 2054 a939
00000180: 0c6d 15b6 02bf cd39 d1d7 24a0 6ce8 1020
00000190: 9857 773a 2ab2 16b9 e109 46bb d3c0 141f
000001a0: 8054 fb9e e870 d0ba 8907 4ab8 a572 89ba
000001b0: da02 a120 13f7 11a0 f17a 0fba 937e 2cb8
000001c0: f06e e0ba 4b89 e51f d199 0ca0 abb5 9dba
000001d0: 58ea 02b9 7a9d 1fbb ce02 851f 0c4d c89e
000001e0: a9f8 daba e91c 0c39 be2d 263b dc8f a99e
000001f0: 94e5 cf1e 252e cab9 b620 a7b8 c735 ddba
00000200: 1d5f 9f9f eb86 9e9f 6261 60ba 4ec4 31b8
00000210: 42f9 d8ba 90b2 8220 9921 b49f 6a13 eb39
00000220: b460 2736 9af1 efb8 adcd be9e 5992 be9f
00000230: 897d d838 a0a3 3eb9 528e 59bb 48d6 1ba0
00000240: 537a a61f 610b 2ebb c7f7 44b8 b8ea 51ba
00000250: 2047 fa20 50ff a39f 1000 41bb a74f 5cb8
00000260: 3b9b 59ba d56a 4021 ff19 a2a0 3801 5dba
00000270: 3e38 c5b8 4821 05bb da8b 43a0 6436 431f
00000280: 1241 a7ba 891c 34b8 64e1 7fba 8f0b f11f
00000290: 6476 01a0 4e41 53ba d237 3f36 0a14 aa39
000002a0: 4d07 1f20 75af 299f 7b64 17ba 8dc6 f5b8
000002b0: 6dad 2cbb 0cc9 f49e c386 a79f 92f3 ff38
000002c0: 8a17 8e36 873d b3b9 18b8 be9e 27c6 cc9f
000002d0: 3edd f2b9 5bd9 ddb6 33e5 1eba 10f3 611f
000002e0: 1dfb 489f b726 0bba e622 1bb9 8e19 33bb
000002f0: 2bb9 cc9f 24fb e89c 3b46 7eba 5e24 6d38
00000300: dfc1 823a 3c20 291f 0942 b39e 1a75 47ba
00000310: 6edf 2237 a48c 2139 8ea8 16a0 09fa b71f
00000320: 774c b039 7a06 62b6 f872 d836 0b64 d09f
00000330: ff4d 301f 8a0f 7f3a 44ef d1b6 d25a 8e3a
00000340: e9e9 11a1 e08e a020 576f ec36 5eec 87b6
00000350: 520b acba 9f3c 9d1f 9cd8 e39f d985 9bb9
00000360: c001 71b5 d6fc 44b8 d01e b71e 7b45 159e
00000370: 29d6 f8b9 68de 9db4 5584 1e39 7637 a79f
00000380: 1493 011f 8496 d3ba 0984 9eb7 c9c2 90ba
00000390: 669b f420 45db de9f 003c 06ba 57d1 cb37
000003a0: be72 4e3a 3dfb 77a0 64ca 3420 b980 84ba
000003b0: f522 5137 f051 c9b8 42fb 141f 7e91 ba1e
000003c0: fdec 0cba ed26 f936 7598 6bba 93f4 9d20
000003d0: 71a3 8fa0 4eed 5fb9 1aec 11b6 d0d4 49b9
000003e0: 292a ed9f 1172 271f 9ffd 7b3a b710 9737
000003f0: aae9 b5b8 68ed 8da0 ca0b b41f e110 03bb

exp_avg_sq f4 [128, 5]
1.6184267e-06 5.859399e-10 2.9901332e-06 2.9830058e-09 1.8465838e-09 3.6935464e-06 1.4487655e-08 5.9140925e-06
5.262655e-09 1.1253583e-09 4.562522e-06 3.61303e-10 5.9659696e-06 3.472513e-08 9.116489e-09 1.2232533e-05
2.0547429e-08 7.858201e-06 6.0745286e-08 1.2889877e-08 4.3982645e-06 2.7546406e-08 1.535574e-05 4.9476494e-09
1.4401684e-09 1.6149822e-06 1.0056758e-08 4.9606515e-06 3.0211926e-09 4.9851523e-10 5.8773767e-06 2.9765918e-10
1.00893e-05 1.4076315e-08 7.4479347e-09 4.571203e-06 1.2509501e-08 7.919858e-06 4.4544812e-09 1.2198403e-09
7.40912e-06 3.6813564e-08 1.5555426e-05 6.1360117e-09 1.941818e-09 4.549047e-05 2.0185828e-08 7.9223835e-05
5.118142e-08 1.187967e-08 4.5535517e-06 2.9141807e-09 1.464819e-05 4.1255896e-09 7.613622e-10 3.979769e-06
2.4620135e-08 1.1423862e-05 3.7401566e-09 1.2015752e-09 1.0087708e-05 1.3560101e-08 6.709796e-06 3.4037118e-09
9.217624e-10 1.038148e-05 6.2463656e-08 2.8979406e-05 4.063576e-08 9.258312e-09 4.4653975e-06 6.5848627e-10
1.19316655e-05 6.523469e-09 1.1446322e-09 1.3736562e-05 9.0690575e-09 5.3669414e-06 4.9366996e-08 1.0865409e-08
4.0008654e-06 3.676582e-09 4.024016e-06 8.8182945e-09 2.188253e-09 1.5844868e-06 1.7610599e-09 1.0032612e-06
2.1314517e-09 4.843345e-10 2.2561128e-06 9.720142e-09 4.1190274e-06 1.869971e-09 4.845617e-10 4.711806e-06
4.58995e-09 2.6321186e-06 3.558433e-09 1.2121589e-09 1.1427417e-05 6.8849474e-08 3.0844756e-05 1.9145818e-09
3.8798587e-10 6.6994e-06 1.346679e-08 6.088267e-06 1.3735069e-08 3.8523655e-09 7.40376e-06 9.551731e-09
8.310367e-06 2.16873e-08 4.7031574e-09 1.7191956e-05 1.03391166e-07 4.4721237e-05 7.743121e-09 2.0113569e-09
2.428153e-05 1.5497366e-07 7.155227e-05 1.5425613e-08 3.99075e-09 9.504815e-06 3.25598e-08 1.53634e-05
2.795321e-08 4.8105906e-09 5.0493504e-06 1.4781065e-08 1.393076e-05 4.681834e-09 1.0551127e-09 2.5360523e-06
1.8670852e-09 2.612065e-06 1.00413144e-08 2.0407145e-09 1.6857904e-05 9.967727e-08 4.2305106e-05 4.9670605e-09
9.961786e-10 2.006866e-05 1.4692633e-08 1.2524486e-05 6.0467855e-08 1.06510525e-08 1.6560212e-05 4.4050296e-08
2.4810088e-05 6.083758e-08 1.7944002e-08 6.7972087e-06 4.3612264e-08 1.923881e-05 1.002836e-08 2.199524e-09
3.5328096e-06 1.9610983e-08 9.577919e-06 7.545764e-09 4.050209e-09 8.9837e-06 1.5543236e-09 8.883949e-06
1.747786e-08 2.8820317e-09 7.314072e-06 3.1972636e-08 1.6263544e-05 1.3834325e-08 2.7146372e-09 4.5749624e-05
4.614767e-09 5.655754e-05 7.766109e-08 1.369368e-08 9.524582e-06 2.8286178e-09 2.4920579e-05 9.852602e-09
2.9664005e-09 8.188529e-06 3.4600145e-08 1.551223e-05 1.044436e-08 2.1572268e-09 4.5224106e-06 2.228969e-08
9.6928625e-06 1.7361076e-09 3.6019757e-10 4.533892e-06 1.4983431e-08 6.4117557e-06 5.7969274e-09 2.670338e-09
3.5301691e-06 6.775982e-10 4.4857256e-06 7.843219e-09 1.9124753e-09 8.880711e-06 8.91476e-10 1.642561e-05
5.39075e-08 1.3161236e-08 3.6981096e-06 2.7695815e-09 7.882832e-06 1.4828492e-09 9.340941e-10 1.373707e-05
1.7933864e-08 5.2538808e-06 9.380567e-09 3.4853258e-09 2.0008515e-06 1.989656e-08 1.0371331e-05 7.492733e-09
3.2253755e-09 1.7668437e-05 3.0723841e-09 2.41599e-05 4.311766e-08 6.2021064e-09 1.0866106e-05 2.7674695e-08
7.718033e-06 7.53786e-09 3.0780432e-09 2.2475406e-05 3.088204e-08 1.963856e-05 1.8832398e-09 4.1843512e-10
1.1131755e-05 3.6869279e-09 2.0234731e-05 1.9010246e-08 5.676286e-09 2.2350555e-06 3.30572e-09 1.9086247e-06
1.7652378e-09 4.1628911e-10 2.526444e-06 3.8643084e-09 2.3664356e-06 1.2375097e-08 2.9865483e-09 4.9436903e-06
00000000: b838 d935 db0f 2130 19aa 4836 98fd 4c31
00000010: e4ca fd30 a5de 7736 61e5 7832 ab71 c636
00000020: ced2 b431 06ab 9a30 c417 9936 e0a0 c62f
00000030: 4a2f c836 af24 1533 be9e 1c32 543a 4d37
00000040: 4680 b032 b7d6 0337 1373 8233 4772 5d32
00000050: ce94 9336 309f ec32 33d0 8037 fcff a931
00000060: 6cef c530 5ec2 d835 17c6 2c32 ac73 a636
00000070: 629d 4f31 e407 0930 4836 c536 cea3 a32f
00000080: 3745 2937 4ad4 7132 bae8 ff31 5662 9936
00000090: 5ee9 5632 88df 0437 080e 9931 51a7 a730
000000a0: db9b f836 f11c 1e33 067d 8237 eed4 d231
000000b0: d370 0531 05cd 3e38 1b65 ad32 f924 a638
000000c0: 91d2 5b33 5717 4c32 b6ca 9836 cf42 4831
000000d0: 7fc1 7537 12c1 8d31 1a48 5130 f589 8536
000000e0: 407c d332 1da9 3f37 c482 8031 ab24 a530
000000f0: 603e 2937 f4f5 6832 b524 e136 bbe6 6931
00000100: 435f 7d30 1e2c 2e37 c223 8633 cd18 f337
00000110: 7e87 2e33 7d0e 1f32 79d5 9536 da00 3530
00000120: 1d2e 4837 0a25 e031 2a51 9d30 1676 6637
00000130: 23ce 1b32 ad15 b436 9607 5433 93aa 3a32
00000140: 2c3f 8636 1da7 7c31 0906 8736 457f 1732
00000150: 2760 1631 8daa d435 c909 f230 cba7 8635
00000160: e578 1231 0322 0530 b967 1736 a3fd 2632
00000170: 2d36 8a36 e180 0031 0032 0530 1b1a 9e36
00000180: a1b5 9d31 74a3 3036 9e88 7431 0d99 a630
00000190: 62b8 3f37 66da 9333 4e5f 0138 ae91 0331
000001a0: 284c d52f 68cb e036 925b 6732 d149 cc36
000001b0: 79f7 6b32 c45d 8431 d06d f836 f518 2432
000001c0: c16c 0b37 e14a ba32 6999 a131 7237 9037
000001d0: e507 de33 1093 3b38 9b06 0532 2a38 0a31
000001e0: 30b0 cb37 d666 2634 550e 9638 4881 8432
000001f0: 021f 8931 df76 1f37 e1d7 0b33 a6e0 8037
00000200: c21d f032 674a a531 976d a936 d0ef 7d32
00000210: 29b8 6937 d9dd a031 7a03 9130 0c31 2a36
00000220: 1c4e 0031 ef4a 2f36 2b82 2c32 a13c 0c31
00000230: 136a 8d37 290e d633 c370 3138 baaa aa31
00000240: ebe9 8830 1f59 a837 e26a 7c32 4220 5237
00000250: 8eda 8133 d3fb 3632 c9ea 8a37 d031 3d33
00000260: 421f d037 d0a5 8233 4723 9a32 9413 e436
00000270: 3150 3b33 0863 a137 3249 2c32 6f26 1731
00000280: 3515 6d36 0275 a832 d9b0 2037 9fa2 0132
00000290: 042a 8b31 b3b8 1637 e69f d530 450c 1537
000002a0: 3822 9632 3d0d 4631 666b f536 4952 0933
000002b0: b26d 8837 01ac 6d32 678c 3a31 49e3 3f38
000002c0: eb8f 9e31 3238 6d38 a3c6 a633 7141 6b32
000002d0: c5cb 1f37 9261 4231 890c d137 3444 2932
000002e0: 78d9 4b31 7761 0937 439b 1433 4320 8237
000002f0: c86e 3332 563e 1431 36bf 9736 8c77 bf32
00000300: 879e 2237 db9b ee30 4d05 c62f d621 9836
00000310: eab4 8032 9024 d736 502e c731 1581 3731
00000320: d8e7 6c36 bc41 3a30 1784 9636 d8be 0632
00000330: 9f6c 0331 5dfe 1437 0c0c 7530 bbc9 8937
00000340: ec87 6733 ba1b 6232 0a2d 7836 fe52 3e31
00000350: 8140 0437 1ecd cb30 8461 8030 4478 6637
00000360: fc0c 9a32 7e4a b036 2c28 2132 8082 6f31
00000370: 5e46 0636 00e9 aa32 8700 2e37 63b9 0032
00000380: 68a5 5d31 ae36 9437 f421 5331 fdaa ca37
00000390: 5e30 3933 4e1a d531 924d 3637 4cb9 ed32
000003a0: b37c 0137 dc7f 0132 8285 5331 9189 bc37
000003b0: 29a3 0433 7dbd a437 4e6a 0131 8209 e62f
000003c0: 86c2 3a37 1f5d 7d31 c1bd a937 f94b a332
000003d0: 2409 c331 f6fd 1536 d72a 6331 ec15 0036
000003e0: c99c f230 7cdb e42f fa8b 2936 d1c6 8431
000003f0: 0ecf 1e36 419a 5432 ea3b 4d31 fae1 a536

exp_avg f4 [128]
0.0001236165 0.00041233562 -2.2298696e-06 0.00029977376 0.0004457403 0.0002007777 -0.00014999387 -0.00027977017
-0.00010045325 0.00022840356 0.00037474037 -0.00022590467 2.687877e-05 -0.00015160428 5.1625375e-05 0.0004976318
-0.0001918804 -0.00013654151 -0.0001134495 -0.00012078994 -0.00075581606 -0.0003764352 -5.95253e-05 -0.0008074817
0.000758882 -0.0005330579 -0.00016761757 0.00012008782 -0.0010569408 -0.0005196046 -0.0006462599 -0.00053596066
-0.00026932446 -2.3200368e-05 -0.00065732107 0.00033629473 0.000121514786 -0.0009537638 0.0003260367 5.531445e-05
-8.8304114e-05 -0.00015273433 0.00029914585 0.00016733276 -5.514183e-05 -0.00010901665 0.00014030267 0.00020169838
0.000180579 -9.459555e-06 0.00028861783 -0.00067633577 -0.00020835972 0.00021221004 0.00016347565 0.00032714888
-0.00013793078 0.00022609318 9.318533e-05 0.00010281524 -0.00023298664 -0.0005227017 -5.986191e-05 0.0002491541
0.00032046888 -0.00013232195 -0.00013607621 -0.0001473005 -0.00032268694 -0.0017288362 -2.1377382e-06 0.00017806762
-0.00023404809 5.2078e-05 -0.0011008632 -0.00022357926 -5.11006e-05 -0.0006743877 -4.4234035e-05 -0.00012769406
-1.3936257e-05 -0.00043511234 -0.000627424 -0.00014197343 -0.0012061121 -0.00036596306 -0.00012091668 0.00097435934
-0.00037028958 -0.00015278511 -0.00086336536 -0.0001578544 0.0005456425 -4.535189e-05 0.00020091498 3.7169032e-06
-0.00018459036 8.1497456e-05 0.00028985293 0.00017230671 3.0490188e-05 -0.00042299074 -0.00016792116 0.00029534812
0.00034110382 -0.00037247414 0.00023393099 0.00020776811 0.00012176344 0.00011645845 0.0002750732 -0.00044746438
3.898258e-05 -1.31462675e-05 -0.00060982065 4.162402e-05 -0.00012460603 0.00011230212 0.00034847614 0.00019115664
-0.0006346231 5.4255466e-05 -7.547065e-05 -1.372788e-05 -0.00089671975 -0.00033732105 -0.00041843054 5.362751e-05
00000000: 0d9f 0139 c02e d839 dea4 15b6 f42a 9d39
00000010: 40b2 e939 da87 5239 ac47 1db9 1eae 92b9
00000020: 6eaa d2b8 9d7f 6f39 cd78 c439 d3e0 6cb9
00000030: b879 e137 f7f7 1eb9 5388 5838 8173 023a
00000040: 8133 49b9 952c 0fb9 bdeb edb8 9b50 fdb8
00000050: f521 46ba 475c c5b9 ceaa 79b8 2ead 53ba
00000060: b5ef 463a e9bc 0bba 80c2 2fb9 a8d7 fb38
00000070: 0c89 8aba 1336 08ba c569 29ba b67f 0cba
00000080: 1e34 8db9 699e c2b7 1250 2cba b750 b039
00000090: c1d5 fe38 0106 7aba e8ef aa39 7001 6838
000000a0: e92f b9b8 4f27 20b9 add6 9c39 0c76 2f39
000000b0: 1748 67b8 de9f e4b8 361e 1339 ff7e 5339
000000c0: ce59 3d39 7bb4 1eb7 a151 9739 204c 31ba
000000d0: 237b 5ab9 b384 5e39 a96a 2b39 2e85 ab39
000000e0: 83a1 10b9 6d13 6d39 7e6c c338 839e d738
000000f0: e04d 74b9 eb05 09ba 3d14 7bb8 e6a0 8239
00000100: 9b04 a839 e7bf 0ab9 aeaf 0eb9 ad74 1ab9
00000110: 4f2e a9b9 1e9a e2ba 1076 0fb6 aab7 3a39
00000120: ce6a 75b9 546e 5a38 d74a 90ba 9a70 6ab9
00000130: da54 56b8 64c9 30ba ef87 39b8 9de5 05b9
00000140: c5cf 69b7 ca1f e4b9 b679 24ba b4de 14b9
00000150: 6816 9eba bbde bfb9 a694 fdb8 266c 7f3a
00000160: 6d23 c2b9 f134 20b9 7853 62ba b885 25b9
00000170: 7309 0f3a 3938 3eb8 b4ac 5239 e96f 7936
00000180: 998e 41b9 9de9 aa38 67f7 9739 3bad 3439
00000190: 2ec5 ff37 dbc4 ddb9 fe13 30b9 f4d8 9a39
000001a0: 2ed6 b239 a248 c3b9 5f4b 7539 54dc 5939
000001b0: 405b ff38 273b f438 b337 9039 a799 eab9
000001c0: 3a81 2338 ca8e 5cb7 5fdc 1fba 7395 2e38
000001d0: ada8 02b9 be83 eb38 adb3 b639 3871 4839
000001e0: d65c 26ba 5d90 6338 ff45 9eb8 cc50 66b7
000001f0: d811 6bba 77da b0b9 cc60 dbb9 1aee 6038

exp_avg_sq f4 [128]
1.828681e-07 4.0265007e-07 4.4447626e-07 7.9419897e-07 7.706994e-07 2.622213e-07 6.429868e-07 4.9508805e-07
9.743974e-07 4.735373e-06 7.305631e-07 6.67773e-07 6.6025683e-07 1.6455357e-06 6.648972e-07 7.6728116e-07
3.25064e-07 9.8287984e-08 2.522804e-07 2.835915e-07 1.7342048e-06 4.8316525e-07 6.3981594e-07 2.6826574e-06
3.968302e-06 9.883356e-07 7.555188e-07 2.1767163e-07 2.5418353e-06 1.3000482e-06 1.6932402e-06 1.1026701e-06
5.347143e-07 6.999068e-07 9.79809e-07 3.841577e-06 1.3224172e-06 1.024349e-06 6.056048e-07 4.219063e-07
3.2525963e-07 9.724849e-07 4.512157e-07 7.7376893e-07 4.946068e-07 1.650867e-06 7.533954e-07 1.5351835e-06
1.19246e-06 1.520046e-07 1.9719684e-07 5.386259e-07 3.2612814e-07 4.919243e-07 1.9960392e-07 1.8483213e-06
3.7000999e-07 5.8942294e-07 5.5915103e-07 6.5484676e-07 2.748422e-07 1.4092807e-06 8.7419714e-08 1.8874194e-07
7.904943e-07 1.6778602e-06 9.315084e-08 7.626437e-07 4.340428e-07 3.363745e-06 5.7560663e-07 2.6318248e-06
8.0140467e-07 2.8813153e-07 1.5783697e-06 5.2015093e-07 1.7694913e-07 1.0813395e-06 4.2091085e-07 3.62428e-07
1.0445056e-06 2.2800727e-06 3.4492898e-06 9.725601e-07 2.0651505e-06 1.1757237e-06 5.4926767e-07 3.1290444e-06
7.816186e-07 5.575024e-07 2.184514e-06 2.6557638e-07 1.5230507e-06 2.2589352e-07 1.4060231e-06 2.8506531e-06
4.988865e-07 1.5653745e-07 9.685037e-07 2.3021488e-07 3.9501703e-07 1.1891843e-06 2.3500021e-07 1.2603692e-06
1.6005497e-06 1.408749e-06 1.0690973e-06 1.5446724e-07 1.64834e-07 7.748194e-07 4.672949e-07 8.4028693e-07
2.1573683e-07 5.2998365e-07 4.2616048e-07 4.3499028e-07 7.877515e-07 4.874003e-07 2.1030144e-06 1.1267218e-06
2.2020238e-06 1.0307418e-06 3.2639178e-07 4.0720255e-07 1.577443e-06 1.8936082e-06 1.7668533e-07 7.025685e-07
00000000: 675a 4434 ce2b d834 5aa0 ee34 f030 5535
00000010: 0fe2 4e35 6cc7 8c34 b799 2c35 31e6 0435
00000020: 0ac8 8235 8be4 9e36 ea1b 4435 0341 3335
00000030: 813c 3135 2ddc dc35 637b 3235 29f7 4d35
00000040: 7584 ae34 6412 d333 2771 8734 8540 9834
00000050: d3c2 e835 ddb2 0135 d1bf 2b35 b407 3436
00000060: 7427 8536 f4a6 8435 dbce 4a35 1fb9 6934
00000070: 6694 2a36 517d ae35 4a43 e335 75ff 9335
00000080: 4989 0f35 3be1 3b35 fb81 8335 e5e6 8036
00000090: e97d b135 5d7c 8935 d890 2235 5c82 e234
000000a0: 589f ae34 5486 8235 9d3e f234 ffb4 4f35
000000b0: 1fc5 0435 5c93 dd35 f03c 4a35 810c ce35
000000c0: 9d0c a035 b536 2334 0ebd 5334 1796 1035
000000d0: b616 af34 c80c 0435 b552 5634 d613 f835
000000e0: c9a5 c634 d638 1e35 9118 1635 bac8 2f35
000000f0: 068e 9334 8426 bd35 7fbb bb33 fda8 4a34
00000100: 5b32 5435 d632 e135 370a c833 7ab8 4c35
00000110: 6306 e934 b3bc 6136 6383 1a35 689e 3036
00000120: 1c20 5735 7fb0 9a34 5fd8 d335 80a0 0b35
00000130: 68ff 3d34 8b22 9135 8cf9 e134 ba93 c234
00000140: f030 8c35 5a03 1936 597a 6736 e988 8235
00000150: 0497 0a36 8fcd 9d35 6371 1335 93fc 5136
00000160: 6cd0 5135 46a7 1535 aa99 1236 8a94 8e34
00000170: a06b cc35 238d 7234 96b6 bc35 d94d 3f36
00000180: 38eb 0535 b014 2834 89fd 8135 fc30 7734
00000190: ba12 d434 109c 9f35 5e54 7c34 f529 a935
000001a0: 78d2 d635 3f14 bd35 e77d 8f35 a2db 2534
000001b0: 3afd 3034 2ffd 4f35 86e0 fa34 1490 6135
000001c0: 4aa5 6734 3344 0e35 0dcb e434 9c88 e934
000001d0: df75 5335 e5d5 0235 8321 0d36 de39 9735
000001e0: 7bc6 1336 0558 8a35 f23a af34 7e9d da34
000001f0: 87b8 d335 e227 fe35 e5b6 3d34 2498 3c35
