Goodminton/Assets/results/Badminton/Badminton/Badminton-775.onnx (onnx, 74586 bytes, 7 tensors)

network_body._body_endoder.seq_layers.0.weight f4 [128, 5]
0	0x3f6635a9	0.8992563
1	0x3df20a53	0.118183754
2	0x3e464dc6	0.19365606
3	0x3d2e47cd	0.042548943
4	0xbeaed587	-0.34147283
5	0xbf14ca7b	-0.5812146
6	0x3e8ea27d	0.27858344
7	0x3e15fef5	0.1464804
8	0x3eae943d	0.34097472
9	0xbe17f49b	-0.14839403
10	0xbf1d9a4e	-0.61563575
11	0x3e689b50	0.22715497
12	0x3e742472	0.23842028
13	0xbe81458b	-0.2524837
14	0x3e10cccc	0.14140624
15	0xbe89bdfe	-0.26902765
16	0xbe9c609e	-0.30542463
17	0x3f34d4a3	0.7063696
18	0x3ea0355b	0.31290707
19	0x3f96dba0	1.1785774
20	0xbe9b3d13	-0.30320033
21	0xbe755873	-0.23959522
22	0xbeafe797	-0.34356377
23	0x3d707691	0.058706824
24	0x3f0fb057	0.5612845
25	0x3e351729	0.17684616
26	0xbbbcd430	-0.0057625994
27	0x3e80ffc4	0.25195134
28	0x3f0633ce	0.524228
29	0x3edc0370	0.42971373
30	0x3d2540fb	0.040345173
31	0xbf080efc	-0.53147864
32	0x3dea2c1f	0.11434197
33	0xbf0c1fef	-0.54736227
34	0x3ea1a830	0.3157363
35	0x3f12c371	0.5732947
36	0x3f0cddeb	0.5502612
37	0xbdd1a0d1	-0.102357514
38	0x3f77a5c4	0.96737313
39	0x3d9daa3c	0.07698485
40	0xbeb201ad	-0.34766904
41	0xbfa56d9b	-1.2924074
42	0x3ddc513e	0.10757683
43	0x3ee1adc7	0.44077894
44	0x3f85e1dc	1.0459552
45	0x3e4122f7	0.18860994
46	0x3e5f0796	0.21780238
47	0xbee6b963	-0.45063314
48	0x3f590bc1	0.8478356
49	0x3e945abf	0.28975484
50	0xbb680791	-0.00354049
51	0x3c5eefd9	0.013606989
52	0xbe1c3d10	-0.15257668
53	0x3e8e19e4	0.27754128
54	0xbe8bc642	-0.27299696
55	0x3ebcedc9	0.36900166
56	0x3e854a63	0.26033315
57	0x3ea58390	0.32326937
58	0xbea711d3	-0.32630786
59	0xbf2fd047	-0.6867718
60	0xbedaf9f6	-0.4276883
61	0xbd5e320e	-0.054246955
62	0xbee45f97	-0.4460418
63	0xbdd3282f	-0.10310399
64	0xbea8225c	-0.32838714
65	0x3e0d9fc0	0.13830471
66	0x3cf37ba5	0.029722044
67	0xbd58ac23	-0.052898537
68	0xbe045eb5	-0.12926753
69	0x3ee21907	0.4415972
70	0x3f61db61	0.8822537
71	0xbe18911f	-0.1489911
72	0x3e119f34	0.14220887
73	0x3e7a1008	0.24420178
74	0xbe0d7ec9	-0.13817896
75	0x3e8bc8a1	0.27301505
76	0x3e1d6db5	0.15373881
77	0x3f456817	0.77111953
78	0xbe48d342	-0.19611838
79	0x3ed15eae	0.40892547
80	0xbe8b8dac	-0.27256525
81	0x3eb21537	0.3478181
82	0x3f42a8ff	0.7603912
83	0x3ea2712f	0.31726977
84	0x3ef521a2	0.47877222
85	0xbec025b9	-0.3752878
86	0xbd0aa126	-0.03384509
87	0x3c8b4728	0.017001703
88	0x3eb401f1	0.3515773
89	0xbef068dd	-0.46955004
90	0x3ef07514	0.46964324
91	0xbf394b7f	-0.7238082
92	0x3e12599d	0.14291997
93	0xbe57572f	-0.21029352
94	0x3fb8f368	1.4449282
95	0xbebde841	-0.37091258
96	0x3e12e852	0.14346436
97	0xbf3229ae	-0.6959485
98	0x3cae25a3	0.021258181
99	0xbe180c6d	-0.1484849
100	0x3e4ad943	0.19809441
101	0x3cab4b62	0.020909969
102	0x3e615a14	0.22007018
103	0x3f8187be	1.011955
104	0xbd75653a	-0.05991099
105	0xbf35398b	-0.7079093
106	0xbf026c8e	-0.5094689
107	0xbe632879	-0.22183408
108	0x3f095981	0.536522
109	0xbef85f49	-0.48510197
110	0xbdefb049	-0.117035456
111	0x3ee00a31	0.43757775
112	0xbe53b13e	-0.20673081
113	0x3c92abdd	0.017904216
114	0xbefa2700	-0.4885788
115	0xbe142098	-0.14465559
116	0x3e855c2e	0.2604689
117	0x3e70afea	0.23504606
118	0x3e41ec57	0.18937813
119	0xbeaf0049	-0.34179905
120	0x3df32f43	0.11874249
121	0xbeadfc08	-0.33981347
122	0x3ea83d6e	0.32859367
123	0xbd30397d	-0.043023575
124	0xbf9911af	-1.1958522
125	0xbe1a76f7	-0.15084444
126	0xbe0f9e34	-0.14025193
127	0x3f37776d	0.71666604
128	0x3d841ea2	0.06451155
129	0xbf6f6300	-0.93510437
130	0x3e33295b	0.17496245
131	0xbe98d64e	-0.29851002
132	0xbcb4bc60	-0.02206248
133	0xbedfc350	-0.437037
134	0x3ea5b84a	0.32367164
135	0xbee5c8e4	-0.4487983
136	0x3f0e5785	0.55602294
137	0x3f11f868	0.5701966
138	0x3e0903c2	0.1338034
139	0x3ee73906	0.45160693
140	0x3e3dce37	0.18535696
141	0x3e280c62	0.16410974
142	0xbe84b475	-0.25918928
143	0x3f01fc70	0.50775814
144	0xbdedf0e7	-0.11618214
145	0x3e7701ba	0.24121752
146	0x3dd21c1a	0.10259266
147	0xbd2e882e	-0.04261034
148	0x3e84123c	0.25795162
149	0x3e826cb7	0.25473568
150	0xbec8590d	-0.3913044
151	0xbee0fea4	-0.43944275
152	0xbeb25eb8	-0.3483789
153	0x3cbf4adc	0.023351125
154	0x3e70d0d7	0.23517166
155	0x3e8f68c5	0.2800962
156	0x3ccf7b37	0.025327308
157	0x3e0654b5	0.1311825
158	0xbdbaacd9	-0.09114999
159	0x3ed43e5d	0.4145383
160	0x3ee9b11c	0.45642936
161	0xbf40adae	-0.75265014
162	0xbed0d04a	-0.40783912
163	0xbf2e3d41	-0.68062216
164	0x3e3d4c98	0.1848625
165	0x3d74ed7a	0.059796788
166	0xbeb52df1	-0.35386613
167	0x3e15951a	0.14607659
168	0xbe267a7c	-0.16257662
169	0xbe448dda	-0.19194737
170	0xbe31102b	-0.17291324
171	0xbee269de	-0.44221395
172	0x3dfe5718	0.124189556
173	0xbe1fe315	-0.15613969
174	0xbe4b6f85	-0.1986676
175	0xbeec179d	-0.46111766
176	0x3ef95260	0.4869566
177	0xbed5e268	-0.41774297
178	0x3e926bf1	0.28597978
179	0xbf262b3e	-0.6490973
180	0xbe8488b9	-0.2588556
181	0x3ef38ea7	0.47569773
182	0xbeb202b1	-0.34767678
183	0xbd55c203	-0.052186977
184	0xbc89c8f7	-0.01681946
185	0xbf147d87	-0.5800404
186	0xbf07e899	-0.5308929
187	0x3ef70469	0.48245552
188	0xbe3df9f0	-0.18552375
189	0xbe90d539	-0.28287676
190	0x3dcfa5ff	0.10139083
191	0x3eebaf3d	0.46032134
192	0xbc858202	-0.016297344
193	0xbed38c30	-0.41317892
194	0x3f16b09b	0.5886323
195	0x3e8edb28	0.27901578
196	0x3db4268d	0.087964155
197	0x3f6b0d25	0.9181693
198	0x3e85b983	0.26118097
199	0xbeb7b270	-0.35878325
200	0x3dff885c	0.1247718
201	0xbc83ae02	-0.016074184
202	0xbe601068	-0.21881258
203	0xbed3636d	-0.41286793
204	0xbf1a2756	-0.6021627
205	0xbe6ee9f1	-0.23331429
206	0x3f417e7c	0.75583625
207	0xbf2d34bf	-0.6765861
208	0x3eba8132	0.36426693
209	0xbebb4042	-0.36572462
210	0xbe93fb23	-0.2890254
211	0xbe9f2ec3	-0.31090364
212	0x3d519450	0.051166832
213	0xbe6a8535	-0.22902377
214	0x3e74ba43	0.23899178
215	0xbe2ae9b9	-0.1669072
216	0x3e2ca505	0.16859825
217	0x3ecc981f	0.3995981
218	0xbd4f1b55	-0.050563175
219	0x3f05e7a6	0.5230659
220	0xbe519895	-0.20468362
221	0xbef4dee0	-0.4782629
222	0x3e893d4c	0.26804578
223	0xbf095692	-0.5364772
224	0xbeaf118b	-0.34193072
225	0x3e74af9a	0.23895112
226	0xbf5fe5bb	-0.87459916
227	0x3bf7383b	0.007544545
228	0x3e38c2bb	0.18043034
229	0x3db17d08	0.08666426
230	0xbeb9fd07	-0.36325857
231	0xbf5e6d5a	-0.8688561
232	0x3ebdcd6d	0.3707079
233	0xbd9773d5	-0.0739514
234	0x3ede415a	0.43409234
235	0xbeafcfef	-0.34338328
236	0xbe4959e6	-0.196632
237	0x3e6aafe0	0.22918653
238	0x3f0139d9	0.50478894
239	0x3f3cf4a5	0.738108
240	0x3bb85aea	0.005626072
241	0x3ef655a5	0.48112217
242	0x3cb1cae2	0.021703187
243	0x3f07449f	0.5283908
244	0x3d83f8f1	0.06443966
245	0xbfc30cbe	-1.5238264
246	0xbe2b7f32	-0.1674774
247	0xbc3f4a33	-0.011675405
248	0x3e6b9567	0.23006211
249	0xbf2d4863	-0.6768858
250	0xbee0ae93	-0.4388319
251	0xbf44e8e3	-0.76917857
252	0x3ef01fa0	0.46899128
253	0x39b695e1	0.00034825414
254	0x3ed0c147	0.4077246
255	0xbe5c1552	-0.21492508

network_body._body_endoder.seq_layers.0.bias f4 [128]
0	0x3b427b26	0.0029675453
1	0x3b40ae3c	0.0029400727
2	0xbbb91854	-0.005648652
3	0xbaf58a08	-0.0018733153
4	0xbb047936	-0.002021385
5	0xbb328d39	-0.002724482
6	0xbb486ef0	-0.0030583702
7	0x3a68271f	0.0008855927
8	0xbbde5344	-0.0067848284
9	0xbbb2c098	-0.005455088
10	0x3c1e7853	0.009672242
11	0xbbb5587d	-0.0055342303
12	0x3bd2ec31	0.0064368476
13	0xbc25e85b	-0.010126199
14	0x3af871ab	0.0018954774
15	0xbb1decbe	-0.0024097408
16	0x3bd2fd78	0.0064389072
17	0xbc1a45cf	-0.009416058
18	0x3b4d4f55	0.0031327803
19	0xba31bfa3	-0.000678057
20	0x3b92cec8	0.0044802167
21	0xb6ec8b88	-7.0495917e-06
22	0x3c043bd7	0.008070908
23	0x3b46f7d9	0.003036013
24	0xbb080e37	-0.0020760426
25	0xbb14a1b5	-0.0022679393
26	0xbb063b95	-0.002048229
27	0x3b7afc50	0.0038297363
28	0xbb5319da	-0.0032211454
29	0xbb970ea9	-0.004609902
30	0xbb00b50d	-0.0019639165
31	0xbbdd324a	-0.0067503797
32	0x3bcda5cb	0.0062758676
33	0x3b9c1986	0.004763785
34	0xbbdf9b77	-0.006823953
35	0x3bced7a0	0.0063123256
36	0xbbc154be	-0.0058999946
37	0xbb51786a	-0.0031962642
38	0x3a5c78c6	0.00084103306
39	0xbb6bdb7f	-0.0035988984
40	0xbb7f1b51	-0.0038926194
41	0x3c2a296d	0.010385853
42	0x3b4bd524	0.0031102384
43	0xbbc4a9b7	-0.006001677
44	0xbb6daf73	-0.0036267906
45	0x3c58256a	0.013192514
46	0x39f831f2	0.00047339458
47	0xbaf8c7b2	-0.0018980412
48	0xbbeab62e	-0.007162831
49	0xbba5d513	-0.005060801
50	0xbb812d31	-0.003942155
51	0x3c2ce85b	0.010553445
52	0x3be8772d	0.007094285
53	0xb980ce0e	-0.00024567585
54	0xbb91ff05	-0.0044554495
55	0xb772fce4	-1.4483205e-05
56	0xbb25ed5e	-0.0025318484
57	0x3bc08347	0.0058750245
58	0x3b05eeb7	0.0020436475
59	0x3b9688e7	0.0045939567
60	0xbc0bf593	-0.008542436
61	0x39bac136	0.00035620638
62	0xbae39db1	-0.0017365721
63	0x3c06052c	0.008179944
64	0xbbfebdfc	-0.0077741127
65	0xb9bb4a89	-0.00035722952
66	0xbb67868d	-0.0035328001
67	0x3b9044a7	0.0044027152
68	0x3b54b16c	0.0032454384
69	0x3b89f0db	0.0042096204
70	0xba3bbfe6	-0.0007162079
71	0x3aee124c	0.0018163412
72	0xbbc624d6	-0.0060468717
73	0xbbb265f4	-0.0054442827
74	0x3c18d2ad	0.009327573
75	0xb9ff059d	-0.00048641572
76	0x3bfb426f	0.0076678316
77	0x3ad54bb0	0.0016273167
78	0xbb7ab2b3	-0.0038253486
79	0xbc56bf12	-0.013107078
80	0xba80066b	-0.0009767538
81	0xbbb1fd7b	-0.0054318286
82	0x3b92746e	0.004469446
83	0x3b0fe94d	0.0021959126
84	0xbab060dd	-0.0013456602
85	0xbb68fb77	-0.0035550275
86	0x3b8f058a	0.004364674
87	0xbc0e1157	-0.008671126
88	0x3bad519a	0.0052892687
89	0x3be32355	0.006931702
90	0xbb61387e	-0.0034365947
91	0x3c01f22a	0.007931272
92	0x3960cd67	0.00021438823
93	0xb8ad41dd	-8.261551e-05
94	0x3bfb7b11	0.007674583
95	0xbc2a1c9f	-0.0103828
96	0x3bbeae96	0.005819152
97	0x3aa18e5e	0.0012325754
98	0x3ba5707d	0.00504881
99	0xbb46aded	-0.003031607
100	0xbad57f60	-0.0016288571
101	0xbbd9f7d4	-0.006651858
102	0xbaaf674d	-0.0013382226
103	0xba690750	-0.0008889334
104	0xbbb0a2ca	-0.0053904997
105	0xba0af28e	-0.00053004257
106	0x3c1a42a9	0.009415307
107	0x3c1827d0	0.009286836
108	0xbbfb01bf	-0.0076601203
109	0x3c2b3302	0.010449173
110	0x3b8078ab	0.0039206347
111	0x3af49670	0.0018660557
112	0xbac52de9	-0.001504359
113	0x3b4e16e0	0.003144674
114	0x3a3a2bfa	0.000710189
115	0xbc1525cc	-0.00910325
116	0xbc140957	-0.00903543
117	0xbbeeeac5	-0.0072911703
118	0xba6f2c98	-0.00091237715
119	0x39ae1647	0.00033204464
120	0xbbfe7d6d	-0.0077664168
121	0x3be1795d	0.0068809227
122	0xba04f172	-0.00050713785
123	0x3b92dd90	0.0044819787
124	0x3962bb37	0.00021622783
125	0x3c59e2d9	0.013298714
126	0xbb47ff89	-0.00305173
127	0x3c2a0548	0.010377236

network_body._body_endoder.seq_layers.2.weight f4 [128, 128]
0	0xba53577c	-0.00080620474
1	0xbda7921b	-0.08182164
2	0x3e52ad33	0.20573883
3	0xbd3893af	-0.045062717
4	0x3cc24fef	0.023719756
5	0x3dc63862	0.09678723
6	0x3cc701b3	0.024292802
7	0xbdd1b8c4	-0.10240319
8	0x3d8b33dd	0.067970015
9	0xbdb0cb32	-0.086325064
10	0xbd60ee3b	-0.054914694
11	0x3d84a5cd	0.064769365
12	0xbd6fbce0	-0.058529735
13	0x3d8b5931	0.06804121
14	0xbd1949bb	-0.03742383
15	0x3df3f2ff	0.11911582
16	0x3dbfcfbe	0.093657956
17	0x3d8a2066	0.06744461
18	0xbcc97ace	-0.02459469
19	0x3d4ac6f8	0.049506158
20	0x3c808055	0.015686193
21	0x3d87c2c8	0.066289485
22	0x3cb8bcb5	0.02255092
23	0xbdc9e75e	-0.09858583
24	0xbca5f137	-0.020256622
25	0xbcac23d7	-0.021013184
26	0x3d87b9fa	0.06627269
27	0x3dcdb4cc	0.1004425
28	0x3c22f152	0.009945231
29	0x3d60e2fa	0.05490396
30	0xbe242ee9	-0.1603352
31	0x3ddaf009	0.10690314
32	0xbdad413d	-0.08459709
33	0xbd06f018	-0.032943815
34	0xbd5989a0	-0.053109765
35	0xbe21cc86	-0.15800676
36	0xbdb9cc01	-0.09072114
37	0x3d2e5178	0.042558163
38	0x3d98abbe	0.07454632
39	0x3d9571c0	0.07297087
40	0x3deac9a4	0.11464241
41	0xbcd68642	-0.026187066
42	0x3d559587	0.052144554
43	0xbdb815fa	-0.08988567
44	0xbbdb5418	-0.0066933744
45	0xbd07e2a8	-0.03317514
46	0xbd1862db	-0.03720365
47	0x3cc79150	0.024361283
48	0x3d6a39a9	0.057183895
49	0xbc8fc990	-0.017552167
50	0x3e1677df	0.14694165
51	0x3b5bc8d4	0.003353645
52	0x3d93a6e8	0.07209569
53	0xbe6591b3	-0.22418861
54	0xbc5c4510	-0.0134442
55	0x3e3a4451	0.18190123
56	0xbcd6f17f	-0.026238201
57	0xbdc56f0f	-0.09640323
58	0xbe56b858	-0.20968759
59	0xbd9e5428	-0.07730895
60	0xbd9c207f	-0.07623386
61	0x3d25dbd7	0.04049286
62	0x3e1ee59b	0.15517275
63	0xbe4cd82c	-0.20004338
64	0x3dc63fe9	0.09680159
65	0xbbfb7e31	-0.0076749553
66	0xbe0f5e09	-0.14000715
67	0x3e3c8e3e	0.18413636
68	0x3d6783c3	0.056522142
69	0x3e13cc0c	0.14433306
70	0x39cfe0a7	0.00039649496
71	0xbe04b576	-0.12959847
72	0xbd7319b5	-0.059350688
73	0x3d95cc48	0.07314354
74	0xbe15c5fc	-0.14626306
75	0xbd18b7ec	-0.037284777
76	0xbd889242	-0.066685215
77	0x3d0575b2	0.032582946
78	0x3de0a5ed	0.10969148
79	0x3d6d0f52	0.05787594
80	0x3e1ac479	0.15114011
81	0xbcb6cdb3	-0.022314882
82	0xbcf463c7	-0.029832734
83	0x3de1c61a	0.11024113
84	0x3e0cb79f	0.13741921
85	0xbd851c01	-0.06499482
86	0xbd932551	-0.07184852
87	0x3c4cd15c	0.012501087
88	0xbd62853d	-0.055302847
89	0xbdc7bb24	-0.09752491
90	0xbd0ac396	-0.03387793
91	0xbde81ed9	-0.11334009
92	0x3dc349ca	0.095355585
93	0x3d5fa94a	0.054604806
94	0x3d1e6c5e	0.038677566
95	0x3d85a860	0.065262556
96	0xbdcb0df4	-0.09914771
97	0xbda5ab26	-0.080892846
98	0x3d0bb08c	0.034103915
99	0xbdc0c047	-0.09411674
100	0xbcd90517	-0.026491685
101	0xbcdc2868	-0.026874736
102	0x3caf001d	0.021362359
103	0x3dc98b24	0.09840992
104	0xbdb0a841	-0.08625842
105	0xbcb31826	-0.0218621
106	0xbd167420	-0.03673184
107	0xbb75fa26	-0.0037533133
108	0x3d9c57e1	0.07633949
109	0xbde50c59	-0.11183996
110	0xbdc75bf2	-0.09734334
111	0x3dff2c30	0.124596
112	0x3bb6f0b0	0.0055828914
113	0xbe106353	-0.14100389
114	0x3e0d423e	0.137948
115	0xbc3eb674	-0.01164018
116	0x3ce2dd06	0.027693283
117	0x3c193d89	0.00935305
118	0x3cb2a6ba	0.021808017
119	0x3dcc5dea	0.0997885
120	0xbc62bb18	-0.013838552
121	0x3db8ea7a	0.09029098
122	0x3d381e00	0.044950485
123	0xbcea31de	-0.028588232
124	0xbd258468	-0.040409476
125	0xbe0080cc	-0.12549132
126	0x3d895cbb	0.0670714
127	0xbdec2294	-0.11530033
128	0x3e53671f	0.20644806
129	0xbd27cb3d	-0.040965308
130	0xbdcfc27b	-0.10144516
131	0x3b09f3b8	0.0021049809
132	0xbcb951f9	-0.022622095
133	0x3de7dca8	0.11321384
134	0xbd5ae7c3	-0.05344368
135	0x3ca004ba	0.019533504
136	0xba2f9260	-0.0006697532
137	0x3b879f6d	0.004138878
138	0x3e2bb1e9	0.16767086
139	0x3e1e9f28	0.15490401
140	0x3d81dcec	0.06340966
141	0x3d0398d7	0.03212818
142	0x3e2a1668	0.1661011
143	0x3d3e680f	0.046485957
144	0xbe3df7a0	-0.18551493
145	0xbdb8811c	-0.09009001
146	0xbb396ce2	-0.002829366
147	0x3d673b4d	0.056453038
148	0x3dc034b0	0.09385049
149	0x3e0ad2c8	0.13556969
150	0xbe1c9905	-0.15292747
151	0xbc5e01d7	-0.013550243
152	0x3aed7546	0.0018116615
153	0x3e334311	0.17506053
154	0xbd97c550	-0.07410681
155	0xbd807f0e	-0.06274234
156	0xbc5d33c4	-0.013501111
157	0xbcded865	-0.027202794
158	0xbcef9854	-0.02924744
159	0xbe390054	-0.18066531
160	0xbe1329b4	-0.14371377
161	0x3cf626a7	0.030047728
162	0xbd62e5cf	-0.055394944
163	0xbc84d593	-0.016215121
164	0x3cd602e0	0.026124418
165	0xbdf42b2d	-0.119222976
166	0x3e0addf3	0.1356123
167	0x3c2f7d9c	0.0107111
168	0x3e017bb6	0.12644848
169	0xbdd6e74d	-0.10493336
170	0x3de9e08b	0.11419781
171	0x3e3bce2b	0.18340366
172	0xbdceec71	-0.10103691
173	0x3b37bdf7	0.0028036812
174	0xbdb47ddd	-0.08813069
175	0xbc9d534a	-0.019204754
176	0x3e0bd1cf	0.13654254
177	0x3e414099	0.18872298
178	0x3d8ac305	0.06775478
179	0x3d55fb9d	0.05224191
180	0xbe32bae2	-0.17454103
181	0x3d81c176	0.06335728
182	0xbdf47652	-0.1193663
183	0xbc9c7403	-0.019098287
184	0xbe362ec4	-0.17791277
185	0xbde780c9	-0.11303861
186	0xbcb51a53	-0.022107279
187	0x3d34bef2	0.044127412
188	0xbc7ece0a	-0.015552053
189	0x3d830241	0.06396914
190	0x3c942615	0.018084565
191	0x3d166a70	0.0367226
192	0x3cbf6f9d	0.023368651
193	0x3d2fc5e5	0.042913336
194	0x3d135891	0.035973135
195	0xbd48f90e	-0.049065642
196	0x3c065c64	0.008200739
197	0xbe17e457	-0.14833198
198	0x3d2c9fd6	0.04214462
199	0x3e08866f	0.13332532
200	0x3c144b89	0.009051212
201	0xbd16be01	-0.036802296
202	0xbcea3e66	-0.028594207
203	0x3d970724	0.07374409
204	0x3c304c2e	0.01076035
205	0xbe1500d1	-0.14551093
206	0x3d88065b	0.06641837
207	0xbcb35739	-0.021892177
208	0xbdbb525c	-0.09146568
209	0x3d0059ed	0.03133576
210	0xbcd88705	-0.02643157
211	0x3d9a197b	0.07524391
212	0x3e013eaa	0.1262156
213	0x3d8ecac2	0.06972267
214	0x3d812feb	0.06307968
215	0x3e1df5b5	0.15425761
216	0x3da86b29	0.08223564
217	0x3ccdb27e	0.025109526
218	0x3dbd551c	0.09244749
219	0xbe37b3b6	-0.17939648
220	0x3dad245f	0.08454203
221	0xbdbc6bcb	-0.092002474
222	0x3aca02b7	0.0015412186
223	0x3d144cde	0.03620612
224	0x3d9f979a	0.077925876
225	0x3ccefc5b	0.025266817
226	0xbdebf8e4	-0.115220815
227	0xbd5b5ec2	-0.053557165
228	0xbddf2083	-0.10894873
229	0xbe09a2f4	-0.13441068
230	0xbdeb58b1	-0.11491526
231	0x3c3a561e	0.011373071
232	0xbc69040f	-0.014222159
233	0xbc93d883	-0.018047577
234	0x3d20e3f0	0.03927988
235	0xbd9fcc6c	-0.07802662
236	0xbdf63512	-0.12021841
237	0x3d2021e5	0.039094824
238	0x3db59591	0.08866418
239	0xbd0e6920	-0.034768224
240	0x3d6f85d3	0.058477234
241	0x3d39209c	0.045197114
242	0x3d4ddc01	0.05025864
243	0x3cd008de	0.025394853
244	0x3dccc191	0.09997857
245	0x3bba6ae8	0.0056890137
246	0xbdf4df5a	-0.119566634
247	0x3d7c1942	0.061547525
248	0x3d1e0424	0.038578168
249	0xbd6770f0	-0.05650419
250	0x3c8c7a9f	0.017148314
251	0x3d732116	0.059357725
252	0xbd764631	-0.060125533
253	0x3be46751	0.006970324
254	0x3d2626a2	0.040564187
255	0x3e729bd9	0.23692264

network_body._body_endoder.seq_layers.2.bias f4 [128]
0	0xbb995c19	-0.0046801683
1	0x3ab3adfa	0.0013708465
2	0x3a4a58ef	0.00077189406
3	0xbba160d0	-0.004924871
4	0xbaa64492	-0.001268523
5	0xbb91a1f5	-0.0044443556
6	0x39569a76	0.00020466172
7	0x3c254f1c	0.010089662
8	0xba66efb7	-0.0008809524
9	0x3ad96645	0.0016586265
10	0xbb896521	-0.0041929637
11	0x3b50c81d	0.0031857558
12	0xb8b39b1e	-8.564278e-05
13	0xbb0c7dd2	-0.00214373
14	0x3c1a04fd	0.009400603
15	0xbbbd08e2	-0.005768881
16	0x3b8bbd29	0.004264493
17	0x3ba58ea9	0.005052407
18	0x39827c73	0.00024888254
19	0x3b1d9d68	0.002405012
20	0x3b8d7586	0.0043169884
21	0x3a65ce79	0.00087664236
22	0x3a946a3e	0.0011323167
23	0xbbde24ff	-0.0067793126
24	0xbb3b9de4	-0.0028628046
25	0x3b2968b2	0.0025849757
26	0xbb91d5ce	-0.0044505363
27	0xbad321cf	-0.0016108098
28	0x3b9bdfda	0.00475691
29	0x3b822dc7	0.0039727422
30	0x3ba8cc2f	0.0051512937
31	0xbb712793	-0.003679727
32	0x3a8fa828	0.0010960149
33	0xbb54f08c	-0.003249201
34	0x3a02ea91	0.00049940596
35	0xbc3f625d	-0.0116811665
36	0x3c214bb1	0.009844706
37	0xbbf512d2	-0.00747905
38	0xbbe091d3	-0.006853321
39	0x3bcc2bf9	0.006230828
40	0xbbf3036e	-0.0074161803
41	0xbb0259d7	-0.0019889975
42	0xbb7b9296	-0.0038386933
43	0xbad13f86	-0.0015964366
44	0xbb86e07e	-0.004116117
45	0xbafb00cb	-0.0019150017
46	0x39a5c270	0.0003161612
47	0xbabb6f22	-0.0014300088
48	0x3bf60c3b	0.007508782
49	0xba7a9837	-0.0009559425
50	0x3ac8612a	0.0015287746
51	0x3a98dada	0.0011661903
52	0x3adb1366	0.0016714155
53	0xbba5bc95	-0.005057881
54	0x38b5a65a	8.661738e-05
55	0x3a6be0d2	0.00089980394
56	0x3b5d239c	0.0033743149
57	0xbb171a21	-0.0023056346
58	0x3b4c4d77	0.0031174102
59	0x3bdb1ab2	0.006686532
60	0xba771b75	-0.00094263937
61	0xbba61792	-0.005068728
62	0x3b86944f	0.004107035
63	0x3b84f09b	0.0040570027
64	0xba2cc4b3	-0.000659059
65	0x3c4694c0	0.012120426
66	0x3b9abd0f	0.0047222446
67	0x3a96b93d	0.0011499297
68	0x3ace9973	0.0015762284
69	0x3a81d698	0.0009905873
70	0x399d9914	0.00030059426
71	0x3bdf075a	0.0068062963
72	0x3be6bbdd	0.007041438
73	0x3ac02da2	0.0014662037
74	0x3c07f3cb	0.008297871
75	0xbb4340cd	-0.0029793263
76	0x3b146129	0.002264092
77	0x3b7c8bd4	0.0038535492
78	0xbb10fb0d	-0.0022122294
79	0xba650dda	-0.0008737721
80	0xbbca6ff0	-0.006177895
81	0xb8c408c1	-9.347639e-05
82	0xbb5f25c0	-0.00340496
83	0xbad52fcf	-0.0016264858
84	0x3be95747	0.007121
85	0xbb8aba7b	-0.004233656
86	0xbb9a84b8	-0.0047155283
87	0x39e5fc8d	0.0004386645
88	0x3ae40d1b	0.0017398925
89	0x3b296ed6	0.0025853417
90	0xbb7b32a1	-0.0038329738
91	0x3c19c277	0.009384743
92	0x3b2888b4	0.0025716247
93	0xba2e1134	-0.00066401367
94	0x39289de4	0.00016080547
95	0xbbb3c804	-0.00548649
96	0xbaead82b	-0.0017917206
97	0xbb9ba748	-0.004750166
98	0x3ab407d8	0.0013735248
99	0x3a6df0bf	0.00090767065
100	0xbb85cdc1	-0.0040833657
101	0xbaa69a1a	-0.0012710721
102	0xbabd3271	-0.0014434588
103	0xba3f979a	-0.0007308662
104	0x3ab2ce43	0.0013641793
105	0x3c0ada33	0.008474874
106	0xbba06954	-0.0048953686
107	0xbae4ea5a	-0.0017464862
108	0xbbb21fe8	-0.0054359324
109	0xba4a9f95	-0.0007729468
110	0x3af0e620	0.001837913
111	0x3bb43723	0.005499737
112	0xbbb61413	-0.0055565923
113	0x3b3b7f70	0.0028609894
114	0xbb3b1b76	-0.0028550304
115	0xbc237bf1	-0.00997828
116	0x38353a80	4.3208245e-05
117	0x3c23c7dd	0.009996382
118	0x3bd1e32d	0.0064052553
119	0x3bad039e	0.005279972
120	0x3b7bb0d5	0.003840496
121	0xbb89d718	-0.0042065494
122	0x3a87df8e	0.0010366307
123	0x3be31b98	0.0069307797
124	0x3c005e9c	0.007835057
125	0x3b93abd0	0.0045065656
126	0x3bb055e5	0.005381333
127	0x3bc9ebc7	0.00616214

action_model._continuous_distribution.log_sigma f4 [1, 2]
0	0xbc111a4b	-0.008856366
1	0xbbc720ea	-0.0060769217

action_model._continuous_distribution.mu.weight f4 [2, 128]
0	0x3d0ec4db	0.034855705
1	0xbc58e11e	-0.013237266
2	0xbc15bfe6	-0.00913999
3	0x3be9691c	0.0071231257
4	0xbc87a56d	-0.016558373
5	0x3b8189dd	0.003953202
6	0xbc8e0f3e	-0.017341252
7	0x3ca007bd	0.01953494
8	0x3b6922f4	0.0035573812
9	0xbb1c0766	-0.002380812
10	0xbade05ce	-0.0016938986
11	0x3b965511	0.0045877774
12	0xbc5a23a9	-0.013314166
13	0x3c8429ce	0.016133215
14	0xbcc83804	-0.024440773
15	0x3b828c8a	0.0039840387
16	0xbbdbdbc7	-0.006709549
17	0x3cc46453	0.02397362
18	0x3c81e7e1	0.015857639
19	0x3cad6d88	0.021170393
20	0xbc371009	-0.011173257
21	0xbbd80b00	-0.006593108
22	0x3cd9d14c	0.026589058
23	0x3ba8f48c	0.0051561054
24	0x3c59e5ef	0.013299449
25	0x3a4ba875	0.00077689375
26	0x3cbc67b7	0.022998674
27	0x3bbaf764	0.005705761
28	0xbaaaa50e	-0.0013019161
29	0x3c6a4931	0.014299677
30	0x3ccd2965	0.025044153
31	0x3ac6c0f0	0.0015163701
32	0xbb0a6426	-0.0021116822
33	0x3c1f9b59	0.009741628
34	0xbc20e04a	-0.0098191
35	0x3bf0f7e1	0.007353768
36	0x3d265454	0.040607765
37	0xbadad3c8	-0.0016695196
38	0xbba33652	-0.0049808407
39	0xbc309bb8	-0.010779314
40	0xbb5cf6e8	-0.0033716504
41	0x3c43fa91	0.011961595
42	0xbc69df44	-0.014274422
43	0x3cdd794e	0.027035382
44	0xbc27ec59	-0.010249221
45	0xbc32d57d	-0.010915157
46	0xbc695cd3	-0.014243322
47	0x3a0b0d44	0.0005304406
48	0x3bf81788	0.0075711645
49	0xba793fb8	-0.0009508091
50	0xbce79280	-0.028268099
51	0x3a784540	0.0009470768
52	0xbc283021	-0.010265381
53	0xbce7cbfa	-0.028295506
54	0xbd13dac4	-0.036097303
55	0xbc155826	-0.0091152545
56	0xbc8b1e93	-0.016982352
57	0xbc17dd20	-0.009269029
58	0xbce57bd1	-0.028013142
59	0x3c9c5fad	0.01908859
60	0xbc25ddb0	-0.010123655
61	0x3ccb1a17	0.024792714
62	0x3cec324d	0.028832579
63	0xb98a8dbc	-0.00026427011
64	0x3d115789	0.03548387
65	0x3c5ad267	0.013355828
66	0x3cad3d83	0.021147495
67	0x3c939739	0.018016445
68	0xbc686660	-0.014184564
69	0x3b40aa24	0.0029398287
70	0xbc2c347c	-0.01051056
71	0x3ca3d25e	0.019997772
72	0xbb2115e4	-0.0024579698
73	0x3c0238ae	0.007948084
74	0x3d0439a7	0.032281544
75	0x3c1c35bd	0.009534297
76	0x3c15e028	0.009147681
77	0xbc549ed5	-0.012977322
78	0x3c6e27aa	0.014535824
79	0xbd18a220	-0.03726399
80	0x3b54140d	0.0032360584
81	0x3cd86915	0.026417295
82	0x3b9addea	0.0047261612
83	0x3cb1ca11	0.021702798
84	0x3c97d556	0.018534344
85	0x3c5ed8a3	0.013601455
86	0x3badfe45	0.0053098523
87	0xbc8b5e7e	-0.01701283
88	0x3ba1370b	0.0049198917
89	0x3c0ae991	0.008478538
90	0xbc4234d0	-0.011853412
91	0x3cc443ff	0.023958204
92	0xbb842bc1	-0.004033536
93	0xbc1f981d	-0.0097408565
94	0xbc5c7d34	-0.013457585
95	0x3be61b13	0.0070222705
96	0xbc5bb971	-0.013410912
97	0xbcc69870	-0.02424261
98	0x3c1e34e0	0.009656161
99	0x3cb0d63e	0.021586534
100	0x3c8d090f	0.017216234
101	0xbc804d5e	-0.015661892
102	0xbc51bef0	-0.012801871
103	0xba6af932	-0.00089635246
104	0x3ccb9340	0.024850488
105	0x3d3e2535	0.046422202
106	0xba3cc5ee	-0.00072011247
107	0x3cd3bc12	0.025846515
108	0x3ca106d3	0.019656574
109	0x3be0d3a5	0.0068611675
110	0xbc0e0167	-0.0086673265
111	0x3d4b51fb	0.04963873
112	0xbb04ee95	-0.0020283808
113	0xbd102bed	-0.03519814
114	0x3b84cda6	0.0040528355
115	0xb91d503e	-0.0001500258
116	0x3c7df063	0.015499207
117	0x3c8c0bb8	0.017095432
118	0x3c14a2bb	0.009072001
119	0x3aedf590	0.0018154848
120	0x3d37ab08	0.044840842
121	0xbd12a715	-0.035803873
122	0x3c1cb793	0.009565252
123	0x3bf36c98	0.007428717
124	0x3ce6ae97	0.028159423
125	0x3bb2bce2	0.0054546455
126	0x3c8bdc4f	0.017072825
127	0x3c724fda	0.014789546
128	0x3a430107	0.0007438813
129	0x3c8104f6	0.015749436
130	0x3c87a1f3	0.016556716
131	0x3bd89880	0.0066099763
132	0x3c98cc8f	0.018652229
133	0x3c0413e7	0.008061386
134	0x3b06f576	0.0020593083
135	0x3d03b094	0.03215082
136	0x3c2e48da	0.010637486
137	0x3c1febec	0.009760838
138	0xbc2c16b6	-0.010503462
139	0x3c0b5223	0.00850347
140	0xbcfbd1d4	-0.030739702
141	0xbd166b25	-0.036723275
142	0x3d040bae	0.0322377
143	0xbb8f4510	-0.0043722466
144	0x3c00a07d	0.007850763
145	0xbbe7767f	-0.0070636864
146	0x3bb81755	0.005618016
147	0xbab5daae	-0.0013874376
148	0x3b8dcc78	0.004327353
149	0x3c1fa990	0.009745017
150	0xba74f818	-0.000934483
151	0xbc810f71	-0.015754433
152	0xbc977a8b	-0.01849105
153	0x3c539f6c	0.012916427
154	0xbd37873d	-0.044806708
155	0x3b7bf58f	0.0038445925
156	0x3d4a70f5	0.04942413
157	0x3ca97cf9	0.020689474
158	0xbcb81b98	-0.022474095
159	0xbcff4278	-0.031159624
160	0xbc690c88	-0.014224179
161	0xbb50e976	-0.0031877435
162	0xbd20397a	-0.039117314
163	0x3c8b4190	0.016999036
164	0x3c8c4722	0.017123763
165	0xbb54702d	-0.0032415495
166	0xbb3e2507	-0.002901377
167	0x3d1e9972	0.038720556
168	0xbca1cbd6	-0.019750517
169	0xbc25e23b	-0.010124738
170	0xbab1d49a	-0.0013567389
171	0xbc86fd80	-0.0164783
172	0xbca840b9	-0.020538675
173	0xbc9e927b	-0.019356957
174	0x3b493454	0.0030701356
175	0x3c3a3872	0.011365997
176	0x3d3a5218	0.045488447
177	0xba87c0be	-0.0010357124
178	0xbbcc44b1	-0.0062337746
179	0x3aeeda57	0.0018223029
180	0x3a9c9855	0.0011947254
181	0xbbff34a5	-0.007788258
182	0x3c086725	0.008325373
183	0x3d125cab	0.035732906
184	0xbbf3105c	-0.0074177217
185	0xbabc7990	-0.001437949
186	0x3bef613b	0.007305292
187	0x3cae90d5	0.021309296
188	0x3ae01d2f	0.0017098541
189	0xbc908288	-0.017640367
190	0x3bbda627	0.005787629
191	0x3d200f09	0.03907684
192	0xbc05ddbe	-0.008170543
193	0xb9695389	-0.00022251731
194	0x3b07fcb9	0.002075
195	0xbae0253e	-0.0017100943
196	0x3c905f04	0.017623432
197	0x3cb68e1e	0.022284564
198	0x3b2fa489	0.0026800951
199	0x3a327662	0.00068078015
200	0x3d040653	0.032232594
201	0x3cbf2834	0.0233346
202	0x3c994d01	0.018713476
203	0xbcdc15ac	-0.026865803
204	0x3d03590e	0.03206735
205	0x3abd0463	0.0014420863
206	0x3c4c0c3e	0.012454091
207	0xbc0245d8	-0.007951222
208	0xbcc00317	-0.023438973
209	0xbbabb4ce	-0.0052400595
210	0xbb6efa1c	-0.0036464995
211	0x3af86fbc	0.0018954198
212	0x3cecdc3a	0.028913606
213	0xbb8da713	-0.0043228953
214	0xbcb8d616	-0.022563022
215	0xbc131821	-0.008977921
216	0x3bf4d013	0.0074710934
217	0xbbf3957c	-0.0074335914
218	0xbc874978	-0.016514525
219	0x3c2a5e50	0.010398462
220	0x3c78f958	0.015196167
221	0x3b517508	0.0031960625
222	0x3c047d46	0.008086508
223	0x3ae3dc1d	0.0017384324
224	0x3bb2cb86	0.005456391
225	0xbd020ace	-0.031748585
226	0x3bbf020b	0.005829101
227	0x3be7c594	0.0070731137
228	0xbba87c56	-0.005141775
229	0xbb9b837e	-0.0047458997
230	0xbcbbeafa	-0.022939194
231	0xbc438b05	-0.011935
232	0x3a2c9250	0.00065830816
233	0xbc9a5ef5	-0.018844107
234	0xbc3c7c6c	-0.011504274
235	0xbcb6bb50	-0.022306114
236	0xbc532964	-0.012888286
237	0x3bf80c5a	0.007569832
238	0xbbd1fbcc	-0.0064081904
239	0x3a73bc54	0.00092977774
240	0xbc09df30	-0.008415028
241	0xbc81b7dd	-0.015834743
242	0xba22f544	-0.0006216357
243	0xbcdacd9e	-0.026709374
244	0x3ba13c63	0.0049205287
245	0x3d093262	0.033495314
246	0x3cfd9741	0.030955913
247	0x3c3ac486	0.011399394
248	0x3ba7b1d5	0.005117635
249	0xbc9483de	-0.018129285
250	0x3c89cbf9	0.016820895
251	0x3d0561d4	0.032564
252	0x39f2ad7c	0.00046287093
253	0x3ca6c291	0.020356448
254	0x3c8f5d03	0.017500406
255	0x3d143c49	0.036190305

action_model._continuous_distribution.mu.bias f4 [2]
0	0x3a48cf93	0.00076603255
1	0x3ba7afb8	0.005117383
