Goodminton/Assets/Scripts/FollowSphere.onnx (onnx, 74586 bytes, 7 tensors)

network_body._body_endoder.seq_layers.0.weight f4 [128, 5]
0	0x3cd1e41c	0.025621466
1	0xbe2b4cf4	-0.16728574
2	0x3e9c3a2e	0.30513138
3	0xbec59a63	-0.3859435
4	0xbf01c8db	-0.50697106
5	0x3edf9432	0.43667752
6	0xbf1218fd	-0.5706938
7	0x3e170af1	0.14750268
8	0x3eb5f312	0.3553701
9	0xbe547e86	-0.2075139
10	0x3e3ef582	0.18648341
11	0x3f3ce028	0.73779535
12	0xbe3c662f	-0.18398355
13	0xbefb74d9	-0.49112585
14	0x3f0cb0a9	0.5495706
15	0xbd99ded5	-0.07513205
16	0x3b4d9459	0.003136894
17	0xbe974061	-0.29541305
18	0x3ce9b5e9	0.028529124
19	0x3f8f2cba	1.1185524
20	0xbe4a72de	-0.19770381
21	0xbf834f5f	-1.0258597
22	0xbec525b9	-0.38505343
23	0xbf3ad96c	-0.7298801
24	0xbd0b61ae	-0.0340287
25	0xbf3e5b37	-0.7435793
26	0x3cf0085e	0.029300865
27	0xbe0147eb	-0.12625091
28	0xbe021919	-0.12704886
29	0x3e44e37a	0.192274
30	0xbece811f	-0.40332887
31	0xbe604704	-0.2190209
32	0xbd8c3703	-0.0684643
33	0x3e40dd9a	0.18834534
34	0x3ea11fb5	0.31469503
35	0xbdc9dad4	-0.09856191
36	0xbe622d9a	-0.22087708
37	0x3e160ffe	0.14654538
38	0xbf8ec785	-1.1154639
39	0xbdf583bc	-0.11988017
40	0x3c8d6689	0.017260807
41	0xbde80c97	-0.11330526
42	0x3bf3cebe	0.007440417
43	0x3f2d0029	0.6757837
44	0xbf4b426a	-0.79398215
45	0x3eca4ed8	0.39513278
46	0xbe9e6a97	-0.30940697
47	0x3c01baea	0.007918099
48	0x3f3cb6fa	0.737167
49	0xbc6bf12a	-0.01440076
50	0xbf01b26d	-0.5066288
51	0xbe1b48d6	-0.15164503
52	0xbd735d53	-0.059415173
53	0x3efc7cc9	0.49313954
54	0xbf1584bf	-0.5840568
55	0x3ddb4385	0.10706238
56	0x3ed10bef	0.40829417
57	0xbe013759	-0.1261877
58	0x3ebff932	0.37494808
59	0x3e9a5b6f	0.30147883
60	0xbd8b2324	-0.06793812
61	0x3e3e7179	0.18597974
62	0xbdef2fcf	-0.11679041
63	0x3e9c3bd6	0.305144
64	0xbea5fb18	-0.32418132
65	0xbe126e32	-0.14299849
66	0x3e453f94	0.19262534
67	0xbcef49d0	-0.029210001
68	0xbf11185e	-0.56677806
69	0x3e053875	0.13009818
70	0xbe4629cd	-0.19351883
71	0xbe62c30c	-0.22144717
72	0xbcff9aa9	-0.031201677
73	0xbf3a6dff	-0.7282409
74	0xbeedc9a6	-0.46442908
75	0x3cad7fe9	0.021179156
76	0x3e998cd0	0.29990244
77	0xbdcfb89a	-0.10142632
78	0xbd195632	-0.037435718
79	0xbe00cfc4	-0.12579256
80	0xbf218c8c	-0.6310508
81	0x3dd85498	0.1056301
82	0x3f19c294	0.6006253
83	0xbe89f400	-0.2694397
84	0x3f242818	0.6412368
85	0x3d755baa	0.05990187
86	0x3e67ee8e	0.22649595
87	0x3e243cb4	0.16038781
88	0xbf4e3f5e	-0.8056544
89	0x3e859a1d	0.26094142
90	0xbe44f44b	-0.19233815
91	0xbf490dc3	-0.78536624
92	0xbeae269a	-0.34013826
93	0xbf2f5de0	-0.68502617
94	0x3ea45394	0.32095015
95	0x3eef332b	0.46718726
96	0x3eec74e7	0.4618294
97	0x3e942354	0.28933203
98	0xbe1ae61c	-0.15126842
99	0xbf018bf6	-0.5060419
100	0xbe42da76	-0.19028649
101	0xbccb0128	-0.024780825
102	0xbe767934	-0.24069673
103	0xbcc8435a	-0.024446178
104	0x3f092169	0.53566605
105	0x3ebc1726	0.3673641
106	0xbea72908	-0.32648492
107	0x3e927a77	0.28609058
108	0xbee53f88	-0.44775033
109	0x3ebacc78	0.36484122
110	0xbc3b1332	-0.011418151
111	0xbe15659b	-0.1458954
112	0x3f26b9df	0.65127367
113	0x3ed87ba7	0.4228184
114	0xbd73e605	-0.059545536
115	0x3f055591	0.5208369
116	0x3e113db4	0.14183694
117	0xbf38dea0	-0.722147
118	0xbf597d6f	-0.8495702
119	0x3f0d9f8f	0.5532159
120	0x3f220fc9	0.63305336
121	0xbeaf3005	-0.34216323
122	0xbc709b41	-0.014685453
123	0xbe628cec	-0.2212407
124	0xbda50901	-0.08058358
125	0xbe47fb13	-0.19529371
126	0xbee73c0c	-0.45163
127	0xbf60e91b	-0.8785569
128	0xbd772d02	-0.060345657
129	0xbc75615b	-0.014976825
130	0x3e9ba7bd	0.30401412
131	0x3eac7465	0.33682552
132	0x3f6e4b25	0.9308341
133	0xbf246cd3	-0.6422855
134	0x3e83a74f	0.25713584
135	0xbe389ce7	-0.18028603
136	0x3d5e2143	0.05423094
137	0x3f0bd710	0.54625034
138	0x3d505fd4	0.05087264
139	0xbe3bfa20	-0.18357134
140	0x3f36c9fb	0.7140195
141	0x3dce159f	0.10062718
142	0x3f9655cd	1.1744934
143	0x3d2cb5cf	0.042165574
144	0xbd904155	-0.07043711
145	0x3cf490ab	0.02985414
146	0xbf14497f	-0.57924646
147	0xbf1d461d	-0.6143511
148	0x3c9aeeb0	0.018912643
149	0x3f177cab	0.59174603
150	0xbd7431f4	-0.05961795
151	0x3e95e3dd	0.29275408
152	0x3ebc276e	0.36748832
153	0x3f05a813	0.52209586
154	0xbef81c39	-0.48459032
155	0x3ed35b11	0.41280416
156	0xbda8cc63	-0.08242109
157	0xbe95d5b9	-0.2926462
158	0xbede49f5	-0.434158
159	0xbe23139d	-0.1592545
160	0x3ef04226	0.46925467
161	0xbf872893	-1.0559257
162	0x3ee14b39	0.44002703
163	0xbe02b325	-0.1276365
164	0xbd58797c	-0.05285023
165	0x3f3e0259	0.7422233
166	0xbeb6ca31	-0.35701135
167	0x3f0b8b45	0.54509383
168	0xbda3fa73	-0.08006754
169	0x3ecc26de	0.39873403
170	0xbeefc790	-0.46831942
171	0xbf14a213	-0.58059806
172	0x3e9b0d63	0.3028365
173	0x3e85328b	0.26015124
174	0xbe599a23	-0.21250205
175	0xbf32ea38	-0.6988864
176	0xbced3392	-0.028955255
177	0x3f77a850	0.967412
178	0xbe83a6d3	-0.25713214
179	0xbe24f6f8	-0.16109836
180	0x3f0b0b7b	0.5431439
181	0xbf56a94b	-0.8385207
182	0x3eee2b39	0.4651735
183	0x3e8d0683	0.2754403
184	0xbe774a62	-0.24149469
185	0xbdf31d82	-0.118708625
186	0xbebed660	-0.3727293
187	0xbf5bc0dc	-0.85841155
188	0x3e4eef94	0.2020858
189	0x3e0585df	0.13039349
190	0xbedf3cce	-0.43601078
191	0x3f878c64	1.0589719
192	0xbf371e45	-0.7153056
193	0x3e9d0c52	0.30673462
194	0xbed4f9b9	-0.41596773
195	0x3edf3819	0.43597487
196	0xbf7a97b8	-0.97887754
197	0xbe8485de	-0.25883383
198	0xbdb0b70f	-0.08628666
199	0xb9faf6c7	-0.0004786758
200	0xbed38e1e	-0.41319364
201	0xbe9d5965	-0.30732265
202	0xbf04040e	-0.51568687
203	0x3dd13855	0.102158226
204	0x3e19f624	0.15035301
205	0x3f1124e3	0.5669691
206	0x3f0f1ff6	0.55908144
207	0xbe6f7159	-0.23383082
208	0xbf5495c5	-0.8304103
209	0x3f27e496	0.6558317
210	0xbf05c7a9	-0.5225778
211	0x3b97db3d	0.0046342895
212	0x3ec918c7	0.39276716
213	0x3ede1eed	0.4338297
214	0xbe260cdd	-0.16215844
215	0x3f5f8f8f	0.8732843
216	0x3e7e8fe7	0.24859582
217	0xbee94c5f	-0.4556608
218	0x3f7e992f	0.9945249
219	0x3f1bca72	0.6085578
220	0xbf5f8a8e	-0.8732079
221	0xbf733262	-0.94998753
222	0xbe4f9f3c	-0.20275587
223	0xbe829cf5	-0.25510374
224	0x3e9e8ab2	0.3096519
225	0xbd0a6e85	-0.033796806
226	0x3cd58347	0.026063574
227	0x3f055133	0.52077025
228	0x3eccde9b	0.40013584
229	0xbf8b3d05	-1.0877997
230	0xbed894ab	-0.42300925
231	0x3f36fe4b	0.7148177
232	0xbf29aefe	-0.6628264
233	0x3dce15c6	0.10062747
234	0xbe7bcb42	-0.24589255
235	0x3e6ac956	0.22928366
236	0x3e53f92c	0.2070052
237	0xbf0c58c5	-0.5482295
238	0xbf67750a	-0.9041296
239	0xbe697b15	-0.22800858
240	0x3d3c23cb	0.045932572
241	0x3f1d158d	0.6136101
242	0x3e6ba0a7	0.23010503
243	0x3bb60a15	0.005555401
244	0xbe960e80	-0.29307938
245	0xbd890ede	-0.06692289
246	0xbeb592c9	-0.3546355
247	0x3df3c507	0.11902814
248	0x3ee620d6	0.44946927
249	0xbed2bd72	-0.4116016
250	0xbcbceec4	-0.023063071
251	0xbe3c06a7	-0.18361913
252	0xbdfb27a6	-0.12263422
253	0xbf40f6e6	-0.7537674
254	0xbd6f3a5e	-0.058405273
255	0xbea64763	-0.3247634

network_body._body_endoder.seq_layers.0.bias f4 [128]
0	0x3d1165fb	0.035497647
1	0x3bf58266	0.0074923513
2	0xbd22bd34	-0.03973122
3	0xbd7e14f9	-0.06203172
4	0x3d6f06c3	0.058356058
5	0xbd172c48	-0.036907464
6	0xbe4cb79e	-0.1999192
7	0x3cce0c7e	0.025152441
8	0x3dc95110	0.098299146
9	0x3cb522d5	0.022111336
10	0xbb558846	-0.0032582446
11	0xbcfa25a3	-0.030535525
12	0x3ab4e61b	0.0013801487
13	0xbd8e288d	-0.06941328
14	0x3d97040c	0.07373819
15	0x3d314fde	0.043289058
16	0xbd85a792	-0.06526102
17	0x3b9469f5	0.0045292326
18	0xbd7f2a0d	-0.062295962
19	0x3d9c4f25	0.07632283
20	0xbd0bb18d	-0.034104872
21	0xbcfa24ee	-0.030535188
22	0x3b6fca3e	0.0036589052
23	0x3c760c94	0.015017647
24	0xbdcdb42a	-0.10044129
25	0x3cb12183	0.021622425
26	0x3cbcd305	0.02304984
27	0x3d983b44	0.07433179
28	0x3ddbdd6f	0.107355945
29	0xbc6deb16	-0.014521381
30	0xbcb8b3a2	-0.022546593
31	0x3bb708e6	0.0055857776
32	0x3c96d167	0.018410398
33	0x3dde108f	0.10843002
34	0xbcb1873c	-0.02167093
35	0x3cff8c1b	0.031194737
36	0x3da9b968	0.082873166
37	0x3d70b2be	0.05876421
38	0x3c946d21	0.018118443
39	0x3b84b088	0.0040493645
40	0xbcdecd99	-0.027197646
41	0xbc5c065c	-0.013429251
42	0xbc9e2a9d	-0.019307429
43	0x3d378359	0.044802997
44	0xbdb2336f	-0.087012164
45	0x3deee80c	0.11665353
46	0x3c83b1bd	0.016075963
47	0x3d145bde	0.036220424
48	0x3d470e27	0.04859748
49	0x3dba532c	0.09097895
50	0x3d251798	0.040305704
51	0xbcfa2b81	-0.030538322
52	0x3d2bff8d	0.04199176
53	0xbd8b97f3	-0.068160914
54	0x3b7a31b2	0.0038176593
55	0x3d6d09f8	0.057870835
56	0x3ce7ff20	0.028319895
57	0xbd7b450f	-0.061345156
58	0x3dbbe328	0.09174186
59	0xbcc6ae42	-0.024253014
60	0x3d1a6fc8	0.03770426
61	0xbd569668	-0.052389532
62	0x3c49cdac	0.012317102
63	0x3dadfed1	0.08495868
64	0xbdac7d63	-0.08422353
65	0xbd20668b	-0.039160293
66	0x3d4eecf6	0.050518952
67	0xbcd55f00	-0.026046276
68	0x3d9f93e2	0.07791878
69	0xbc59f099	-0.013301992
70	0x3d1954cf	0.037434395
71	0x3d427be4	0.047481433
72	0x3d608f58	0.054824203
73	0xbd50e364	-0.050998107
74	0xbdba8bcb	-0.09108695
75	0x3cb52fa3	0.022117442
76	0x3d1d55ec	0.03841202
77	0xbd0a9bb9	-0.033839915
78	0xbca42dd5	-0.020041386
79	0xbe0728c3	-0.13199143
80	0xbd0f6c99	-0.035015676
81	0x3d27dbd3	0.040981125
82	0x3dd83d3e	0.10558556
83	0x3d12e718	0.03586492
84	0xbd2596c8	-0.040427
85	0x3d9d0a2c	0.07667956
86	0xbd145699	-0.0362154
87	0xbcc317b4	-0.023815013
88	0xbd8dd36b	-0.069250904
89	0x3cbb7f45	0.022887835
90	0xbdafe296	-0.0858814
91	0x3d83534b	0.06412371
92	0xbc4bf3ed	-0.012448293
93	0x3c57b5f9	0.013165944
94	0xbda77d89	-0.08178241
95	0xba0a47d1	-0.00052749837
96	0x3c4392d8	0.011936866
97	0x3c28ff5d	0.01031479
98	0xbd4e068c	-0.050299212
99	0xbda8d6dc	-0.08244106
100	0xbdac8af5	-0.084249415
101	0x3a5d6127	0.0008444958
102	0xbd4c76b5	-0.049917895
103	0xbbc04ffb	-0.0058689094
104	0xbc822900	-0.015888691
105	0xbda9aea0	-0.0828526
106	0x3d6dd87f	0.058067795
107	0x3bd0945d	0.0063653425
108	0x3d7b8234	0.06140347
109	0x3cc30ce6	0.023809861
110	0x3bed3b2b	0.0072397194
111	0xbc3e62be	-0.011620222
112	0x3c39e1c5	0.011345332
113	0x3d5e38ce	0.054253392
114	0x3d80b298	0.06284064
115	0x3db679ee	0.08909975
116	0xbd534d7f	-0.051587578
117	0x3d368964	0.04456462
118	0x3cedafe2	0.029014532
119	0x3d61e2ac	0.05514781
120	0xbd8c6b87	-0.06856447
121	0xbd17c151	-0.037049595
122	0xbd3174d5	-0.04332431
123	0xbd6a671d	-0.057227243
124	0xbc5d20d2	-0.0134965945
125	0xbd9a7cee	-0.0754336
126	0xbdc06531	-0.09394301
127	0x3dd9c04c	0.10632381

network_body._body_endoder.seq_layers.2.weight f4 [128, 128]
0	0x3e56b92b	0.20969073
1	0xbd918f59	-0.071074195
2	0xbe36c27d	-0.17847629
3	0xbe7fd70b	-0.24984376
4	0xbd5fbc7a	-0.054623105
5	0x3c89fd5c	0.016844444
6	0xbd8b4cd2	-0.06801762
7	0xbd4fa83d	-0.050697554
8	0xbd33950e	-0.04384332
9	0xbdc6ee23	-0.0971339
10	0xbce8b62a	-0.028407175
11	0xbdabb356	-0.08383815
12	0x3d909f49	0.07061631
13	0x3c5dcb4b	0.013537238
14	0xbe23a2ae	-0.15980026
15	0x3dac684c	0.084183306
16	0xbdc4877c	-0.09596154
17	0x3e2b937e	0.16755483
18	0xbddfbdf1	-0.109249
19	0x3dde585e	0.108566985
20	0xbdc566d7	-0.09638756
21	0x3cfbc60d	0.030734086
22	0xbdc99402	-0.098426834
23	0x3db1d769	0.08683664
24	0xbd8a5de7	-0.06756192
25	0xbd05b292	-0.032641
26	0x3cfca105	0.030838499
27	0x3e4c6468	0.19960177
28	0xbdfd3421	-0.123634584
29	0xbca2f502	-0.01989222
30	0x3d4c3904	0.04985906
31	0xbd05e3b9	-0.032687876
32	0x3d39a286	0.04532101
33	0x3ded16f1	0.11576641
34	0xbd7b55ee	-0.061361246
35	0xbcdb3600	-0.026759148
36	0x3d6b3170	0.057420194
37	0xbdf89609	-0.12137992
38	0x3d0ae64f	0.033911046
39	0xbce92518	-0.02846007
40	0xbe0867b2	-0.13320807
41	0xbc69f7a3	-0.014280233
42	0x3c55fa3a	0.013060147
43	0xbd3ea33c	-0.04654239
44	0xbddebb02	-0.10875513
45	0x3e5e6347	0.21717559
46	0xbd664c79	-0.056225274
47	0x3d14f2b2	0.036364265
48	0xbdb607d9	-0.088882156
49	0x3c3bf285	0.011471395
50	0x3c3ecce7	0.011645532
51	0x3d06951d	0.03285705
52	0xbd82ccd4	-0.06386724
53	0xbe134c29	-0.14384522
54	0x3cb25a7f	0.021771668
55	0xbd0b7077	-0.0340428
56	0x3d854ac9	0.06508405
57	0xbe006d83	-0.12541775
58	0x3e2638c0	0.16232586
59	0xbdc611df	-0.096713774
60	0x3d82c33f	0.063848965
61	0xbd8b0057	-0.06787174
62	0x3c969a93	0.018384254
63	0x3cdb49ae	0.026768532
64	0xbde18edd	-0.11013577
65	0xbda5f82b	-0.08103975
66	0x3de87d6a	0.11352046
67	0xbe023e35	-0.12719043
68	0xbd9b266d	-0.075756885
69	0xbbbc5783	-0.005747737
70	0x3d9b8af8	0.075948656
71	0xbdd3f7b0	-0.10349977
72	0xbdd266ab	-0.102734886
73	0x3d9f89a2	0.07789923
74	0x3d918f13	0.07107367
75	0x3d17b1ef	0.037034925
76	0xbd2d677e	-0.042335026
77	0x3d270444	0.040775552
78	0xbc9dd6c9	-0.019267457
79	0xbe2cc20d	-0.168709
80	0x3d673fa7	0.056457188
81	0xbd804766	-0.06263618
82	0xbd9a630a	-0.075384215
83	0x3d0cb0ca	0.034348287
84	0x3d88a42e	0.0667194
85	0xbddb6f87	-0.107146315
86	0x3cd57b98	0.02605991
87	0x3d065a75	0.03280111
88	0x3a929ff5	0.0011186587
89	0xbd14132d	-0.0361511
90	0xbd8b3ae9	-0.067983456
91	0x3d68fb3d	0.056880224
92	0x3db33230	0.08749807
93	0x3d9c4ff1	0.07632435
94	0xbcf393b5	-0.029733518
95	0xbd845654	-0.06461778
96	0x3e358697	0.17727123
97	0xbdc7f679	-0.09763808
98	0xbd0be210	-0.034151137
99	0xbcb3bdc2	-0.02194107
100	0xbdaccdac	-0.08437666
101	0x3dcf9277	0.10135358
102	0x3d563972	0.052300878
103	0xbd909be0	-0.07060981
104	0xbd2ab99d	-0.04168092
105	0xbe0f7397	-0.14008938
106	0x3d973990	0.07384026
107	0xbd9328db	-0.07185527
108	0x3da791c5	0.081821
109	0x3d6bd367	0.057574656
110	0x3dfc1dcc	0.12310371
111	0x3dac11ea	0.08401854
112	0x3ca1ea2b	0.01976498
113	0x3df1e1d1	0.11810649
114	0x3db224a8	0.08698398
115	0x3d7a00bb	0.061035853
116	0xbcd64360	-0.026155174
117	0xbd209a50	-0.039209664
118	0xbddb2a46	-0.107014224
119	0xbc8faa9a	-0.017537404
120	0xbcb6dff9	-0.022323595
121	0xbe445421	-0.19172718
122	0xbe04ad55	-0.12956746
123	0x3ca34e58	0.019934818
124	0xbd2395b8	-0.039937705
125	0x3cea6455	0.028612295
126	0x3ce05fcd	0.027389431
127	0x3d26d899	0.040733907
128	0xbe5979ea	-0.21237913
129	0x3ccaa795	0.024738112
130	0x3c8b6aa8	0.017018631
131	0xbc62b709	-0.013837584
132	0xbd2e0157	-0.042481747
133	0x3c8b6a40	0.017018437
134	0x3dd9fa3c	0.106434315
135	0xbe78d0c3	-0.24298386
136	0xbdbfa1b1	-0.09357012
137	0x3dd9c8aa	0.10633977
138	0x39dfcf6f	0.00042688425
139	0x3dfd3c39	0.12365002
140	0x3e0fe1a9	0.14050926
141	0xbcc41578	-0.023936018
142	0xbe39b9a0	-0.18137217
143	0x3d19099a	0.037362672
144	0xbdab6b30	-0.08370054
145	0xbdfabf51	-0.12243522
146	0x3c3ab059	0.011394584
147	0xbe2f92d6	-0.17145857
148	0xbe0e5b87	-0.13902102
149	0xbe344f8e	-0.17608473
150	0xbe382f6b	-0.17986839
151	0x3db258ae	0.087083206
152	0x3dca2db6	0.09872
153	0xbdbb7f1e	-0.09155105
154	0xbd831af9	-0.06401629
155	0xbd2edd8f	-0.042691763
156	0xbdb94000	-0.0904541
157	0x3de05827	0.10954314
158	0xbdbd20af	-0.092347495
159	0xbd8cb9d5	-0.06871382
160	0x3d51f24a	0.051256455
161	0xbe02637c	-0.12733263
162	0xbd6b1df1	-0.0574016
163	0x3d97af56	0.074064896
164	0x3ddf3098	0.108979404
165	0xbdd717b2	-0.105025664
166	0xbd76f822	-0.06029523
167	0xbe172d8d	-0.1476347
168	0x3d31ee88	0.04344037
169	0xbd8d6ea3	-0.06905868
170	0xbe0aee81	-0.13567545
171	0x3db1817e	0.08667277
172	0xbdbc3cd6	-0.09191291
173	0xbdc86f35	-0.09786836
174	0x3dbe0255	0.092777885
175	0x3e10e027	0.14148007
176	0xbe03fc6d	-0.12889262
177	0x3dcf531e	0.10123275
178	0xbd79ae2b	-0.060957115
179	0xbd54917f	-0.05189657
180	0xbcdf2332	-0.027238462
181	0xbda20cc5	-0.07912592
182	0x3db48a65	0.08815459
183	0x3e6144b0	0.21998858
184	0x3d83ef09	0.06442077
185	0xbd8b1cf8	-0.06792635
186	0xbd1cc2b9	-0.03827164
187	0x3de81da7	0.11333781
188	0xbd280215	-0.04101761
189	0xbd85709b	-0.065156184
190	0xbc9ce1b7	-0.019150598
191	0xbb8d1dbb	-0.0043065227
192	0x3d59327c	0.05302666
193	0xbe19a321	-0.15003635
194	0xbdb33016	-0.08749406
195	0x3e5bf737	0.21481024
196	0x3d16522e	0.036699466
197	0x3dbfd971	0.093676455
198	0xbe0e4d20	-0.13896608
199	0x3d21009b	0.039307218
200	0x3bcd3716	0.0062626703
201	0x3ded58a3	0.11589172
202	0x3e8c5011	0.27404836
203	0x3d135e83	0.035978805
204	0xbe074822	-0.1321111
205	0x3d9e9323	0.07742908
206	0xba448e2e	-0.0007497993
207	0xbd6baf65	-0.057540316
208	0xbd8443ee	-0.06458269
209	0x3d6a723d	0.057237852
210	0xbd82ec79	-0.0639276
211	0x3d80d5a1	0.062907465
212	0x3c467d37	0.0121148145
213	0xbd5fd621	-0.05464757
214	0x3dcfe65a	0.10151358
215	0x3ca2ebcc	0.019887827
216	0x3daf67c9	0.08564717
217	0x3dad59b8	0.08464378
218	0xbca9faec	-0.020749532
219	0xbdecbf1d	-0.115598895
220	0x3cd4aaba	0.025960315
221	0xbe0306d2	-0.1279557
222	0x3ae8ab47	0.001775124
223	0x3d7db243	0.06193758
224	0xbd828b19	-0.06374187
225	0xbb5ac992	-0.0033384305
226	0x3dd9f030	0.10641515
227	0xbb84337d	-0.004034458
228	0xbdd99794	-0.10624614
229	0x3da2fc66	0.079582974
230	0x3df73042	0.12069751
231	0x3d1b5f84	0.037932888
232	0x3e1516a3	0.14559416
233	0xbde22380	-0.11041927
234	0xbdd6f3eb	-0.104957424
235	0x3e2fd0aa	0.17169443
236	0xbe7ec102	-0.24878314
237	0x3d417a8a	0.047236003
238	0xbe0e6287	-0.13904773
239	0xbdb32629	-0.08747513
240	0xbe392de2	-0.18083909
241	0xbd6e5a52	-0.058191605
242	0xbda9e6a5	-0.08295945
243	0xbe38b7db	-0.18038885
244	0x3c225ac6	0.009909337
245	0x3e49056d	0.19630976
246	0xbda99ca5	-0.08281831
247	0xbdbcf8e8	-0.092271626
248	0xbbd8f019	-0.0066204187
249	0x3e2a4ac3	0.16630082
250	0xbd873ae8	-0.06603032
251	0x3cddef31	0.027091594
252	0x3db038d1	0.08604587
253	0x3d5ca896	0.053871714
254	0xbdb92c2e	-0.0904163
255	0x3d26fb28	0.040766865

network_body._body_endoder.seq_layers.2.bias f4 [128]
0	0x3d9a18c1	0.07524253
1	0x3a939a38	0.0011261171
2	0x3d86a582	0.06574537
3	0x3d96ea33	0.07368889
4	0x3d5298d4	0.05141528
5	0xbd22c7db	-0.03974138
6	0xbe1a0021	-0.15039112
7	0x3bfe92e4	0.0077689756
8	0x3bc5dbc7	0.0060381624
9	0x3cf994fb	0.030466547
10	0xbc6aab0e	-0.014323009
11	0xbde69ca5	-0.11260346
12	0xbd20ec0c	-0.03928761
13	0xbca9ec94	-0.020742692
14	0x3d116d35	0.03550454
15	0x3bb876d9	0.005629402
16	0xbd33c11a	-0.043885328
17	0x3cf5e468	0.03001614
18	0x3c7b5583	0.015340212
19	0x3c36ea57	0.011164269
20	0xbc04bb64	-0.008101318
21	0xbda551f4	-0.08072272
22	0xbd54b3dd	-0.051929343
23	0xbd5dc146	-0.054139398
24	0x3c1dca48	0.009630747
25	0xbe53ec80	-0.20695686
26	0x3dbfd284	0.093663245
27	0x3c935f21	0.017989697
28	0x3d1c8922	0.038216718
29	0x3cbcaf47	0.023032798
30	0xbcccd410	-0.025003463
31	0x3ce47adf	0.02789062
32	0xbe045d24	-0.12926155
33	0x3c54f5b4	0.012998033
34	0xbd0b9f6e	-0.03408759
35	0xbe29591a	-0.16537896
36	0x3d76f30e	0.06029039
37	0xbaa105fa	-0.0012285106
38	0x3d853940	0.0650506
39	0x3b8f641e	0.0043759486
40	0xbd20dbd5	-0.03927215
41	0x3d641db1	0.05569238
42	0xbe1e5c61	-0.15464927
43	0x3d0c46f3	0.03424735
44	0x3d602dde	0.054731242
45	0xbd2cd27d	-0.042192925
46	0xbe385b23	-0.18003516
47	0xbd2b1b79	-0.041774247
48	0x3ce53ed9	0.02798407
49	0xbcb8a5be	-0.02253997
50	0x3c0e5b14	0.008688707
51	0xbc796b7a	-0.015223378
52	0xbd9d87ec	-0.07691941
53	0xbd814230	-0.063114524
54	0xbd50916c	-0.050919935
55	0x3dbf65d4	0.09345594
56	0xbd5bcea2	-0.053663857
57	0x3e079bac	0.13242978
58	0xbcb3ea06	-0.021962177
59	0x3c69b7b1	0.014264987
60	0xbe240127	-0.16016065
61	0x3d7627d0	0.060096562
62	0x3d87177a	0.06596275
63	0xbd094d69	-0.03352109
64	0xbcee06ff	-0.02905607
65	0x3da909b6	0.08253805
66	0x3dc3cf8c	0.09561071
67	0xbe306ad5	-0.17228253
68	0x3d827307	0.06369596
69	0xbcc1cff7	-0.023658736
70	0x3c2d305e	0.010570614
71	0x3d198fca	0.037490644
72	0xbd9c2da5	-0.076258935
73	0xbe248dc4	-0.16069704
74	0x3be902e4	0.0071109403
75	0xbda8f8c9	-0.08250577
76	0x391592ea	0.00014264477
77	0xbd07152a	-0.032979168
78	0xbd8cff9b	-0.068846904
79	0xbce316e4	-0.027720876
80	0x3d297646	0.04137256
81	0xbd0eb399	-0.034839246
82	0xbba4ef66	-0.0050334213
83	0xbe2b428b	-0.16724603
84	0xbda71785	-0.08158783
85	0x3dbb721e	0.091526255
86	0xbc552914	-0.013010282
87	0xbc8bdb8f	-0.017072467
88	0xbcee0496	-0.029054921
89	0x3d33bce9	0.04388133
90	0xbd3ffc8c	-0.046871707
91	0xbc53936e	-0.012913568
92	0x3d16db8d	0.036830474
93	0xbdf105fd	-0.1176872
94	0xbc9fda0c	-0.019513153
95	0x3cbd23a1	0.023088278
96	0xbe2618e9	-0.1622044
97	0xbd0b522a	-0.034013905
98	0x3d82901b	0.06375142
99	0x3d3e871b	0.046515565
100	0xbe18da9d	-0.14927144
101	0x3d9e62e9	0.07733709
102	0x3dc49619	0.09598941
103	0x3ca29ea4	0.019851036
104	0x3bf22614	0.007389793
105	0xbe1ff5c4	-0.15621096
106	0x3ddbed9e	0.10738681
107	0x3db6ea5c	0.08931419
108	0x3c73e041	0.014885009
109	0xbd8cc31c	-0.06873152
110	0x3d64f8c4	0.055901304
111	0x3d914f37	0.07095187
112	0x3c488dab	0.0122408075
113	0x3d62b19a	0.055345155
114	0xbe2868d1	-0.16446234
115	0xbe28d081	-0.16485788
116	0xbcb5c825	-0.022190163
117	0xbe247ad7	-0.16062485
118	0xbd5a4008	-0.05328372
119	0x3c60919f	0.013706594
120	0xbe19b764	-0.15011364
121	0xbca8409c	-0.02053862
122	0x3d1d9ffb	0.038482647
123	0xbd86d0ce	-0.06582795
124	0x3dd53ad9	0.10411615
125	0xbd03d952	-0.032189675
126	0x3a73dd41	0.0009302684
127	0xbd27d7dc	-0.040977344

action_model._continuous_distribution.log_sigma f4 [1, 2]
0	0xbdf69909	-0.12040908
1	0xbcca5a71	-0.024701329

action_model._continuous_distribution.mu.weight f4 [2, 128]
0	0x3cac35f3	0.021021819
1	0xbd4e58ff	-0.050377842
2	0x3c977b1d	0.018491322
3	0xbcc85b03	-0.02445746
4	0x3d997370	0.07492721
5	0xbc8fd991	-0.017559798
6	0xbd1ea4e7	-0.038731482
7	0xba9ec99e	-0.001211453
8	0x3cbb985c	0.022899799
9	0xbd57b33d	-0.05266117
10	0x3cacfe7d	0.021117443
11	0xbb6ff581	-0.0036614838
12	0x3cd1eea8	0.025626495
13	0x3c9f977c	0.019481413
14	0xbccc569c	-0.024943642
15	0xb997262b	-0.00028829402
16	0xbd470270	-0.04858631
17	0x3db17ba5	0.086661614
18	0x3d8252f6	0.0636348
19	0x3d9faf17	0.077970676
20	0xbd318d4c	-0.04334764
21	0xbcb6b011	-0.022300752
22	0x3d457e51	0.048216168
23	0x3d53d886	0.051720165
24	0xbbe70b0c	-0.0070508774
25	0xbc7ab6f8	-0.015302412
26	0x3d5b6c14	0.05356987
27	0x3c44c814	0.012010593
28	0x3ce3c18a	0.027802248
29	0xbc2433a5	-0.010022079
30	0x3c90a86b	0.017658433
31	0xbbfbe535	-0.0076872357
32	0xbd63e25e	-0.055635802
33	0x3d222768	0.039588362
34	0xbc8721e1	-0.016495647
35	0xbc181992	-0.00928344
36	0xbd8c396a	-0.06846888
37	0x3d9ee556	0.07758586
38	0xbcc45752	-0.023967419
39	0xbd3b33f9	-0.04570386
40	0x3c98dcbf	0.018659947
41	0xbd7b6b0d	-0.06138139
42	0xbcaa0fb9	-0.02075945
43	0x3d9ac0ae	0.07556282
44	0xbd637aca	-0.055537023
45	0x3d6018c4	0.05471112
46	0xbcecf383	-0.02892471
47	0xbc5e2e06	-0.0135607775
48	0xbdbeca2e	-0.093159065
49	0x3b6df307	0.0036308186
50	0xbd51826a	-0.051149763
51	0x3ad2738d	0.0016056165
52	0xbbcebefd	-0.0063093887
53	0xbcbc321b	-0.02297311
54	0x3d67c349	0.056582723
55	0x3c9fd4a7	0.01951058
56	0xba90d81a	-0.0011050731
57	0xbdaf0971	-0.08546723
58	0x3dbeddd8	0.09319657
59	0xbcc76541	-0.024340274
60	0xbd03072d	-0.031989265
61	0xbde45fd3	-0.111510895
62	0xbd4eacef	-0.05045789
63	0x3cce2179	0.025162445
64	0x3bcc7f9f	0.0062407996
65	0x3ca1cd75	0.01975129
66	0xbd400791	-0.046882216
67	0xbb1149ed	-0.0022169307
68	0x3caf0ad1	0.021367462
69	0xbb42e263	-0.0029736988
70	0x3d6c0fee	0.05763238
71	0x3d383b00	0.04497814
72	0xbcdf8f68	-0.027290061
73	0xbc9c12ca	-0.019051928
74	0x3b8095f0	0.003924124
75	0xbcc8012f	-0.024414627
76	0x3d9b3790	0.07578957
77	0xbd0d379c	-0.03447686
78	0xbc7e49a4	-0.015520487
79	0x3d0c5a21	0.03426564
80	0xbd3c6a6f	-0.04599994
81	0xbbdc4a75	-0.006722743
82	0xbcc46f06	-0.023978721
83	0xbc9a00e3	-0.018799251
84	0x3c7c42ef	0.015396818
85	0x3cd45c9c	0.025923066
86	0x3b1e3742	0.0024141823
87	0x3c0627d1	0.008188204
88	0x3cf2a038	0.029617414
89	0x3b13e842	0.0022568856
90	0x3bcebc25	0.0063090497
91	0x3c4b991d	0.012426642
92	0xbd389868	-0.04506722
93	0x3bb24dde	0.0054414114
94	0xbd6fae1d	-0.058515657
95	0xbd7aec5a	-0.06126056
96	0xbce287a5	-0.027652571
97	0x3c0cd2d0	0.0085951835
98	0x3d81cc49	0.063377924
99	0x3cb3b84a	0.021938462
100	0xbc9d98e3	-0.019237941
101	0x3b9cf953	0.004790464
102	0x3cf68de0	0.030096948
103	0x3cbd3784	0.023097761
104	0x3bba25a6	0.0056807576
105	0xbd4fc8fc	-0.050728783
106	0xbd950910	-0.07277119
107	0xbd0234ec	-0.03178875
108	0xbda6205b	-0.0811164
109	0x3adef2c6	0.0017009608
110	0xbcaae321	-0.020860257
111	0x3b7b11f6	0.0038310266
112	0xbd830b52	-0.063986436
113	0x3c7a95cf	0.015294506
114	0xbc11a00e	-0.008888258
115	0xbcafae8f	-0.02144554
116	0x3d6aa654	0.05728753
117	0xbcdc83cf	-0.02691832
118	0xbc5fd3bb	-0.01366132
119	0xbd072784	-0.03299667
120	0x3bfa56d9	0.0076397476
121	0x3b90feb9	0.0044248966
122	0x3b8d8196	0.0043184264
123	0xbb24c3ec	-0.0025141193
124	0x3c08f6bb	0.008359606
125	0x3ced9b32	0.029004667
126	0xbd597930	-0.05309409
127	0xbd314c66	-0.04328575
128	0x3daeb560	0.08530688
129	0xbd86b174	-0.06576815
130	0x3d89536c	0.067053646
131	0x3d85c604	0.06531909
132	0x3d83c045	0.06433157
133	0xbce2ec64	-0.02770061
134	0xbd2c28b5	-0.04203101
135	0x3d37527a	0.04475639
136	0x3c6d2e14	0.014476318
137	0xbd380556	-0.044926964
138	0x3c44f943	0.012022319
139	0xbce8dbfe	-0.028425213
140	0xbcb3ca0b	-0.021946928
141	0xbc803b03	-0.015653139
142	0x3caa4197	0.020783229
143	0x3b6aed2a	0.0035846927
144	0xbc863fb9	-0.016387807
145	0x3d2a061b	0.04150973
146	0xbdf13d73	-0.11779299
147	0x3d35c00d	0.044372607
148	0xbce907b3	-0.028446054
149	0xbc9e19b3	-0.019299364
150	0xbd56d839	-0.0524523
151	0xbd47d0e6	-0.048783205
152	0x3d3af416	0.045642935
153	0xbd40b6ab	-0.047049206
154	0x3dbcf23d	0.09225891
155	0x3d07ff34	0.033202365
156	0x3d9d7cee	0.07689844
157	0xbde26633	-0.11054649
158	0xbaf43aa5	-0.00186332
159	0x3d88103a	0.0664372
160	0xbddffb2d	-0.1093658
161	0x3ce7492f	0.028233139
162	0xbd08d768	-0.033408552
163	0xbd1d853f	-0.03845715
164	0xbc225cb7	-0.0099098
165	0xbc8b9803	-0.017040258
166	0x3d804088	0.06262308
167	0xbc381799	-0.011236095
168	0xbe0ef0c1	-0.13959028
169	0x3c4d70c2	0.012539091
170	0xbdba274e	-0.09089528
171	0x3d8cdcdc	0.06878063
172	0x3d8d94e7	0.069131665
173	0x3b2dde7c	0.0026530316
174	0xbc68ade5	-0.014201616
175	0x3c675c6d	0.014121157
176	0x3cf4f379	0.029901253
177	0x3c23ffd8	0.010009728
178	0x3d2b4fc8	0.041824132
179	0x3d33e302	0.043917663
180	0xbc9fda30	-0.01951322
181	0xbc41fa4c	-0.011839461
182	0xbd994dc9	-0.074855395
183	0x3dd7e564	0.105418
184	0xbc6560c4	-0.0140001215
185	0x3d873f2f	0.06603848
186	0xbcdfa1da	-0.027298857
187	0xbc46f13f	-0.0121424785
188	0xbdadf04f	-0.08493101
189	0x3c9c785b	0.019100359
190	0x3d071906	0.03298285
191	0xbd242901	-0.040078167
192	0xbc4ebd9f	-0.012618451
193	0x3dbbd532	0.09171523
194	0x3d890dbc	0.06692073
195	0xbddaf8d5	-0.10691992
196	0x3d6a2957	0.05716833
197	0xbd8b3fa6	-0.06799249
198	0x3cf5fe88	0.030028597
199	0x3d018dff	0.03162956
200	0xbcc1428a	-0.023591299
201	0xbdbac5d7	-0.09119766
202	0x3d552382	0.052035816
203	0xbc9d3b72	-0.019193385
204	0x3d145ad2	0.036219425
205	0xbc9c288c	-0.019062303
206	0xbb3c4870	-0.00287297
207	0xbc140ae9	-0.009035804
208	0x3d84edb2	0.06490649
209	0xbc649e19	-0.013953709
210	0xbddd9670	-0.10819709
211	0xbdd3b5c9	-0.10337407
212	0xbce1a1a5	-0.027542898
213	0x3dbf60a7	0.09344607
214	0xbb9e266c	-0.0048263576
215	0xbbba6e89	-0.0056894463
216	0xbbc80bdf	-0.006104931
217	0x3d9885ad	0.07447372
218	0x3b7a7046	0.0038213893
219	0xbd07ba49	-0.03313664
220	0x3d683cc8	0.05669859
221	0xbd073858	-0.033012718
222	0x3bb26984	0.0054447073
223	0xbd23b282	-0.03996516
224	0xbd9e91fc	-0.07742688
225	0xbd079316	-0.033099256
226	0x3da795c0	0.081828594
227	0x3d6f7a95	0.058466513
228	0xbda5b51e	-0.08091186
229	0x3da62ebd	0.08114383
230	0x3d855587	0.06510454
231	0x3d53116a	0.05153028
232	0x3d58ad8a	0.052899875
233	0xbdc93e88	-0.0982638
234	0x3d91f30b	0.07126435
235	0x3d9d241d	0.07672904
236	0xbcbe720a	-0.023247737
237	0xbd134e67	-0.035963442
238	0x3d6cb294	0.057787493
239	0x3d99fa7f	0.075184815
240	0x3d31ca94	0.043406084
241	0x3d841fa0	0.064513445
242	0xbd9bb83a	-0.07603498
243	0xbc0c9ae2	-0.008581849
244	0xbc5076f5	-0.012723674
245	0xbcd58708	-0.026065364
246	0xbd9196ee	-0.07108866
247	0xbdce3043	-0.10067799
248	0xbdc48dee	-0.095973834
249	0xbd36e75a	-0.044654228
250	0x3d9d27e7	0.076736264
251	0xbd54b928	-0.05193439
252	0x3d8c7a13	0.06859221
253	0xbda586e7	-0.08082371
254	0x3c282eb0	0.010265037
255	0x3c7003d6	0.014649352

action_model._continuous_distribution.mu.bias f4 [2]
0	0xbbdc4df3	-0.0067231595
1	0x3d3bb3d4	0.045825794
